<?xml version="1.0" ?>
<net name="face-detection-0106" version="10">
	<layers>
		<layer id="0" name="2276/Output_0/Data__const" type="Const" version="opset1">
			<data element_type="f16" offset="0" shape="1,4" size="8"/>
			<output>
				<port id="1" precision="FP16">
					<dim>1</dim>
					<dim>4</dim>
				</port>
			</output>
		</layer>
		<layer id="1" name="image" type="Parameter" version="opset1">
			<data element_type="f16" shape="1,3,640,640"/>
			<output>
				<port id="0" precision="FP16">
					<dim>1</dim>
					<dim>3</dim>
					<dim>640</dim>
					<dim>640</dim>
				</port>
			</output>
		</layer>
		<layer id="2" name="image/reverse_input_channels95149/Concat95168_const" type="Const" version="opset1">
			<data element_type="f16" offset="8" shape="1,3,1,1" size="6"/>
			<output>
				<port id="1" precision="FP16">
					<dim>1</dim>
					<dim>3</dim>
					<dim>1</dim>
					<dim>1</dim>
				</port>
			</output>
		</layer>
		<layer id="3" name="Mul_/Fused_Mul_" type="Multiply" version="opset1">
			<input>
				<port id="0">
					<dim>1</dim>
					<dim>3</dim>
					<dim>640</dim>
					<dim>640</dim>
				</port>
				<port id="1">
					<dim>1</dim>
					<dim>3</dim>
					<dim>1</dim>
					<dim>1</dim>
				</port>
			</input>
			<output>
				<port id="2" precision="FP16">
					<dim>1</dim>
					<dim>3</dim>
					<dim>640</dim>
					<dim>640</dim>
				</port>
			</output>
		</layer>
		<layer id="4" name="image/reverse_input_channels95151/Concat95176_const" type="Const" version="opset1">
			<data element_type="f16" offset="14" shape="1,3,1,1" size="6"/>
			<output>
				<port id="1" precision="FP16">
					<dim>1</dim>
					<dim>3</dim>
					<dim>1</dim>
					<dim>1</dim>
				</port>
			</output>
		</layer>
		<layer id="5" name="Add_/Fused_Add_" type="Add" version="opset1">
			<input>
				<port id="0">
					<dim>1</dim>
					<dim>3</dim>
					<dim>640</dim>
					<dim>640</dim>
				</port>
				<port id="1">
					<dim>1</dim>
					<dim>3</dim>
					<dim>1</dim>
					<dim>1</dim>
				</port>
			</input>
			<output>
				<port id="2" precision="FP16">
					<dim>1</dim>
					<dim>3</dim>
					<dim>640</dim>
					<dim>640</dim>
				</port>
			</output>
		</layer>
		<layer id="6" name="image/reverse_input_channels/Concat95160_const" type="Const" version="opset1">
			<data element_type="f16" offset="20" shape="64,3,7,7" size="18816"/>
			<output>
				<port id="1" precision="FP16">
					<dim>64</dim>
					<dim>3</dim>
					<dim>7</dim>
					<dim>7</dim>
				</port>
			</output>
		</layer>
		<layer id="7" name="1022" type="Convolution" version="opset1">
			<data dilations="1,1" output_padding="0,0" pads_begin="3,3" pads_end="3,3" strides="2,2"/>
			<input>
				<port id="0">
					<dim>1</dim>
					<dim>3</dim>
					<dim>640</dim>
					<dim>640</dim>
				</port>
				<port id="1">
					<dim>64</dim>
					<dim>3</dim>
					<dim>7</dim>
					<dim>7</dim>
				</port>
			</input>
			<output>
				<port id="2" precision="FP16">
					<dim>1</dim>
					<dim>64</dim>
					<dim>320</dim>
					<dim>320</dim>
				</port>
			</output>
		</layer>
		<layer id="8" name="data_add_5495254957/copy_const" type="Const" version="opset1">
			<data element_type="f16" offset="18836" shape="1,64,1,1" size="128"/>
			<output>
				<port id="1" precision="FP16">
					<dim>1</dim>
					<dim>64</dim>
					<dim>1</dim>
					<dim>1</dim>
				</port>
			</output>
		</layer>
		<layer id="9" name="1023/variance/Fused_Add_" type="Add" version="opset1">
			<input>
				<port id="0">
					<dim>1</dim>
					<dim>64</dim>
					<dim>320</dim>
					<dim>320</dim>
				</port>
				<port id="1">
					<dim>1</dim>
					<dim>64</dim>
					<dim>1</dim>
					<dim>1</dim>
				</port>
			</input>
			<output>
				<port id="2" precision="FP16">
					<dim>1</dim>
					<dim>64</dim>
					<dim>320</dim>
					<dim>320</dim>
				</port>
			</output>
		</layer>
		<layer id="10" name="1024" type="ReLU" version="opset1">
			<input>
				<port id="0">
					<dim>1</dim>
					<dim>64</dim>
					<dim>320</dim>
					<dim>320</dim>
				</port>
			</input>
			<output>
				<port id="1" precision="FP16">
					<dim>1</dim>
					<dim>64</dim>
					<dim>320</dim>
					<dim>320</dim>
				</port>
			</output>
		</layer>
		<layer id="11" name="1025" type="MaxPool" version="opset1">
			<data kernel="3,3" pads_begin="1,1" pads_end="1,1" rounding_type="floor" strides="2,2"/>
			<input>
				<port id="0">
					<dim>1</dim>
					<dim>64</dim>
					<dim>320</dim>
					<dim>320</dim>
				</port>
			</input>
			<output>
				<port id="1" precision="FP16">
					<dim>1</dim>
					<dim>64</dim>
					<dim>160</dim>
					<dim>160</dim>
				</port>
			</output>
		</layer>
		<layer id="12" name="1029/mean/Fused_Mul_5930359305_const" type="Const" version="opset1">
			<data element_type="f16" offset="18964" shape="64,64,1,1" size="8192"/>
			<output>
				<port id="1" precision="FP16">
					<dim>64</dim>
					<dim>64</dim>
					<dim>1</dim>
					<dim>1</dim>
				</port>
			</output>
		</layer>
		<layer id="13" name="1028" type="Convolution" version="opset1">
			<data dilations="1,1" output_padding="0,0" pads_begin="0,0" pads_end="0,0" strides="1,1"/>
			<input>
				<port id="0">
					<dim>1</dim>
					<dim>64</dim>
					<dim>160</dim>
					<dim>160</dim>
				</port>
				<port id="1">
					<dim>64</dim>
					<dim>64</dim>
					<dim>1</dim>
					<dim>1</dim>
				</port>
			</input>
			<output>
				<port id="2" precision="FP16">
					<dim>1</dim>
					<dim>64</dim>
					<dim>160</dim>
					<dim>160</dim>
				</port>
			</output>
		</layer>
		<layer id="14" name="data_add_5496054965/copy_const" type="Const" version="opset1">
			<data element_type="f16" offset="27156" shape="1,64,1,1" size="128"/>
			<output>
				<port id="1" precision="FP16">
					<dim>1</dim>
					<dim>64</dim>
					<dim>1</dim>
					<dim>1</dim>
				</port>
			</output>
		</layer>
		<layer id="15" name="1029/variance/Fused_Add_" type="Add" version="opset1">
			<input>
				<port id="0">
					<dim>1</dim>
					<dim>64</dim>
					<dim>160</dim>
					<dim>160</dim>
				</port>
				<port id="1">
					<dim>1</dim>
					<dim>64</dim>
					<dim>1</dim>
					<dim>1</dim>
				</port>
			</input>
			<output>
				<port id="2" precision="FP16">
					<dim>1</dim>
					<dim>64</dim>
					<dim>160</dim>
					<dim>160</dim>
				</port>
			</output>
		</layer>
		<layer id="16" name="1030" type="ReLU" version="opset1">
			<input>
				<port id="0">
					<dim>1</dim>
					<dim>64</dim>
					<dim>160</dim>
					<dim>160</dim>
				</port>
			</input>
			<output>
				<port id="1" precision="FP16">
					<dim>1</dim>
					<dim>64</dim>
					<dim>160</dim>
					<dim>160</dim>
				</port>
			</output>
		</layer>
		<layer id="17" name="1032/mean/Fused_Mul_5930759309_const" type="Const" version="opset1">
			<data element_type="f16" offset="27284" shape="64,64,3,3" size="73728"/>
			<output>
				<port id="1" precision="FP16">
					<dim>64</dim>
					<dim>64</dim>
					<dim>3</dim>
					<dim>3</dim>
				</port>
			</output>
		</layer>
		<layer id="18" name="1031" type="Convolution" version="opset1">
			<data dilations="1,1" output_padding="0,0" pads_begin="1,1" pads_end="1,1" strides="1,1"/>
			<input>
				<port id="0">
					<dim>1</dim>
					<dim>64</dim>
					<dim>160</dim>
					<dim>160</dim>
				</port>
				<port id="1">
					<dim>64</dim>
					<dim>64</dim>
					<dim>3</dim>
					<dim>3</dim>
				</port>
			</input>
			<output>
				<port id="2" precision="FP16">
					<dim>1</dim>
					<dim>64</dim>
					<dim>160</dim>
					<dim>160</dim>
				</port>
			</output>
		</layer>
		<layer id="19" name="data_add_5496854973/copy_const" type="Const" version="opset1">
			<data element_type="f16" offset="101012" shape="1,64,1,1" size="128"/>
			<output>
				<port id="1" precision="FP16">
					<dim>1</dim>
					<dim>64</dim>
					<dim>1</dim>
					<dim>1</dim>
				</port>
			</output>
		</layer>
		<layer id="20" name="1032/variance/Fused_Add_" type="Add" version="opset1">
			<input>
				<port id="0">
					<dim>1</dim>
					<dim>64</dim>
					<dim>160</dim>
					<dim>160</dim>
				</port>
				<port id="1">
					<dim>1</dim>
					<dim>64</dim>
					<dim>1</dim>
					<dim>1</dim>
				</port>
			</input>
			<output>
				<port id="2" precision="FP16">
					<dim>1</dim>
					<dim>64</dim>
					<dim>160</dim>
					<dim>160</dim>
				</port>
			</output>
		</layer>
		<layer id="21" name="1033" type="ReLU" version="opset1">
			<input>
				<port id="0">
					<dim>1</dim>
					<dim>64</dim>
					<dim>160</dim>
					<dim>160</dim>
				</port>
			</input>
			<output>
				<port id="1" precision="FP16">
					<dim>1</dim>
					<dim>64</dim>
					<dim>160</dim>
					<dim>160</dim>
				</port>
			</output>
		</layer>
		<layer id="22" name="1035/mean/Fused_Mul_5931159313_const" type="Const" version="opset1">
			<data element_type="f16" offset="101140" shape="256,64,1,1" size="32768"/>
			<output>
				<port id="1" precision="FP16">
					<dim>256</dim>
					<dim>64</dim>
					<dim>1</dim>
					<dim>1</dim>
				</port>
			</output>
		</layer>
		<layer id="23" name="1034" type="Convolution" version="opset1">
			<data dilations="1,1" output_padding="0,0" pads_begin="0,0" pads_end="0,0" strides="1,1"/>
			<input>
				<port id="0">
					<dim>1</dim>
					<dim>64</dim>
					<dim>160</dim>
					<dim>160</dim>
				</port>
				<port id="1">
					<dim>256</dim>
					<dim>64</dim>
					<dim>1</dim>
					<dim>1</dim>
				</port>
			</input>
			<output>
				<port id="2" precision="FP16">
					<dim>1</dim>
					<dim>256</dim>
					<dim>160</dim>
					<dim>160</dim>
				</port>
			</output>
		</layer>
		<layer id="24" name="data_add_5497654981/copy_const" type="Const" version="opset1">
			<data element_type="f16" offset="133908" shape="1,256,1,1" size="512"/>
			<output>
				<port id="1" precision="FP16">
					<dim>1</dim>
					<dim>256</dim>
					<dim>1</dim>
					<dim>1</dim>
				</port>
			</output>
		</layer>
		<layer id="25" name="1035/variance/Fused_Add_" type="Add" version="opset1">
			<input>
				<port id="0">
					<dim>1</dim>
					<dim>256</dim>
					<dim>160</dim>
					<dim>160</dim>
				</port>
				<port id="1">
					<dim>1</dim>
					<dim>256</dim>
					<dim>1</dim>
					<dim>1</dim>
				</port>
			</input>
			<output>
				<port id="2" precision="FP16">
					<dim>1</dim>
					<dim>256</dim>
					<dim>160</dim>
					<dim>160</dim>
				</port>
			</output>
		</layer>
		<layer id="26" name="1027/mean/Fused_Mul_5931559317_const" type="Const" version="opset1">
			<data element_type="f16" offset="134420" shape="256,64,1,1" size="32768"/>
			<output>
				<port id="1" precision="FP16">
					<dim>256</dim>
					<dim>64</dim>
					<dim>1</dim>
					<dim>1</dim>
				</port>
			</output>
		</layer>
		<layer id="27" name="1026" type="Convolution" version="opset1">
			<data dilations="1,1" output_padding="0,0" pads_begin="0,0" pads_end="0,0" strides="1,1"/>
			<input>
				<port id="0">
					<dim>1</dim>
					<dim>64</dim>
					<dim>160</dim>
					<dim>160</dim>
				</port>
				<port id="1">
					<dim>256</dim>
					<dim>64</dim>
					<dim>1</dim>
					<dim>1</dim>
				</port>
			</input>
			<output>
				<port id="2" precision="FP16">
					<dim>1</dim>
					<dim>256</dim>
					<dim>160</dim>
					<dim>160</dim>
				</port>
			</output>
		</layer>
		<layer id="28" name="data_add_5498454989/copy_const" type="Const" version="opset1">
			<data element_type="f16" offset="167188" shape="1,256,1,1" size="512"/>
			<output>
				<port id="1" precision="FP16">
					<dim>1</dim>
					<dim>256</dim>
					<dim>1</dim>
					<dim>1</dim>
				</port>
			</output>
		</layer>
		<layer id="29" name="1027/variance/Fused_Add_" type="Add" version="opset1">
			<input>
				<port id="0">
					<dim>1</dim>
					<dim>256</dim>
					<dim>160</dim>
					<dim>160</dim>
				</port>
				<port id="1">
					<dim>1</dim>
					<dim>256</dim>
					<dim>1</dim>
					<dim>1</dim>
				</port>
			</input>
			<output>
				<port id="2" precision="FP16">
					<dim>1</dim>
					<dim>256</dim>
					<dim>160</dim>
					<dim>160</dim>
				</port>
			</output>
		</layer>
		<layer id="30" name="1036" type="Add" version="opset1">
			<input>
				<port id="0">
					<dim>1</dim>
					<dim>256</dim>
					<dim>160</dim>
					<dim>160</dim>
				</port>
				<port id="1">
					<dim>1</dim>
					<dim>256</dim>
					<dim>160</dim>
					<dim>160</dim>
				</port>
			</input>
			<output>
				<port id="2" precision="FP16">
					<dim>1</dim>
					<dim>256</dim>
					<dim>160</dim>
					<dim>160</dim>
				</port>
			</output>
		</layer>
		<layer id="31" name="1037" type="ReLU" version="opset1">
			<input>
				<port id="0">
					<dim>1</dim>
					<dim>256</dim>
					<dim>160</dim>
					<dim>160</dim>
				</port>
			</input>
			<output>
				<port id="1" precision="FP16">
					<dim>1</dim>
					<dim>256</dim>
					<dim>160</dim>
					<dim>160</dim>
				</port>
			</output>
		</layer>
		<layer id="32" name="1039/mean/Fused_Mul_5931959321_const" type="Const" version="opset1">
			<data element_type="f16" offset="167700" shape="64,256,1,1" size="32768"/>
			<output>
				<port id="1" precision="FP16">
					<dim>64</dim>
					<dim>256</dim>
					<dim>1</dim>
					<dim>1</dim>
				</port>
			</output>
		</layer>
		<layer id="33" name="1038" type="Convolution" version="opset1">
			<data dilations="1,1" output_padding="0,0" pads_begin="0,0" pads_end="0,0" strides="1,1"/>
			<input>
				<port id="0">
					<dim>1</dim>
					<dim>256</dim>
					<dim>160</dim>
					<dim>160</dim>
				</port>
				<port id="1">
					<dim>64</dim>
					<dim>256</dim>
					<dim>1</dim>
					<dim>1</dim>
				</port>
			</input>
			<output>
				<port id="2" precision="FP16">
					<dim>1</dim>
					<dim>64</dim>
					<dim>160</dim>
					<dim>160</dim>
				</port>
			</output>
		</layer>
		<layer id="34" name="data_add_5499254997/copy_const" type="Const" version="opset1">
			<data element_type="f16" offset="200468" shape="1,64,1,1" size="128"/>
			<output>
				<port id="1" precision="FP16">
					<dim>1</dim>
					<dim>64</dim>
					<dim>1</dim>
					<dim>1</dim>
				</port>
			</output>
		</layer>
		<layer id="35" name="1039/variance/Fused_Add_" type="Add" version="opset1">
			<input>
				<port id="0">
					<dim>1</dim>
					<dim>64</dim>
					<dim>160</dim>
					<dim>160</dim>
				</port>
				<port id="1">
					<dim>1</dim>
					<dim>64</dim>
					<dim>1</dim>
					<dim>1</dim>
				</port>
			</input>
			<output>
				<port id="2" precision="FP16">
					<dim>1</dim>
					<dim>64</dim>
					<dim>160</dim>
					<dim>160</dim>
				</port>
			</output>
		</layer>
		<layer id="36" name="1040" type="ReLU" version="opset1">
			<input>
				<port id="0">
					<dim>1</dim>
					<dim>64</dim>
					<dim>160</dim>
					<dim>160</dim>
				</port>
			</input>
			<output>
				<port id="1" precision="FP16">
					<dim>1</dim>
					<dim>64</dim>
					<dim>160</dim>
					<dim>160</dim>
				</port>
			</output>
		</layer>
		<layer id="37" name="1042/mean/Fused_Mul_5932359325_const" type="Const" version="opset1">
			<data element_type="f16" offset="200596" shape="64,64,3,3" size="73728"/>
			<output>
				<port id="1" precision="FP16">
					<dim>64</dim>
					<dim>64</dim>
					<dim>3</dim>
					<dim>3</dim>
				</port>
			</output>
		</layer>
		<layer id="38" name="1041" type="Convolution" version="opset1">
			<data dilations="1,1" output_padding="0,0" pads_begin="1,1" pads_end="1,1" strides="1,1"/>
			<input>
				<port id="0">
					<dim>1</dim>
					<dim>64</dim>
					<dim>160</dim>
					<dim>160</dim>
				</port>
				<port id="1">
					<dim>64</dim>
					<dim>64</dim>
					<dim>3</dim>
					<dim>3</dim>
				</port>
			</input>
			<output>
				<port id="2" precision="FP16">
					<dim>1</dim>
					<dim>64</dim>
					<dim>160</dim>
					<dim>160</dim>
				</port>
			</output>
		</layer>
		<layer id="39" name="data_add_5500055005/copy_const" type="Const" version="opset1">
			<data element_type="f16" offset="274324" shape="1,64,1,1" size="128"/>
			<output>
				<port id="1" precision="FP16">
					<dim>1</dim>
					<dim>64</dim>
					<dim>1</dim>
					<dim>1</dim>
				</port>
			</output>
		</layer>
		<layer id="40" name="1042/variance/Fused_Add_" type="Add" version="opset1">
			<input>
				<port id="0">
					<dim>1</dim>
					<dim>64</dim>
					<dim>160</dim>
					<dim>160</dim>
				</port>
				<port id="1">
					<dim>1</dim>
					<dim>64</dim>
					<dim>1</dim>
					<dim>1</dim>
				</port>
			</input>
			<output>
				<port id="2" precision="FP16">
					<dim>1</dim>
					<dim>64</dim>
					<dim>160</dim>
					<dim>160</dim>
				</port>
			</output>
		</layer>
		<layer id="41" name="1043" type="ReLU" version="opset1">
			<input>
				<port id="0">
					<dim>1</dim>
					<dim>64</dim>
					<dim>160</dim>
					<dim>160</dim>
				</port>
			</input>
			<output>
				<port id="1" precision="FP16">
					<dim>1</dim>
					<dim>64</dim>
					<dim>160</dim>
					<dim>160</dim>
				</port>
			</output>
		</layer>
		<layer id="42" name="1045/mean/Fused_Mul_5932759329_const" type="Const" version="opset1">
			<data element_type="f16" offset="274452" shape="256,64,1,1" size="32768"/>
			<output>
				<port id="1" precision="FP16">
					<dim>256</dim>
					<dim>64</dim>
					<dim>1</dim>
					<dim>1</dim>
				</port>
			</output>
		</layer>
		<layer id="43" name="1044" type="Convolution" version="opset1">
			<data dilations="1,1" output_padding="0,0" pads_begin="0,0" pads_end="0,0" strides="1,1"/>
			<input>
				<port id="0">
					<dim>1</dim>
					<dim>64</dim>
					<dim>160</dim>
					<dim>160</dim>
				</port>
				<port id="1">
					<dim>256</dim>
					<dim>64</dim>
					<dim>1</dim>
					<dim>1</dim>
				</port>
			</input>
			<output>
				<port id="2" precision="FP16">
					<dim>1</dim>
					<dim>256</dim>
					<dim>160</dim>
					<dim>160</dim>
				</port>
			</output>
		</layer>
		<layer id="44" name="data_add_5500855013/copy_const" type="Const" version="opset1">
			<data element_type="f16" offset="307220" shape="1,256,1,1" size="512"/>
			<output>
				<port id="1" precision="FP16">
					<dim>1</dim>
					<dim>256</dim>
					<dim>1</dim>
					<dim>1</dim>
				</port>
			</output>
		</layer>
		<layer id="45" name="1045/variance/Fused_Add_" type="Add" version="opset1">
			<input>
				<port id="0">
					<dim>1</dim>
					<dim>256</dim>
					<dim>160</dim>
					<dim>160</dim>
				</port>
				<port id="1">
					<dim>1</dim>
					<dim>256</dim>
					<dim>1</dim>
					<dim>1</dim>
				</port>
			</input>
			<output>
				<port id="2" precision="FP16">
					<dim>1</dim>
					<dim>256</dim>
					<dim>160</dim>
					<dim>160</dim>
				</port>
			</output>
		</layer>
		<layer id="46" name="1046" type="Add" version="opset1">
			<input>
				<port id="0">
					<dim>1</dim>
					<dim>256</dim>
					<dim>160</dim>
					<dim>160</dim>
				</port>
				<port id="1">
					<dim>1</dim>
					<dim>256</dim>
					<dim>160</dim>
					<dim>160</dim>
				</port>
			</input>
			<output>
				<port id="2" precision="FP16">
					<dim>1</dim>
					<dim>256</dim>
					<dim>160</dim>
					<dim>160</dim>
				</port>
			</output>
		</layer>
		<layer id="47" name="1047" type="ReLU" version="opset1">
			<input>
				<port id="0">
					<dim>1</dim>
					<dim>256</dim>
					<dim>160</dim>
					<dim>160</dim>
				</port>
			</input>
			<output>
				<port id="1" precision="FP16">
					<dim>1</dim>
					<dim>256</dim>
					<dim>160</dim>
					<dim>160</dim>
				</port>
			</output>
		</layer>
		<layer id="48" name="1049/mean/Fused_Mul_5933159333_const" type="Const" version="opset1">
			<data element_type="f16" offset="307732" shape="64,256,1,1" size="32768"/>
			<output>
				<port id="1" precision="FP16">
					<dim>64</dim>
					<dim>256</dim>
					<dim>1</dim>
					<dim>1</dim>
				</port>
			</output>
		</layer>
		<layer id="49" name="1048" type="Convolution" version="opset1">
			<data dilations="1,1" output_padding="0,0" pads_begin="0,0" pads_end="0,0" strides="1,1"/>
			<input>
				<port id="0">
					<dim>1</dim>
					<dim>256</dim>
					<dim>160</dim>
					<dim>160</dim>
				</port>
				<port id="1">
					<dim>64</dim>
					<dim>256</dim>
					<dim>1</dim>
					<dim>1</dim>
				</port>
			</input>
			<output>
				<port id="2" precision="FP16">
					<dim>1</dim>
					<dim>64</dim>
					<dim>160</dim>
					<dim>160</dim>
				</port>
			</output>
		</layer>
		<layer id="50" name="data_add_5501655021/copy_const" type="Const" version="opset1">
			<data element_type="f16" offset="340500" shape="1,64,1,1" size="128"/>
			<output>
				<port id="1" precision="FP16">
					<dim>1</dim>
					<dim>64</dim>
					<dim>1</dim>
					<dim>1</dim>
				</port>
			</output>
		</layer>
		<layer id="51" name="1049/variance/Fused_Add_" type="Add" version="opset1">
			<input>
				<port id="0">
					<dim>1</dim>
					<dim>64</dim>
					<dim>160</dim>
					<dim>160</dim>
				</port>
				<port id="1">
					<dim>1</dim>
					<dim>64</dim>
					<dim>1</dim>
					<dim>1</dim>
				</port>
			</input>
			<output>
				<port id="2" precision="FP16">
					<dim>1</dim>
					<dim>64</dim>
					<dim>160</dim>
					<dim>160</dim>
				</port>
			</output>
		</layer>
		<layer id="52" name="1050" type="ReLU" version="opset1">
			<input>
				<port id="0">
					<dim>1</dim>
					<dim>64</dim>
					<dim>160</dim>
					<dim>160</dim>
				</port>
			</input>
			<output>
				<port id="1" precision="FP16">
					<dim>1</dim>
					<dim>64</dim>
					<dim>160</dim>
					<dim>160</dim>
				</port>
			</output>
		</layer>
		<layer id="53" name="1052/mean/Fused_Mul_5933559337_const" type="Const" version="opset1">
			<data element_type="f16" offset="340628" shape="64,64,3,3" size="73728"/>
			<output>
				<port id="1" precision="FP16">
					<dim>64</dim>
					<dim>64</dim>
					<dim>3</dim>
					<dim>3</dim>
				</port>
			</output>
		</layer>
		<layer id="54" name="1051" type="Convolution" version="opset1">
			<data dilations="1,1" output_padding="0,0" pads_begin="1,1" pads_end="1,1" strides="1,1"/>
			<input>
				<port id="0">
					<dim>1</dim>
					<dim>64</dim>
					<dim>160</dim>
					<dim>160</dim>
				</port>
				<port id="1">
					<dim>64</dim>
					<dim>64</dim>
					<dim>3</dim>
					<dim>3</dim>
				</port>
			</input>
			<output>
				<port id="2" precision="FP16">
					<dim>1</dim>
					<dim>64</dim>
					<dim>160</dim>
					<dim>160</dim>
				</port>
			</output>
		</layer>
		<layer id="55" name="data_add_5502455029/copy_const" type="Const" version="opset1">
			<data element_type="f16" offset="414356" shape="1,64,1,1" size="128"/>
			<output>
				<port id="1" precision="FP16">
					<dim>1</dim>
					<dim>64</dim>
					<dim>1</dim>
					<dim>1</dim>
				</port>
			</output>
		</layer>
		<layer id="56" name="1052/variance/Fused_Add_" type="Add" version="opset1">
			<input>
				<port id="0">
					<dim>1</dim>
					<dim>64</dim>
					<dim>160</dim>
					<dim>160</dim>
				</port>
				<port id="1">
					<dim>1</dim>
					<dim>64</dim>
					<dim>1</dim>
					<dim>1</dim>
				</port>
			</input>
			<output>
				<port id="2" precision="FP16">
					<dim>1</dim>
					<dim>64</dim>
					<dim>160</dim>
					<dim>160</dim>
				</port>
			</output>
		</layer>
		<layer id="57" name="1053" type="ReLU" version="opset1">
			<input>
				<port id="0">
					<dim>1</dim>
					<dim>64</dim>
					<dim>160</dim>
					<dim>160</dim>
				</port>
			</input>
			<output>
				<port id="1" precision="FP16">
					<dim>1</dim>
					<dim>64</dim>
					<dim>160</dim>
					<dim>160</dim>
				</port>
			</output>
		</layer>
		<layer id="58" name="1055/mean/Fused_Mul_5933959341_const" type="Const" version="opset1">
			<data element_type="f16" offset="414484" shape="256,64,1,1" size="32768"/>
			<output>
				<port id="1" precision="FP16">
					<dim>256</dim>
					<dim>64</dim>
					<dim>1</dim>
					<dim>1</dim>
				</port>
			</output>
		</layer>
		<layer id="59" name="1054" type="Convolution" version="opset1">
			<data dilations="1,1" output_padding="0,0" pads_begin="0,0" pads_end="0,0" strides="1,1"/>
			<input>
				<port id="0">
					<dim>1</dim>
					<dim>64</dim>
					<dim>160</dim>
					<dim>160</dim>
				</port>
				<port id="1">
					<dim>256</dim>
					<dim>64</dim>
					<dim>1</dim>
					<dim>1</dim>
				</port>
			</input>
			<output>
				<port id="2" precision="FP16">
					<dim>1</dim>
					<dim>256</dim>
					<dim>160</dim>
					<dim>160</dim>
				</port>
			</output>
		</layer>
		<layer id="60" name="data_add_5503255037/copy_const" type="Const" version="opset1">
			<data element_type="f16" offset="447252" shape="1,256,1,1" size="512"/>
			<output>
				<port id="1" precision="FP16">
					<dim>1</dim>
					<dim>256</dim>
					<dim>1</dim>
					<dim>1</dim>
				</port>
			</output>
		</layer>
		<layer id="61" name="1055/variance/Fused_Add_" type="Add" version="opset1">
			<input>
				<port id="0">
					<dim>1</dim>
					<dim>256</dim>
					<dim>160</dim>
					<dim>160</dim>
				</port>
				<port id="1">
					<dim>1</dim>
					<dim>256</dim>
					<dim>1</dim>
					<dim>1</dim>
				</port>
			</input>
			<output>
				<port id="2" precision="FP16">
					<dim>1</dim>
					<dim>256</dim>
					<dim>160</dim>
					<dim>160</dim>
				</port>
			</output>
		</layer>
		<layer id="62" name="1056" type="Add" version="opset1">
			<input>
				<port id="0">
					<dim>1</dim>
					<dim>256</dim>
					<dim>160</dim>
					<dim>160</dim>
				</port>
				<port id="1">
					<dim>1</dim>
					<dim>256</dim>
					<dim>160</dim>
					<dim>160</dim>
				</port>
			</input>
			<output>
				<port id="2" precision="FP16">
					<dim>1</dim>
					<dim>256</dim>
					<dim>160</dim>
					<dim>160</dim>
				</port>
			</output>
		</layer>
		<layer id="63" name="1057" type="ReLU" version="opset1">
			<input>
				<port id="0">
					<dim>1</dim>
					<dim>256</dim>
					<dim>160</dim>
					<dim>160</dim>
				</port>
			</input>
			<output>
				<port id="1" precision="FP16">
					<dim>1</dim>
					<dim>256</dim>
					<dim>160</dim>
					<dim>160</dim>
				</port>
			</output>
		</layer>
		<layer id="64" name="onnx_initializer_node_neck.lateral_convs.0.conv.weight/Output_0/Data__const" type="Const" version="opset1">
			<data element_type="f16" offset="447764" shape="256,256,1,1" size="131072"/>
			<output>
				<port id="1" precision="FP16">
					<dim>256</dim>
					<dim>256</dim>
					<dim>1</dim>
					<dim>1</dim>
				</port>
			</output>
		</layer>
		<layer id="65" name="1534/WithoutBiases" type="Convolution" version="opset1">
			<data dilations="1,1" output_padding="0,0" pads_begin="0,0" pads_end="0,0" strides="1,1"/>
			<input>
				<port id="0">
					<dim>1</dim>
					<dim>256</dim>
					<dim>160</dim>
					<dim>160</dim>
				</port>
				<port id="1">
					<dim>256</dim>
					<dim>256</dim>
					<dim>1</dim>
					<dim>1</dim>
				</port>
			</input>
			<output>
				<port id="2" precision="FP16">
					<dim>1</dim>
					<dim>256</dim>
					<dim>160</dim>
					<dim>160</dim>
				</port>
			</output>
		</layer>
		<layer id="66" name="1534/Dims35002/copy_const" type="Const" version="opset1">
			<data element_type="f16" offset="578836" shape="1,256,1,1" size="512"/>
			<output>
				<port id="1" precision="FP16">
					<dim>1</dim>
					<dim>256</dim>
					<dim>1</dim>
					<dim>1</dim>
				</port>
			</output>
		</layer>
		<layer id="67" name="1534" type="Add" version="opset1">
			<input>
				<port id="0">
					<dim>1</dim>
					<dim>256</dim>
					<dim>160</dim>
					<dim>160</dim>
				</port>
				<port id="1">
					<dim>1</dim>
					<dim>256</dim>
					<dim>1</dim>
					<dim>1</dim>
				</port>
			</input>
			<output>
				<port id="2" precision="FP16">
					<dim>1</dim>
					<dim>256</dim>
					<dim>160</dim>
					<dim>160</dim>
				</port>
			</output>
		</layer>
		<layer id="68" name="1061/mean/Fused_Mul_5934359345_const" type="Const" version="opset1">
			<data element_type="f16" offset="579348" shape="128,256,1,1" size="65536"/>
			<output>
				<port id="1" precision="FP16">
					<dim>128</dim>
					<dim>256</dim>
					<dim>1</dim>
					<dim>1</dim>
				</port>
			</output>
		</layer>
		<layer id="69" name="1060" type="Convolution" version="opset1">
			<data dilations="1,1" output_padding="0,0" pads_begin="0,0" pads_end="0,0" strides="1,1"/>
			<input>
				<port id="0">
					<dim>1</dim>
					<dim>256</dim>
					<dim>160</dim>
					<dim>160</dim>
				</port>
				<port id="1">
					<dim>128</dim>
					<dim>256</dim>
					<dim>1</dim>
					<dim>1</dim>
				</port>
			</input>
			<output>
				<port id="2" precision="FP16">
					<dim>1</dim>
					<dim>128</dim>
					<dim>160</dim>
					<dim>160</dim>
				</port>
			</output>
		</layer>
		<layer id="70" name="data_add_5504055045/copy_const" type="Const" version="opset1">
			<data element_type="f16" offset="644884" shape="1,128,1,1" size="256"/>
			<output>
				<port id="1" precision="FP16">
					<dim>1</dim>
					<dim>128</dim>
					<dim>1</dim>
					<dim>1</dim>
				</port>
			</output>
		</layer>
		<layer id="71" name="1061/variance/Fused_Add_" type="Add" version="opset1">
			<input>
				<port id="0">
					<dim>1</dim>
					<dim>128</dim>
					<dim>160</dim>
					<dim>160</dim>
				</port>
				<port id="1">
					<dim>1</dim>
					<dim>128</dim>
					<dim>1</dim>
					<dim>1</dim>
				</port>
			</input>
			<output>
				<port id="2" precision="FP16">
					<dim>1</dim>
					<dim>128</dim>
					<dim>160</dim>
					<dim>160</dim>
				</port>
			</output>
		</layer>
		<layer id="72" name="1062" type="ReLU" version="opset1">
			<input>
				<port id="0">
					<dim>1</dim>
					<dim>128</dim>
					<dim>160</dim>
					<dim>160</dim>
				</port>
			</input>
			<output>
				<port id="1" precision="FP16">
					<dim>1</dim>
					<dim>128</dim>
					<dim>160</dim>
					<dim>160</dim>
				</port>
			</output>
		</layer>
		<layer id="73" name="1064/mean/Fused_Mul_5934759349_const" type="Const" version="opset1">
			<data element_type="f16" offset="645140" shape="128,128,3,3" size="294912"/>
			<output>
				<port id="1" precision="FP16">
					<dim>128</dim>
					<dim>128</dim>
					<dim>3</dim>
					<dim>3</dim>
				</port>
			</output>
		</layer>
		<layer id="74" name="1063" type="Convolution" version="opset1">
			<data dilations="1,1" output_padding="0,0" pads_begin="1,1" pads_end="1,1" strides="2,2"/>
			<input>
				<port id="0">
					<dim>1</dim>
					<dim>128</dim>
					<dim>160</dim>
					<dim>160</dim>
				</port>
				<port id="1">
					<dim>128</dim>
					<dim>128</dim>
					<dim>3</dim>
					<dim>3</dim>
				</port>
			</input>
			<output>
				<port id="2" precision="FP16">
					<dim>1</dim>
					<dim>128</dim>
					<dim>80</dim>
					<dim>80</dim>
				</port>
			</output>
		</layer>
		<layer id="75" name="data_add_5504855053/copy_const" type="Const" version="opset1">
			<data element_type="f16" offset="940052" shape="1,128,1,1" size="256"/>
			<output>
				<port id="1" precision="FP16">
					<dim>1</dim>
					<dim>128</dim>
					<dim>1</dim>
					<dim>1</dim>
				</port>
			</output>
		</layer>
		<layer id="76" name="1064/variance/Fused_Add_" type="Add" version="opset1">
			<input>
				<port id="0">
					<dim>1</dim>
					<dim>128</dim>
					<dim>80</dim>
					<dim>80</dim>
				</port>
				<port id="1">
					<dim>1</dim>
					<dim>128</dim>
					<dim>1</dim>
					<dim>1</dim>
				</port>
			</input>
			<output>
				<port id="2" precision="FP16">
					<dim>1</dim>
					<dim>128</dim>
					<dim>80</dim>
					<dim>80</dim>
				</port>
			</output>
		</layer>
		<layer id="77" name="1065" type="ReLU" version="opset1">
			<input>
				<port id="0">
					<dim>1</dim>
					<dim>128</dim>
					<dim>80</dim>
					<dim>80</dim>
				</port>
			</input>
			<output>
				<port id="1" precision="FP16">
					<dim>1</dim>
					<dim>128</dim>
					<dim>80</dim>
					<dim>80</dim>
				</port>
			</output>
		</layer>
		<layer id="78" name="1067/mean/Fused_Mul_5935159353_const" type="Const" version="opset1">
			<data element_type="f16" offset="940308" shape="512,128,1,1" size="131072"/>
			<output>
				<port id="1" precision="FP16">
					<dim>512</dim>
					<dim>128</dim>
					<dim>1</dim>
					<dim>1</dim>
				</port>
			</output>
		</layer>
		<layer id="79" name="1066" type="Convolution" version="opset1">
			<data dilations="1,1" output_padding="0,0" pads_begin="0,0" pads_end="0,0" strides="1,1"/>
			<input>
				<port id="0">
					<dim>1</dim>
					<dim>128</dim>
					<dim>80</dim>
					<dim>80</dim>
				</port>
				<port id="1">
					<dim>512</dim>
					<dim>128</dim>
					<dim>1</dim>
					<dim>1</dim>
				</port>
			</input>
			<output>
				<port id="2" precision="FP16">
					<dim>1</dim>
					<dim>512</dim>
					<dim>80</dim>
					<dim>80</dim>
				</port>
			</output>
		</layer>
		<layer id="80" name="data_add_5505655061/copy_const" type="Const" version="opset1">
			<data element_type="f16" offset="1071380" shape="1,512,1,1" size="1024"/>
			<output>
				<port id="1" precision="FP16">
					<dim>1</dim>
					<dim>512</dim>
					<dim>1</dim>
					<dim>1</dim>
				</port>
			</output>
		</layer>
		<layer id="81" name="1067/variance/Fused_Add_" type="Add" version="opset1">
			<input>
				<port id="0">
					<dim>1</dim>
					<dim>512</dim>
					<dim>80</dim>
					<dim>80</dim>
				</port>
				<port id="1">
					<dim>1</dim>
					<dim>512</dim>
					<dim>1</dim>
					<dim>1</dim>
				</port>
			</input>
			<output>
				<port id="2" precision="FP16">
					<dim>1</dim>
					<dim>512</dim>
					<dim>80</dim>
					<dim>80</dim>
				</port>
			</output>
		</layer>
		<layer id="82" name="1059/mean/Fused_Mul_5935559357_const" type="Const" version="opset1">
			<data element_type="f16" offset="1072404" shape="512,256,1,1" size="262144"/>
			<output>
				<port id="1" precision="FP16">
					<dim>512</dim>
					<dim>256</dim>
					<dim>1</dim>
					<dim>1</dim>
				</port>
			</output>
		</layer>
		<layer id="83" name="1058" type="Convolution" version="opset1">
			<data dilations="1,1" output_padding="0,0" pads_begin="0,0" pads_end="0,0" strides="2,2"/>
			<input>
				<port id="0">
					<dim>1</dim>
					<dim>256</dim>
					<dim>160</dim>
					<dim>160</dim>
				</port>
				<port id="1">
					<dim>512</dim>
					<dim>256</dim>
					<dim>1</dim>
					<dim>1</dim>
				</port>
			</input>
			<output>
				<port id="2" precision="FP16">
					<dim>1</dim>
					<dim>512</dim>
					<dim>80</dim>
					<dim>80</dim>
				</port>
			</output>
		</layer>
		<layer id="84" name="data_add_5506455069/copy_const" type="Const" version="opset1">
			<data element_type="f16" offset="1334548" shape="1,512,1,1" size="1024"/>
			<output>
				<port id="1" precision="FP16">
					<dim>1</dim>
					<dim>512</dim>
					<dim>1</dim>
					<dim>1</dim>
				</port>
			</output>
		</layer>
		<layer id="85" name="1059/variance/Fused_Add_" type="Add" version="opset1">
			<input>
				<port id="0">
					<dim>1</dim>
					<dim>512</dim>
					<dim>80</dim>
					<dim>80</dim>
				</port>
				<port id="1">
					<dim>1</dim>
					<dim>512</dim>
					<dim>1</dim>
					<dim>1</dim>
				</port>
			</input>
			<output>
				<port id="2" precision="FP16">
					<dim>1</dim>
					<dim>512</dim>
					<dim>80</dim>
					<dim>80</dim>
				</port>
			</output>
		</layer>
		<layer id="86" name="1068" type="Add" version="opset1">
			<input>
				<port id="0">
					<dim>1</dim>
					<dim>512</dim>
					<dim>80</dim>
					<dim>80</dim>
				</port>
				<port id="1">
					<dim>1</dim>
					<dim>512</dim>
					<dim>80</dim>
					<dim>80</dim>
				</port>
			</input>
			<output>
				<port id="2" precision="FP16">
					<dim>1</dim>
					<dim>512</dim>
					<dim>80</dim>
					<dim>80</dim>
				</port>
			</output>
		</layer>
		<layer id="87" name="1069" type="ReLU" version="opset1">
			<input>
				<port id="0">
					<dim>1</dim>
					<dim>512</dim>
					<dim>80</dim>
					<dim>80</dim>
				</port>
			</input>
			<output>
				<port id="1" precision="FP16">
					<dim>1</dim>
					<dim>512</dim>
					<dim>80</dim>
					<dim>80</dim>
				</port>
			</output>
		</layer>
		<layer id="88" name="1071/mean/Fused_Mul_5935959361_const" type="Const" version="opset1">
			<data element_type="f16" offset="1335572" shape="128,512,1,1" size="131072"/>
			<output>
				<port id="1" precision="FP16">
					<dim>128</dim>
					<dim>512</dim>
					<dim>1</dim>
					<dim>1</dim>
				</port>
			</output>
		</layer>
		<layer id="89" name="1070" type="Convolution" version="opset1">
			<data dilations="1,1" output_padding="0,0" pads_begin="0,0" pads_end="0,0" strides="1,1"/>
			<input>
				<port id="0">
					<dim>1</dim>
					<dim>512</dim>
					<dim>80</dim>
					<dim>80</dim>
				</port>
				<port id="1">
					<dim>128</dim>
					<dim>512</dim>
					<dim>1</dim>
					<dim>1</dim>
				</port>
			</input>
			<output>
				<port id="2" precision="FP16">
					<dim>1</dim>
					<dim>128</dim>
					<dim>80</dim>
					<dim>80</dim>
				</port>
			</output>
		</layer>
		<layer id="90" name="data_add_5507255077/copy_const" type="Const" version="opset1">
			<data element_type="f16" offset="1466644" shape="1,128,1,1" size="256"/>
			<output>
				<port id="1" precision="FP16">
					<dim>1</dim>
					<dim>128</dim>
					<dim>1</dim>
					<dim>1</dim>
				</port>
			</output>
		</layer>
		<layer id="91" name="1071/variance/Fused_Add_" type="Add" version="opset1">
			<input>
				<port id="0">
					<dim>1</dim>
					<dim>128</dim>
					<dim>80</dim>
					<dim>80</dim>
				</port>
				<port id="1">
					<dim>1</dim>
					<dim>128</dim>
					<dim>1</dim>
					<dim>1</dim>
				</port>
			</input>
			<output>
				<port id="2" precision="FP16">
					<dim>1</dim>
					<dim>128</dim>
					<dim>80</dim>
					<dim>80</dim>
				</port>
			</output>
		</layer>
		<layer id="92" name="1072" type="ReLU" version="opset1">
			<input>
				<port id="0">
					<dim>1</dim>
					<dim>128</dim>
					<dim>80</dim>
					<dim>80</dim>
				</port>
			</input>
			<output>
				<port id="1" precision="FP16">
					<dim>1</dim>
					<dim>128</dim>
					<dim>80</dim>
					<dim>80</dim>
				</port>
			</output>
		</layer>
		<layer id="93" name="1074/mean/Fused_Mul_5936359365_const" type="Const" version="opset1">
			<data element_type="f16" offset="1466900" shape="128,128,3,3" size="294912"/>
			<output>
				<port id="1" precision="FP16">
					<dim>128</dim>
					<dim>128</dim>
					<dim>3</dim>
					<dim>3</dim>
				</port>
			</output>
		</layer>
		<layer id="94" name="1073" type="Convolution" version="opset1">
			<data dilations="1,1" output_padding="0,0" pads_begin="1,1" pads_end="1,1" strides="1,1"/>
			<input>
				<port id="0">
					<dim>1</dim>
					<dim>128</dim>
					<dim>80</dim>
					<dim>80</dim>
				</port>
				<port id="1">
					<dim>128</dim>
					<dim>128</dim>
					<dim>3</dim>
					<dim>3</dim>
				</port>
			</input>
			<output>
				<port id="2" precision="FP16">
					<dim>1</dim>
					<dim>128</dim>
					<dim>80</dim>
					<dim>80</dim>
				</port>
			</output>
		</layer>
		<layer id="95" name="data_add_5508055085/copy_const" type="Const" version="opset1">
			<data element_type="f16" offset="1761812" shape="1,128,1,1" size="256"/>
			<output>
				<port id="1" precision="FP16">
					<dim>1</dim>
					<dim>128</dim>
					<dim>1</dim>
					<dim>1</dim>
				</port>
			</output>
		</layer>
		<layer id="96" name="1074/variance/Fused_Add_" type="Add" version="opset1">
			<input>
				<port id="0">
					<dim>1</dim>
					<dim>128</dim>
					<dim>80</dim>
					<dim>80</dim>
				</port>
				<port id="1">
					<dim>1</dim>
					<dim>128</dim>
					<dim>1</dim>
					<dim>1</dim>
				</port>
			</input>
			<output>
				<port id="2" precision="FP16">
					<dim>1</dim>
					<dim>128</dim>
					<dim>80</dim>
					<dim>80</dim>
				</port>
			</output>
		</layer>
		<layer id="97" name="1075" type="ReLU" version="opset1">
			<input>
				<port id="0">
					<dim>1</dim>
					<dim>128</dim>
					<dim>80</dim>
					<dim>80</dim>
				</port>
			</input>
			<output>
				<port id="1" precision="FP16">
					<dim>1</dim>
					<dim>128</dim>
					<dim>80</dim>
					<dim>80</dim>
				</port>
			</output>
		</layer>
		<layer id="98" name="1077/mean/Fused_Mul_5936759369_const" type="Const" version="opset1">
			<data element_type="f16" offset="1762068" shape="512,128,1,1" size="131072"/>
			<output>
				<port id="1" precision="FP16">
					<dim>512</dim>
					<dim>128</dim>
					<dim>1</dim>
					<dim>1</dim>
				</port>
			</output>
		</layer>
		<layer id="99" name="1076" type="Convolution" version="opset1">
			<data dilations="1,1" output_padding="0,0" pads_begin="0,0" pads_end="0,0" strides="1,1"/>
			<input>
				<port id="0">
					<dim>1</dim>
					<dim>128</dim>
					<dim>80</dim>
					<dim>80</dim>
				</port>
				<port id="1">
					<dim>512</dim>
					<dim>128</dim>
					<dim>1</dim>
					<dim>1</dim>
				</port>
			</input>
			<output>
				<port id="2" precision="FP16">
					<dim>1</dim>
					<dim>512</dim>
					<dim>80</dim>
					<dim>80</dim>
				</port>
			</output>
		</layer>
		<layer id="100" name="data_add_5508855093/copy_const" type="Const" version="opset1">
			<data element_type="f16" offset="1893140" shape="1,512,1,1" size="1024"/>
			<output>
				<port id="1" precision="FP16">
					<dim>1</dim>
					<dim>512</dim>
					<dim>1</dim>
					<dim>1</dim>
				</port>
			</output>
		</layer>
		<layer id="101" name="1077/variance/Fused_Add_" type="Add" version="opset1">
			<input>
				<port id="0">
					<dim>1</dim>
					<dim>512</dim>
					<dim>80</dim>
					<dim>80</dim>
				</port>
				<port id="1">
					<dim>1</dim>
					<dim>512</dim>
					<dim>1</dim>
					<dim>1</dim>
				</port>
			</input>
			<output>
				<port id="2" precision="FP16">
					<dim>1</dim>
					<dim>512</dim>
					<dim>80</dim>
					<dim>80</dim>
				</port>
			</output>
		</layer>
		<layer id="102" name="1078" type="Add" version="opset1">
			<input>
				<port id="0">
					<dim>1</dim>
					<dim>512</dim>
					<dim>80</dim>
					<dim>80</dim>
				</port>
				<port id="1">
					<dim>1</dim>
					<dim>512</dim>
					<dim>80</dim>
					<dim>80</dim>
				</port>
			</input>
			<output>
				<port id="2" precision="FP16">
					<dim>1</dim>
					<dim>512</dim>
					<dim>80</dim>
					<dim>80</dim>
				</port>
			</output>
		</layer>
		<layer id="103" name="1079" type="ReLU" version="opset1">
			<input>
				<port id="0">
					<dim>1</dim>
					<dim>512</dim>
					<dim>80</dim>
					<dim>80</dim>
				</port>
			</input>
			<output>
				<port id="1" precision="FP16">
					<dim>1</dim>
					<dim>512</dim>
					<dim>80</dim>
					<dim>80</dim>
				</port>
			</output>
		</layer>
		<layer id="104" name="1081/mean/Fused_Mul_5937159373_const" type="Const" version="opset1">
			<data element_type="f16" offset="1894164" shape="128,512,1,1" size="131072"/>
			<output>
				<port id="1" precision="FP16">
					<dim>128</dim>
					<dim>512</dim>
					<dim>1</dim>
					<dim>1</dim>
				</port>
			</output>
		</layer>
		<layer id="105" name="1080" type="Convolution" version="opset1">
			<data dilations="1,1" output_padding="0,0" pads_begin="0,0" pads_end="0,0" strides="1,1"/>
			<input>
				<port id="0">
					<dim>1</dim>
					<dim>512</dim>
					<dim>80</dim>
					<dim>80</dim>
				</port>
				<port id="1">
					<dim>128</dim>
					<dim>512</dim>
					<dim>1</dim>
					<dim>1</dim>
				</port>
			</input>
			<output>
				<port id="2" precision="FP16">
					<dim>1</dim>
					<dim>128</dim>
					<dim>80</dim>
					<dim>80</dim>
				</port>
			</output>
		</layer>
		<layer id="106" name="data_add_5509655101/copy_const" type="Const" version="opset1">
			<data element_type="f16" offset="2025236" shape="1,128,1,1" size="256"/>
			<output>
				<port id="1" precision="FP16">
					<dim>1</dim>
					<dim>128</dim>
					<dim>1</dim>
					<dim>1</dim>
				</port>
			</output>
		</layer>
		<layer id="107" name="1081/variance/Fused_Add_" type="Add" version="opset1">
			<input>
				<port id="0">
					<dim>1</dim>
					<dim>128</dim>
					<dim>80</dim>
					<dim>80</dim>
				</port>
				<port id="1">
					<dim>1</dim>
					<dim>128</dim>
					<dim>1</dim>
					<dim>1</dim>
				</port>
			</input>
			<output>
				<port id="2" precision="FP16">
					<dim>1</dim>
					<dim>128</dim>
					<dim>80</dim>
					<dim>80</dim>
				</port>
			</output>
		</layer>
		<layer id="108" name="1082" type="ReLU" version="opset1">
			<input>
				<port id="0">
					<dim>1</dim>
					<dim>128</dim>
					<dim>80</dim>
					<dim>80</dim>
				</port>
			</input>
			<output>
				<port id="1" precision="FP16">
					<dim>1</dim>
					<dim>128</dim>
					<dim>80</dim>
					<dim>80</dim>
				</port>
			</output>
		</layer>
		<layer id="109" name="1084/mean/Fused_Mul_5937559377_const" type="Const" version="opset1">
			<data element_type="f16" offset="2025492" shape="128,128,3,3" size="294912"/>
			<output>
				<port id="1" precision="FP16">
					<dim>128</dim>
					<dim>128</dim>
					<dim>3</dim>
					<dim>3</dim>
				</port>
			</output>
		</layer>
		<layer id="110" name="1083" type="Convolution" version="opset1">
			<data dilations="1,1" output_padding="0,0" pads_begin="1,1" pads_end="1,1" strides="1,1"/>
			<input>
				<port id="0">
					<dim>1</dim>
					<dim>128</dim>
					<dim>80</dim>
					<dim>80</dim>
				</port>
				<port id="1">
					<dim>128</dim>
					<dim>128</dim>
					<dim>3</dim>
					<dim>3</dim>
				</port>
			</input>
			<output>
				<port id="2" precision="FP16">
					<dim>1</dim>
					<dim>128</dim>
					<dim>80</dim>
					<dim>80</dim>
				</port>
			</output>
		</layer>
		<layer id="111" name="data_add_5510455109/copy_const" type="Const" version="opset1">
			<data element_type="f16" offset="2320404" shape="1,128,1,1" size="256"/>
			<output>
				<port id="1" precision="FP16">
					<dim>1</dim>
					<dim>128</dim>
					<dim>1</dim>
					<dim>1</dim>
				</port>
			</output>
		</layer>
		<layer id="112" name="1084/variance/Fused_Add_" type="Add" version="opset1">
			<input>
				<port id="0">
					<dim>1</dim>
					<dim>128</dim>
					<dim>80</dim>
					<dim>80</dim>
				</port>
				<port id="1">
					<dim>1</dim>
					<dim>128</dim>
					<dim>1</dim>
					<dim>1</dim>
				</port>
			</input>
			<output>
				<port id="2" precision="FP16">
					<dim>1</dim>
					<dim>128</dim>
					<dim>80</dim>
					<dim>80</dim>
				</port>
			</output>
		</layer>
		<layer id="113" name="1085" type="ReLU" version="opset1">
			<input>
				<port id="0">
					<dim>1</dim>
					<dim>128</dim>
					<dim>80</dim>
					<dim>80</dim>
				</port>
			</input>
			<output>
				<port id="1" precision="FP16">
					<dim>1</dim>
					<dim>128</dim>
					<dim>80</dim>
					<dim>80</dim>
				</port>
			</output>
		</layer>
		<layer id="114" name="1087/mean/Fused_Mul_5937959381_const" type="Const" version="opset1">
			<data element_type="f16" offset="2320660" shape="512,128,1,1" size="131072"/>
			<output>
				<port id="1" precision="FP16">
					<dim>512</dim>
					<dim>128</dim>
					<dim>1</dim>
					<dim>1</dim>
				</port>
			</output>
		</layer>
		<layer id="115" name="1086" type="Convolution" version="opset1">
			<data dilations="1,1" output_padding="0,0" pads_begin="0,0" pads_end="0,0" strides="1,1"/>
			<input>
				<port id="0">
					<dim>1</dim>
					<dim>128</dim>
					<dim>80</dim>
					<dim>80</dim>
				</port>
				<port id="1">
					<dim>512</dim>
					<dim>128</dim>
					<dim>1</dim>
					<dim>1</dim>
				</port>
			</input>
			<output>
				<port id="2" precision="FP16">
					<dim>1</dim>
					<dim>512</dim>
					<dim>80</dim>
					<dim>80</dim>
				</port>
			</output>
		</layer>
		<layer id="116" name="data_add_5511255117/copy_const" type="Const" version="opset1">
			<data element_type="f16" offset="2451732" shape="1,512,1,1" size="1024"/>
			<output>
				<port id="1" precision="FP16">
					<dim>1</dim>
					<dim>512</dim>
					<dim>1</dim>
					<dim>1</dim>
				</port>
			</output>
		</layer>
		<layer id="117" name="1087/variance/Fused_Add_" type="Add" version="opset1">
			<input>
				<port id="0">
					<dim>1</dim>
					<dim>512</dim>
					<dim>80</dim>
					<dim>80</dim>
				</port>
				<port id="1">
					<dim>1</dim>
					<dim>512</dim>
					<dim>1</dim>
					<dim>1</dim>
				</port>
			</input>
			<output>
				<port id="2" precision="FP16">
					<dim>1</dim>
					<dim>512</dim>
					<dim>80</dim>
					<dim>80</dim>
				</port>
			</output>
		</layer>
		<layer id="118" name="1088" type="Add" version="opset1">
			<input>
				<port id="0">
					<dim>1</dim>
					<dim>512</dim>
					<dim>80</dim>
					<dim>80</dim>
				</port>
				<port id="1">
					<dim>1</dim>
					<dim>512</dim>
					<dim>80</dim>
					<dim>80</dim>
				</port>
			</input>
			<output>
				<port id="2" precision="FP16">
					<dim>1</dim>
					<dim>512</dim>
					<dim>80</dim>
					<dim>80</dim>
				</port>
			</output>
		</layer>
		<layer id="119" name="1089" type="ReLU" version="opset1">
			<input>
				<port id="0">
					<dim>1</dim>
					<dim>512</dim>
					<dim>80</dim>
					<dim>80</dim>
				</port>
			</input>
			<output>
				<port id="1" precision="FP16">
					<dim>1</dim>
					<dim>512</dim>
					<dim>80</dim>
					<dim>80</dim>
				</port>
			</output>
		</layer>
		<layer id="120" name="1091/mean/Fused_Mul_5938359385_const" type="Const" version="opset1">
			<data element_type="f16" offset="2452756" shape="128,512,1,1" size="131072"/>
			<output>
				<port id="1" precision="FP16">
					<dim>128</dim>
					<dim>512</dim>
					<dim>1</dim>
					<dim>1</dim>
				</port>
			</output>
		</layer>
		<layer id="121" name="1090" type="Convolution" version="opset1">
			<data dilations="1,1" output_padding="0,0" pads_begin="0,0" pads_end="0,0" strides="1,1"/>
			<input>
				<port id="0">
					<dim>1</dim>
					<dim>512</dim>
					<dim>80</dim>
					<dim>80</dim>
				</port>
				<port id="1">
					<dim>128</dim>
					<dim>512</dim>
					<dim>1</dim>
					<dim>1</dim>
				</port>
			</input>
			<output>
				<port id="2" precision="FP16">
					<dim>1</dim>
					<dim>128</dim>
					<dim>80</dim>
					<dim>80</dim>
				</port>
			</output>
		</layer>
		<layer id="122" name="data_add_5512055125/copy_const" type="Const" version="opset1">
			<data element_type="f16" offset="2583828" shape="1,128,1,1" size="256"/>
			<output>
				<port id="1" precision="FP16">
					<dim>1</dim>
					<dim>128</dim>
					<dim>1</dim>
					<dim>1</dim>
				</port>
			</output>
		</layer>
		<layer id="123" name="1091/variance/Fused_Add_" type="Add" version="opset1">
			<input>
				<port id="0">
					<dim>1</dim>
					<dim>128</dim>
					<dim>80</dim>
					<dim>80</dim>
				</port>
				<port id="1">
					<dim>1</dim>
					<dim>128</dim>
					<dim>1</dim>
					<dim>1</dim>
				</port>
			</input>
			<output>
				<port id="2" precision="FP16">
					<dim>1</dim>
					<dim>128</dim>
					<dim>80</dim>
					<dim>80</dim>
				</port>
			</output>
		</layer>
		<layer id="124" name="1092" type="ReLU" version="opset1">
			<input>
				<port id="0">
					<dim>1</dim>
					<dim>128</dim>
					<dim>80</dim>
					<dim>80</dim>
				</port>
			</input>
			<output>
				<port id="1" precision="FP16">
					<dim>1</dim>
					<dim>128</dim>
					<dim>80</dim>
					<dim>80</dim>
				</port>
			</output>
		</layer>
		<layer id="125" name="1094/mean/Fused_Mul_5938759389_const" type="Const" version="opset1">
			<data element_type="f16" offset="2584084" shape="128,128,3,3" size="294912"/>
			<output>
				<port id="1" precision="FP16">
					<dim>128</dim>
					<dim>128</dim>
					<dim>3</dim>
					<dim>3</dim>
				</port>
			</output>
		</layer>
		<layer id="126" name="1093" type="Convolution" version="opset1">
			<data dilations="1,1" output_padding="0,0" pads_begin="1,1" pads_end="1,1" strides="1,1"/>
			<input>
				<port id="0">
					<dim>1</dim>
					<dim>128</dim>
					<dim>80</dim>
					<dim>80</dim>
				</port>
				<port id="1">
					<dim>128</dim>
					<dim>128</dim>
					<dim>3</dim>
					<dim>3</dim>
				</port>
			</input>
			<output>
				<port id="2" precision="FP16">
					<dim>1</dim>
					<dim>128</dim>
					<dim>80</dim>
					<dim>80</dim>
				</port>
			</output>
		</layer>
		<layer id="127" name="data_add_5512855133/copy_const" type="Const" version="opset1">
			<data element_type="f16" offset="2878996" shape="1,128,1,1" size="256"/>
			<output>
				<port id="1" precision="FP16">
					<dim>1</dim>
					<dim>128</dim>
					<dim>1</dim>
					<dim>1</dim>
				</port>
			</output>
		</layer>
		<layer id="128" name="1094/variance/Fused_Add_" type="Add" version="opset1">
			<input>
				<port id="0">
					<dim>1</dim>
					<dim>128</dim>
					<dim>80</dim>
					<dim>80</dim>
				</port>
				<port id="1">
					<dim>1</dim>
					<dim>128</dim>
					<dim>1</dim>
					<dim>1</dim>
				</port>
			</input>
			<output>
				<port id="2" precision="FP16">
					<dim>1</dim>
					<dim>128</dim>
					<dim>80</dim>
					<dim>80</dim>
				</port>
			</output>
		</layer>
		<layer id="129" name="1095" type="ReLU" version="opset1">
			<input>
				<port id="0">
					<dim>1</dim>
					<dim>128</dim>
					<dim>80</dim>
					<dim>80</dim>
				</port>
			</input>
			<output>
				<port id="1" precision="FP16">
					<dim>1</dim>
					<dim>128</dim>
					<dim>80</dim>
					<dim>80</dim>
				</port>
			</output>
		</layer>
		<layer id="130" name="1097/mean/Fused_Mul_5939159393_const" type="Const" version="opset1">
			<data element_type="f16" offset="2879252" shape="512,128,1,1" size="131072"/>
			<output>
				<port id="1" precision="FP16">
					<dim>512</dim>
					<dim>128</dim>
					<dim>1</dim>
					<dim>1</dim>
				</port>
			</output>
		</layer>
		<layer id="131" name="1096" type="Convolution" version="opset1">
			<data dilations="1,1" output_padding="0,0" pads_begin="0,0" pads_end="0,0" strides="1,1"/>
			<input>
				<port id="0">
					<dim>1</dim>
					<dim>128</dim>
					<dim>80</dim>
					<dim>80</dim>
				</port>
				<port id="1">
					<dim>512</dim>
					<dim>128</dim>
					<dim>1</dim>
					<dim>1</dim>
				</port>
			</input>
			<output>
				<port id="2" precision="FP16">
					<dim>1</dim>
					<dim>512</dim>
					<dim>80</dim>
					<dim>80</dim>
				</port>
			</output>
		</layer>
		<layer id="132" name="data_add_5513655141/copy_const" type="Const" version="opset1">
			<data element_type="f16" offset="3010324" shape="1,512,1,1" size="1024"/>
			<output>
				<port id="1" precision="FP16">
					<dim>1</dim>
					<dim>512</dim>
					<dim>1</dim>
					<dim>1</dim>
				</port>
			</output>
		</layer>
		<layer id="133" name="1097/variance/Fused_Add_" type="Add" version="opset1">
			<input>
				<port id="0">
					<dim>1</dim>
					<dim>512</dim>
					<dim>80</dim>
					<dim>80</dim>
				</port>
				<port id="1">
					<dim>1</dim>
					<dim>512</dim>
					<dim>1</dim>
					<dim>1</dim>
				</port>
			</input>
			<output>
				<port id="2" precision="FP16">
					<dim>1</dim>
					<dim>512</dim>
					<dim>80</dim>
					<dim>80</dim>
				</port>
			</output>
		</layer>
		<layer id="134" name="1098" type="Add" version="opset1">
			<input>
				<port id="0">
					<dim>1</dim>
					<dim>512</dim>
					<dim>80</dim>
					<dim>80</dim>
				</port>
				<port id="1">
					<dim>1</dim>
					<dim>512</dim>
					<dim>80</dim>
					<dim>80</dim>
				</port>
			</input>
			<output>
				<port id="2" precision="FP16">
					<dim>1</dim>
					<dim>512</dim>
					<dim>80</dim>
					<dim>80</dim>
				</port>
			</output>
		</layer>
		<layer id="135" name="1099" type="ReLU" version="opset1">
			<input>
				<port id="0">
					<dim>1</dim>
					<dim>512</dim>
					<dim>80</dim>
					<dim>80</dim>
				</port>
			</input>
			<output>
				<port id="1" precision="FP16">
					<dim>1</dim>
					<dim>512</dim>
					<dim>80</dim>
					<dim>80</dim>
				</port>
			</output>
		</layer>
		<layer id="136" name="1101/mean/Fused_Mul_5939559397_const" type="Const" version="opset1">
			<data element_type="f16" offset="3011348" shape="128,512,1,1" size="131072"/>
			<output>
				<port id="1" precision="FP16">
					<dim>128</dim>
					<dim>512</dim>
					<dim>1</dim>
					<dim>1</dim>
				</port>
			</output>
		</layer>
		<layer id="137" name="1100" type="Convolution" version="opset1">
			<data dilations="1,1" output_padding="0,0" pads_begin="0,0" pads_end="0,0" strides="1,1"/>
			<input>
				<port id="0">
					<dim>1</dim>
					<dim>512</dim>
					<dim>80</dim>
					<dim>80</dim>
				</port>
				<port id="1">
					<dim>128</dim>
					<dim>512</dim>
					<dim>1</dim>
					<dim>1</dim>
				</port>
			</input>
			<output>
				<port id="2" precision="FP16">
					<dim>1</dim>
					<dim>128</dim>
					<dim>80</dim>
					<dim>80</dim>
				</port>
			</output>
		</layer>
		<layer id="138" name="data_add_5514455149/copy_const" type="Const" version="opset1">
			<data element_type="f16" offset="3142420" shape="1,128,1,1" size="256"/>
			<output>
				<port id="1" precision="FP16">
					<dim>1</dim>
					<dim>128</dim>
					<dim>1</dim>
					<dim>1</dim>
				</port>
			</output>
		</layer>
		<layer id="139" name="1101/variance/Fused_Add_" type="Add" version="opset1">
			<input>
				<port id="0">
					<dim>1</dim>
					<dim>128</dim>
					<dim>80</dim>
					<dim>80</dim>
				</port>
				<port id="1">
					<dim>1</dim>
					<dim>128</dim>
					<dim>1</dim>
					<dim>1</dim>
				</port>
			</input>
			<output>
				<port id="2" precision="FP16">
					<dim>1</dim>
					<dim>128</dim>
					<dim>80</dim>
					<dim>80</dim>
				</port>
			</output>
		</layer>
		<layer id="140" name="1102" type="ReLU" version="opset1">
			<input>
				<port id="0">
					<dim>1</dim>
					<dim>128</dim>
					<dim>80</dim>
					<dim>80</dim>
				</port>
			</input>
			<output>
				<port id="1" precision="FP16">
					<dim>1</dim>
					<dim>128</dim>
					<dim>80</dim>
					<dim>80</dim>
				</port>
			</output>
		</layer>
		<layer id="141" name="1104/mean/Fused_Mul_5939959401_const" type="Const" version="opset1">
			<data element_type="f16" offset="3142676" shape="128,128,3,3" size="294912"/>
			<output>
				<port id="1" precision="FP16">
					<dim>128</dim>
					<dim>128</dim>
					<dim>3</dim>
					<dim>3</dim>
				</port>
			</output>
		</layer>
		<layer id="142" name="1103" type="Convolution" version="opset1">
			<data dilations="1,1" output_padding="0,0" pads_begin="1,1" pads_end="1,1" strides="1,1"/>
			<input>
				<port id="0">
					<dim>1</dim>
					<dim>128</dim>
					<dim>80</dim>
					<dim>80</dim>
				</port>
				<port id="1">
					<dim>128</dim>
					<dim>128</dim>
					<dim>3</dim>
					<dim>3</dim>
				</port>
			</input>
			<output>
				<port id="2" precision="FP16">
					<dim>1</dim>
					<dim>128</dim>
					<dim>80</dim>
					<dim>80</dim>
				</port>
			</output>
		</layer>
		<layer id="143" name="data_add_5515255157/copy_const" type="Const" version="opset1">
			<data element_type="f16" offset="3437588" shape="1,128,1,1" size="256"/>
			<output>
				<port id="1" precision="FP16">
					<dim>1</dim>
					<dim>128</dim>
					<dim>1</dim>
					<dim>1</dim>
				</port>
			</output>
		</layer>
		<layer id="144" name="1104/variance/Fused_Add_" type="Add" version="opset1">
			<input>
				<port id="0">
					<dim>1</dim>
					<dim>128</dim>
					<dim>80</dim>
					<dim>80</dim>
				</port>
				<port id="1">
					<dim>1</dim>
					<dim>128</dim>
					<dim>1</dim>
					<dim>1</dim>
				</port>
			</input>
			<output>
				<port id="2" precision="FP16">
					<dim>1</dim>
					<dim>128</dim>
					<dim>80</dim>
					<dim>80</dim>
				</port>
			</output>
		</layer>
		<layer id="145" name="1105" type="ReLU" version="opset1">
			<input>
				<port id="0">
					<dim>1</dim>
					<dim>128</dim>
					<dim>80</dim>
					<dim>80</dim>
				</port>
			</input>
			<output>
				<port id="1" precision="FP16">
					<dim>1</dim>
					<dim>128</dim>
					<dim>80</dim>
					<dim>80</dim>
				</port>
			</output>
		</layer>
		<layer id="146" name="1107/mean/Fused_Mul_5940359405_const" type="Const" version="opset1">
			<data element_type="f16" offset="3437844" shape="512,128,1,1" size="131072"/>
			<output>
				<port id="1" precision="FP16">
					<dim>512</dim>
					<dim>128</dim>
					<dim>1</dim>
					<dim>1</dim>
				</port>
			</output>
		</layer>
		<layer id="147" name="1106" type="Convolution" version="opset1">
			<data dilations="1,1" output_padding="0,0" pads_begin="0,0" pads_end="0,0" strides="1,1"/>
			<input>
				<port id="0">
					<dim>1</dim>
					<dim>128</dim>
					<dim>80</dim>
					<dim>80</dim>
				</port>
				<port id="1">
					<dim>512</dim>
					<dim>128</dim>
					<dim>1</dim>
					<dim>1</dim>
				</port>
			</input>
			<output>
				<port id="2" precision="FP16">
					<dim>1</dim>
					<dim>512</dim>
					<dim>80</dim>
					<dim>80</dim>
				</port>
			</output>
		</layer>
		<layer id="148" name="data_add_5516055165/copy_const" type="Const" version="opset1">
			<data element_type="f16" offset="3568916" shape="1,512,1,1" size="1024"/>
			<output>
				<port id="1" precision="FP16">
					<dim>1</dim>
					<dim>512</dim>
					<dim>1</dim>
					<dim>1</dim>
				</port>
			</output>
		</layer>
		<layer id="149" name="1107/variance/Fused_Add_" type="Add" version="opset1">
			<input>
				<port id="0">
					<dim>1</dim>
					<dim>512</dim>
					<dim>80</dim>
					<dim>80</dim>
				</port>
				<port id="1">
					<dim>1</dim>
					<dim>512</dim>
					<dim>1</dim>
					<dim>1</dim>
				</port>
			</input>
			<output>
				<port id="2" precision="FP16">
					<dim>1</dim>
					<dim>512</dim>
					<dim>80</dim>
					<dim>80</dim>
				</port>
			</output>
		</layer>
		<layer id="150" name="1108" type="Add" version="opset1">
			<input>
				<port id="0">
					<dim>1</dim>
					<dim>512</dim>
					<dim>80</dim>
					<dim>80</dim>
				</port>
				<port id="1">
					<dim>1</dim>
					<dim>512</dim>
					<dim>80</dim>
					<dim>80</dim>
				</port>
			</input>
			<output>
				<port id="2" precision="FP16">
					<dim>1</dim>
					<dim>512</dim>
					<dim>80</dim>
					<dim>80</dim>
				</port>
			</output>
		</layer>
		<layer id="151" name="1109" type="ReLU" version="opset1">
			<input>
				<port id="0">
					<dim>1</dim>
					<dim>512</dim>
					<dim>80</dim>
					<dim>80</dim>
				</port>
			</input>
			<output>
				<port id="1" precision="FP16">
					<dim>1</dim>
					<dim>512</dim>
					<dim>80</dim>
					<dim>80</dim>
				</port>
			</output>
		</layer>
		<layer id="152" name="1111/mean/Fused_Mul_5940759409_const" type="Const" version="opset1">
			<data element_type="f16" offset="3569940" shape="128,512,1,1" size="131072"/>
			<output>
				<port id="1" precision="FP16">
					<dim>128</dim>
					<dim>512</dim>
					<dim>1</dim>
					<dim>1</dim>
				</port>
			</output>
		</layer>
		<layer id="153" name="1110" type="Convolution" version="opset1">
			<data dilations="1,1" output_padding="0,0" pads_begin="0,0" pads_end="0,0" strides="1,1"/>
			<input>
				<port id="0">
					<dim>1</dim>
					<dim>512</dim>
					<dim>80</dim>
					<dim>80</dim>
				</port>
				<port id="1">
					<dim>128</dim>
					<dim>512</dim>
					<dim>1</dim>
					<dim>1</dim>
				</port>
			</input>
			<output>
				<port id="2" precision="FP16">
					<dim>1</dim>
					<dim>128</dim>
					<dim>80</dim>
					<dim>80</dim>
				</port>
			</output>
		</layer>
		<layer id="154" name="data_add_5516855173/copy_const" type="Const" version="opset1">
			<data element_type="f16" offset="3701012" shape="1,128,1,1" size="256"/>
			<output>
				<port id="1" precision="FP16">
					<dim>1</dim>
					<dim>128</dim>
					<dim>1</dim>
					<dim>1</dim>
				</port>
			</output>
		</layer>
		<layer id="155" name="1111/variance/Fused_Add_" type="Add" version="opset1">
			<input>
				<port id="0">
					<dim>1</dim>
					<dim>128</dim>
					<dim>80</dim>
					<dim>80</dim>
				</port>
				<port id="1">
					<dim>1</dim>
					<dim>128</dim>
					<dim>1</dim>
					<dim>1</dim>
				</port>
			</input>
			<output>
				<port id="2" precision="FP16">
					<dim>1</dim>
					<dim>128</dim>
					<dim>80</dim>
					<dim>80</dim>
				</port>
			</output>
		</layer>
		<layer id="156" name="1112" type="ReLU" version="opset1">
			<input>
				<port id="0">
					<dim>1</dim>
					<dim>128</dim>
					<dim>80</dim>
					<dim>80</dim>
				</port>
			</input>
			<output>
				<port id="1" precision="FP16">
					<dim>1</dim>
					<dim>128</dim>
					<dim>80</dim>
					<dim>80</dim>
				</port>
			</output>
		</layer>
		<layer id="157" name="1114/mean/Fused_Mul_5941159413_const" type="Const" version="opset1">
			<data element_type="f16" offset="3701268" shape="128,128,3,3" size="294912"/>
			<output>
				<port id="1" precision="FP16">
					<dim>128</dim>
					<dim>128</dim>
					<dim>3</dim>
					<dim>3</dim>
				</port>
			</output>
		</layer>
		<layer id="158" name="1113" type="Convolution" version="opset1">
			<data dilations="1,1" output_padding="0,0" pads_begin="1,1" pads_end="1,1" strides="1,1"/>
			<input>
				<port id="0">
					<dim>1</dim>
					<dim>128</dim>
					<dim>80</dim>
					<dim>80</dim>
				</port>
				<port id="1">
					<dim>128</dim>
					<dim>128</dim>
					<dim>3</dim>
					<dim>3</dim>
				</port>
			</input>
			<output>
				<port id="2" precision="FP16">
					<dim>1</dim>
					<dim>128</dim>
					<dim>80</dim>
					<dim>80</dim>
				</port>
			</output>
		</layer>
		<layer id="159" name="data_add_5517655181/copy_const" type="Const" version="opset1">
			<data element_type="f16" offset="3996180" shape="1,128,1,1" size="256"/>
			<output>
				<port id="1" precision="FP16">
					<dim>1</dim>
					<dim>128</dim>
					<dim>1</dim>
					<dim>1</dim>
				</port>
			</output>
		</layer>
		<layer id="160" name="1114/variance/Fused_Add_" type="Add" version="opset1">
			<input>
				<port id="0">
					<dim>1</dim>
					<dim>128</dim>
					<dim>80</dim>
					<dim>80</dim>
				</port>
				<port id="1">
					<dim>1</dim>
					<dim>128</dim>
					<dim>1</dim>
					<dim>1</dim>
				</port>
			</input>
			<output>
				<port id="2" precision="FP16">
					<dim>1</dim>
					<dim>128</dim>
					<dim>80</dim>
					<dim>80</dim>
				</port>
			</output>
		</layer>
		<layer id="161" name="1115" type="ReLU" version="opset1">
			<input>
				<port id="0">
					<dim>1</dim>
					<dim>128</dim>
					<dim>80</dim>
					<dim>80</dim>
				</port>
			</input>
			<output>
				<port id="1" precision="FP16">
					<dim>1</dim>
					<dim>128</dim>
					<dim>80</dim>
					<dim>80</dim>
				</port>
			</output>
		</layer>
		<layer id="162" name="1117/mean/Fused_Mul_5941559417_const" type="Const" version="opset1">
			<data element_type="f16" offset="3996436" shape="512,128,1,1" size="131072"/>
			<output>
				<port id="1" precision="FP16">
					<dim>512</dim>
					<dim>128</dim>
					<dim>1</dim>
					<dim>1</dim>
				</port>
			</output>
		</layer>
		<layer id="163" name="1116" type="Convolution" version="opset1">
			<data dilations="1,1" output_padding="0,0" pads_begin="0,0" pads_end="0,0" strides="1,1"/>
			<input>
				<port id="0">
					<dim>1</dim>
					<dim>128</dim>
					<dim>80</dim>
					<dim>80</dim>
				</port>
				<port id="1">
					<dim>512</dim>
					<dim>128</dim>
					<dim>1</dim>
					<dim>1</dim>
				</port>
			</input>
			<output>
				<port id="2" precision="FP16">
					<dim>1</dim>
					<dim>512</dim>
					<dim>80</dim>
					<dim>80</dim>
				</port>
			</output>
		</layer>
		<layer id="164" name="data_add_5518455189/copy_const" type="Const" version="opset1">
			<data element_type="f16" offset="4127508" shape="1,512,1,1" size="1024"/>
			<output>
				<port id="1" precision="FP16">
					<dim>1</dim>
					<dim>512</dim>
					<dim>1</dim>
					<dim>1</dim>
				</port>
			</output>
		</layer>
		<layer id="165" name="1117/variance/Fused_Add_" type="Add" version="opset1">
			<input>
				<port id="0">
					<dim>1</dim>
					<dim>512</dim>
					<dim>80</dim>
					<dim>80</dim>
				</port>
				<port id="1">
					<dim>1</dim>
					<dim>512</dim>
					<dim>1</dim>
					<dim>1</dim>
				</port>
			</input>
			<output>
				<port id="2" precision="FP16">
					<dim>1</dim>
					<dim>512</dim>
					<dim>80</dim>
					<dim>80</dim>
				</port>
			</output>
		</layer>
		<layer id="166" name="1118" type="Add" version="opset1">
			<input>
				<port id="0">
					<dim>1</dim>
					<dim>512</dim>
					<dim>80</dim>
					<dim>80</dim>
				</port>
				<port id="1">
					<dim>1</dim>
					<dim>512</dim>
					<dim>80</dim>
					<dim>80</dim>
				</port>
			</input>
			<output>
				<port id="2" precision="FP16">
					<dim>1</dim>
					<dim>512</dim>
					<dim>80</dim>
					<dim>80</dim>
				</port>
			</output>
		</layer>
		<layer id="167" name="1119" type="ReLU" version="opset1">
			<input>
				<port id="0">
					<dim>1</dim>
					<dim>512</dim>
					<dim>80</dim>
					<dim>80</dim>
				</port>
			</input>
			<output>
				<port id="1" precision="FP16">
					<dim>1</dim>
					<dim>512</dim>
					<dim>80</dim>
					<dim>80</dim>
				</port>
			</output>
		</layer>
		<layer id="168" name="1121/mean/Fused_Mul_5941959421_const" type="Const" version="opset1">
			<data element_type="f16" offset="4128532" shape="128,512,1,1" size="131072"/>
			<output>
				<port id="1" precision="FP16">
					<dim>128</dim>
					<dim>512</dim>
					<dim>1</dim>
					<dim>1</dim>
				</port>
			</output>
		</layer>
		<layer id="169" name="1120" type="Convolution" version="opset1">
			<data dilations="1,1" output_padding="0,0" pads_begin="0,0" pads_end="0,0" strides="1,1"/>
			<input>
				<port id="0">
					<dim>1</dim>
					<dim>512</dim>
					<dim>80</dim>
					<dim>80</dim>
				</port>
				<port id="1">
					<dim>128</dim>
					<dim>512</dim>
					<dim>1</dim>
					<dim>1</dim>
				</port>
			</input>
			<output>
				<port id="2" precision="FP16">
					<dim>1</dim>
					<dim>128</dim>
					<dim>80</dim>
					<dim>80</dim>
				</port>
			</output>
		</layer>
		<layer id="170" name="data_add_5519255197/copy_const" type="Const" version="opset1">
			<data element_type="f16" offset="4259604" shape="1,128,1,1" size="256"/>
			<output>
				<port id="1" precision="FP16">
					<dim>1</dim>
					<dim>128</dim>
					<dim>1</dim>
					<dim>1</dim>
				</port>
			</output>
		</layer>
		<layer id="171" name="1121/variance/Fused_Add_" type="Add" version="opset1">
			<input>
				<port id="0">
					<dim>1</dim>
					<dim>128</dim>
					<dim>80</dim>
					<dim>80</dim>
				</port>
				<port id="1">
					<dim>1</dim>
					<dim>128</dim>
					<dim>1</dim>
					<dim>1</dim>
				</port>
			</input>
			<output>
				<port id="2" precision="FP16">
					<dim>1</dim>
					<dim>128</dim>
					<dim>80</dim>
					<dim>80</dim>
				</port>
			</output>
		</layer>
		<layer id="172" name="1122" type="ReLU" version="opset1">
			<input>
				<port id="0">
					<dim>1</dim>
					<dim>128</dim>
					<dim>80</dim>
					<dim>80</dim>
				</port>
			</input>
			<output>
				<port id="1" precision="FP16">
					<dim>1</dim>
					<dim>128</dim>
					<dim>80</dim>
					<dim>80</dim>
				</port>
			</output>
		</layer>
		<layer id="173" name="1124/mean/Fused_Mul_5942359425_const" type="Const" version="opset1">
			<data element_type="f16" offset="4259860" shape="128,128,3,3" size="294912"/>
			<output>
				<port id="1" precision="FP16">
					<dim>128</dim>
					<dim>128</dim>
					<dim>3</dim>
					<dim>3</dim>
				</port>
			</output>
		</layer>
		<layer id="174" name="1123" type="Convolution" version="opset1">
			<data dilations="1,1" output_padding="0,0" pads_begin="1,1" pads_end="1,1" strides="1,1"/>
			<input>
				<port id="0">
					<dim>1</dim>
					<dim>128</dim>
					<dim>80</dim>
					<dim>80</dim>
				</port>
				<port id="1">
					<dim>128</dim>
					<dim>128</dim>
					<dim>3</dim>
					<dim>3</dim>
				</port>
			</input>
			<output>
				<port id="2" precision="FP16">
					<dim>1</dim>
					<dim>128</dim>
					<dim>80</dim>
					<dim>80</dim>
				</port>
			</output>
		</layer>
		<layer id="175" name="data_add_5520055205/copy_const" type="Const" version="opset1">
			<data element_type="f16" offset="4554772" shape="1,128,1,1" size="256"/>
			<output>
				<port id="1" precision="FP16">
					<dim>1</dim>
					<dim>128</dim>
					<dim>1</dim>
					<dim>1</dim>
				</port>
			</output>
		</layer>
		<layer id="176" name="1124/variance/Fused_Add_" type="Add" version="opset1">
			<input>
				<port id="0">
					<dim>1</dim>
					<dim>128</dim>
					<dim>80</dim>
					<dim>80</dim>
				</port>
				<port id="1">
					<dim>1</dim>
					<dim>128</dim>
					<dim>1</dim>
					<dim>1</dim>
				</port>
			</input>
			<output>
				<port id="2" precision="FP16">
					<dim>1</dim>
					<dim>128</dim>
					<dim>80</dim>
					<dim>80</dim>
				</port>
			</output>
		</layer>
		<layer id="177" name="1125" type="ReLU" version="opset1">
			<input>
				<port id="0">
					<dim>1</dim>
					<dim>128</dim>
					<dim>80</dim>
					<dim>80</dim>
				</port>
			</input>
			<output>
				<port id="1" precision="FP16">
					<dim>1</dim>
					<dim>128</dim>
					<dim>80</dim>
					<dim>80</dim>
				</port>
			</output>
		</layer>
		<layer id="178" name="1127/mean/Fused_Mul_5942759429_const" type="Const" version="opset1">
			<data element_type="f16" offset="4555028" shape="512,128,1,1" size="131072"/>
			<output>
				<port id="1" precision="FP16">
					<dim>512</dim>
					<dim>128</dim>
					<dim>1</dim>
					<dim>1</dim>
				</port>
			</output>
		</layer>
		<layer id="179" name="1126" type="Convolution" version="opset1">
			<data dilations="1,1" output_padding="0,0" pads_begin="0,0" pads_end="0,0" strides="1,1"/>
			<input>
				<port id="0">
					<dim>1</dim>
					<dim>128</dim>
					<dim>80</dim>
					<dim>80</dim>
				</port>
				<port id="1">
					<dim>512</dim>
					<dim>128</dim>
					<dim>1</dim>
					<dim>1</dim>
				</port>
			</input>
			<output>
				<port id="2" precision="FP16">
					<dim>1</dim>
					<dim>512</dim>
					<dim>80</dim>
					<dim>80</dim>
				</port>
			</output>
		</layer>
		<layer id="180" name="data_add_5520855213/copy_const" type="Const" version="opset1">
			<data element_type="f16" offset="4686100" shape="1,512,1,1" size="1024"/>
			<output>
				<port id="1" precision="FP16">
					<dim>1</dim>
					<dim>512</dim>
					<dim>1</dim>
					<dim>1</dim>
				</port>
			</output>
		</layer>
		<layer id="181" name="1127/variance/Fused_Add_" type="Add" version="opset1">
			<input>
				<port id="0">
					<dim>1</dim>
					<dim>512</dim>
					<dim>80</dim>
					<dim>80</dim>
				</port>
				<port id="1">
					<dim>1</dim>
					<dim>512</dim>
					<dim>1</dim>
					<dim>1</dim>
				</port>
			</input>
			<output>
				<port id="2" precision="FP16">
					<dim>1</dim>
					<dim>512</dim>
					<dim>80</dim>
					<dim>80</dim>
				</port>
			</output>
		</layer>
		<layer id="182" name="1128" type="Add" version="opset1">
			<input>
				<port id="0">
					<dim>1</dim>
					<dim>512</dim>
					<dim>80</dim>
					<dim>80</dim>
				</port>
				<port id="1">
					<dim>1</dim>
					<dim>512</dim>
					<dim>80</dim>
					<dim>80</dim>
				</port>
			</input>
			<output>
				<port id="2" precision="FP16">
					<dim>1</dim>
					<dim>512</dim>
					<dim>80</dim>
					<dim>80</dim>
				</port>
			</output>
		</layer>
		<layer id="183" name="1129" type="ReLU" version="opset1">
			<input>
				<port id="0">
					<dim>1</dim>
					<dim>512</dim>
					<dim>80</dim>
					<dim>80</dim>
				</port>
			</input>
			<output>
				<port id="1" precision="FP16">
					<dim>1</dim>
					<dim>512</dim>
					<dim>80</dim>
					<dim>80</dim>
				</port>
			</output>
		</layer>
		<layer id="184" name="1131/mean/Fused_Mul_5943159433_const" type="Const" version="opset1">
			<data element_type="f16" offset="4687124" shape="128,512,1,1" size="131072"/>
			<output>
				<port id="1" precision="FP16">
					<dim>128</dim>
					<dim>512</dim>
					<dim>1</dim>
					<dim>1</dim>
				</port>
			</output>
		</layer>
		<layer id="185" name="1130" type="Convolution" version="opset1">
			<data dilations="1,1" output_padding="0,0" pads_begin="0,0" pads_end="0,0" strides="1,1"/>
			<input>
				<port id="0">
					<dim>1</dim>
					<dim>512</dim>
					<dim>80</dim>
					<dim>80</dim>
				</port>
				<port id="1">
					<dim>128</dim>
					<dim>512</dim>
					<dim>1</dim>
					<dim>1</dim>
				</port>
			</input>
			<output>
				<port id="2" precision="FP16">
					<dim>1</dim>
					<dim>128</dim>
					<dim>80</dim>
					<dim>80</dim>
				</port>
			</output>
		</layer>
		<layer id="186" name="data_add_5521655221/copy_const" type="Const" version="opset1">
			<data element_type="f16" offset="4818196" shape="1,128,1,1" size="256"/>
			<output>
				<port id="1" precision="FP16">
					<dim>1</dim>
					<dim>128</dim>
					<dim>1</dim>
					<dim>1</dim>
				</port>
			</output>
		</layer>
		<layer id="187" name="1131/variance/Fused_Add_" type="Add" version="opset1">
			<input>
				<port id="0">
					<dim>1</dim>
					<dim>128</dim>
					<dim>80</dim>
					<dim>80</dim>
				</port>
				<port id="1">
					<dim>1</dim>
					<dim>128</dim>
					<dim>1</dim>
					<dim>1</dim>
				</port>
			</input>
			<output>
				<port id="2" precision="FP16">
					<dim>1</dim>
					<dim>128</dim>
					<dim>80</dim>
					<dim>80</dim>
				</port>
			</output>
		</layer>
		<layer id="188" name="1132" type="ReLU" version="opset1">
			<input>
				<port id="0">
					<dim>1</dim>
					<dim>128</dim>
					<dim>80</dim>
					<dim>80</dim>
				</port>
			</input>
			<output>
				<port id="1" precision="FP16">
					<dim>1</dim>
					<dim>128</dim>
					<dim>80</dim>
					<dim>80</dim>
				</port>
			</output>
		</layer>
		<layer id="189" name="1134/mean/Fused_Mul_5943559437_const" type="Const" version="opset1">
			<data element_type="f16" offset="4818452" shape="128,128,3,3" size="294912"/>
			<output>
				<port id="1" precision="FP16">
					<dim>128</dim>
					<dim>128</dim>
					<dim>3</dim>
					<dim>3</dim>
				</port>
			</output>
		</layer>
		<layer id="190" name="1133" type="Convolution" version="opset1">
			<data dilations="1,1" output_padding="0,0" pads_begin="1,1" pads_end="1,1" strides="1,1"/>
			<input>
				<port id="0">
					<dim>1</dim>
					<dim>128</dim>
					<dim>80</dim>
					<dim>80</dim>
				</port>
				<port id="1">
					<dim>128</dim>
					<dim>128</dim>
					<dim>3</dim>
					<dim>3</dim>
				</port>
			</input>
			<output>
				<port id="2" precision="FP16">
					<dim>1</dim>
					<dim>128</dim>
					<dim>80</dim>
					<dim>80</dim>
				</port>
			</output>
		</layer>
		<layer id="191" name="data_add_5522455229/copy_const" type="Const" version="opset1">
			<data element_type="f16" offset="5113364" shape="1,128,1,1" size="256"/>
			<output>
				<port id="1" precision="FP16">
					<dim>1</dim>
					<dim>128</dim>
					<dim>1</dim>
					<dim>1</dim>
				</port>
			</output>
		</layer>
		<layer id="192" name="1134/variance/Fused_Add_" type="Add" version="opset1">
			<input>
				<port id="0">
					<dim>1</dim>
					<dim>128</dim>
					<dim>80</dim>
					<dim>80</dim>
				</port>
				<port id="1">
					<dim>1</dim>
					<dim>128</dim>
					<dim>1</dim>
					<dim>1</dim>
				</port>
			</input>
			<output>
				<port id="2" precision="FP16">
					<dim>1</dim>
					<dim>128</dim>
					<dim>80</dim>
					<dim>80</dim>
				</port>
			</output>
		</layer>
		<layer id="193" name="1135" type="ReLU" version="opset1">
			<input>
				<port id="0">
					<dim>1</dim>
					<dim>128</dim>
					<dim>80</dim>
					<dim>80</dim>
				</port>
			</input>
			<output>
				<port id="1" precision="FP16">
					<dim>1</dim>
					<dim>128</dim>
					<dim>80</dim>
					<dim>80</dim>
				</port>
			</output>
		</layer>
		<layer id="194" name="1137/mean/Fused_Mul_5943959441_const" type="Const" version="opset1">
			<data element_type="f16" offset="5113620" shape="512,128,1,1" size="131072"/>
			<output>
				<port id="1" precision="FP16">
					<dim>512</dim>
					<dim>128</dim>
					<dim>1</dim>
					<dim>1</dim>
				</port>
			</output>
		</layer>
		<layer id="195" name="1136" type="Convolution" version="opset1">
			<data dilations="1,1" output_padding="0,0" pads_begin="0,0" pads_end="0,0" strides="1,1"/>
			<input>
				<port id="0">
					<dim>1</dim>
					<dim>128</dim>
					<dim>80</dim>
					<dim>80</dim>
				</port>
				<port id="1">
					<dim>512</dim>
					<dim>128</dim>
					<dim>1</dim>
					<dim>1</dim>
				</port>
			</input>
			<output>
				<port id="2" precision="FP16">
					<dim>1</dim>
					<dim>512</dim>
					<dim>80</dim>
					<dim>80</dim>
				</port>
			</output>
		</layer>
		<layer id="196" name="data_add_5523255237/copy_const" type="Const" version="opset1">
			<data element_type="f16" offset="5244692" shape="1,512,1,1" size="1024"/>
			<output>
				<port id="1" precision="FP16">
					<dim>1</dim>
					<dim>512</dim>
					<dim>1</dim>
					<dim>1</dim>
				</port>
			</output>
		</layer>
		<layer id="197" name="1137/variance/Fused_Add_" type="Add" version="opset1">
			<input>
				<port id="0">
					<dim>1</dim>
					<dim>512</dim>
					<dim>80</dim>
					<dim>80</dim>
				</port>
				<port id="1">
					<dim>1</dim>
					<dim>512</dim>
					<dim>1</dim>
					<dim>1</dim>
				</port>
			</input>
			<output>
				<port id="2" precision="FP16">
					<dim>1</dim>
					<dim>512</dim>
					<dim>80</dim>
					<dim>80</dim>
				</port>
			</output>
		</layer>
		<layer id="198" name="1138" type="Add" version="opset1">
			<input>
				<port id="0">
					<dim>1</dim>
					<dim>512</dim>
					<dim>80</dim>
					<dim>80</dim>
				</port>
				<port id="1">
					<dim>1</dim>
					<dim>512</dim>
					<dim>80</dim>
					<dim>80</dim>
				</port>
			</input>
			<output>
				<port id="2" precision="FP16">
					<dim>1</dim>
					<dim>512</dim>
					<dim>80</dim>
					<dim>80</dim>
				</port>
			</output>
		</layer>
		<layer id="199" name="1139" type="ReLU" version="opset1">
			<input>
				<port id="0">
					<dim>1</dim>
					<dim>512</dim>
					<dim>80</dim>
					<dim>80</dim>
				</port>
			</input>
			<output>
				<port id="1" precision="FP16">
					<dim>1</dim>
					<dim>512</dim>
					<dim>80</dim>
					<dim>80</dim>
				</port>
			</output>
		</layer>
		<layer id="200" name="onnx_initializer_node_neck.lateral_convs.1.conv.weight/Output_0/Data__const" type="Const" version="opset1">
			<data element_type="f16" offset="5245716" shape="256,512,1,1" size="262144"/>
			<output>
				<port id="1" precision="FP16">
					<dim>256</dim>
					<dim>512</dim>
					<dim>1</dim>
					<dim>1</dim>
				</port>
			</output>
		</layer>
		<layer id="201" name="1535/WithoutBiases" type="Convolution" version="opset1">
			<data dilations="1,1" output_padding="0,0" pads_begin="0,0" pads_end="0,0" strides="1,1"/>
			<input>
				<port id="0">
					<dim>1</dim>
					<dim>512</dim>
					<dim>80</dim>
					<dim>80</dim>
				</port>
				<port id="1">
					<dim>256</dim>
					<dim>512</dim>
					<dim>1</dim>
					<dim>1</dim>
				</port>
			</input>
			<output>
				<port id="2" precision="FP16">
					<dim>1</dim>
					<dim>256</dim>
					<dim>80</dim>
					<dim>80</dim>
				</port>
			</output>
		</layer>
		<layer id="202" name="1535/Dims34894/copy_const" type="Const" version="opset1">
			<data element_type="f16" offset="5507860" shape="1,256,1,1" size="512"/>
			<output>
				<port id="1" precision="FP16">
					<dim>1</dim>
					<dim>256</dim>
					<dim>1</dim>
					<dim>1</dim>
				</port>
			</output>
		</layer>
		<layer id="203" name="1535" type="Add" version="opset1">
			<input>
				<port id="0">
					<dim>1</dim>
					<dim>256</dim>
					<dim>80</dim>
					<dim>80</dim>
				</port>
				<port id="1">
					<dim>1</dim>
					<dim>256</dim>
					<dim>1</dim>
					<dim>1</dim>
				</port>
			</input>
			<output>
				<port id="2" precision="FP16">
					<dim>1</dim>
					<dim>256</dim>
					<dim>80</dim>
					<dim>80</dim>
				</port>
			</output>
		</layer>
		<layer id="204" name="1143/mean/Fused_Mul_5944359445_const" type="Const" version="opset1">
			<data element_type="f16" offset="5508372" shape="256,512,1,1" size="262144"/>
			<output>
				<port id="1" precision="FP16">
					<dim>256</dim>
					<dim>512</dim>
					<dim>1</dim>
					<dim>1</dim>
				</port>
			</output>
		</layer>
		<layer id="205" name="1142" type="Convolution" version="opset1">
			<data dilations="1,1" output_padding="0,0" pads_begin="0,0" pads_end="0,0" strides="1,1"/>
			<input>
				<port id="0">
					<dim>1</dim>
					<dim>512</dim>
					<dim>80</dim>
					<dim>80</dim>
				</port>
				<port id="1">
					<dim>256</dim>
					<dim>512</dim>
					<dim>1</dim>
					<dim>1</dim>
				</port>
			</input>
			<output>
				<port id="2" precision="FP16">
					<dim>1</dim>
					<dim>256</dim>
					<dim>80</dim>
					<dim>80</dim>
				</port>
			</output>
		</layer>
		<layer id="206" name="data_add_5524055245/copy_const" type="Const" version="opset1">
			<data element_type="f16" offset="5770516" shape="1,256,1,1" size="512"/>
			<output>
				<port id="1" precision="FP16">
					<dim>1</dim>
					<dim>256</dim>
					<dim>1</dim>
					<dim>1</dim>
				</port>
			</output>
		</layer>
		<layer id="207" name="1143/variance/Fused_Add_" type="Add" version="opset1">
			<input>
				<port id="0">
					<dim>1</dim>
					<dim>256</dim>
					<dim>80</dim>
					<dim>80</dim>
				</port>
				<port id="1">
					<dim>1</dim>
					<dim>256</dim>
					<dim>1</dim>
					<dim>1</dim>
				</port>
			</input>
			<output>
				<port id="2" precision="FP16">
					<dim>1</dim>
					<dim>256</dim>
					<dim>80</dim>
					<dim>80</dim>
				</port>
			</output>
		</layer>
		<layer id="208" name="1144" type="ReLU" version="opset1">
			<input>
				<port id="0">
					<dim>1</dim>
					<dim>256</dim>
					<dim>80</dim>
					<dim>80</dim>
				</port>
			</input>
			<output>
				<port id="1" precision="FP16">
					<dim>1</dim>
					<dim>256</dim>
					<dim>80</dim>
					<dim>80</dim>
				</port>
			</output>
		</layer>
		<layer id="209" name="1146/mean/Fused_Mul_5944759449_const" type="Const" version="opset1">
			<data element_type="f16" offset="5771028" shape="256,256,3,3" size="1179648"/>
			<output>
				<port id="1" precision="FP16">
					<dim>256</dim>
					<dim>256</dim>
					<dim>3</dim>
					<dim>3</dim>
				</port>
			</output>
		</layer>
		<layer id="210" name="1145" type="Convolution" version="opset1">
			<data dilations="1,1" output_padding="0,0" pads_begin="1,1" pads_end="1,1" strides="2,2"/>
			<input>
				<port id="0">
					<dim>1</dim>
					<dim>256</dim>
					<dim>80</dim>
					<dim>80</dim>
				</port>
				<port id="1">
					<dim>256</dim>
					<dim>256</dim>
					<dim>3</dim>
					<dim>3</dim>
				</port>
			</input>
			<output>
				<port id="2" precision="FP16">
					<dim>1</dim>
					<dim>256</dim>
					<dim>40</dim>
					<dim>40</dim>
				</port>
			</output>
		</layer>
		<layer id="211" name="data_add_5524855253/copy_const" type="Const" version="opset1">
			<data element_type="f16" offset="6950676" shape="1,256,1,1" size="512"/>
			<output>
				<port id="1" precision="FP16">
					<dim>1</dim>
					<dim>256</dim>
					<dim>1</dim>
					<dim>1</dim>
				</port>
			</output>
		</layer>
		<layer id="212" name="1146/variance/Fused_Add_" type="Add" version="opset1">
			<input>
				<port id="0">
					<dim>1</dim>
					<dim>256</dim>
					<dim>40</dim>
					<dim>40</dim>
				</port>
				<port id="1">
					<dim>1</dim>
					<dim>256</dim>
					<dim>1</dim>
					<dim>1</dim>
				</port>
			</input>
			<output>
				<port id="2" precision="FP16">
					<dim>1</dim>
					<dim>256</dim>
					<dim>40</dim>
					<dim>40</dim>
				</port>
			</output>
		</layer>
		<layer id="213" name="1147" type="ReLU" version="opset1">
			<input>
				<port id="0">
					<dim>1</dim>
					<dim>256</dim>
					<dim>40</dim>
					<dim>40</dim>
				</port>
			</input>
			<output>
				<port id="1" precision="FP16">
					<dim>1</dim>
					<dim>256</dim>
					<dim>40</dim>
					<dim>40</dim>
				</port>
			</output>
		</layer>
		<layer id="214" name="1149/mean/Fused_Mul_5945159453_const" type="Const" version="opset1">
			<data element_type="f16" offset="6951188" shape="1024,256,1,1" size="524288"/>
			<output>
				<port id="1" precision="FP16">
					<dim>1024</dim>
					<dim>256</dim>
					<dim>1</dim>
					<dim>1</dim>
				</port>
			</output>
		</layer>
		<layer id="215" name="1148" type="Convolution" version="opset1">
			<data dilations="1,1" output_padding="0,0" pads_begin="0,0" pads_end="0,0" strides="1,1"/>
			<input>
				<port id="0">
					<dim>1</dim>
					<dim>256</dim>
					<dim>40</dim>
					<dim>40</dim>
				</port>
				<port id="1">
					<dim>1024</dim>
					<dim>256</dim>
					<dim>1</dim>
					<dim>1</dim>
				</port>
			</input>
			<output>
				<port id="2" precision="FP16">
					<dim>1</dim>
					<dim>1024</dim>
					<dim>40</dim>
					<dim>40</dim>
				</port>
			</output>
		</layer>
		<layer id="216" name="data_add_5525655261/copy_const" type="Const" version="opset1">
			<data element_type="f16" offset="7475476" shape="1,1024,1,1" size="2048"/>
			<output>
				<port id="1" precision="FP16">
					<dim>1</dim>
					<dim>1024</dim>
					<dim>1</dim>
					<dim>1</dim>
				</port>
			</output>
		</layer>
		<layer id="217" name="1149/variance/Fused_Add_" type="Add" version="opset1">
			<input>
				<port id="0">
					<dim>1</dim>
					<dim>1024</dim>
					<dim>40</dim>
					<dim>40</dim>
				</port>
				<port id="1">
					<dim>1</dim>
					<dim>1024</dim>
					<dim>1</dim>
					<dim>1</dim>
				</port>
			</input>
			<output>
				<port id="2" precision="FP16">
					<dim>1</dim>
					<dim>1024</dim>
					<dim>40</dim>
					<dim>40</dim>
				</port>
			</output>
		</layer>
		<layer id="218" name="1141/mean/Fused_Mul_5945559457_const" type="Const" version="opset1">
			<data element_type="f16" offset="7477524" shape="1024,512,1,1" size="1048576"/>
			<output>
				<port id="1" precision="FP16">
					<dim>1024</dim>
					<dim>512</dim>
					<dim>1</dim>
					<dim>1</dim>
				</port>
			</output>
		</layer>
		<layer id="219" name="1140" type="Convolution" version="opset1">
			<data dilations="1,1" output_padding="0,0" pads_begin="0,0" pads_end="0,0" strides="2,2"/>
			<input>
				<port id="0">
					<dim>1</dim>
					<dim>512</dim>
					<dim>80</dim>
					<dim>80</dim>
				</port>
				<port id="1">
					<dim>1024</dim>
					<dim>512</dim>
					<dim>1</dim>
					<dim>1</dim>
				</port>
			</input>
			<output>
				<port id="2" precision="FP16">
					<dim>1</dim>
					<dim>1024</dim>
					<dim>40</dim>
					<dim>40</dim>
				</port>
			</output>
		</layer>
		<layer id="220" name="data_add_5526455269/copy_const" type="Const" version="opset1">
			<data element_type="f16" offset="8526100" shape="1,1024,1,1" size="2048"/>
			<output>
				<port id="1" precision="FP16">
					<dim>1</dim>
					<dim>1024</dim>
					<dim>1</dim>
					<dim>1</dim>
				</port>
			</output>
		</layer>
		<layer id="221" name="1141/variance/Fused_Add_" type="Add" version="opset1">
			<input>
				<port id="0">
					<dim>1</dim>
					<dim>1024</dim>
					<dim>40</dim>
					<dim>40</dim>
				</port>
				<port id="1">
					<dim>1</dim>
					<dim>1024</dim>
					<dim>1</dim>
					<dim>1</dim>
				</port>
			</input>
			<output>
				<port id="2" precision="FP16">
					<dim>1</dim>
					<dim>1024</dim>
					<dim>40</dim>
					<dim>40</dim>
				</port>
			</output>
		</layer>
		<layer id="222" name="1150" type="Add" version="opset1">
			<input>
				<port id="0">
					<dim>1</dim>
					<dim>1024</dim>
					<dim>40</dim>
					<dim>40</dim>
				</port>
				<port id="1">
					<dim>1</dim>
					<dim>1024</dim>
					<dim>40</dim>
					<dim>40</dim>
				</port>
			</input>
			<output>
				<port id="2" precision="FP16">
					<dim>1</dim>
					<dim>1024</dim>
					<dim>40</dim>
					<dim>40</dim>
				</port>
			</output>
		</layer>
		<layer id="223" name="1151" type="ReLU" version="opset1">
			<input>
				<port id="0">
					<dim>1</dim>
					<dim>1024</dim>
					<dim>40</dim>
					<dim>40</dim>
				</port>
			</input>
			<output>
				<port id="1" precision="FP16">
					<dim>1</dim>
					<dim>1024</dim>
					<dim>40</dim>
					<dim>40</dim>
				</port>
			</output>
		</layer>
		<layer id="224" name="1153/mean/Fused_Mul_5945959461_const" type="Const" version="opset1">
			<data element_type="f16" offset="8528148" shape="256,1024,1,1" size="524288"/>
			<output>
				<port id="1" precision="FP16">
					<dim>256</dim>
					<dim>1024</dim>
					<dim>1</dim>
					<dim>1</dim>
				</port>
			</output>
		</layer>
		<layer id="225" name="1152" type="Convolution" version="opset1">
			<data dilations="1,1" output_padding="0,0" pads_begin="0,0" pads_end="0,0" strides="1,1"/>
			<input>
				<port id="0">
					<dim>1</dim>
					<dim>1024</dim>
					<dim>40</dim>
					<dim>40</dim>
				</port>
				<port id="1">
					<dim>256</dim>
					<dim>1024</dim>
					<dim>1</dim>
					<dim>1</dim>
				</port>
			</input>
			<output>
				<port id="2" precision="FP16">
					<dim>1</dim>
					<dim>256</dim>
					<dim>40</dim>
					<dim>40</dim>
				</port>
			</output>
		</layer>
		<layer id="226" name="data_add_5527255277/copy_const" type="Const" version="opset1">
			<data element_type="f16" offset="9052436" shape="1,256,1,1" size="512"/>
			<output>
				<port id="1" precision="FP16">
					<dim>1</dim>
					<dim>256</dim>
					<dim>1</dim>
					<dim>1</dim>
				</port>
			</output>
		</layer>
		<layer id="227" name="1153/variance/Fused_Add_" type="Add" version="opset1">
			<input>
				<port id="0">
					<dim>1</dim>
					<dim>256</dim>
					<dim>40</dim>
					<dim>40</dim>
				</port>
				<port id="1">
					<dim>1</dim>
					<dim>256</dim>
					<dim>1</dim>
					<dim>1</dim>
				</port>
			</input>
			<output>
				<port id="2" precision="FP16">
					<dim>1</dim>
					<dim>256</dim>
					<dim>40</dim>
					<dim>40</dim>
				</port>
			</output>
		</layer>
		<layer id="228" name="1154" type="ReLU" version="opset1">
			<input>
				<port id="0">
					<dim>1</dim>
					<dim>256</dim>
					<dim>40</dim>
					<dim>40</dim>
				</port>
			</input>
			<output>
				<port id="1" precision="FP16">
					<dim>1</dim>
					<dim>256</dim>
					<dim>40</dim>
					<dim>40</dim>
				</port>
			</output>
		</layer>
		<layer id="229" name="1156/mean/Fused_Mul_5946359465_const" type="Const" version="opset1">
			<data element_type="f16" offset="9052948" shape="256,256,3,3" size="1179648"/>
			<output>
				<port id="1" precision="FP16">
					<dim>256</dim>
					<dim>256</dim>
					<dim>3</dim>
					<dim>3</dim>
				</port>
			</output>
		</layer>
		<layer id="230" name="1155" type="Convolution" version="opset1">
			<data dilations="1,1" output_padding="0,0" pads_begin="1,1" pads_end="1,1" strides="1,1"/>
			<input>
				<port id="0">
					<dim>1</dim>
					<dim>256</dim>
					<dim>40</dim>
					<dim>40</dim>
				</port>
				<port id="1">
					<dim>256</dim>
					<dim>256</dim>
					<dim>3</dim>
					<dim>3</dim>
				</port>
			</input>
			<output>
				<port id="2" precision="FP16">
					<dim>1</dim>
					<dim>256</dim>
					<dim>40</dim>
					<dim>40</dim>
				</port>
			</output>
		</layer>
		<layer id="231" name="data_add_5528055285/copy_const" type="Const" version="opset1">
			<data element_type="f16" offset="10232596" shape="1,256,1,1" size="512"/>
			<output>
				<port id="1" precision="FP16">
					<dim>1</dim>
					<dim>256</dim>
					<dim>1</dim>
					<dim>1</dim>
				</port>
			</output>
		</layer>
		<layer id="232" name="1156/variance/Fused_Add_" type="Add" version="opset1">
			<input>
				<port id="0">
					<dim>1</dim>
					<dim>256</dim>
					<dim>40</dim>
					<dim>40</dim>
				</port>
				<port id="1">
					<dim>1</dim>
					<dim>256</dim>
					<dim>1</dim>
					<dim>1</dim>
				</port>
			</input>
			<output>
				<port id="2" precision="FP16">
					<dim>1</dim>
					<dim>256</dim>
					<dim>40</dim>
					<dim>40</dim>
				</port>
			</output>
		</layer>
		<layer id="233" name="1157" type="ReLU" version="opset1">
			<input>
				<port id="0">
					<dim>1</dim>
					<dim>256</dim>
					<dim>40</dim>
					<dim>40</dim>
				</port>
			</input>
			<output>
				<port id="1" precision="FP16">
					<dim>1</dim>
					<dim>256</dim>
					<dim>40</dim>
					<dim>40</dim>
				</port>
			</output>
		</layer>
		<layer id="234" name="1159/mean/Fused_Mul_5946759469_const" type="Const" version="opset1">
			<data element_type="f16" offset="10233108" shape="1024,256,1,1" size="524288"/>
			<output>
				<port id="1" precision="FP16">
					<dim>1024</dim>
					<dim>256</dim>
					<dim>1</dim>
					<dim>1</dim>
				</port>
			</output>
		</layer>
		<layer id="235" name="1158" type="Convolution" version="opset1">
			<data dilations="1,1" output_padding="0,0" pads_begin="0,0" pads_end="0,0" strides="1,1"/>
			<input>
				<port id="0">
					<dim>1</dim>
					<dim>256</dim>
					<dim>40</dim>
					<dim>40</dim>
				</port>
				<port id="1">
					<dim>1024</dim>
					<dim>256</dim>
					<dim>1</dim>
					<dim>1</dim>
				</port>
			</input>
			<output>
				<port id="2" precision="FP16">
					<dim>1</dim>
					<dim>1024</dim>
					<dim>40</dim>
					<dim>40</dim>
				</port>
			</output>
		</layer>
		<layer id="236" name="data_add_5528855293/copy_const" type="Const" version="opset1">
			<data element_type="f16" offset="10757396" shape="1,1024,1,1" size="2048"/>
			<output>
				<port id="1" precision="FP16">
					<dim>1</dim>
					<dim>1024</dim>
					<dim>1</dim>
					<dim>1</dim>
				</port>
			</output>
		</layer>
		<layer id="237" name="1159/variance/Fused_Add_" type="Add" version="opset1">
			<input>
				<port id="0">
					<dim>1</dim>
					<dim>1024</dim>
					<dim>40</dim>
					<dim>40</dim>
				</port>
				<port id="1">
					<dim>1</dim>
					<dim>1024</dim>
					<dim>1</dim>
					<dim>1</dim>
				</port>
			</input>
			<output>
				<port id="2" precision="FP16">
					<dim>1</dim>
					<dim>1024</dim>
					<dim>40</dim>
					<dim>40</dim>
				</port>
			</output>
		</layer>
		<layer id="238" name="1160" type="Add" version="opset1">
			<input>
				<port id="0">
					<dim>1</dim>
					<dim>1024</dim>
					<dim>40</dim>
					<dim>40</dim>
				</port>
				<port id="1">
					<dim>1</dim>
					<dim>1024</dim>
					<dim>40</dim>
					<dim>40</dim>
				</port>
			</input>
			<output>
				<port id="2" precision="FP16">
					<dim>1</dim>
					<dim>1024</dim>
					<dim>40</dim>
					<dim>40</dim>
				</port>
			</output>
		</layer>
		<layer id="239" name="1161" type="ReLU" version="opset1">
			<input>
				<port id="0">
					<dim>1</dim>
					<dim>1024</dim>
					<dim>40</dim>
					<dim>40</dim>
				</port>
			</input>
			<output>
				<port id="1" precision="FP16">
					<dim>1</dim>
					<dim>1024</dim>
					<dim>40</dim>
					<dim>40</dim>
				</port>
			</output>
		</layer>
		<layer id="240" name="1163/mean/Fused_Mul_5947159473_const" type="Const" version="opset1">
			<data element_type="f16" offset="10759444" shape="256,1024,1,1" size="524288"/>
			<output>
				<port id="1" precision="FP16">
					<dim>256</dim>
					<dim>1024</dim>
					<dim>1</dim>
					<dim>1</dim>
				</port>
			</output>
		</layer>
		<layer id="241" name="1162" type="Convolution" version="opset1">
			<data dilations="1,1" output_padding="0,0" pads_begin="0,0" pads_end="0,0" strides="1,1"/>
			<input>
				<port id="0">
					<dim>1</dim>
					<dim>1024</dim>
					<dim>40</dim>
					<dim>40</dim>
				</port>
				<port id="1">
					<dim>256</dim>
					<dim>1024</dim>
					<dim>1</dim>
					<dim>1</dim>
				</port>
			</input>
			<output>
				<port id="2" precision="FP16">
					<dim>1</dim>
					<dim>256</dim>
					<dim>40</dim>
					<dim>40</dim>
				</port>
			</output>
		</layer>
		<layer id="242" name="data_add_5529655301/copy_const" type="Const" version="opset1">
			<data element_type="f16" offset="11283732" shape="1,256,1,1" size="512"/>
			<output>
				<port id="1" precision="FP16">
					<dim>1</dim>
					<dim>256</dim>
					<dim>1</dim>
					<dim>1</dim>
				</port>
			</output>
		</layer>
		<layer id="243" name="1163/variance/Fused_Add_" type="Add" version="opset1">
			<input>
				<port id="0">
					<dim>1</dim>
					<dim>256</dim>
					<dim>40</dim>
					<dim>40</dim>
				</port>
				<port id="1">
					<dim>1</dim>
					<dim>256</dim>
					<dim>1</dim>
					<dim>1</dim>
				</port>
			</input>
			<output>
				<port id="2" precision="FP16">
					<dim>1</dim>
					<dim>256</dim>
					<dim>40</dim>
					<dim>40</dim>
				</port>
			</output>
		</layer>
		<layer id="244" name="1164" type="ReLU" version="opset1">
			<input>
				<port id="0">
					<dim>1</dim>
					<dim>256</dim>
					<dim>40</dim>
					<dim>40</dim>
				</port>
			</input>
			<output>
				<port id="1" precision="FP16">
					<dim>1</dim>
					<dim>256</dim>
					<dim>40</dim>
					<dim>40</dim>
				</port>
			</output>
		</layer>
		<layer id="245" name="1166/mean/Fused_Mul_5947559477_const" type="Const" version="opset1">
			<data element_type="f16" offset="11284244" shape="256,256,3,3" size="1179648"/>
			<output>
				<port id="1" precision="FP16">
					<dim>256</dim>
					<dim>256</dim>
					<dim>3</dim>
					<dim>3</dim>
				</port>
			</output>
		</layer>
		<layer id="246" name="1165" type="Convolution" version="opset1">
			<data dilations="1,1" output_padding="0,0" pads_begin="1,1" pads_end="1,1" strides="1,1"/>
			<input>
				<port id="0">
					<dim>1</dim>
					<dim>256</dim>
					<dim>40</dim>
					<dim>40</dim>
				</port>
				<port id="1">
					<dim>256</dim>
					<dim>256</dim>
					<dim>3</dim>
					<dim>3</dim>
				</port>
			</input>
			<output>
				<port id="2" precision="FP16">
					<dim>1</dim>
					<dim>256</dim>
					<dim>40</dim>
					<dim>40</dim>
				</port>
			</output>
		</layer>
		<layer id="247" name="data_add_5530455309/copy_const" type="Const" version="opset1">
			<data element_type="f16" offset="12463892" shape="1,256,1,1" size="512"/>
			<output>
				<port id="1" precision="FP16">
					<dim>1</dim>
					<dim>256</dim>
					<dim>1</dim>
					<dim>1</dim>
				</port>
			</output>
		</layer>
		<layer id="248" name="1166/variance/Fused_Add_" type="Add" version="opset1">
			<input>
				<port id="0">
					<dim>1</dim>
					<dim>256</dim>
					<dim>40</dim>
					<dim>40</dim>
				</port>
				<port id="1">
					<dim>1</dim>
					<dim>256</dim>
					<dim>1</dim>
					<dim>1</dim>
				</port>
			</input>
			<output>
				<port id="2" precision="FP16">
					<dim>1</dim>
					<dim>256</dim>
					<dim>40</dim>
					<dim>40</dim>
				</port>
			</output>
		</layer>
		<layer id="249" name="1167" type="ReLU" version="opset1">
			<input>
				<port id="0">
					<dim>1</dim>
					<dim>256</dim>
					<dim>40</dim>
					<dim>40</dim>
				</port>
			</input>
			<output>
				<port id="1" precision="FP16">
					<dim>1</dim>
					<dim>256</dim>
					<dim>40</dim>
					<dim>40</dim>
				</port>
			</output>
		</layer>
		<layer id="250" name="1169/mean/Fused_Mul_5947959481_const" type="Const" version="opset1">
			<data element_type="f16" offset="12464404" shape="1024,256,1,1" size="524288"/>
			<output>
				<port id="1" precision="FP16">
					<dim>1024</dim>
					<dim>256</dim>
					<dim>1</dim>
					<dim>1</dim>
				</port>
			</output>
		</layer>
		<layer id="251" name="1168" type="Convolution" version="opset1">
			<data dilations="1,1" output_padding="0,0" pads_begin="0,0" pads_end="0,0" strides="1,1"/>
			<input>
				<port id="0">
					<dim>1</dim>
					<dim>256</dim>
					<dim>40</dim>
					<dim>40</dim>
				</port>
				<port id="1">
					<dim>1024</dim>
					<dim>256</dim>
					<dim>1</dim>
					<dim>1</dim>
				</port>
			</input>
			<output>
				<port id="2" precision="FP16">
					<dim>1</dim>
					<dim>1024</dim>
					<dim>40</dim>
					<dim>40</dim>
				</port>
			</output>
		</layer>
		<layer id="252" name="data_add_5531255317/copy_const" type="Const" version="opset1">
			<data element_type="f16" offset="12988692" shape="1,1024,1,1" size="2048"/>
			<output>
				<port id="1" precision="FP16">
					<dim>1</dim>
					<dim>1024</dim>
					<dim>1</dim>
					<dim>1</dim>
				</port>
			</output>
		</layer>
		<layer id="253" name="1169/variance/Fused_Add_" type="Add" version="opset1">
			<input>
				<port id="0">
					<dim>1</dim>
					<dim>1024</dim>
					<dim>40</dim>
					<dim>40</dim>
				</port>
				<port id="1">
					<dim>1</dim>
					<dim>1024</dim>
					<dim>1</dim>
					<dim>1</dim>
				</port>
			</input>
			<output>
				<port id="2" precision="FP16">
					<dim>1</dim>
					<dim>1024</dim>
					<dim>40</dim>
					<dim>40</dim>
				</port>
			</output>
		</layer>
		<layer id="254" name="1170" type="Add" version="opset1">
			<input>
				<port id="0">
					<dim>1</dim>
					<dim>1024</dim>
					<dim>40</dim>
					<dim>40</dim>
				</port>
				<port id="1">
					<dim>1</dim>
					<dim>1024</dim>
					<dim>40</dim>
					<dim>40</dim>
				</port>
			</input>
			<output>
				<port id="2" precision="FP16">
					<dim>1</dim>
					<dim>1024</dim>
					<dim>40</dim>
					<dim>40</dim>
				</port>
			</output>
		</layer>
		<layer id="255" name="1171" type="ReLU" version="opset1">
			<input>
				<port id="0">
					<dim>1</dim>
					<dim>1024</dim>
					<dim>40</dim>
					<dim>40</dim>
				</port>
			</input>
			<output>
				<port id="1" precision="FP16">
					<dim>1</dim>
					<dim>1024</dim>
					<dim>40</dim>
					<dim>40</dim>
				</port>
			</output>
		</layer>
		<layer id="256" name="1173/mean/Fused_Mul_5948359485_const" type="Const" version="opset1">
			<data element_type="f16" offset="12990740" shape="256,1024,1,1" size="524288"/>
			<output>
				<port id="1" precision="FP16">
					<dim>256</dim>
					<dim>1024</dim>
					<dim>1</dim>
					<dim>1</dim>
				</port>
			</output>
		</layer>
		<layer id="257" name="1172" type="Convolution" version="opset1">
			<data dilations="1,1" output_padding="0,0" pads_begin="0,0" pads_end="0,0" strides="1,1"/>
			<input>
				<port id="0">
					<dim>1</dim>
					<dim>1024</dim>
					<dim>40</dim>
					<dim>40</dim>
				</port>
				<port id="1">
					<dim>256</dim>
					<dim>1024</dim>
					<dim>1</dim>
					<dim>1</dim>
				</port>
			</input>
			<output>
				<port id="2" precision="FP16">
					<dim>1</dim>
					<dim>256</dim>
					<dim>40</dim>
					<dim>40</dim>
				</port>
			</output>
		</layer>
		<layer id="258" name="data_add_5532055325/copy_const" type="Const" version="opset1">
			<data element_type="f16" offset="13515028" shape="1,256,1,1" size="512"/>
			<output>
				<port id="1" precision="FP16">
					<dim>1</dim>
					<dim>256</dim>
					<dim>1</dim>
					<dim>1</dim>
				</port>
			</output>
		</layer>
		<layer id="259" name="1173/variance/Fused_Add_" type="Add" version="opset1">
			<input>
				<port id="0">
					<dim>1</dim>
					<dim>256</dim>
					<dim>40</dim>
					<dim>40</dim>
				</port>
				<port id="1">
					<dim>1</dim>
					<dim>256</dim>
					<dim>1</dim>
					<dim>1</dim>
				</port>
			</input>
			<output>
				<port id="2" precision="FP16">
					<dim>1</dim>
					<dim>256</dim>
					<dim>40</dim>
					<dim>40</dim>
				</port>
			</output>
		</layer>
		<layer id="260" name="1174" type="ReLU" version="opset1">
			<input>
				<port id="0">
					<dim>1</dim>
					<dim>256</dim>
					<dim>40</dim>
					<dim>40</dim>
				</port>
			</input>
			<output>
				<port id="1" precision="FP16">
					<dim>1</dim>
					<dim>256</dim>
					<dim>40</dim>
					<dim>40</dim>
				</port>
			</output>
		</layer>
		<layer id="261" name="1176/mean/Fused_Mul_5948759489_const" type="Const" version="opset1">
			<data element_type="f16" offset="13515540" shape="256,256,3,3" size="1179648"/>
			<output>
				<port id="1" precision="FP16">
					<dim>256</dim>
					<dim>256</dim>
					<dim>3</dim>
					<dim>3</dim>
				</port>
			</output>
		</layer>
		<layer id="262" name="1175" type="Convolution" version="opset1">
			<data dilations="1,1" output_padding="0,0" pads_begin="1,1" pads_end="1,1" strides="1,1"/>
			<input>
				<port id="0">
					<dim>1</dim>
					<dim>256</dim>
					<dim>40</dim>
					<dim>40</dim>
				</port>
				<port id="1">
					<dim>256</dim>
					<dim>256</dim>
					<dim>3</dim>
					<dim>3</dim>
				</port>
			</input>
			<output>
				<port id="2" precision="FP16">
					<dim>1</dim>
					<dim>256</dim>
					<dim>40</dim>
					<dim>40</dim>
				</port>
			</output>
		</layer>
		<layer id="263" name="data_add_5532855333/copy_const" type="Const" version="opset1">
			<data element_type="f16" offset="14695188" shape="1,256,1,1" size="512"/>
			<output>
				<port id="1" precision="FP16">
					<dim>1</dim>
					<dim>256</dim>
					<dim>1</dim>
					<dim>1</dim>
				</port>
			</output>
		</layer>
		<layer id="264" name="1176/variance/Fused_Add_" type="Add" version="opset1">
			<input>
				<port id="0">
					<dim>1</dim>
					<dim>256</dim>
					<dim>40</dim>
					<dim>40</dim>
				</port>
				<port id="1">
					<dim>1</dim>
					<dim>256</dim>
					<dim>1</dim>
					<dim>1</dim>
				</port>
			</input>
			<output>
				<port id="2" precision="FP16">
					<dim>1</dim>
					<dim>256</dim>
					<dim>40</dim>
					<dim>40</dim>
				</port>
			</output>
		</layer>
		<layer id="265" name="1177" type="ReLU" version="opset1">
			<input>
				<port id="0">
					<dim>1</dim>
					<dim>256</dim>
					<dim>40</dim>
					<dim>40</dim>
				</port>
			</input>
			<output>
				<port id="1" precision="FP16">
					<dim>1</dim>
					<dim>256</dim>
					<dim>40</dim>
					<dim>40</dim>
				</port>
			</output>
		</layer>
		<layer id="266" name="1179/mean/Fused_Mul_5949159493_const" type="Const" version="opset1">
			<data element_type="f16" offset="14695700" shape="1024,256,1,1" size="524288"/>
			<output>
				<port id="1" precision="FP16">
					<dim>1024</dim>
					<dim>256</dim>
					<dim>1</dim>
					<dim>1</dim>
				</port>
			</output>
		</layer>
		<layer id="267" name="1178" type="Convolution" version="opset1">
			<data dilations="1,1" output_padding="0,0" pads_begin="0,0" pads_end="0,0" strides="1,1"/>
			<input>
				<port id="0">
					<dim>1</dim>
					<dim>256</dim>
					<dim>40</dim>
					<dim>40</dim>
				</port>
				<port id="1">
					<dim>1024</dim>
					<dim>256</dim>
					<dim>1</dim>
					<dim>1</dim>
				</port>
			</input>
			<output>
				<port id="2" precision="FP16">
					<dim>1</dim>
					<dim>1024</dim>
					<dim>40</dim>
					<dim>40</dim>
				</port>
			</output>
		</layer>
		<layer id="268" name="data_add_5533655341/copy_const" type="Const" version="opset1">
			<data element_type="f16" offset="15219988" shape="1,1024,1,1" size="2048"/>
			<output>
				<port id="1" precision="FP16">
					<dim>1</dim>
					<dim>1024</dim>
					<dim>1</dim>
					<dim>1</dim>
				</port>
			</output>
		</layer>
		<layer id="269" name="1179/variance/Fused_Add_" type="Add" version="opset1">
			<input>
				<port id="0">
					<dim>1</dim>
					<dim>1024</dim>
					<dim>40</dim>
					<dim>40</dim>
				</port>
				<port id="1">
					<dim>1</dim>
					<dim>1024</dim>
					<dim>1</dim>
					<dim>1</dim>
				</port>
			</input>
			<output>
				<port id="2" precision="FP16">
					<dim>1</dim>
					<dim>1024</dim>
					<dim>40</dim>
					<dim>40</dim>
				</port>
			</output>
		</layer>
		<layer id="270" name="1180" type="Add" version="opset1">
			<input>
				<port id="0">
					<dim>1</dim>
					<dim>1024</dim>
					<dim>40</dim>
					<dim>40</dim>
				</port>
				<port id="1">
					<dim>1</dim>
					<dim>1024</dim>
					<dim>40</dim>
					<dim>40</dim>
				</port>
			</input>
			<output>
				<port id="2" precision="FP16">
					<dim>1</dim>
					<dim>1024</dim>
					<dim>40</dim>
					<dim>40</dim>
				</port>
			</output>
		</layer>
		<layer id="271" name="1181" type="ReLU" version="opset1">
			<input>
				<port id="0">
					<dim>1</dim>
					<dim>1024</dim>
					<dim>40</dim>
					<dim>40</dim>
				</port>
			</input>
			<output>
				<port id="1" precision="FP16">
					<dim>1</dim>
					<dim>1024</dim>
					<dim>40</dim>
					<dim>40</dim>
				</port>
			</output>
		</layer>
		<layer id="272" name="1183/mean/Fused_Mul_5949559497_const" type="Const" version="opset1">
			<data element_type="f16" offset="15222036" shape="256,1024,1,1" size="524288"/>
			<output>
				<port id="1" precision="FP16">
					<dim>256</dim>
					<dim>1024</dim>
					<dim>1</dim>
					<dim>1</dim>
				</port>
			</output>
		</layer>
		<layer id="273" name="1182" type="Convolution" version="opset1">
			<data dilations="1,1" output_padding="0,0" pads_begin="0,0" pads_end="0,0" strides="1,1"/>
			<input>
				<port id="0">
					<dim>1</dim>
					<dim>1024</dim>
					<dim>40</dim>
					<dim>40</dim>
				</port>
				<port id="1">
					<dim>256</dim>
					<dim>1024</dim>
					<dim>1</dim>
					<dim>1</dim>
				</port>
			</input>
			<output>
				<port id="2" precision="FP16">
					<dim>1</dim>
					<dim>256</dim>
					<dim>40</dim>
					<dim>40</dim>
				</port>
			</output>
		</layer>
		<layer id="274" name="data_add_5534455349/copy_const" type="Const" version="opset1">
			<data element_type="f16" offset="15746324" shape="1,256,1,1" size="512"/>
			<output>
				<port id="1" precision="FP16">
					<dim>1</dim>
					<dim>256</dim>
					<dim>1</dim>
					<dim>1</dim>
				</port>
			</output>
		</layer>
		<layer id="275" name="1183/variance/Fused_Add_" type="Add" version="opset1">
			<input>
				<port id="0">
					<dim>1</dim>
					<dim>256</dim>
					<dim>40</dim>
					<dim>40</dim>
				</port>
				<port id="1">
					<dim>1</dim>
					<dim>256</dim>
					<dim>1</dim>
					<dim>1</dim>
				</port>
			</input>
			<output>
				<port id="2" precision="FP16">
					<dim>1</dim>
					<dim>256</dim>
					<dim>40</dim>
					<dim>40</dim>
				</port>
			</output>
		</layer>
		<layer id="276" name="1184" type="ReLU" version="opset1">
			<input>
				<port id="0">
					<dim>1</dim>
					<dim>256</dim>
					<dim>40</dim>
					<dim>40</dim>
				</port>
			</input>
			<output>
				<port id="1" precision="FP16">
					<dim>1</dim>
					<dim>256</dim>
					<dim>40</dim>
					<dim>40</dim>
				</port>
			</output>
		</layer>
		<layer id="277" name="1186/mean/Fused_Mul_5949959501_const" type="Const" version="opset1">
			<data element_type="f16" offset="15746836" shape="256,256,3,3" size="1179648"/>
			<output>
				<port id="1" precision="FP16">
					<dim>256</dim>
					<dim>256</dim>
					<dim>3</dim>
					<dim>3</dim>
				</port>
			</output>
		</layer>
		<layer id="278" name="1185" type="Convolution" version="opset1">
			<data dilations="1,1" output_padding="0,0" pads_begin="1,1" pads_end="1,1" strides="1,1"/>
			<input>
				<port id="0">
					<dim>1</dim>
					<dim>256</dim>
					<dim>40</dim>
					<dim>40</dim>
				</port>
				<port id="1">
					<dim>256</dim>
					<dim>256</dim>
					<dim>3</dim>
					<dim>3</dim>
				</port>
			</input>
			<output>
				<port id="2" precision="FP16">
					<dim>1</dim>
					<dim>256</dim>
					<dim>40</dim>
					<dim>40</dim>
				</port>
			</output>
		</layer>
		<layer id="279" name="data_add_5535255357/copy_const" type="Const" version="opset1">
			<data element_type="f16" offset="16926484" shape="1,256,1,1" size="512"/>
			<output>
				<port id="1" precision="FP16">
					<dim>1</dim>
					<dim>256</dim>
					<dim>1</dim>
					<dim>1</dim>
				</port>
			</output>
		</layer>
		<layer id="280" name="1186/variance/Fused_Add_" type="Add" version="opset1">
			<input>
				<port id="0">
					<dim>1</dim>
					<dim>256</dim>
					<dim>40</dim>
					<dim>40</dim>
				</port>
				<port id="1">
					<dim>1</dim>
					<dim>256</dim>
					<dim>1</dim>
					<dim>1</dim>
				</port>
			</input>
			<output>
				<port id="2" precision="FP16">
					<dim>1</dim>
					<dim>256</dim>
					<dim>40</dim>
					<dim>40</dim>
				</port>
			</output>
		</layer>
		<layer id="281" name="1187" type="ReLU" version="opset1">
			<input>
				<port id="0">
					<dim>1</dim>
					<dim>256</dim>
					<dim>40</dim>
					<dim>40</dim>
				</port>
			</input>
			<output>
				<port id="1" precision="FP16">
					<dim>1</dim>
					<dim>256</dim>
					<dim>40</dim>
					<dim>40</dim>
				</port>
			</output>
		</layer>
		<layer id="282" name="1189/mean/Fused_Mul_5950359505_const" type="Const" version="opset1">
			<data element_type="f16" offset="16926996" shape="1024,256,1,1" size="524288"/>
			<output>
				<port id="1" precision="FP16">
					<dim>1024</dim>
					<dim>256</dim>
					<dim>1</dim>
					<dim>1</dim>
				</port>
			</output>
		</layer>
		<layer id="283" name="1188" type="Convolution" version="opset1">
			<data dilations="1,1" output_padding="0,0" pads_begin="0,0" pads_end="0,0" strides="1,1"/>
			<input>
				<port id="0">
					<dim>1</dim>
					<dim>256</dim>
					<dim>40</dim>
					<dim>40</dim>
				</port>
				<port id="1">
					<dim>1024</dim>
					<dim>256</dim>
					<dim>1</dim>
					<dim>1</dim>
				</port>
			</input>
			<output>
				<port id="2" precision="FP16">
					<dim>1</dim>
					<dim>1024</dim>
					<dim>40</dim>
					<dim>40</dim>
				</port>
			</output>
		</layer>
		<layer id="284" name="data_add_5536055365/copy_const" type="Const" version="opset1">
			<data element_type="f16" offset="17451284" shape="1,1024,1,1" size="2048"/>
			<output>
				<port id="1" precision="FP16">
					<dim>1</dim>
					<dim>1024</dim>
					<dim>1</dim>
					<dim>1</dim>
				</port>
			</output>
		</layer>
		<layer id="285" name="1189/variance/Fused_Add_" type="Add" version="opset1">
			<input>
				<port id="0">
					<dim>1</dim>
					<dim>1024</dim>
					<dim>40</dim>
					<dim>40</dim>
				</port>
				<port id="1">
					<dim>1</dim>
					<dim>1024</dim>
					<dim>1</dim>
					<dim>1</dim>
				</port>
			</input>
			<output>
				<port id="2" precision="FP16">
					<dim>1</dim>
					<dim>1024</dim>
					<dim>40</dim>
					<dim>40</dim>
				</port>
			</output>
		</layer>
		<layer id="286" name="1190" type="Add" version="opset1">
			<input>
				<port id="0">
					<dim>1</dim>
					<dim>1024</dim>
					<dim>40</dim>
					<dim>40</dim>
				</port>
				<port id="1">
					<dim>1</dim>
					<dim>1024</dim>
					<dim>40</dim>
					<dim>40</dim>
				</port>
			</input>
			<output>
				<port id="2" precision="FP16">
					<dim>1</dim>
					<dim>1024</dim>
					<dim>40</dim>
					<dim>40</dim>
				</port>
			</output>
		</layer>
		<layer id="287" name="1191" type="ReLU" version="opset1">
			<input>
				<port id="0">
					<dim>1</dim>
					<dim>1024</dim>
					<dim>40</dim>
					<dim>40</dim>
				</port>
			</input>
			<output>
				<port id="1" precision="FP16">
					<dim>1</dim>
					<dim>1024</dim>
					<dim>40</dim>
					<dim>40</dim>
				</port>
			</output>
		</layer>
		<layer id="288" name="1193/mean/Fused_Mul_5950759509_const" type="Const" version="opset1">
			<data element_type="f16" offset="17453332" shape="256,1024,1,1" size="524288"/>
			<output>
				<port id="1" precision="FP16">
					<dim>256</dim>
					<dim>1024</dim>
					<dim>1</dim>
					<dim>1</dim>
				</port>
			</output>
		</layer>
		<layer id="289" name="1192" type="Convolution" version="opset1">
			<data dilations="1,1" output_padding="0,0" pads_begin="0,0" pads_end="0,0" strides="1,1"/>
			<input>
				<port id="0">
					<dim>1</dim>
					<dim>1024</dim>
					<dim>40</dim>
					<dim>40</dim>
				</port>
				<port id="1">
					<dim>256</dim>
					<dim>1024</dim>
					<dim>1</dim>
					<dim>1</dim>
				</port>
			</input>
			<output>
				<port id="2" precision="FP16">
					<dim>1</dim>
					<dim>256</dim>
					<dim>40</dim>
					<dim>40</dim>
				</port>
			</output>
		</layer>
		<layer id="290" name="data_add_5536855373/copy_const" type="Const" version="opset1">
			<data element_type="f16" offset="17977620" shape="1,256,1,1" size="512"/>
			<output>
				<port id="1" precision="FP16">
					<dim>1</dim>
					<dim>256</dim>
					<dim>1</dim>
					<dim>1</dim>
				</port>
			</output>
		</layer>
		<layer id="291" name="1193/variance/Fused_Add_" type="Add" version="opset1">
			<input>
				<port id="0">
					<dim>1</dim>
					<dim>256</dim>
					<dim>40</dim>
					<dim>40</dim>
				</port>
				<port id="1">
					<dim>1</dim>
					<dim>256</dim>
					<dim>1</dim>
					<dim>1</dim>
				</port>
			</input>
			<output>
				<port id="2" precision="FP16">
					<dim>1</dim>
					<dim>256</dim>
					<dim>40</dim>
					<dim>40</dim>
				</port>
			</output>
		</layer>
		<layer id="292" name="1194" type="ReLU" version="opset1">
			<input>
				<port id="0">
					<dim>1</dim>
					<dim>256</dim>
					<dim>40</dim>
					<dim>40</dim>
				</port>
			</input>
			<output>
				<port id="1" precision="FP16">
					<dim>1</dim>
					<dim>256</dim>
					<dim>40</dim>
					<dim>40</dim>
				</port>
			</output>
		</layer>
		<layer id="293" name="1196/mean/Fused_Mul_5951159513_const" type="Const" version="opset1">
			<data element_type="f16" offset="17978132" shape="256,256,3,3" size="1179648"/>
			<output>
				<port id="1" precision="FP16">
					<dim>256</dim>
					<dim>256</dim>
					<dim>3</dim>
					<dim>3</dim>
				</port>
			</output>
		</layer>
		<layer id="294" name="1195" type="Convolution" version="opset1">
			<data dilations="1,1" output_padding="0,0" pads_begin="1,1" pads_end="1,1" strides="1,1"/>
			<input>
				<port id="0">
					<dim>1</dim>
					<dim>256</dim>
					<dim>40</dim>
					<dim>40</dim>
				</port>
				<port id="1">
					<dim>256</dim>
					<dim>256</dim>
					<dim>3</dim>
					<dim>3</dim>
				</port>
			</input>
			<output>
				<port id="2" precision="FP16">
					<dim>1</dim>
					<dim>256</dim>
					<dim>40</dim>
					<dim>40</dim>
				</port>
			</output>
		</layer>
		<layer id="295" name="data_add_5537655381/copy_const" type="Const" version="opset1">
			<data element_type="f16" offset="19157780" shape="1,256,1,1" size="512"/>
			<output>
				<port id="1" precision="FP16">
					<dim>1</dim>
					<dim>256</dim>
					<dim>1</dim>
					<dim>1</dim>
				</port>
			</output>
		</layer>
		<layer id="296" name="1196/variance/Fused_Add_" type="Add" version="opset1">
			<input>
				<port id="0">
					<dim>1</dim>
					<dim>256</dim>
					<dim>40</dim>
					<dim>40</dim>
				</port>
				<port id="1">
					<dim>1</dim>
					<dim>256</dim>
					<dim>1</dim>
					<dim>1</dim>
				</port>
			</input>
			<output>
				<port id="2" precision="FP16">
					<dim>1</dim>
					<dim>256</dim>
					<dim>40</dim>
					<dim>40</dim>
				</port>
			</output>
		</layer>
		<layer id="297" name="1197" type="ReLU" version="opset1">
			<input>
				<port id="0">
					<dim>1</dim>
					<dim>256</dim>
					<dim>40</dim>
					<dim>40</dim>
				</port>
			</input>
			<output>
				<port id="1" precision="FP16">
					<dim>1</dim>
					<dim>256</dim>
					<dim>40</dim>
					<dim>40</dim>
				</port>
			</output>
		</layer>
		<layer id="298" name="1199/mean/Fused_Mul_5951559517_const" type="Const" version="opset1">
			<data element_type="f16" offset="19158292" shape="1024,256,1,1" size="524288"/>
			<output>
				<port id="1" precision="FP16">
					<dim>1024</dim>
					<dim>256</dim>
					<dim>1</dim>
					<dim>1</dim>
				</port>
			</output>
		</layer>
		<layer id="299" name="1198" type="Convolution" version="opset1">
			<data dilations="1,1" output_padding="0,0" pads_begin="0,0" pads_end="0,0" strides="1,1"/>
			<input>
				<port id="0">
					<dim>1</dim>
					<dim>256</dim>
					<dim>40</dim>
					<dim>40</dim>
				</port>
				<port id="1">
					<dim>1024</dim>
					<dim>256</dim>
					<dim>1</dim>
					<dim>1</dim>
				</port>
			</input>
			<output>
				<port id="2" precision="FP16">
					<dim>1</dim>
					<dim>1024</dim>
					<dim>40</dim>
					<dim>40</dim>
				</port>
			</output>
		</layer>
		<layer id="300" name="data_add_5538455389/copy_const" type="Const" version="opset1">
			<data element_type="f16" offset="19682580" shape="1,1024,1,1" size="2048"/>
			<output>
				<port id="1" precision="FP16">
					<dim>1</dim>
					<dim>1024</dim>
					<dim>1</dim>
					<dim>1</dim>
				</port>
			</output>
		</layer>
		<layer id="301" name="1199/variance/Fused_Add_" type="Add" version="opset1">
			<input>
				<port id="0">
					<dim>1</dim>
					<dim>1024</dim>
					<dim>40</dim>
					<dim>40</dim>
				</port>
				<port id="1">
					<dim>1</dim>
					<dim>1024</dim>
					<dim>1</dim>
					<dim>1</dim>
				</port>
			</input>
			<output>
				<port id="2" precision="FP16">
					<dim>1</dim>
					<dim>1024</dim>
					<dim>40</dim>
					<dim>40</dim>
				</port>
			</output>
		</layer>
		<layer id="302" name="1200" type="Add" version="opset1">
			<input>
				<port id="0">
					<dim>1</dim>
					<dim>1024</dim>
					<dim>40</dim>
					<dim>40</dim>
				</port>
				<port id="1">
					<dim>1</dim>
					<dim>1024</dim>
					<dim>40</dim>
					<dim>40</dim>
				</port>
			</input>
			<output>
				<port id="2" precision="FP16">
					<dim>1</dim>
					<dim>1024</dim>
					<dim>40</dim>
					<dim>40</dim>
				</port>
			</output>
		</layer>
		<layer id="303" name="1201" type="ReLU" version="opset1">
			<input>
				<port id="0">
					<dim>1</dim>
					<dim>1024</dim>
					<dim>40</dim>
					<dim>40</dim>
				</port>
			</input>
			<output>
				<port id="1" precision="FP16">
					<dim>1</dim>
					<dim>1024</dim>
					<dim>40</dim>
					<dim>40</dim>
				</port>
			</output>
		</layer>
		<layer id="304" name="1203/mean/Fused_Mul_5951959521_const" type="Const" version="opset1">
			<data element_type="f16" offset="19684628" shape="256,1024,1,1" size="524288"/>
			<output>
				<port id="1" precision="FP16">
					<dim>256</dim>
					<dim>1024</dim>
					<dim>1</dim>
					<dim>1</dim>
				</port>
			</output>
		</layer>
		<layer id="305" name="1202" type="Convolution" version="opset1">
			<data dilations="1,1" output_padding="0,0" pads_begin="0,0" pads_end="0,0" strides="1,1"/>
			<input>
				<port id="0">
					<dim>1</dim>
					<dim>1024</dim>
					<dim>40</dim>
					<dim>40</dim>
				</port>
				<port id="1">
					<dim>256</dim>
					<dim>1024</dim>
					<dim>1</dim>
					<dim>1</dim>
				</port>
			</input>
			<output>
				<port id="2" precision="FP16">
					<dim>1</dim>
					<dim>256</dim>
					<dim>40</dim>
					<dim>40</dim>
				</port>
			</output>
		</layer>
		<layer id="306" name="data_add_5539255397/copy_const" type="Const" version="opset1">
			<data element_type="f16" offset="20208916" shape="1,256,1,1" size="512"/>
			<output>
				<port id="1" precision="FP16">
					<dim>1</dim>
					<dim>256</dim>
					<dim>1</dim>
					<dim>1</dim>
				</port>
			</output>
		</layer>
		<layer id="307" name="1203/variance/Fused_Add_" type="Add" version="opset1">
			<input>
				<port id="0">
					<dim>1</dim>
					<dim>256</dim>
					<dim>40</dim>
					<dim>40</dim>
				</port>
				<port id="1">
					<dim>1</dim>
					<dim>256</dim>
					<dim>1</dim>
					<dim>1</dim>
				</port>
			</input>
			<output>
				<port id="2" precision="FP16">
					<dim>1</dim>
					<dim>256</dim>
					<dim>40</dim>
					<dim>40</dim>
				</port>
			</output>
		</layer>
		<layer id="308" name="1204" type="ReLU" version="opset1">
			<input>
				<port id="0">
					<dim>1</dim>
					<dim>256</dim>
					<dim>40</dim>
					<dim>40</dim>
				</port>
			</input>
			<output>
				<port id="1" precision="FP16">
					<dim>1</dim>
					<dim>256</dim>
					<dim>40</dim>
					<dim>40</dim>
				</port>
			</output>
		</layer>
		<layer id="309" name="1206/mean/Fused_Mul_5952359525_const" type="Const" version="opset1">
			<data element_type="f16" offset="20209428" shape="256,256,3,3" size="1179648"/>
			<output>
				<port id="1" precision="FP16">
					<dim>256</dim>
					<dim>256</dim>
					<dim>3</dim>
					<dim>3</dim>
				</port>
			</output>
		</layer>
		<layer id="310" name="1205" type="Convolution" version="opset1">
			<data dilations="1,1" output_padding="0,0" pads_begin="1,1" pads_end="1,1" strides="1,1"/>
			<input>
				<port id="0">
					<dim>1</dim>
					<dim>256</dim>
					<dim>40</dim>
					<dim>40</dim>
				</port>
				<port id="1">
					<dim>256</dim>
					<dim>256</dim>
					<dim>3</dim>
					<dim>3</dim>
				</port>
			</input>
			<output>
				<port id="2" precision="FP16">
					<dim>1</dim>
					<dim>256</dim>
					<dim>40</dim>
					<dim>40</dim>
				</port>
			</output>
		</layer>
		<layer id="311" name="data_add_5540055405/copy_const" type="Const" version="opset1">
			<data element_type="f16" offset="21389076" shape="1,256,1,1" size="512"/>
			<output>
				<port id="1" precision="FP16">
					<dim>1</dim>
					<dim>256</dim>
					<dim>1</dim>
					<dim>1</dim>
				</port>
			</output>
		</layer>
		<layer id="312" name="1206/variance/Fused_Add_" type="Add" version="opset1">
			<input>
				<port id="0">
					<dim>1</dim>
					<dim>256</dim>
					<dim>40</dim>
					<dim>40</dim>
				</port>
				<port id="1">
					<dim>1</dim>
					<dim>256</dim>
					<dim>1</dim>
					<dim>1</dim>
				</port>
			</input>
			<output>
				<port id="2" precision="FP16">
					<dim>1</dim>
					<dim>256</dim>
					<dim>40</dim>
					<dim>40</dim>
				</port>
			</output>
		</layer>
		<layer id="313" name="1207" type="ReLU" version="opset1">
			<input>
				<port id="0">
					<dim>1</dim>
					<dim>256</dim>
					<dim>40</dim>
					<dim>40</dim>
				</port>
			</input>
			<output>
				<port id="1" precision="FP16">
					<dim>1</dim>
					<dim>256</dim>
					<dim>40</dim>
					<dim>40</dim>
				</port>
			</output>
		</layer>
		<layer id="314" name="1209/mean/Fused_Mul_5952759529_const" type="Const" version="opset1">
			<data element_type="f16" offset="21389588" shape="1024,256,1,1" size="524288"/>
			<output>
				<port id="1" precision="FP16">
					<dim>1024</dim>
					<dim>256</dim>
					<dim>1</dim>
					<dim>1</dim>
				</port>
			</output>
		</layer>
		<layer id="315" name="1208" type="Convolution" version="opset1">
			<data dilations="1,1" output_padding="0,0" pads_begin="0,0" pads_end="0,0" strides="1,1"/>
			<input>
				<port id="0">
					<dim>1</dim>
					<dim>256</dim>
					<dim>40</dim>
					<dim>40</dim>
				</port>
				<port id="1">
					<dim>1024</dim>
					<dim>256</dim>
					<dim>1</dim>
					<dim>1</dim>
				</port>
			</input>
			<output>
				<port id="2" precision="FP16">
					<dim>1</dim>
					<dim>1024</dim>
					<dim>40</dim>
					<dim>40</dim>
				</port>
			</output>
		</layer>
		<layer id="316" name="data_add_5540855413/copy_const" type="Const" version="opset1">
			<data element_type="f16" offset="21913876" shape="1,1024,1,1" size="2048"/>
			<output>
				<port id="1" precision="FP16">
					<dim>1</dim>
					<dim>1024</dim>
					<dim>1</dim>
					<dim>1</dim>
				</port>
			</output>
		</layer>
		<layer id="317" name="1209/variance/Fused_Add_" type="Add" version="opset1">
			<input>
				<port id="0">
					<dim>1</dim>
					<dim>1024</dim>
					<dim>40</dim>
					<dim>40</dim>
				</port>
				<port id="1">
					<dim>1</dim>
					<dim>1024</dim>
					<dim>1</dim>
					<dim>1</dim>
				</port>
			</input>
			<output>
				<port id="2" precision="FP16">
					<dim>1</dim>
					<dim>1024</dim>
					<dim>40</dim>
					<dim>40</dim>
				</port>
			</output>
		</layer>
		<layer id="318" name="1210" type="Add" version="opset1">
			<input>
				<port id="0">
					<dim>1</dim>
					<dim>1024</dim>
					<dim>40</dim>
					<dim>40</dim>
				</port>
				<port id="1">
					<dim>1</dim>
					<dim>1024</dim>
					<dim>40</dim>
					<dim>40</dim>
				</port>
			</input>
			<output>
				<port id="2" precision="FP16">
					<dim>1</dim>
					<dim>1024</dim>
					<dim>40</dim>
					<dim>40</dim>
				</port>
			</output>
		</layer>
		<layer id="319" name="1211" type="ReLU" version="opset1">
			<input>
				<port id="0">
					<dim>1</dim>
					<dim>1024</dim>
					<dim>40</dim>
					<dim>40</dim>
				</port>
			</input>
			<output>
				<port id="1" precision="FP16">
					<dim>1</dim>
					<dim>1024</dim>
					<dim>40</dim>
					<dim>40</dim>
				</port>
			</output>
		</layer>
		<layer id="320" name="1213/mean/Fused_Mul_5953159533_const" type="Const" version="opset1">
			<data element_type="f16" offset="21915924" shape="256,1024,1,1" size="524288"/>
			<output>
				<port id="1" precision="FP16">
					<dim>256</dim>
					<dim>1024</dim>
					<dim>1</dim>
					<dim>1</dim>
				</port>
			</output>
		</layer>
		<layer id="321" name="1212" type="Convolution" version="opset1">
			<data dilations="1,1" output_padding="0,0" pads_begin="0,0" pads_end="0,0" strides="1,1"/>
			<input>
				<port id="0">
					<dim>1</dim>
					<dim>1024</dim>
					<dim>40</dim>
					<dim>40</dim>
				</port>
				<port id="1">
					<dim>256</dim>
					<dim>1024</dim>
					<dim>1</dim>
					<dim>1</dim>
				</port>
			</input>
			<output>
				<port id="2" precision="FP16">
					<dim>1</dim>
					<dim>256</dim>
					<dim>40</dim>
					<dim>40</dim>
				</port>
			</output>
		</layer>
		<layer id="322" name="data_add_5541655421/copy_const" type="Const" version="opset1">
			<data element_type="f16" offset="22440212" shape="1,256,1,1" size="512"/>
			<output>
				<port id="1" precision="FP16">
					<dim>1</dim>
					<dim>256</dim>
					<dim>1</dim>
					<dim>1</dim>
				</port>
			</output>
		</layer>
		<layer id="323" name="1213/variance/Fused_Add_" type="Add" version="opset1">
			<input>
				<port id="0">
					<dim>1</dim>
					<dim>256</dim>
					<dim>40</dim>
					<dim>40</dim>
				</port>
				<port id="1">
					<dim>1</dim>
					<dim>256</dim>
					<dim>1</dim>
					<dim>1</dim>
				</port>
			</input>
			<output>
				<port id="2" precision="FP16">
					<dim>1</dim>
					<dim>256</dim>
					<dim>40</dim>
					<dim>40</dim>
				</port>
			</output>
		</layer>
		<layer id="324" name="1214" type="ReLU" version="opset1">
			<input>
				<port id="0">
					<dim>1</dim>
					<dim>256</dim>
					<dim>40</dim>
					<dim>40</dim>
				</port>
			</input>
			<output>
				<port id="1" precision="FP16">
					<dim>1</dim>
					<dim>256</dim>
					<dim>40</dim>
					<dim>40</dim>
				</port>
			</output>
		</layer>
		<layer id="325" name="1216/mean/Fused_Mul_5953559537_const" type="Const" version="opset1">
			<data element_type="f16" offset="22440724" shape="256,256,3,3" size="1179648"/>
			<output>
				<port id="1" precision="FP16">
					<dim>256</dim>
					<dim>256</dim>
					<dim>3</dim>
					<dim>3</dim>
				</port>
			</output>
		</layer>
		<layer id="326" name="1215" type="Convolution" version="opset1">
			<data dilations="1,1" output_padding="0,0" pads_begin="1,1" pads_end="1,1" strides="1,1"/>
			<input>
				<port id="0">
					<dim>1</dim>
					<dim>256</dim>
					<dim>40</dim>
					<dim>40</dim>
				</port>
				<port id="1">
					<dim>256</dim>
					<dim>256</dim>
					<dim>3</dim>
					<dim>3</dim>
				</port>
			</input>
			<output>
				<port id="2" precision="FP16">
					<dim>1</dim>
					<dim>256</dim>
					<dim>40</dim>
					<dim>40</dim>
				</port>
			</output>
		</layer>
		<layer id="327" name="data_add_5542455429/copy_const" type="Const" version="opset1">
			<data element_type="f16" offset="23620372" shape="1,256,1,1" size="512"/>
			<output>
				<port id="1" precision="FP16">
					<dim>1</dim>
					<dim>256</dim>
					<dim>1</dim>
					<dim>1</dim>
				</port>
			</output>
		</layer>
		<layer id="328" name="1216/variance/Fused_Add_" type="Add" version="opset1">
			<input>
				<port id="0">
					<dim>1</dim>
					<dim>256</dim>
					<dim>40</dim>
					<dim>40</dim>
				</port>
				<port id="1">
					<dim>1</dim>
					<dim>256</dim>
					<dim>1</dim>
					<dim>1</dim>
				</port>
			</input>
			<output>
				<port id="2" precision="FP16">
					<dim>1</dim>
					<dim>256</dim>
					<dim>40</dim>
					<dim>40</dim>
				</port>
			</output>
		</layer>
		<layer id="329" name="1217" type="ReLU" version="opset1">
			<input>
				<port id="0">
					<dim>1</dim>
					<dim>256</dim>
					<dim>40</dim>
					<dim>40</dim>
				</port>
			</input>
			<output>
				<port id="1" precision="FP16">
					<dim>1</dim>
					<dim>256</dim>
					<dim>40</dim>
					<dim>40</dim>
				</port>
			</output>
		</layer>
		<layer id="330" name="1219/mean/Fused_Mul_5953959541_const" type="Const" version="opset1">
			<data element_type="f16" offset="23620884" shape="1024,256,1,1" size="524288"/>
			<output>
				<port id="1" precision="FP16">
					<dim>1024</dim>
					<dim>256</dim>
					<dim>1</dim>
					<dim>1</dim>
				</port>
			</output>
		</layer>
		<layer id="331" name="1218" type="Convolution" version="opset1">
			<data dilations="1,1" output_padding="0,0" pads_begin="0,0" pads_end="0,0" strides="1,1"/>
			<input>
				<port id="0">
					<dim>1</dim>
					<dim>256</dim>
					<dim>40</dim>
					<dim>40</dim>
				</port>
				<port id="1">
					<dim>1024</dim>
					<dim>256</dim>
					<dim>1</dim>
					<dim>1</dim>
				</port>
			</input>
			<output>
				<port id="2" precision="FP16">
					<dim>1</dim>
					<dim>1024</dim>
					<dim>40</dim>
					<dim>40</dim>
				</port>
			</output>
		</layer>
		<layer id="332" name="data_add_5543255437/copy_const" type="Const" version="opset1">
			<data element_type="f16" offset="24145172" shape="1,1024,1,1" size="2048"/>
			<output>
				<port id="1" precision="FP16">
					<dim>1</dim>
					<dim>1024</dim>
					<dim>1</dim>
					<dim>1</dim>
				</port>
			</output>
		</layer>
		<layer id="333" name="1219/variance/Fused_Add_" type="Add" version="opset1">
			<input>
				<port id="0">
					<dim>1</dim>
					<dim>1024</dim>
					<dim>40</dim>
					<dim>40</dim>
				</port>
				<port id="1">
					<dim>1</dim>
					<dim>1024</dim>
					<dim>1</dim>
					<dim>1</dim>
				</port>
			</input>
			<output>
				<port id="2" precision="FP16">
					<dim>1</dim>
					<dim>1024</dim>
					<dim>40</dim>
					<dim>40</dim>
				</port>
			</output>
		</layer>
		<layer id="334" name="1220" type="Add" version="opset1">
			<input>
				<port id="0">
					<dim>1</dim>
					<dim>1024</dim>
					<dim>40</dim>
					<dim>40</dim>
				</port>
				<port id="1">
					<dim>1</dim>
					<dim>1024</dim>
					<dim>40</dim>
					<dim>40</dim>
				</port>
			</input>
			<output>
				<port id="2" precision="FP16">
					<dim>1</dim>
					<dim>1024</dim>
					<dim>40</dim>
					<dim>40</dim>
				</port>
			</output>
		</layer>
		<layer id="335" name="1221" type="ReLU" version="opset1">
			<input>
				<port id="0">
					<dim>1</dim>
					<dim>1024</dim>
					<dim>40</dim>
					<dim>40</dim>
				</port>
			</input>
			<output>
				<port id="1" precision="FP16">
					<dim>1</dim>
					<dim>1024</dim>
					<dim>40</dim>
					<dim>40</dim>
				</port>
			</output>
		</layer>
		<layer id="336" name="1223/mean/Fused_Mul_5954359545_const" type="Const" version="opset1">
			<data element_type="f16" offset="24147220" shape="256,1024,1,1" size="524288"/>
			<output>
				<port id="1" precision="FP16">
					<dim>256</dim>
					<dim>1024</dim>
					<dim>1</dim>
					<dim>1</dim>
				</port>
			</output>
		</layer>
		<layer id="337" name="1222" type="Convolution" version="opset1">
			<data dilations="1,1" output_padding="0,0" pads_begin="0,0" pads_end="0,0" strides="1,1"/>
			<input>
				<port id="0">
					<dim>1</dim>
					<dim>1024</dim>
					<dim>40</dim>
					<dim>40</dim>
				</port>
				<port id="1">
					<dim>256</dim>
					<dim>1024</dim>
					<dim>1</dim>
					<dim>1</dim>
				</port>
			</input>
			<output>
				<port id="2" precision="FP16">
					<dim>1</dim>
					<dim>256</dim>
					<dim>40</dim>
					<dim>40</dim>
				</port>
			</output>
		</layer>
		<layer id="338" name="data_add_5544055445/copy_const" type="Const" version="opset1">
			<data element_type="f16" offset="24671508" shape="1,256,1,1" size="512"/>
			<output>
				<port id="1" precision="FP16">
					<dim>1</dim>
					<dim>256</dim>
					<dim>1</dim>
					<dim>1</dim>
				</port>
			</output>
		</layer>
		<layer id="339" name="1223/variance/Fused_Add_" type="Add" version="opset1">
			<input>
				<port id="0">
					<dim>1</dim>
					<dim>256</dim>
					<dim>40</dim>
					<dim>40</dim>
				</port>
				<port id="1">
					<dim>1</dim>
					<dim>256</dim>
					<dim>1</dim>
					<dim>1</dim>
				</port>
			</input>
			<output>
				<port id="2" precision="FP16">
					<dim>1</dim>
					<dim>256</dim>
					<dim>40</dim>
					<dim>40</dim>
				</port>
			</output>
		</layer>
		<layer id="340" name="1224" type="ReLU" version="opset1">
			<input>
				<port id="0">
					<dim>1</dim>
					<dim>256</dim>
					<dim>40</dim>
					<dim>40</dim>
				</port>
			</input>
			<output>
				<port id="1" precision="FP16">
					<dim>1</dim>
					<dim>256</dim>
					<dim>40</dim>
					<dim>40</dim>
				</port>
			</output>
		</layer>
		<layer id="341" name="1226/mean/Fused_Mul_5954759549_const" type="Const" version="opset1">
			<data element_type="f16" offset="24672020" shape="256,256,3,3" size="1179648"/>
			<output>
				<port id="1" precision="FP16">
					<dim>256</dim>
					<dim>256</dim>
					<dim>3</dim>
					<dim>3</dim>
				</port>
			</output>
		</layer>
		<layer id="342" name="1225" type="Convolution" version="opset1">
			<data dilations="1,1" output_padding="0,0" pads_begin="1,1" pads_end="1,1" strides="1,1"/>
			<input>
				<port id="0">
					<dim>1</dim>
					<dim>256</dim>
					<dim>40</dim>
					<dim>40</dim>
				</port>
				<port id="1">
					<dim>256</dim>
					<dim>256</dim>
					<dim>3</dim>
					<dim>3</dim>
				</port>
			</input>
			<output>
				<port id="2" precision="FP16">
					<dim>1</dim>
					<dim>256</dim>
					<dim>40</dim>
					<dim>40</dim>
				</port>
			</output>
		</layer>
		<layer id="343" name="data_add_5544855453/copy_const" type="Const" version="opset1">
			<data element_type="f16" offset="25851668" shape="1,256,1,1" size="512"/>
			<output>
				<port id="1" precision="FP16">
					<dim>1</dim>
					<dim>256</dim>
					<dim>1</dim>
					<dim>1</dim>
				</port>
			</output>
		</layer>
		<layer id="344" name="1226/variance/Fused_Add_" type="Add" version="opset1">
			<input>
				<port id="0">
					<dim>1</dim>
					<dim>256</dim>
					<dim>40</dim>
					<dim>40</dim>
				</port>
				<port id="1">
					<dim>1</dim>
					<dim>256</dim>
					<dim>1</dim>
					<dim>1</dim>
				</port>
			</input>
			<output>
				<port id="2" precision="FP16">
					<dim>1</dim>
					<dim>256</dim>
					<dim>40</dim>
					<dim>40</dim>
				</port>
			</output>
		</layer>
		<layer id="345" name="1227" type="ReLU" version="opset1">
			<input>
				<port id="0">
					<dim>1</dim>
					<dim>256</dim>
					<dim>40</dim>
					<dim>40</dim>
				</port>
			</input>
			<output>
				<port id="1" precision="FP16">
					<dim>1</dim>
					<dim>256</dim>
					<dim>40</dim>
					<dim>40</dim>
				</port>
			</output>
		</layer>
		<layer id="346" name="1229/mean/Fused_Mul_5955159553_const" type="Const" version="opset1">
			<data element_type="f16" offset="25852180" shape="1024,256,1,1" size="524288"/>
			<output>
				<port id="1" precision="FP16">
					<dim>1024</dim>
					<dim>256</dim>
					<dim>1</dim>
					<dim>1</dim>
				</port>
			</output>
		</layer>
		<layer id="347" name="1228" type="Convolution" version="opset1">
			<data dilations="1,1" output_padding="0,0" pads_begin="0,0" pads_end="0,0" strides="1,1"/>
			<input>
				<port id="0">
					<dim>1</dim>
					<dim>256</dim>
					<dim>40</dim>
					<dim>40</dim>
				</port>
				<port id="1">
					<dim>1024</dim>
					<dim>256</dim>
					<dim>1</dim>
					<dim>1</dim>
				</port>
			</input>
			<output>
				<port id="2" precision="FP16">
					<dim>1</dim>
					<dim>1024</dim>
					<dim>40</dim>
					<dim>40</dim>
				</port>
			</output>
		</layer>
		<layer id="348" name="data_add_5545655461/copy_const" type="Const" version="opset1">
			<data element_type="f16" offset="26376468" shape="1,1024,1,1" size="2048"/>
			<output>
				<port id="1" precision="FP16">
					<dim>1</dim>
					<dim>1024</dim>
					<dim>1</dim>
					<dim>1</dim>
				</port>
			</output>
		</layer>
		<layer id="349" name="1229/variance/Fused_Add_" type="Add" version="opset1">
			<input>
				<port id="0">
					<dim>1</dim>
					<dim>1024</dim>
					<dim>40</dim>
					<dim>40</dim>
				</port>
				<port id="1">
					<dim>1</dim>
					<dim>1024</dim>
					<dim>1</dim>
					<dim>1</dim>
				</port>
			</input>
			<output>
				<port id="2" precision="FP16">
					<dim>1</dim>
					<dim>1024</dim>
					<dim>40</dim>
					<dim>40</dim>
				</port>
			</output>
		</layer>
		<layer id="350" name="1230" type="Add" version="opset1">
			<input>
				<port id="0">
					<dim>1</dim>
					<dim>1024</dim>
					<dim>40</dim>
					<dim>40</dim>
				</port>
				<port id="1">
					<dim>1</dim>
					<dim>1024</dim>
					<dim>40</dim>
					<dim>40</dim>
				</port>
			</input>
			<output>
				<port id="2" precision="FP16">
					<dim>1</dim>
					<dim>1024</dim>
					<dim>40</dim>
					<dim>40</dim>
				</port>
			</output>
		</layer>
		<layer id="351" name="1231" type="ReLU" version="opset1">
			<input>
				<port id="0">
					<dim>1</dim>
					<dim>1024</dim>
					<dim>40</dim>
					<dim>40</dim>
				</port>
			</input>
			<output>
				<port id="1" precision="FP16">
					<dim>1</dim>
					<dim>1024</dim>
					<dim>40</dim>
					<dim>40</dim>
				</port>
			</output>
		</layer>
		<layer id="352" name="1233/mean/Fused_Mul_5955559557_const" type="Const" version="opset1">
			<data element_type="f16" offset="26378516" shape="256,1024,1,1" size="524288"/>
			<output>
				<port id="1" precision="FP16">
					<dim>256</dim>
					<dim>1024</dim>
					<dim>1</dim>
					<dim>1</dim>
				</port>
			</output>
		</layer>
		<layer id="353" name="1232" type="Convolution" version="opset1">
			<data dilations="1,1" output_padding="0,0" pads_begin="0,0" pads_end="0,0" strides="1,1"/>
			<input>
				<port id="0">
					<dim>1</dim>
					<dim>1024</dim>
					<dim>40</dim>
					<dim>40</dim>
				</port>
				<port id="1">
					<dim>256</dim>
					<dim>1024</dim>
					<dim>1</dim>
					<dim>1</dim>
				</port>
			</input>
			<output>
				<port id="2" precision="FP16">
					<dim>1</dim>
					<dim>256</dim>
					<dim>40</dim>
					<dim>40</dim>
				</port>
			</output>
		</layer>
		<layer id="354" name="data_add_5546455469/copy_const" type="Const" version="opset1">
			<data element_type="f16" offset="26902804" shape="1,256,1,1" size="512"/>
			<output>
				<port id="1" precision="FP16">
					<dim>1</dim>
					<dim>256</dim>
					<dim>1</dim>
					<dim>1</dim>
				</port>
			</output>
		</layer>
		<layer id="355" name="1233/variance/Fused_Add_" type="Add" version="opset1">
			<input>
				<port id="0">
					<dim>1</dim>
					<dim>256</dim>
					<dim>40</dim>
					<dim>40</dim>
				</port>
				<port id="1">
					<dim>1</dim>
					<dim>256</dim>
					<dim>1</dim>
					<dim>1</dim>
				</port>
			</input>
			<output>
				<port id="2" precision="FP16">
					<dim>1</dim>
					<dim>256</dim>
					<dim>40</dim>
					<dim>40</dim>
				</port>
			</output>
		</layer>
		<layer id="356" name="1234" type="ReLU" version="opset1">
			<input>
				<port id="0">
					<dim>1</dim>
					<dim>256</dim>
					<dim>40</dim>
					<dim>40</dim>
				</port>
			</input>
			<output>
				<port id="1" precision="FP16">
					<dim>1</dim>
					<dim>256</dim>
					<dim>40</dim>
					<dim>40</dim>
				</port>
			</output>
		</layer>
		<layer id="357" name="1236/mean/Fused_Mul_5955959561_const" type="Const" version="opset1">
			<data element_type="f16" offset="26903316" shape="256,256,3,3" size="1179648"/>
			<output>
				<port id="1" precision="FP16">
					<dim>256</dim>
					<dim>256</dim>
					<dim>3</dim>
					<dim>3</dim>
				</port>
			</output>
		</layer>
		<layer id="358" name="1235" type="Convolution" version="opset1">
			<data dilations="1,1" output_padding="0,0" pads_begin="1,1" pads_end="1,1" strides="1,1"/>
			<input>
				<port id="0">
					<dim>1</dim>
					<dim>256</dim>
					<dim>40</dim>
					<dim>40</dim>
				</port>
				<port id="1">
					<dim>256</dim>
					<dim>256</dim>
					<dim>3</dim>
					<dim>3</dim>
				</port>
			</input>
			<output>
				<port id="2" precision="FP16">
					<dim>1</dim>
					<dim>256</dim>
					<dim>40</dim>
					<dim>40</dim>
				</port>
			</output>
		</layer>
		<layer id="359" name="data_add_5547255477/copy_const" type="Const" version="opset1">
			<data element_type="f16" offset="28082964" shape="1,256,1,1" size="512"/>
			<output>
				<port id="1" precision="FP16">
					<dim>1</dim>
					<dim>256</dim>
					<dim>1</dim>
					<dim>1</dim>
				</port>
			</output>
		</layer>
		<layer id="360" name="1236/variance/Fused_Add_" type="Add" version="opset1">
			<input>
				<port id="0">
					<dim>1</dim>
					<dim>256</dim>
					<dim>40</dim>
					<dim>40</dim>
				</port>
				<port id="1">
					<dim>1</dim>
					<dim>256</dim>
					<dim>1</dim>
					<dim>1</dim>
				</port>
			</input>
			<output>
				<port id="2" precision="FP16">
					<dim>1</dim>
					<dim>256</dim>
					<dim>40</dim>
					<dim>40</dim>
				</port>
			</output>
		</layer>
		<layer id="361" name="1237" type="ReLU" version="opset1">
			<input>
				<port id="0">
					<dim>1</dim>
					<dim>256</dim>
					<dim>40</dim>
					<dim>40</dim>
				</port>
			</input>
			<output>
				<port id="1" precision="FP16">
					<dim>1</dim>
					<dim>256</dim>
					<dim>40</dim>
					<dim>40</dim>
				</port>
			</output>
		</layer>
		<layer id="362" name="1239/mean/Fused_Mul_5956359565_const" type="Const" version="opset1">
			<data element_type="f16" offset="28083476" shape="1024,256,1,1" size="524288"/>
			<output>
				<port id="1" precision="FP16">
					<dim>1024</dim>
					<dim>256</dim>
					<dim>1</dim>
					<dim>1</dim>
				</port>
			</output>
		</layer>
		<layer id="363" name="1238" type="Convolution" version="opset1">
			<data dilations="1,1" output_padding="0,0" pads_begin="0,0" pads_end="0,0" strides="1,1"/>
			<input>
				<port id="0">
					<dim>1</dim>
					<dim>256</dim>
					<dim>40</dim>
					<dim>40</dim>
				</port>
				<port id="1">
					<dim>1024</dim>
					<dim>256</dim>
					<dim>1</dim>
					<dim>1</dim>
				</port>
			</input>
			<output>
				<port id="2" precision="FP16">
					<dim>1</dim>
					<dim>1024</dim>
					<dim>40</dim>
					<dim>40</dim>
				</port>
			</output>
		</layer>
		<layer id="364" name="data_add_5548055485/copy_const" type="Const" version="opset1">
			<data element_type="f16" offset="28607764" shape="1,1024,1,1" size="2048"/>
			<output>
				<port id="1" precision="FP16">
					<dim>1</dim>
					<dim>1024</dim>
					<dim>1</dim>
					<dim>1</dim>
				</port>
			</output>
		</layer>
		<layer id="365" name="1239/variance/Fused_Add_" type="Add" version="opset1">
			<input>
				<port id="0">
					<dim>1</dim>
					<dim>1024</dim>
					<dim>40</dim>
					<dim>40</dim>
				</port>
				<port id="1">
					<dim>1</dim>
					<dim>1024</dim>
					<dim>1</dim>
					<dim>1</dim>
				</port>
			</input>
			<output>
				<port id="2" precision="FP16">
					<dim>1</dim>
					<dim>1024</dim>
					<dim>40</dim>
					<dim>40</dim>
				</port>
			</output>
		</layer>
		<layer id="366" name="1240" type="Add" version="opset1">
			<input>
				<port id="0">
					<dim>1</dim>
					<dim>1024</dim>
					<dim>40</dim>
					<dim>40</dim>
				</port>
				<port id="1">
					<dim>1</dim>
					<dim>1024</dim>
					<dim>40</dim>
					<dim>40</dim>
				</port>
			</input>
…
		<edge from-layer="1937" from-port="1" to-layer="1939" to-port="0"/>
		<edge from-layer="1938" from-port="1" to-layer="1939" to-port="1"/>
		<edge from-layer="1939" from-port="2" to-layer="1941" to-port="0"/>
		<edge from-layer="1940" from-port="1" to-layer="1941" to-port="1"/>
		<edge from-layer="1941" from-port="2" to-layer="1944" to-port="0"/>
		<edge from-layer="1942" from-port="1" to-layer="1944" to-port="1"/>
		<edge from-layer="1943" from-port="1" to-layer="1944" to-port="2"/>
		<edge from-layer="1944" from-port="3" to-layer="1946" to-port="0"/>
		<edge from-layer="1945" from-port="1" to-layer="1946" to-port="1"/>
		<edge from-layer="1946" from-port="2" to-layer="1948" to-port="0"/>
		<edge from-layer="1947" from-port="1" to-layer="1948" to-port="1"/>
		<edge from-layer="1948" from-port="2" to-layer="1950" to-port="0"/>
		<edge from-layer="1949" from-port="1" to-layer="1950" to-port="1"/>
		<edge from-layer="1950" from-port="2" to-layer="1952" to-port="0"/>
		<edge from-layer="1951" from-port="1" to-layer="1952" to-port="1"/>
		<edge from-layer="1952" from-port="2" to-layer="1956" to-port="0"/>
		<edge from-layer="1953" from-port="1" to-layer="1956" to-port="1"/>
		<edge from-layer="1954" from-port="1" to-layer="1956" to-port="2"/>
		<edge from-layer="1955" from-port="1" to-layer="1956" to-port="3"/>
		<edge from-layer="1881" from-port="2" to-layer="1957" to-port="0"/>
		<edge from-layer="1956" from-port="4" to-layer="1957" to-port="1"/>
		<edge from-layer="1868" from-port="2" to-layer="1958" to-port="0"/>
		<edge from-layer="1957" from-port="2" to-layer="1958" to-port="1"/>
		<edge from-layer="1952" from-port="2" to-layer="1962" to-port="0"/>
		<edge from-layer="1959" from-port="1" to-layer="1962" to-port="1"/>
		<edge from-layer="1960" from-port="1" to-layer="1962" to-port="2"/>
		<edge from-layer="1961" from-port="1" to-layer="1962" to-port="3"/>
		<edge from-layer="1962" from-port="4" to-layer="1963" to-port="0"/>
		<edge from-layer="1963" from-port="1" to-layer="1964" to-port="0"/>
		<edge from-layer="1881" from-port="2" to-layer="1965" to-port="0"/>
		<edge from-layer="1964" from-port="1" to-layer="1965" to-port="1"/>
		<edge from-layer="1965" from-port="2" to-layer="1967" to-port="0"/>
		<edge from-layer="1966" from-port="1" to-layer="1967" to-port="1"/>
		<edge from-layer="1958" from-port="2" to-layer="1968" to-port="0"/>
		<edge from-layer="1967" from-port="2" to-layer="1968" to-port="1"/>
		<edge from-layer="1968" from-port="2" to-layer="1970" to-port="0"/>
		<edge from-layer="1969" from-port="1" to-layer="1970" to-port="1"/>
		<edge from-layer="1970" from-port="2" to-layer="1972" to-port="0"/>
		<edge from-layer="1971" from-port="1" to-layer="1972" to-port="1"/>
		<edge from-layer="1972" from-port="2" to-layer="1974" to-port="0"/>
		<edge from-layer="1973" from-port="1" to-layer="1974" to-port="1"/>
		<edge from-layer="1974" from-port="2" to-layer="1976" to-port="0"/>
		<edge from-layer="1975" from-port="1" to-layer="1976" to-port="1"/>
		<edge from-layer="1976" from-port="2" to-layer="1978" to-port="0"/>
		<edge from-layer="1977" from-port="1" to-layer="1978" to-port="1"/>
		<edge from-layer="1978" from-port="2" to-layer="1980" to-port="0"/>
		<edge from-layer="1979" from-port="1" to-layer="1980" to-port="1"/>
		<edge from-layer="1980" from-port="2" to-layer="1982" to-port="0"/>
		<edge from-layer="1981" from-port="1" to-layer="1982" to-port="1"/>
		<edge from-layer="1982" from-port="2" to-layer="1984" to-port="0"/>
		<edge from-layer="1983" from-port="1" to-layer="1984" to-port="1"/>
		<edge from-layer="1855" from-port="3" to-layer="1987" to-port="0"/>
		<edge from-layer="1985" from-port="1" to-layer="1987" to-port="1"/>
		<edge from-layer="1986" from-port="1" to-layer="1987" to-port="2"/>
		<edge from-layer="1855" from-port="3" to-layer="1990" to-port="0"/>
		<edge from-layer="1988" from-port="1" to-layer="1990" to-port="1"/>
		<edge from-layer="1989" from-port="1" to-layer="1990" to-port="2"/>
		<edge from-layer="1987" from-port="3" to-layer="1991" to-port="0"/>
		<edge from-layer="1990" from-port="3" to-layer="1991" to-port="1"/>
		<edge from-layer="1991" from-port="2" to-layer="1993" to-port="0"/>
		<edge from-layer="1992" from-port="1" to-layer="1993" to-port="1"/>
		<edge from-layer="1993" from-port="2" to-layer="1995" to-port="0"/>
		<edge from-layer="1994" from-port="1" to-layer="1995" to-port="1"/>
		<edge from-layer="1995" from-port="2" to-layer="1997" to-port="0"/>
		<edge from-layer="1996" from-port="1" to-layer="1997" to-port="1"/>
		<edge from-layer="1855" from-port="3" to-layer="2000" to-port="0"/>
		<edge from-layer="1998" from-port="1" to-layer="2000" to-port="1"/>
		<edge from-layer="1999" from-port="1" to-layer="2000" to-port="2"/>
		<edge from-layer="1855" from-port="3" to-layer="2003" to-port="0"/>
		<edge from-layer="2001" from-port="1" to-layer="2003" to-port="1"/>
		<edge from-layer="2002" from-port="1" to-layer="2003" to-port="2"/>
		<edge from-layer="2000" from-port="3" to-layer="2004" to-port="0"/>
		<edge from-layer="2003" from-port="3" to-layer="2004" to-port="1"/>
		<edge from-layer="2004" from-port="2" to-layer="2006" to-port="0"/>
		<edge from-layer="2005" from-port="1" to-layer="2006" to-port="1"/>
		<edge from-layer="2006" from-port="2" to-layer="2008" to-port="0"/>
		<edge from-layer="2007" from-port="1" to-layer="2008" to-port="1"/>
		<edge from-layer="2008" from-port="2" to-layer="2010" to-port="0"/>
		<edge from-layer="2009" from-port="1" to-layer="2010" to-port="1"/>
		<edge from-layer="1952" from-port="2" to-layer="2014" to-port="0"/>
		<edge from-layer="2011" from-port="1" to-layer="2014" to-port="1"/>
		<edge from-layer="2012" from-port="1" to-layer="2014" to-port="2"/>
		<edge from-layer="2013" from-port="1" to-layer="2014" to-port="3"/>
		<edge from-layer="2010" from-port="2" to-layer="2015" to-port="0"/>
		<edge from-layer="2014" from-port="4" to-layer="2015" to-port="1"/>
		<edge from-layer="1997" from-port="2" to-layer="2016" to-port="0"/>
		<edge from-layer="2015" from-port="2" to-layer="2016" to-port="1"/>
		<edge from-layer="1952" from-port="2" to-layer="2020" to-port="0"/>
		<edge from-layer="2017" from-port="1" to-layer="2020" to-port="1"/>
		<edge from-layer="2018" from-port="1" to-layer="2020" to-port="2"/>
		<edge from-layer="2019" from-port="1" to-layer="2020" to-port="3"/>
		<edge from-layer="2020" from-port="4" to-layer="2021" to-port="0"/>
		<edge from-layer="2021" from-port="1" to-layer="2022" to-port="0"/>
		<edge from-layer="2010" from-port="2" to-layer="2023" to-port="0"/>
		<edge from-layer="2022" from-port="1" to-layer="2023" to-port="1"/>
		<edge from-layer="2023" from-port="2" to-layer="2025" to-port="0"/>
		<edge from-layer="2024" from-port="1" to-layer="2025" to-port="1"/>
		<edge from-layer="2016" from-port="2" to-layer="2026" to-port="0"/>
		<edge from-layer="2025" from-port="2" to-layer="2026" to-port="1"/>
		<edge from-layer="2026" from-port="2" to-layer="2028" to-port="0"/>
		<edge from-layer="2027" from-port="1" to-layer="2028" to-port="1"/>
		<edge from-layer="2028" from-port="2" to-layer="2030" to-port="0"/>
		<edge from-layer="2029" from-port="1" to-layer="2030" to-port="1"/>
		<edge from-layer="2030" from-port="2" to-layer="2032" to-port="0"/>
		<edge from-layer="2031" from-port="1" to-layer="2032" to-port="1"/>
		<edge from-layer="2032" from-port="2" to-layer="2034" to-port="0"/>
		<edge from-layer="2033" from-port="1" to-layer="2034" to-port="1"/>
		<edge from-layer="2034" from-port="2" to-layer="2036" to-port="0"/>
		<edge from-layer="2035" from-port="1" to-layer="2036" to-port="1"/>
		<edge from-layer="2036" from-port="2" to-layer="2038" to-port="0"/>
		<edge from-layer="2037" from-port="1" to-layer="2038" to-port="1"/>
		<edge from-layer="2038" from-port="2" to-layer="2040" to-port="0"/>
		<edge from-layer="2039" from-port="1" to-layer="2040" to-port="1"/>
		<edge from-layer="2040" from-port="2" to-layer="2042" to-port="0"/>
		<edge from-layer="2041" from-port="1" to-layer="2042" to-port="1"/>
		<edge from-layer="1965" from-port="2" to-layer="2044" to-port="0"/>
		<edge from-layer="2043" from-port="1" to-layer="2044" to-port="1"/>
		<edge from-layer="1958" from-port="2" to-layer="2045" to-port="0"/>
		<edge from-layer="2044" from-port="2" to-layer="2045" to-port="1"/>
		<edge from-layer="2045" from-port="2" to-layer="2047" to-port="0"/>
		<edge from-layer="2046" from-port="1" to-layer="2047" to-port="1"/>
		<edge from-layer="2047" from-port="2" to-layer="2049" to-port="0"/>
		<edge from-layer="2048" from-port="1" to-layer="2049" to-port="1"/>
		<edge from-layer="2049" from-port="2" to-layer="2051" to-port="0"/>
		<edge from-layer="2050" from-port="1" to-layer="2051" to-port="1"/>
		<edge from-layer="2051" from-port="2" to-layer="2053" to-port="0"/>
		<edge from-layer="2052" from-port="1" to-layer="2053" to-port="1"/>
		<edge from-layer="2053" from-port="2" to-layer="2055" to-port="0"/>
		<edge from-layer="2054" from-port="1" to-layer="2055" to-port="1"/>
		<edge from-layer="2055" from-port="2" to-layer="2057" to-port="0"/>
		<edge from-layer="2056" from-port="1" to-layer="2057" to-port="1"/>
		<edge from-layer="2057" from-port="2" to-layer="2059" to-port="0"/>
		<edge from-layer="2058" from-port="1" to-layer="2059" to-port="1"/>
		<edge from-layer="2059" from-port="2" to-layer="2061" to-port="0"/>
		<edge from-layer="2060" from-port="1" to-layer="2061" to-port="1"/>
		<edge from-layer="2023" from-port="2" to-layer="2063" to-port="0"/>
		<edge from-layer="2062" from-port="1" to-layer="2063" to-port="1"/>
		<edge from-layer="2016" from-port="2" to-layer="2064" to-port="0"/>
		<edge from-layer="2063" from-port="2" to-layer="2064" to-port="1"/>
		<edge from-layer="2064" from-port="2" to-layer="2066" to-port="0"/>
		<edge from-layer="2065" from-port="1" to-layer="2066" to-port="1"/>
		<edge from-layer="2066" from-port="2" to-layer="2068" to-port="0"/>
		<edge from-layer="2067" from-port="1" to-layer="2068" to-port="1"/>
		<edge from-layer="2068" from-port="2" to-layer="2070" to-port="0"/>
		<edge from-layer="2069" from-port="1" to-layer="2070" to-port="1"/>
		<edge from-layer="2070" from-port="2" to-layer="2072" to-port="0"/>
		<edge from-layer="2071" from-port="1" to-layer="2072" to-port="1"/>
		<edge from-layer="2072" from-port="2" to-layer="2074" to-port="0"/>
		<edge from-layer="2073" from-port="1" to-layer="2074" to-port="1"/>
		<edge from-layer="2074" from-port="2" to-layer="2076" to-port="0"/>
		<edge from-layer="2075" from-port="1" to-layer="2076" to-port="1"/>
		<edge from-layer="2076" from-port="2" to-layer="2078" to-port="0"/>
		<edge from-layer="2077" from-port="1" to-layer="2078" to-port="1"/>
		<edge from-layer="2078" from-port="2" to-layer="2080" to-port="0"/>
		<edge from-layer="2079" from-port="1" to-layer="2080" to-port="1"/>
		<edge from-layer="1984" from-port="2" to-layer="2081" to-port="0"/>
		<edge from-layer="2042" from-port="2" to-layer="2081" to-port="1"/>
		<edge from-layer="2061" from-port="2" to-layer="2081" to-port="2"/>
		<edge from-layer="2080" from-port="2" to-layer="2081" to-port="3"/>
		<edge from-layer="2081" from-port="4" to-layer="2083" to-port="0"/>
		<edge from-layer="2082" from-port="1" to-layer="2083" to-port="1"/>
		<edge from-layer="1780" from-port="2" to-layer="2086" to-port="0"/>
		<edge from-layer="2085" from-port="1" to-layer="2086" to-port="1"/>
		<edge from-layer="2086" from-port="2" to-layer="2088" to-port="0"/>
		<edge from-layer="2087" from-port="1" to-layer="2088" to-port="1"/>
		<edge from-layer="2088" from-port="2" to-layer="2090" to-port="0"/>
		<edge from-layer="2089" from-port="1" to-layer="2090" to-port="1"/>
		<edge from-layer="2090" from-port="2" to-layer="2092" to-port="0"/>
		<edge from-layer="2091" from-port="1" to-layer="2092" to-port="1"/>
		<edge from-layer="2092" from-port="2" to-layer="2094" to-port="0"/>
		<edge from-layer="2093" from-port="1" to-layer="2094" to-port="1"/>
		<edge from-layer="2094" from-port="2" to-layer="2096" to-port="0"/>
		<edge from-layer="2095" from-port="1" to-layer="2096" to-port="1"/>
		<edge from-layer="2096" from-port="2" to-layer="2098" to-port="0"/>
		<edge from-layer="2097" from-port="1" to-layer="2098" to-port="1"/>
		<edge from-layer="2098" from-port="2" to-layer="2100" to-port="0"/>
		<edge from-layer="2099" from-port="1" to-layer="2100" to-port="1"/>
		<edge from-layer="2092" from-port="2" to-layer="2101" to-port="0"/>
		<edge from-layer="2096" from-port="2" to-layer="2101" to-port="1"/>
		<edge from-layer="2100" from-port="2" to-layer="2101" to-port="2"/>
		<edge from-layer="2101" from-port="3" to-layer="2103" to-port="0"/>
		<edge from-layer="2102" from-port="1" to-layer="2103" to-port="1"/>
		<edge from-layer="2103" from-port="2" to-layer="2105" to-port="0"/>
		<edge from-layer="2104" from-port="1" to-layer="2105" to-port="1"/>
		<edge from-layer="2105" from-port="2" to-layer="2107" to-port="0"/>
		<edge from-layer="2106" from-port="1" to-layer="2107" to-port="1"/>
		<edge from-layer="2107" from-port="2" to-layer="2108" to-port="0"/>
		<edge from-layer="2108" from-port="1" to-layer="2110" to-port="0"/>
		<edge from-layer="2109" from-port="1" to-layer="2110" to-port="1"/>
		<edge from-layer="2110" from-port="2" to-layer="2112" to-port="0"/>
		<edge from-layer="2111" from-port="1" to-layer="2112" to-port="1"/>
		<edge from-layer="2112" from-port="2" to-layer="2114" to-port="0"/>
		<edge from-layer="2113" from-port="1" to-layer="2114" to-port="1"/>
		<edge from-layer="2114" from-port="2" to-layer="2115" to-port="0"/>
		<edge from-layer="2115" from-port="1" to-layer="2117" to-port="0"/>
		<edge from-layer="2116" from-port="1" to-layer="2117" to-port="1"/>
		<edge from-layer="2117" from-port="2" to-layer="2119" to-port="0"/>
		<edge from-layer="2118" from-port="1" to-layer="2119" to-port="1"/>
		<edge from-layer="2119" from-port="2" to-layer="2121" to-port="0"/>
		<edge from-layer="2120" from-port="1" to-layer="2121" to-port="1"/>
		<edge from-layer="2121" from-port="2" to-layer="2122" to-port="0"/>
		<edge from-layer="2122" from-port="1" to-layer="2124" to-port="0"/>
		<edge from-layer="2123" from-port="1" to-layer="2124" to-port="1"/>
		<edge from-layer="2124" from-port="2" to-layer="2126" to-port="0"/>
		<edge from-layer="2125" from-port="1" to-layer="2126" to-port="1"/>
		<edge from-layer="2126" from-port="2" to-layer="2128" to-port="0"/>
		<edge from-layer="2127" from-port="1" to-layer="2128" to-port="1"/>
		<edge from-layer="2128" from-port="2" to-layer="2129" to-port="0"/>
		<edge from-layer="2129" from-port="1" to-layer="2131" to-port="0"/>
		<edge from-layer="2130" from-port="1" to-layer="2131" to-port="1"/>
		<edge from-layer="2131" from-port="2" to-layer="2133" to-port="0"/>
		<edge from-layer="2132" from-port="1" to-layer="2133" to-port="1"/>
		<edge from-layer="2133" from-port="2" to-layer="2135" to-port="0"/>
		<edge from-layer="2134" from-port="1" to-layer="2135" to-port="1"/>
		<edge from-layer="2135" from-port="2" to-layer="2136" to-port="0"/>
		<edge from-layer="2136" from-port="1" to-layer="2138" to-port="0"/>
		<edge from-layer="2137" from-port="1" to-layer="2138" to-port="1"/>
		<edge from-layer="2138" from-port="2" to-layer="2140" to-port="0"/>
		<edge from-layer="2139" from-port="1" to-layer="2140" to-port="1"/>
		<edge from-layer="2140" from-port="2" to-layer="2142" to-port="0"/>
		<edge from-layer="2141" from-port="1" to-layer="2142" to-port="1"/>
		<edge from-layer="2142" from-port="2" to-layer="2143" to-port="0"/>
		<edge from-layer="2143" from-port="1" to-layer="2145" to-port="0"/>
		<edge from-layer="2144" from-port="1" to-layer="2145" to-port="1"/>
		<edge from-layer="2145" from-port="2" to-layer="2147" to-port="0"/>
		<edge from-layer="2146" from-port="1" to-layer="2147" to-port="1"/>
		<edge from-layer="2147" from-port="2" to-layer="2149" to-port="0"/>
		<edge from-layer="2148" from-port="1" to-layer="2149" to-port="1"/>
		<edge from-layer="2149" from-port="2" to-layer="2150" to-port="0"/>
		<edge from-layer="2150" from-port="1" to-layer="2152" to-port="0"/>
		<edge from-layer="2151" from-port="1" to-layer="2152" to-port="1"/>
		<edge from-layer="2152" from-port="2" to-layer="2154" to-port="0"/>
		<edge from-layer="2153" from-port="1" to-layer="2154" to-port="1"/>
		<edge from-layer="2154" from-port="2" to-layer="2156" to-port="0"/>
		<edge from-layer="2155" from-port="1" to-layer="2156" to-port="1"/>
		<edge from-layer="2156" from-port="2" to-layer="2157" to-port="0"/>
		<edge from-layer="2157" from-port="1" to-layer="2159" to-port="0"/>
		<edge from-layer="2158" from-port="1" to-layer="2159" to-port="1"/>
		<edge from-layer="2159" from-port="2" to-layer="2161" to-port="0"/>
		<edge from-layer="2160" from-port="1" to-layer="2161" to-port="1"/>
		<edge from-layer="2084" from-port="1" to-layer="2163" to-port="0"/>
		<edge from-layer="2161" from-port="2" to-layer="2163" to-port="1"/>
		<edge from-layer="2162" from-port="1" to-layer="2163" to-port="2"/>
		<edge from-layer="2163" from-port="3" to-layer="2166" to-port="0"/>
		<edge from-layer="2164" from-port="1" to-layer="2166" to-port="1"/>
		<edge from-layer="2165" from-port="1" to-layer="2166" to-port="2"/>
		<edge from-layer="2163" from-port="3" to-layer="2169" to-port="0"/>
		<edge from-layer="2167" from-port="1" to-layer="2169" to-port="1"/>
		<edge from-layer="2168" from-port="1" to-layer="2169" to-port="2"/>
		<edge from-layer="2166" from-port="3" to-layer="2170" to-port="0"/>
		<edge from-layer="2169" from-port="3" to-layer="2170" to-port="1"/>
		<edge from-layer="2170" from-port="2" to-layer="2172" to-port="0"/>
		<edge from-layer="2171" from-port="1" to-layer="2172" to-port="1"/>
		<edge from-layer="2172" from-port="2" to-layer="2174" to-port="0"/>
		<edge from-layer="2173" from-port="1" to-layer="2174" to-port="1"/>
		<edge from-layer="2174" from-port="2" to-layer="2176" to-port="0"/>
		<edge from-layer="2175" from-port="1" to-layer="2176" to-port="1"/>
		<edge from-layer="2163" from-port="3" to-layer="2179" to-port="0"/>
		<edge from-layer="2177" from-port="1" to-layer="2179" to-port="1"/>
		<edge from-layer="2178" from-port="1" to-layer="2179" to-port="2"/>
		<edge from-layer="2163" from-port="3" to-layer="2182" to-port="0"/>
		<edge from-layer="2180" from-port="1" to-layer="2182" to-port="1"/>
		<edge from-layer="2181" from-port="1" to-layer="2182" to-port="2"/>
		<edge from-layer="2179" from-port="3" to-layer="2183" to-port="0"/>
		<edge from-layer="2182" from-port="3" to-layer="2183" to-port="1"/>
		<edge from-layer="2183" from-port="2" to-layer="2185" to-port="0"/>
		<edge from-layer="2184" from-port="1" to-layer="2185" to-port="1"/>
		<edge from-layer="2185" from-port="2" to-layer="2187" to-port="0"/>
		<edge from-layer="2186" from-port="1" to-layer="2187" to-port="1"/>
		<edge from-layer="2187" from-port="2" to-layer="2189" to-port="0"/>
		<edge from-layer="2188" from-port="1" to-layer="2189" to-port="1"/>
		<edge from-layer="2101" from-port="3" to-layer="2191" to-port="0"/>
		<edge from-layer="2190" from-port="1" to-layer="2191" to-port="1"/>
		<edge from-layer="2191" from-port="2" to-layer="2193" to-port="0"/>
		<edge from-layer="2192" from-port="1" to-layer="2193" to-port="1"/>
		<edge from-layer="2193" from-port="2" to-layer="2195" to-port="0"/>
		<edge from-layer="2194" from-port="1" to-layer="2195" to-port="1"/>
		<edge from-layer="2195" from-port="2" to-layer="2196" to-port="0"/>
		<edge from-layer="2196" from-port="1" to-layer="2198" to-port="0"/>
		<edge from-layer="2197" from-port="1" to-layer="2198" to-port="1"/>
		<edge from-layer="2198" from-port="2" to-layer="2200" to-port="0"/>
		<edge from-layer="2199" from-port="1" to-layer="2200" to-port="1"/>
		<edge from-layer="2200" from-port="2" to-layer="2202" to-port="0"/>
		<edge from-layer="2201" from-port="1" to-layer="2202" to-port="1"/>
		<edge from-layer="2202" from-port="2" to-layer="2203" to-port="0"/>
		<edge from-layer="2203" from-port="1" to-layer="2205" to-port="0"/>
		<edge from-layer="2204" from-port="1" to-layer="2205" to-port="1"/>
		<edge from-layer="2205" from-port="2" to-layer="2207" to-port="0"/>
		<edge from-layer="2206" from-port="1" to-layer="2207" to-port="1"/>
		<edge from-layer="2207" from-port="2" to-layer="2209" to-port="0"/>
		<edge from-layer="2208" from-port="1" to-layer="2209" to-port="1"/>
		<edge from-layer="2209" from-port="2" to-layer="2210" to-port="0"/>
		<edge from-layer="2210" from-port="1" to-layer="2212" to-port="0"/>
		<edge from-layer="2211" from-port="1" to-layer="2212" to-port="1"/>
		<edge from-layer="2212" from-port="2" to-layer="2214" to-port="0"/>
		<edge from-layer="2213" from-port="1" to-layer="2214" to-port="1"/>
		<edge from-layer="2214" from-port="2" to-layer="2216" to-port="0"/>
		<edge from-layer="2215" from-port="1" to-layer="2216" to-port="1"/>
		<edge from-layer="2216" from-port="2" to-layer="2217" to-port="0"/>
		<edge from-layer="2217" from-port="1" to-layer="2219" to-port="0"/>
		<edge from-layer="2218" from-port="1" to-layer="2219" to-port="1"/>
		<edge from-layer="2219" from-port="2" to-layer="2221" to-port="0"/>
		<edge from-layer="2220" from-port="1" to-layer="2221" to-port="1"/>
		<edge from-layer="2221" from-port="2" to-layer="2223" to-port="0"/>
		<edge from-layer="2222" from-port="1" to-layer="2223" to-port="1"/>
		<edge from-layer="2223" from-port="2" to-layer="2224" to-port="0"/>
		<edge from-layer="2224" from-port="1" to-layer="2226" to-port="0"/>
		<edge from-layer="2225" from-port="1" to-layer="2226" to-port="1"/>
		<edge from-layer="2226" from-port="2" to-layer="2228" to-port="0"/>
		<edge from-layer="2227" from-port="1" to-layer="2228" to-port="1"/>
		<edge from-layer="2228" from-port="2" to-layer="2230" to-port="0"/>
		<edge from-layer="2229" from-port="1" to-layer="2230" to-port="1"/>
		<edge from-layer="2230" from-port="2" to-layer="2231" to-port="0"/>
		<edge from-layer="2231" from-port="1" to-layer="2233" to-port="0"/>
		<edge from-layer="2232" from-port="1" to-layer="2233" to-port="1"/>
		<edge from-layer="2233" from-port="2" to-layer="2235" to-port="0"/>
		<edge from-layer="2234" from-port="1" to-layer="2235" to-port="1"/>
		<edge from-layer="2235" from-port="2" to-layer="2237" to-port="0"/>
		<edge from-layer="2236" from-port="1" to-layer="2237" to-port="1"/>
		<edge from-layer="2237" from-port="2" to-layer="2238" to-port="0"/>
		<edge from-layer="2238" from-port="1" to-layer="2240" to-port="0"/>
		<edge from-layer="2239" from-port="1" to-layer="2240" to-port="1"/>
		<edge from-layer="2240" from-port="2" to-layer="2242" to-port="0"/>
		<edge from-layer="2241" from-port="1" to-layer="2242" to-port="1"/>
		<edge from-layer="2242" from-port="2" to-layer="2244" to-port="0"/>
		<edge from-layer="2243" from-port="1" to-layer="2244" to-port="1"/>
		<edge from-layer="2244" from-port="2" to-layer="2245" to-port="0"/>
		<edge from-layer="2245" from-port="1" to-layer="2247" to-port="0"/>
		<edge from-layer="2246" from-port="1" to-layer="2247" to-port="1"/>
		<edge from-layer="2247" from-port="2" to-layer="2249" to-port="0"/>
		<edge from-layer="2248" from-port="1" to-layer="2249" to-port="1"/>
		<edge from-layer="2249" from-port="2" to-layer="2252" to-port="0"/>
		<edge from-layer="2250" from-port="1" to-layer="2252" to-port="1"/>
		<edge from-layer="2251" from-port="1" to-layer="2252" to-port="2"/>
		<edge from-layer="2252" from-port="3" to-layer="2254" to-port="0"/>
		<edge from-layer="2253" from-port="1" to-layer="2254" to-port="1"/>
		<edge from-layer="2254" from-port="2" to-layer="2256" to-port="0"/>
		<edge from-layer="2255" from-port="1" to-layer="2256" to-port="1"/>
		<edge from-layer="2256" from-port="2" to-layer="2258" to-port="0"/>
		<edge from-layer="2257" from-port="1" to-layer="2258" to-port="1"/>
		<edge from-layer="2258" from-port="2" to-layer="2260" to-port="0"/>
		<edge from-layer="2259" from-port="1" to-layer="2260" to-port="1"/>
		<edge from-layer="2260" from-port="2" to-layer="2264" to-port="0"/>
		<edge from-layer="2261" from-port="1" to-layer="2264" to-port="1"/>
		<edge from-layer="2262" from-port="1" to-layer="2264" to-port="2"/>
		<edge from-layer="2263" from-port="1" to-layer="2264" to-port="3"/>
		<edge from-layer="2189" from-port="2" to-layer="2265" to-port="0"/>
		<edge from-layer="2264" from-port="4" to-layer="2265" to-port="1"/>
		<edge from-layer="2176" from-port="2" to-layer="2266" to-port="0"/>
		<edge from-layer="2265" from-port="2" to-layer="2266" to-port="1"/>
		<edge from-layer="2260" from-port="2" to-layer="2270" to-port="0"/>
		<edge from-layer="2267" from-port="1" to-layer="2270" to-port="1"/>
		<edge from-layer="2268" from-port="1" to-layer="2270" to-port="2"/>
		<edge from-layer="2269" from-port="1" to-layer="2270" to-port="3"/>
		<edge from-layer="2270" from-port="4" to-layer="2271" to-port="0"/>
		<edge from-layer="2271" from-port="1" to-layer="2272" to-port="0"/>
		<edge from-layer="2189" from-port="2" to-layer="2273" to-port="0"/>
		<edge from-layer="2272" from-port="1" to-layer="2273" to-port="1"/>
		<edge from-layer="2273" from-port="2" to-layer="2275" to-port="0"/>
		<edge from-layer="2274" from-port="1" to-layer="2275" to-port="1"/>
		<edge from-layer="2266" from-port="2" to-layer="2276" to-port="0"/>
		<edge from-layer="2275" from-port="2" to-layer="2276" to-port="1"/>
		<edge from-layer="2276" from-port="2" to-layer="2278" to-port="0"/>
		<edge from-layer="2277" from-port="1" to-layer="2278" to-port="1"/>
		<edge from-layer="2278" from-port="2" to-layer="2280" to-port="0"/>
		<edge from-layer="2279" from-port="1" to-layer="2280" to-port="1"/>
		<edge from-layer="2280" from-port="2" to-layer="2282" to-port="0"/>
		<edge from-layer="2281" from-port="1" to-layer="2282" to-port="1"/>
		<edge from-layer="2282" from-port="2" to-layer="2284" to-port="0"/>
		<edge from-layer="2283" from-port="1" to-layer="2284" to-port="1"/>
		<edge from-layer="2284" from-port="2" to-layer="2286" to-port="0"/>
		<edge from-layer="2285" from-port="1" to-layer="2286" to-port="1"/>
		<edge from-layer="2286" from-port="2" to-layer="2288" to-port="0"/>
		<edge from-layer="2287" from-port="1" to-layer="2288" to-port="1"/>
		<edge from-layer="2288" from-port="2" to-layer="2290" to-port="0"/>
		<edge from-layer="2289" from-port="1" to-layer="2290" to-port="1"/>
		<edge from-layer="2290" from-port="2" to-layer="2292" to-port="0"/>
		<edge from-layer="2291" from-port="1" to-layer="2292" to-port="1"/>
		<edge from-layer="2163" from-port="3" to-layer="2295" to-port="0"/>
		<edge from-layer="2293" from-port="1" to-layer="2295" to-port="1"/>
		<edge from-layer="2294" from-port="1" to-layer="2295" to-port="2"/>
		<edge from-layer="2163" from-port="3" to-layer="2298" to-port="0"/>
		<edge from-layer="2296" from-port="1" to-layer="2298" to-port="1"/>
		<edge from-layer="2297" from-port="1" to-layer="2298" to-port="2"/>
		<edge from-layer="2295" from-port="3" to-layer="2299" to-port="0"/>
		<edge from-layer="2298" from-port="3" to-layer="2299" to-port="1"/>
		<edge from-layer="2299" from-port="2" to-layer="2301" to-port="0"/>
		<edge from-layer="2300" from-port="1" to-layer="2301" to-port="1"/>
		<edge from-layer="2301" from-port="2" to-layer="2303" to-port="0"/>
		<edge from-layer="2302" from-port="1" to-layer="2303" to-port="1"/>
		<edge from-layer="2303" from-port="2" to-layer="2305" to-port="0"/>
		<edge from-layer="2304" from-port="1" to-layer="2305" to-port="1"/>
		<edge from-layer="2163" from-port="3" to-layer="2308" to-port="0"/>
		<edge from-layer="2306" from-port="1" to-layer="2308" to-port="1"/>
		<edge from-layer="2307" from-port="1" to-layer="2308" to-port="2"/>
		<edge from-layer="2163" from-port="3" to-layer="2311" to-port="0"/>
		<edge from-layer="2309" from-port="1" to-layer="2311" to-port="1"/>
		<edge from-layer="2310" from-port="1" to-layer="2311" to-port="2"/>
		<edge from-layer="2308" from-port="3" to-layer="2312" to-port="0"/>
		<edge from-layer="2311" from-port="3" to-layer="2312" to-port="1"/>
		<edge from-layer="2312" from-port="2" to-layer="2314" to-port="0"/>
		<edge from-layer="2313" from-port="1" to-layer="2314" to-port="1"/>
		<edge from-layer="2314" from-port="2" to-layer="2316" to-port="0"/>
		<edge from-layer="2315" from-port="1" to-layer="2316" to-port="1"/>
		<edge from-layer="2316" from-port="2" to-layer="2318" to-port="0"/>
		<edge from-layer="2317" from-port="1" to-layer="2318" to-port="1"/>
		<edge from-layer="2260" from-port="2" to-layer="2322" to-port="0"/>
		<edge from-layer="2319" from-port="1" to-layer="2322" to-port="1"/>
		<edge from-layer="2320" from-port="1" to-layer="2322" to-port="2"/>
		<edge from-layer="2321" from-port="1" to-layer="2322" to-port="3"/>
		<edge from-layer="2318" from-port="2" to-layer="2323" to-port="0"/>
		<edge from-layer="2322" from-port="4" to-layer="2323" to-port="1"/>
		<edge from-layer="2305" from-port="2" to-layer="2324" to-port="0"/>
		<edge from-layer="2323" from-port="2" to-layer="2324" to-port="1"/>
		<edge from-layer="2260" from-port="2" to-layer="2328" to-port="0"/>
		<edge from-layer="2325" from-port="1" to-layer="2328" to-port="1"/>
		<edge from-layer="2326" from-port="1" to-layer="2328" to-port="2"/>
		<edge from-layer="2327" from-port="1" to-layer="2328" to-port="3"/>
		<edge from-layer="2328" from-port="4" to-layer="2329" to-port="0"/>
		<edge from-layer="2329" from-port="1" to-layer="2330" to-port="0"/>
		<edge from-layer="2318" from-port="2" to-layer="2331" to-port="0"/>
		<edge from-layer="2330" from-port="1" to-layer="2331" to-port="1"/>
		<edge from-layer="2331" from-port="2" to-layer="2333" to-port="0"/>
		<edge from-layer="2332" from-port="1" to-layer="2333" to-port="1"/>
		<edge from-layer="2324" from-port="2" to-layer="2334" to-port="0"/>
		<edge from-layer="2333" from-port="2" to-layer="2334" to-port="1"/>
		<edge from-layer="2334" from-port="2" to-layer="2336" to-port="0"/>
		<edge from-layer="2335" from-port="1" to-layer="2336" to-port="1"/>
		<edge from-layer="2336" from-port="2" to-layer="2338" to-port="0"/>
		<edge from-layer="2337" from-port="1" to-layer="2338" to-port="1"/>
		<edge from-layer="2338" from-port="2" to-layer="2340" to-port="0"/>
		<edge from-layer="2339" from-port="1" to-layer="2340" to-port="1"/>
		<edge from-layer="2340" from-port="2" to-layer="2342" to-port="0"/>
		<edge from-layer="2341" from-port="1" to-layer="2342" to-port="1"/>
		<edge from-layer="2342" from-port="2" to-layer="2344" to-port="0"/>
		<edge from-layer="2343" from-port="1" to-layer="2344" to-port="1"/>
		<edge from-layer="2344" from-port="2" to-layer="2346" to-port="0"/>
		<edge from-layer="2345" from-port="1" to-layer="2346" to-port="1"/>
		<edge from-layer="2346" from-port="2" to-layer="2348" to-port="0"/>
		<edge from-layer="2347" from-port="1" to-layer="2348" to-port="1"/>
		<edge from-layer="2348" from-port="2" to-layer="2350" to-port="0"/>
		<edge from-layer="2349" from-port="1" to-layer="2350" to-port="1"/>
		<edge from-layer="2273" from-port="2" to-layer="2352" to-port="0"/>
		<edge from-layer="2351" from-port="1" to-layer="2352" to-port="1"/>
		<edge from-layer="2266" from-port="2" to-layer="2353" to-port="0"/>
		<edge from-layer="2352" from-port="2" to-layer="2353" to-port="1"/>
		<edge from-layer="2353" from-port="2" to-layer="2355" to-port="0"/>
		<edge from-layer="2354" from-port="1" to-layer="2355" to-port="1"/>
		<edge from-layer="2355" from-port="2" to-layer="2357" to-port="0"/>
		<edge from-layer="2356" from-port="1" to-layer="2357" to-port="1"/>
		<edge from-layer="2357" from-port="2" to-layer="2359" to-port="0"/>
		<edge from-layer="2358" from-port="1" to-layer="2359" to-port="1"/>
		<edge from-layer="2359" from-port="2" to-layer="2361" to-port="0"/>
		<edge from-layer="2360" from-port="1" to-layer="2361" to-port="1"/>
		<edge from-layer="2361" from-port="2" to-layer="2363" to-port="0"/>
		<edge from-layer="2362" from-port="1" to-layer="2363" to-port="1"/>
		<edge from-layer="2363" from-port="2" to-layer="2365" to-port="0"/>
		<edge from-layer="2364" from-port="1" to-layer="2365" to-port="1"/>
		<edge from-layer="2365" from-port="2" to-layer="2367" to-port="0"/>
		<edge from-layer="2366" from-port="1" to-layer="2367" to-port="1"/>
		<edge from-layer="2367" from-port="2" to-layer="2369" to-port="0"/>
		<edge from-layer="2368" from-port="1" to-layer="2369" to-port="1"/>
		<edge from-layer="2331" from-port="2" to-layer="2371" to-port="0"/>
		<edge from-layer="2370" from-port="1" to-layer="2371" to-port="1"/>
		<edge from-layer="2324" from-port="2" to-layer="2372" to-port="0"/>
		<edge from-layer="2371" from-port="2" to-layer="2372" to-port="1"/>
		<edge from-layer="2372" from-port="2" to-layer="2374" to-port="0"/>
		<edge from-layer="2373" from-port="1" to-layer="2374" to-port="1"/>
		<edge from-layer="2374" from-port="2" to-layer="2376" to-port="0"/>
		<edge from-layer="2375" from-port="1" to-layer="2376" to-port="1"/>
		<edge from-layer="2376" from-port="2" to-layer="2378" to-port="0"/>
		<edge from-layer="2377" from-port="1" to-layer="2378" to-port="1"/>
		<edge from-layer="2378" from-port="2" to-layer="2380" to-port="0"/>
		<edge from-layer="2379" from-port="1" to-layer="2380" to-port="1"/>
		<edge from-layer="2380" from-port="2" to-layer="2382" to-port="0"/>
		<edge from-layer="2381" from-port="1" to-layer="2382" to-port="1"/>
		<edge from-layer="2382" from-port="2" to-layer="2384" to-port="0"/>
		<edge from-layer="2383" from-port="1" to-layer="2384" to-port="1"/>
		<edge from-layer="2384" from-port="2" to-layer="2386" to-port="0"/>
		<edge from-layer="2385" from-port="1" to-layer="2386" to-port="1"/>
		<edge from-layer="2386" from-port="2" to-layer="2388" to-port="0"/>
		<edge from-layer="2387" from-port="1" to-layer="2388" to-port="1"/>
		<edge from-layer="2292" from-port="2" to-layer="2389" to-port="0"/>
		<edge from-layer="2350" from-port="2" to-layer="2389" to-port="1"/>
		<edge from-layer="2369" from-port="2" to-layer="2389" to-port="2"/>
		<edge from-layer="2388" from-port="2" to-layer="2389" to-port="3"/>
		<edge from-layer="2389" from-port="4" to-layer="2391" to-port="0"/>
		<edge from-layer="2390" from-port="1" to-layer="2391" to-port="1"/>
		<edge from-layer="1159" from-port="2" to-layer="2392" to-port="0"/>
		<edge from-layer="1467" from-port="2" to-layer="2392" to-port="1"/>
		<edge from-layer="1775" from-port="2" to-layer="2392" to-port="2"/>
		<edge from-layer="2083" from-port="2" to-layer="2392" to-port="3"/>
		<edge from-layer="2391" from-port="2" to-layer="2392" to-port="4"/>
		<edge from-layer="2392" from-port="5" to-layer="2394" to-port="0"/>
		<edge from-layer="2393" from-port="1" to-layer="2394" to-port="1"/>
		<edge from-layer="2394" from-port="2" to-layer="2396" to-port="0"/>
		<edge from-layer="2395" from-port="1" to-layer="2396" to-port="1"/>
		<edge from-layer="2396" from-port="2" to-layer="2398" to-port="0"/>
		<edge from-layer="2397" from-port="1" to-layer="2398" to-port="1"/>
		<edge from-layer="929" from-port="2" to-layer="2401" to-port="0"/>
		<edge from-layer="2399" from-port="1" to-layer="2401" to-port="1"/>
		<edge from-layer="2400" from-port="1" to-layer="2401" to-port="2"/>
		<edge from-layer="2401" from-port="3" to-layer="2403" to-port="0"/>
		<edge from-layer="2402" from-port="1" to-layer="2403" to-port="1"/>
		<edge from-layer="2403" from-port="2" to-layer="2405" to-port="0"/>
		<edge from-layer="2404" from-port="1" to-layer="2405" to-port="1"/>
		<edge from-layer="2405" from-port="2" to-layer="2406" to-port="0"/>
		<edge from-layer="1237" from-port="2" to-layer="2409" to-port="0"/>
		<edge from-layer="2407" from-port="1" to-layer="2409" to-port="1"/>
		<edge from-layer="2408" from-port="1" to-layer="2409" to-port="2"/>
		<edge from-layer="2409" from-port="3" to-layer="2411" to-port="0"/>
		<edge from-layer="2410" from-port="1" to-layer="2411" to-port="1"/>
		<edge from-layer="2411" from-port="2" to-layer="2413" to-port="0"/>
		<edge from-layer="2412" from-port="1" to-layer="2413" to-port="1"/>
		<edge from-layer="2413" from-port="2" to-layer="2414" to-port="0"/>
		<edge from-layer="1545" from-port="2" to-layer="2417" to-port="0"/>
		<edge from-layer="2415" from-port="1" to-layer="2417" to-port="1"/>
		<edge from-layer="2416" from-port="1" to-layer="2417" to-port="2"/>
		<edge from-layer="2417" from-port="3" to-layer="2419" to-port="0"/>
		<edge from-layer="2418" from-port="1" to-layer="2419" to-port="1"/>
		<edge from-layer="2419" from-port="2" to-layer="2421" to-port="0"/>
		<edge from-layer="2420" from-port="1" to-layer="2421" to-port="1"/>
		<edge from-layer="2421" from-port="2" to-layer="2422" to-port="0"/>
		<edge from-layer="1853" from-port="2" to-layer="2425" to-port="0"/>
		<edge from-layer="2423" from-port="1" to-layer="2425" to-port="1"/>
		<edge from-layer="2424" from-port="1" to-layer="2425" to-port="2"/>
		<edge from-layer="2425" from-port="3" to-layer="2427" to-port="0"/>
		<edge from-layer="2426" from-port="1" to-layer="2427" to-port="1"/>
		<edge from-layer="2427" from-port="2" to-layer="2429" to-port="0"/>
		<edge from-layer="2428" from-port="1" to-layer="2429" to-port="1"/>
		<edge from-layer="2429" from-port="2" to-layer="2430" to-port="0"/>
		<edge from-layer="2161" from-port="2" to-layer="2433" to-port="0"/>
		<edge from-layer="2431" from-port="1" to-layer="2433" to-port="1"/>
		<edge from-layer="2432" from-port="1" to-layer="2433" to-port="2"/>
		<edge from-layer="2433" from-port="3" to-layer="2435" to-port="0"/>
		<edge from-layer="2434" from-port="1" to-layer="2435" to-port="1"/>
		<edge from-layer="2435" from-port="2" to-layer="2437" to-port="0"/>
		<edge from-layer="2436" from-port="1" to-layer="2437" to-port="1"/>
		<edge from-layer="2437" from-port="2" to-layer="2438" to-port="0"/>
		<edge from-layer="2406" from-port="1" to-layer="2439" to-port="0"/>
		<edge from-layer="2414" from-port="1" to-layer="2439" to-port="1"/>
		<edge from-layer="2422" from-port="1" to-layer="2439" to-port="2"/>
		<edge from-layer="2430" from-port="1" to-layer="2439" to-port="3"/>
		<edge from-layer="2438" from-port="1" to-layer="2439" to-port="4"/>
		<edge from-layer="1013" from-port="1" to-layer="2441" to-port="0"/>
		<edge from-layer="2440" from-port="1" to-layer="2441" to-port="1"/>
		<edge from-layer="2441" from-port="2" to-layer="2443" to-port="0"/>
		<edge from-layer="2442" from-port="1" to-layer="2443" to-port="1"/>
		<edge from-layer="2443" from-port="2" to-layer="2446" to-port="0"/>
		<edge from-layer="2444" from-port="1" to-layer="2446" to-port="1"/>
		<edge from-layer="2445" from-port="1" to-layer="2446" to-port="2"/>
		<edge from-layer="2446" from-port="3" to-layer="2448" to-port="0"/>
		<edge from-layer="2447" from-port="1" to-layer="2448" to-port="1"/>
		<edge from-layer="2448" from-port="2" to-layer="2450" to-port="0"/>
		<edge from-layer="2449" from-port="1" to-layer="2450" to-port="1"/>
		<edge from-layer="2450" from-port="2" to-layer="2451" to-port="0"/>
		<edge from-layer="1321" from-port="1" to-layer="2453" to-port="0"/>
		<edge from-layer="2452" from-port="1" to-layer="2453" to-port="1"/>
		<edge from-layer="2453" from-port="2" to-layer="2455" to-port="0"/>
		<edge from-layer="2454" from-port="1" to-layer="2455" to-port="1"/>
		<edge from-layer="2455" from-port="2" to-layer="2458" to-port="0"/>
		<edge from-layer="2456" from-port="1" to-layer="2458" to-port="1"/>
		<edge from-layer="2457" from-port="1" to-layer="2458" to-port="2"/>
		<edge from-layer="2458" from-port="3" to-layer="2460" to-port="0"/>
		<edge from-layer="2459" from-port="1" to-layer="2460" to-port="1"/>
		<edge from-layer="2460" from-port="2" to-layer="2462" to-port="0"/>
		<edge from-layer="2461" from-port="1" to-layer="2462" to-port="1"/>
		<edge from-layer="2462" from-port="2" to-layer="2463" to-port="0"/>
		<edge from-layer="1629" from-port="1" to-layer="2465" to-port="0"/>
		<edge from-layer="2464" from-port="1" to-layer="2465" to-port="1"/>
		<edge from-layer="2465" from-port="2" to-layer="2467" to-port="0"/>
		<edge from-layer="2466" from-port="1" to-layer="2467" to-port="1"/>
		<edge from-layer="2467" from-port="2" to-layer="2470" to-port="0"/>
		<edge from-layer="2468" from-port="1" to-layer="2470" to-port="1"/>
		<edge from-layer="2469" from-port="1" to-layer="2470" to-port="2"/>
		<edge from-layer="2470" from-port="3" to-layer="2472" to-port="0"/>
		<edge from-layer="2471" from-port="1" to-layer="2472" to-port="1"/>
		<edge from-layer="2472" from-port="2" to-layer="2474" to-port="0"/>
		<edge from-layer="2473" from-port="1" to-layer="2474" to-port="1"/>
		<edge from-layer="2474" from-port="2" to-layer="2475" to-port="0"/>
		<edge from-layer="1937" from-port="1" to-layer="2477" to-port="0"/>
		<edge from-layer="2476" from-port="1" to-layer="2477" to-port="1"/>
		<edge from-layer="2477" from-port="2" to-layer="2479" to-port="0"/>
		<edge from-layer="2478" from-port="1" to-layer="2479" to-port="1"/>
		<edge from-layer="2479" from-port="2" to-layer="2482" to-port="0"/>
		<edge from-layer="2480" from-port="1" to-layer="2482" to-port="1"/>
		<edge from-layer="2481" from-port="1" to-layer="2482" to-port="2"/>
		<edge from-layer="2482" from-port="3" to-layer="2484" to-port="0"/>
		<edge from-layer="2483" from-port="1" to-layer="2484" to-port="1"/>
		<edge from-layer="2484" from-port="2" to-layer="2486" to-port="0"/>
		<edge from-layer="2485" from-port="1" to-layer="2486" to-port="1"/>
		<edge from-layer="2486" from-port="2" to-layer="2487" to-port="0"/>
		<edge from-layer="2245" from-port="1" to-layer="2489" to-port="0"/>
		<edge from-layer="2488" from-port="1" to-layer="2489" to-port="1"/>
		<edge from-layer="2489" from-port="2" to-layer="2491" to-port="0"/>
		<edge from-layer="2490" from-port="1" to-layer="2491" to-port="1"/>
		<edge from-layer="2491" from-port="2" to-layer="2494" to-port="0"/>
		<edge from-layer="2492" from-port="1" to-layer="2494" to-port="1"/>
		<edge from-layer="2493" from-port="1" to-layer="2494" to-port="2"/>
		<edge from-layer="2494" from-port="3" to-layer="2496" to-port="0"/>
		<edge from-layer="2495" from-port="1" to-layer="2496" to-port="1"/>
		<edge from-layer="2496" from-port="2" to-layer="2498" to-port="0"/>
		<edge from-layer="2497" from-port="1" to-layer="2498" to-port="1"/>
		<edge from-layer="2498" from-port="2" to-layer="2499" to-port="0"/>
		<edge from-layer="2451" from-port="1" to-layer="2500" to-port="0"/>
		<edge from-layer="2463" from-port="1" to-layer="2500" to-port="1"/>
		<edge from-layer="2475" from-port="1" to-layer="2500" to-port="2"/>
		<edge from-layer="2487" from-port="1" to-layer="2500" to-port="3"/>
		<edge from-layer="2499" from-port="1" to-layer="2500" to-port="4"/>
		<edge from-layer="2500" from-port="5" to-layer="2502" to-port="0"/>
		<edge from-layer="2501" from-port="1" to-layer="2502" to-port="1"/>
		<edge from-layer="2502" from-port="2" to-layer="2504" to-port="0"/>
		<edge from-layer="2503" from-port="1" to-layer="2504" to-port="1"/>
		<edge from-layer="2439" from-port="5" to-layer="2505" to-port="0"/>
		<edge from-layer="2504" from-port="2" to-layer="2505" to-port="1"/>
		<edge from-layer="2505" from-port="2" to-layer="2507" to-port="0"/>
		<edge from-layer="2506" from-port="1" to-layer="2507" to-port="1"/>
		<edge from-layer="2507" from-port="2" to-layer="2509" to-port="0"/>
		<edge from-layer="2508" from-port="1" to-layer="2509" to-port="1"/>
		<edge from-layer="2396" from-port="2" to-layer="2513" to-port="0"/>
		<edge from-layer="2509" from-port="2" to-layer="2513" to-port="1"/>
		<edge from-layer="2510" from-port="1" to-layer="2513" to-port="2"/>
		<edge from-layer="2511" from-port="1" to-layer="2513" to-port="3"/>
		<edge from-layer="2512" from-port="1" to-layer="2513" to-port="4"/>
		<edge from-layer="2513" from-port="5" to-layer="2514" to-port="0"/>
		<edge from-layer="2514" from-port="1" to-layer="2517" to-port="0"/>
		<edge from-layer="2515" from-port="1" to-layer="2517" to-port="1"/>
		<edge from-layer="2516" from-port="1" to-layer="2517" to-port="2"/>
		<edge from-layer="2517" from-port="3" to-layer="2519" to-port="0"/>
		<edge from-layer="2518" from-port="1" to-layer="2519" to-port="1"/>
		<edge from-layer="2519" from-port="2" to-layer="2520" to-port="0"/>
		<edge from-layer="2517" from-port="5" to-layer="2520" to-port="1"/>
		<edge from-layer="2398" from-port="2" to-layer="2522" to-port="0"/>
		<edge from-layer="2520" from-port="2" to-layer="2522" to-port="1"/>
		<edge from-layer="2521" from-port="1" to-layer="2522" to-port="2"/>
		<edge from-layer="2522" from-port="3" to-layer="2524" to-port="0"/>
		<edge from-layer="2523" from-port="1" to-layer="2524" to-port="1"/>
		<edge from-layer="2509" from-port="2" to-layer="2526" to-port="0"/>
		<edge from-layer="2525" from-port="1" to-layer="2526" to-port="1"/>
		<edge from-layer="2517" from-port="3" to-layer="2528" to-port="0"/>
		<edge from-layer="2527" from-port="1" to-layer="2528" to-port="1"/>
		<edge from-layer="2528" from-port="2" to-layer="2529" to-port="0"/>
		<edge from-layer="2517" from-port="4" to-layer="2529" to-port="1"/>
		<edge from-layer="2529" from-port="2" to-layer="2531" to-port="0"/>
		<edge from-layer="2530" from-port="1" to-layer="2531" to-port="1"/>
		<edge from-layer="2531" from-port="2" to-layer="2532" to-port="0"/>
		<edge from-layer="2517" from-port="5" to-layer="2532" to-port="1"/>
		<edge from-layer="2526" from-port="2" to-layer="2534" to-port="0"/>
		<edge from-layer="2532" from-port="2" to-layer="2534" to-port="1"/>
		<edge from-layer="2533" from-port="1" to-layer="2534" to-port="2"/>
		<edge from-layer="2534" from-port="3" to-layer="2536" to-port="0"/>
		<edge from-layer="2535" from-port="1" to-layer="2536" to-port="1"/>
		<edge from-layer="2517" from-port="4" to-layer="2537" to-port="0"/>
		<edge from-layer="2537" from-port="1" to-layer="2539" to-port="0"/>
		<edge from-layer="2538" from-port="1" to-layer="2539" to-port="1"/>
		<edge from-layer="2524" from-port="2" to-layer="2540" to-port="0"/>
		<edge from-layer="2536" from-port="2" to-layer="2540" to-port="1"/>
		<edge from-layer="2539" from-port="2" to-layer="2540" to-port="2"/>
		<edge from-layer="2540" from-port="3" to-layer="2543" to-port="0"/>
		<edge from-layer="2541" from-port="1" to-layer="2543" to-port="1"/>
		<edge from-layer="2542" from-port="1" to-layer="2543" to-port="2"/>
		<edge from-layer="2543" from-port="3" to-layer="2545" to-port="0"/>
		<edge from-layer="2544" from-port="1" to-layer="2545" to-port="1"/>
		<edge from-layer="2545" from-port="2" to-layer="2547" to-port="0"/>
		<edge from-layer="2546" from-port="1" to-layer="2547" to-port="1"/>
		<edge from-layer="2547" from-port="2" to-layer="2548" to-port="0"/>
		<edge from-layer="2540" from-port="3" to-layer="2550" to-port="0"/>
		<edge from-layer="2547" from-port="3" to-layer="2550" to-port="1"/>
		<edge from-layer="2549" from-port="1" to-layer="2550" to-port="2"/>
		<edge from-layer="2550" from-port="3" to-layer="2553" to-port="0"/>
		<edge from-layer="2551" from-port="1" to-layer="2553" to-port="1"/>
		<edge from-layer="2552" from-port="1" to-layer="2553" to-port="2"/>
		<edge from-layer="2553" from-port="4" to-layer="2554" to-port="0"/>
		<edge from-layer="2553" from-port="3" to-layer="2555" to-port="0"/>
		<edge from-layer="2550" from-port="3" to-layer="2558" to-port="0"/>
		<edge from-layer="2556" from-port="1" to-layer="2558" to-port="1"/>
		<edge from-layer="2557" from-port="1" to-layer="2558" to-port="2"/>
		<edge from-layer="2558" from-port="3" to-layer="2559" to-port="0"/>
		<edge from-layer="2559" from-port="1" to-layer="2561" to-port="0"/>
		<edge from-layer="2560" from-port="1" to-layer="2561" to-port="1"/>
		<edge from-layer="2561" from-port="2" to-layer="2562" to-port="0"/>
	</edges>
	<meta_data>
		<MO_version value="2020.2.0-37-gd17ecf5ae7"/>
		<cli_parameters>
			<blobs_as_inputs value="True"/>
			<caffe_parser_path value="DIR"/>
			<data_type value="FP16"/>
			<disable_nhwc_to_nchw value="False"/>
			<disable_omitting_optional value="False"/>
			<disable_resnet_optimization value="False"/>
			<disable_weights_compression value="False"/>
			<enable_concat_optimization value="False"/>
			<enable_flattening_nested_params value="False"/>
			<enable_ssd_gluoncv value="False"/>
			<extensions value="DIR"/>
			<framework value="onnx"/>
			<freeze_placeholder_with_value value="{}"/>
			<generate_deprecated_IR_V2 value="False"/>
			<generate_deprecated_IR_V7 value="False"/>
			<generate_experimental_IR_V10 value="True"/>
			<input value="image"/>
			<input_model value="DIR/model.onnx"/>
			<input_model_is_text value="False"/>
			<input_shape value="[1,3,640,640]"/>
			<k value="DIR/CustomLayersMapping.xml"/>
			<keep_quantize_ops_in_IR value="True"/>
			<keep_shape_ops value="False"/>
			<legacy_mxnet_model value="False"/>
			<log_level value="ERROR"/>
			<mean_scale_values value="{'image': {'mean': array([123.675, 116.28 , 103.53 ]), 'scale': array([58.395, 57.12 , 57.375])}}"/>
			<mean_values value="image[123.675,116.28,103.53]"/>
			<model_name value="face-detection-0106"/>
			<move_to_preprocess value="False"/>
			<output value="['boxes', 'labels']"/>
			<output_dir value="DIR"/>
			<placeholder_data_types value="{}"/>
			<placeholder_shapes value="{'image': array([  1,   3, 640, 640])}"/>
			<progress value="False"/>
			<remove_memory value="False"/>
			<remove_output_softmax value="False"/>
			<reverse_input_channels value="True"/>
			<save_params_from_nd value="False"/>
			<scale_values value="image[58.395,57.12,57.375]"/>
			<silent value="False"/>
			<stream_output value="False"/>
			<unset unset_cli_parameters="batch, counts, disable_fusing, disable_gfusing, finegrain_fusing, input_checkpoint, input_meta_graph, input_proto, input_symbol, mean_file, mean_file_offsets, nd_prefix_name, pretrained_model_name, saved_model_dir, saved_model_tags, scale, tensorboard_logdir, tensorflow_custom_layer_libraries, tensorflow_custom_operations_config_update, tensorflow_object_detection_api_pipeline_config, tensorflow_use_custom_operations_config, transformations_config"/>
		</cli_parameters>
	</meta_data>
</net>
