<?xml version="1.0" ?>
<net name="icnet-camvid-ava-0001" version="10">
	<layers>
		<layer id="0" name="data" type="Parameter" version="opset1">
			<data element_type="f16" shape="1,3,720,960"/>
			<output>
				<port id="0" precision="FP16">
					<dim>1</dim>
					<dim>3</dim>
					<dim>720</dim>
					<dim>960</dim>
				</port>
			</output>
		</layer>
		<layer id="1" name="image_preprocess/truediv/reciprocal_14400/copy_const" type="Const" version="opset1">
			<data element_type="f16" offset="0" shape="1,3,1,1" size="6"/>
			<output>
				<port id="1" precision="FP16">
					<dim>1</dim>
					<dim>3</dim>
					<dim>1</dim>
					<dim>1</dim>
				</port>
			</output>
		</layer>
		<layer id="2" name="image_preprocess/truediv" type="Multiply" version="opset1">
			<input>
				<port id="0">
					<dim>1</dim>
					<dim>3</dim>
					<dim>720</dim>
					<dim>960</dim>
				</port>
				<port id="1">
					<dim>1</dim>
					<dim>3</dim>
					<dim>1</dim>
					<dim>1</dim>
				</port>
			</input>
			<output>
				<port id="2" precision="FP16">
					<dim>1</dim>
					<dim>3</dim>
					<dim>720</dim>
					<dim>960</dim>
				</port>
			</output>
		</layer>
		<layer id="3" name="image_preprocess/sub/neg_14406/copy_const" type="Const" version="opset1">
			<data element_type="f16" offset="6" shape="1,3,1,1" size="6"/>
			<output>
				<port id="1" precision="FP16">
					<dim>1</dim>
					<dim>3</dim>
					<dim>1</dim>
					<dim>1</dim>
				</port>
			</output>
		</layer>
		<layer id="4" name="image_preprocess/sub" type="Add" version="opset1">
			<input>
				<port id="0">
					<dim>1</dim>
					<dim>3</dim>
					<dim>720</dim>
					<dim>960</dim>
				</port>
				<port id="1">
					<dim>1</dim>
					<dim>3</dim>
					<dim>1</dim>
					<dim>1</dim>
				</port>
			</input>
			<output>
				<port id="2" precision="FP16">
					<dim>1</dim>
					<dim>3</dim>
					<dim>720</dim>
					<dim>960</dim>
				</port>
			</output>
		</layer>
		<layer id="5" name="icnet_features/data_sub2_1/Cast_122598_const" type="Const" version="opset1">
			<data element_type="i64" offset="12" shape="2" size="16"/>
			<output>
				<port id="1" precision="I64">
					<dim>2</dim>
				</port>
			</output>
		</layer>
		<layer id="6" name="icnet_features/data_sub2_1" type="Interpolate" version="opset1">
			<data align_corners="1" antialias="0" axes="2,3" mode="linear" pads_begin="0" pads_end="0"/>
			<input>
				<port id="0">
					<dim>1</dim>
					<dim>3</dim>
					<dim>720</dim>
					<dim>960</dim>
				</port>
				<port id="1">
					<dim>2</dim>
				</port>
			</input>
			<output>
				<port id="2" precision="FP16">
					<dim>1</dim>
					<dim>3</dim>
					<dim>360</dim>
					<dim>480</dim>
				</port>
			</output>
		</layer>
		<layer id="7" name="icnet_features/conv1_1_3x3_s2_bn_2/FusedBatchNorm/mean/Fused_Mul_1620516207_const" type="Const" version="opset1">
			<data element_type="f16" offset="28" shape="64,3,3,3" size="3456"/>
			<output>
				<port id="1" precision="FP16">
					<dim>64</dim>
					<dim>3</dim>
					<dim>3</dim>
					<dim>3</dim>
				</port>
			</output>
		</layer>
		<layer id="8" name="icnet_features/conv1_1_3x3_s2_1/Conv2D" type="Convolution" version="opset1">
			<data auto_pad="same_upper" dilations="1,1" output_padding="0,0" pads_begin="0,0" pads_end="1,1" strides="2,2"/>
			<input>
				<port id="0">
					<dim>1</dim>
					<dim>3</dim>
					<dim>360</dim>
					<dim>480</dim>
				</port>
				<port id="1">
					<dim>64</dim>
					<dim>3</dim>
					<dim>3</dim>
					<dim>3</dim>
				</port>
			</input>
			<output>
				<port id="2" precision="FP16">
					<dim>1</dim>
					<dim>64</dim>
					<dim>180</dim>
					<dim>240</dim>
				</port>
			</output>
		</layer>
		<layer id="9" name="data_add_1514015145/copy_const" type="Const" version="opset1">
			<data element_type="f16" offset="3484" shape="1,64,1,1" size="128"/>
			<output>
				<port id="1" precision="FP16">
					<dim>1</dim>
					<dim>64</dim>
					<dim>1</dim>
					<dim>1</dim>
				</port>
			</output>
		</layer>
		<layer id="10" name="icnet_features/conv1_1_3x3_s2_bn_2/FusedBatchNorm/variance/Fused_Add_" type="Add" version="opset1">
			<input>
				<port id="0">
					<dim>1</dim>
					<dim>64</dim>
					<dim>180</dim>
					<dim>240</dim>
				</port>
				<port id="1">
					<dim>1</dim>
					<dim>64</dim>
					<dim>1</dim>
					<dim>1</dim>
				</port>
			</input>
			<output>
				<port id="2" precision="FP16">
					<dim>1</dim>
					<dim>64</dim>
					<dim>180</dim>
					<dim>240</dim>
				</port>
			</output>
		</layer>
		<layer id="11" name="icnet_features/conv1_1_3x3_s2_bn_3/conv1_1_3x3_s2_bn" type="ReLU" version="opset1">
			<input>
				<port id="0">
					<dim>1</dim>
					<dim>64</dim>
					<dim>180</dim>
					<dim>240</dim>
				</port>
			</input>
			<output>
				<port id="1" precision="FP16">
					<dim>1</dim>
					<dim>64</dim>
					<dim>180</dim>
					<dim>240</dim>
				</port>
			</output>
		</layer>
		<layer id="12" name="icnet_features/conv1_2_3x3_bn_2/FusedBatchNorm/mean/Fused_Mul_1620916211_const" type="Const" version="opset1">
			<data element_type="f16" offset="3612" shape="64,64,3,3" size="73728"/>
			<output>
				<port id="1" precision="FP16">
					<dim>64</dim>
					<dim>64</dim>
					<dim>3</dim>
					<dim>3</dim>
				</port>
			</output>
		</layer>
		<layer id="13" name="icnet_features/conv1_2_3x3_1/Conv2D" type="Convolution" version="opset1">
			<data auto_pad="same_upper" dilations="1,1" output_padding="0,0" pads_begin="1,1" pads_end="1,1" strides="1,1"/>
			<input>
				<port id="0">
					<dim>1</dim>
					<dim>64</dim>
					<dim>180</dim>
					<dim>240</dim>
				</port>
				<port id="1">
					<dim>64</dim>
					<dim>64</dim>
					<dim>3</dim>
					<dim>3</dim>
				</port>
			</input>
			<output>
				<port id="2" precision="FP16">
					<dim>1</dim>
					<dim>64</dim>
					<dim>180</dim>
					<dim>240</dim>
				</port>
			</output>
		</layer>
		<layer id="14" name="data_add_1514815153/copy_const" type="Const" version="opset1">
			<data element_type="f16" offset="77340" shape="1,64,1,1" size="128"/>
			<output>
				<port id="1" precision="FP16">
					<dim>1</dim>
					<dim>64</dim>
					<dim>1</dim>
					<dim>1</dim>
				</port>
			</output>
		</layer>
		<layer id="15" name="icnet_features/conv1_2_3x3_bn_2/FusedBatchNorm/variance/Fused_Add_" type="Add" version="opset1">
			<input>
				<port id="0">
					<dim>1</dim>
					<dim>64</dim>
					<dim>180</dim>
					<dim>240</dim>
				</port>
				<port id="1">
					<dim>1</dim>
					<dim>64</dim>
					<dim>1</dim>
					<dim>1</dim>
				</port>
			</input>
			<output>
				<port id="2" precision="FP16">
					<dim>1</dim>
					<dim>64</dim>
					<dim>180</dim>
					<dim>240</dim>
				</port>
			</output>
		</layer>
		<layer id="16" name="icnet_features/conv1_2_3x3_bn_3/conv1_2_3x3_bn" type="ReLU" version="opset1">
			<input>
				<port id="0">
					<dim>1</dim>
					<dim>64</dim>
					<dim>180</dim>
					<dim>240</dim>
				</port>
			</input>
			<output>
				<port id="1" precision="FP16">
					<dim>1</dim>
					<dim>64</dim>
					<dim>180</dim>
					<dim>240</dim>
				</port>
			</output>
		</layer>
		<layer id="17" name="icnet_features/conv1_3_3x3_bn_2/FusedBatchNorm/mean/Fused_Mul_1621316215_const" type="Const" version="opset1">
			<data element_type="f16" offset="77468" shape="128,64,3,3" size="147456"/>
			<output>
				<port id="1" precision="FP16">
					<dim>128</dim>
					<dim>64</dim>
					<dim>3</dim>
					<dim>3</dim>
				</port>
			</output>
		</layer>
		<layer id="18" name="icnet_features/conv1_3_3x3_1/Conv2D" type="Convolution" version="opset1">
			<data auto_pad="same_upper" dilations="1,1" output_padding="0,0" pads_begin="1,1" pads_end="1,1" strides="1,1"/>
			<input>
				<port id="0">
					<dim>1</dim>
					<dim>64</dim>
					<dim>180</dim>
					<dim>240</dim>
				</port>
				<port id="1">
					<dim>128</dim>
					<dim>64</dim>
					<dim>3</dim>
					<dim>3</dim>
				</port>
			</input>
			<output>
				<port id="2" precision="FP16">
					<dim>1</dim>
					<dim>128</dim>
					<dim>180</dim>
					<dim>240</dim>
				</port>
			</output>
		</layer>
		<layer id="19" name="data_add_1515615161/copy_const" type="Const" version="opset1">
			<data element_type="f16" offset="224924" shape="1,128,1,1" size="256"/>
			<output>
				<port id="1" precision="FP16">
					<dim>1</dim>
					<dim>128</dim>
					<dim>1</dim>
					<dim>1</dim>
				</port>
			</output>
		</layer>
		<layer id="20" name="icnet_features/conv1_3_3x3_bn_2/FusedBatchNorm/variance/Fused_Add_" type="Add" version="opset1">
			<input>
				<port id="0">
					<dim>1</dim>
					<dim>128</dim>
					<dim>180</dim>
					<dim>240</dim>
				</port>
				<port id="1">
					<dim>1</dim>
					<dim>128</dim>
					<dim>1</dim>
					<dim>1</dim>
				</port>
			</input>
			<output>
				<port id="2" precision="FP16">
					<dim>1</dim>
					<dim>128</dim>
					<dim>180</dim>
					<dim>240</dim>
				</port>
			</output>
		</layer>
		<layer id="21" name="icnet_features/conv1_3_3x3_bn_3/conv1_3_3x3_bn" type="ReLU" version="opset1">
			<input>
				<port id="0">
					<dim>1</dim>
					<dim>128</dim>
					<dim>180</dim>
					<dim>240</dim>
				</port>
			</input>
			<output>
				<port id="1" precision="FP16">
					<dim>1</dim>
					<dim>128</dim>
					<dim>180</dim>
					<dim>240</dim>
				</port>
			</output>
		</layer>
		<layer id="22" name="icnet_features/pool1_3x3_s2_1/MaxPool" type="MaxPool" version="opset1">
			<data kernel="3,3" pads_begin="1,1" pads_end="1,1" strides="2,2"/>
			<input>
				<port id="0">
					<dim>1</dim>
					<dim>128</dim>
					<dim>180</dim>
					<dim>240</dim>
				</port>
			</input>
			<output>
				<port id="1" precision="FP16">
					<dim>1</dim>
					<dim>128</dim>
					<dim>90</dim>
					<dim>120</dim>
				</port>
			</output>
		</layer>
		<layer id="23" name="icnet_features/conv2_1_1x1_proj_bn_1/FusedBatchNorm/mean/Fused_Mul_1622916231_const" type="Const" version="opset1">
			<data element_type="f16" offset="225180" shape="256,128,1,1" size="65536"/>
			<output>
				<port id="1" precision="FP16">
					<dim>256</dim>
					<dim>128</dim>
					<dim>1</dim>
					<dim>1</dim>
				</port>
			</output>
		</layer>
		<layer id="24" name="icnet_features/conv2_1_1x1_proj_1/Conv2D" type="Convolution" version="opset1">
			<data auto_pad="valid" dilations="1,1" output_padding="0,0" pads_begin="0,0" pads_end="0,0" strides="1,1"/>
			<input>
				<port id="0">
					<dim>1</dim>
					<dim>128</dim>
					<dim>90</dim>
					<dim>120</dim>
				</port>
				<port id="1">
					<dim>256</dim>
					<dim>128</dim>
					<dim>1</dim>
					<dim>1</dim>
				</port>
			</input>
			<output>
				<port id="2" precision="FP16">
					<dim>1</dim>
					<dim>256</dim>
					<dim>90</dim>
					<dim>120</dim>
				</port>
			</output>
		</layer>
		<layer id="25" name="data_add_1518815193/copy_const" type="Const" version="opset1">
			<data element_type="f16" offset="290716" shape="1,256,1,1" size="512"/>
			<output>
				<port id="1" precision="FP16">
					<dim>1</dim>
					<dim>256</dim>
					<dim>1</dim>
					<dim>1</dim>
				</port>
			</output>
		</layer>
		<layer id="26" name="icnet_features/conv2_1_1x1_proj_bn_1/FusedBatchNorm/variance/Fused_Add_" type="Add" version="opset1">
			<input>
				<port id="0">
					<dim>1</dim>
					<dim>256</dim>
					<dim>90</dim>
					<dim>120</dim>
				</port>
				<port id="1">
					<dim>1</dim>
					<dim>256</dim>
					<dim>1</dim>
					<dim>1</dim>
				</port>
			</input>
			<output>
				<port id="2" precision="FP16">
					<dim>1</dim>
					<dim>256</dim>
					<dim>90</dim>
					<dim>120</dim>
				</port>
			</output>
		</layer>
		<layer id="27" name="icnet_features/ResizeBilinear_19/Cast_122612_const" type="Const" version="opset1">
			<data element_type="i64" offset="291228" shape="2" size="16"/>
			<output>
				<port id="1" precision="I64">
					<dim>2</dim>
				</port>
			</output>
		</layer>
		<layer id="28" name="icnet_features/ResizeBilinear_19" type="Interpolate" version="opset1">
			<data align_corners="0" antialias="0" axes="2,3" mode="linear" pads_begin="0" pads_end="0"/>
			<input>
				<port id="0">
					<dim>1</dim>
					<dim>256</dim>
					<dim>90</dim>
					<dim>120</dim>
				</port>
				<port id="1">
					<dim>2</dim>
				</port>
			</input>
			<output>
				<port id="2" precision="FP16">
					<dim>1</dim>
					<dim>256</dim>
					<dim>90</dim>
					<dim>120</dim>
				</port>
			</output>
		</layer>
		<layer id="29" name="icnet_features/conv2_1_1x1_reduce_bn_2/FusedBatchNorm/mean/Fused_Mul_1621716219_const" type="Const" version="opset1">
			<data element_type="f16" offset="291244" shape="64,128,1,1" size="16384"/>
			<output>
				<port id="1" precision="FP16">
					<dim>64</dim>
					<dim>128</dim>
					<dim>1</dim>
					<dim>1</dim>
				</port>
			</output>
		</layer>
		<layer id="30" name="icnet_features/conv2_1_1x1_reduce_1/Conv2D" type="Convolution" version="opset1">
			<data auto_pad="valid" dilations="1,1" output_padding="0,0" pads_begin="0,0" pads_end="0,0" strides="1,1"/>
			<input>
				<port id="0">
					<dim>1</dim>
					<dim>128</dim>
					<dim>90</dim>
					<dim>120</dim>
				</port>
				<port id="1">
					<dim>64</dim>
					<dim>128</dim>
					<dim>1</dim>
					<dim>1</dim>
				</port>
			</input>
			<output>
				<port id="2" precision="FP16">
					<dim>1</dim>
					<dim>64</dim>
					<dim>90</dim>
					<dim>120</dim>
				</port>
			</output>
		</layer>
		<layer id="31" name="data_add_1516415169/copy_const" type="Const" version="opset1">
			<data element_type="f16" offset="307628" shape="1,64,1,1" size="128"/>
			<output>
				<port id="1" precision="FP16">
					<dim>1</dim>
					<dim>64</dim>
					<dim>1</dim>
					<dim>1</dim>
				</port>
			</output>
		</layer>
		<layer id="32" name="icnet_features/conv2_1_1x1_reduce_bn_2/FusedBatchNorm/variance/Fused_Add_" type="Add" version="opset1">
			<input>
				<port id="0">
					<dim>1</dim>
					<dim>64</dim>
					<dim>90</dim>
					<dim>120</dim>
				</port>
				<port id="1">
					<dim>1</dim>
					<dim>64</dim>
					<dim>1</dim>
					<dim>1</dim>
				</port>
			</input>
			<output>
				<port id="2" precision="FP16">
					<dim>1</dim>
					<dim>64</dim>
					<dim>90</dim>
					<dim>120</dim>
				</port>
			</output>
		</layer>
		<layer id="33" name="icnet_features/conv2_1_1x1_reduce_bn_3/conv2_1_1x1_reduce_bn" type="ReLU" version="opset1">
			<input>
				<port id="0">
					<dim>1</dim>
					<dim>64</dim>
					<dim>90</dim>
					<dim>120</dim>
				</port>
			</input>
			<output>
				<port id="1" precision="FP16">
					<dim>1</dim>
					<dim>64</dim>
					<dim>90</dim>
					<dim>120</dim>
				</port>
			</output>
		</layer>
		<layer id="34" name="icnet_features/conv2_1_3x3_bn_2/FusedBatchNorm/mean/Fused_Mul_1622116223_const" type="Const" version="opset1">
			<data element_type="f16" offset="307756" shape="64,64,3,3" size="73728"/>
			<output>
				<port id="1" precision="FP16">
					<dim>64</dim>
					<dim>64</dim>
					<dim>3</dim>
					<dim>3</dim>
				</port>
			</output>
		</layer>
		<layer id="35" name="icnet_features/conv2_1_3x3_1/Conv2D" type="Convolution" version="opset1">
			<data dilations="1,1" output_padding="0,0" pads_begin="1,1" pads_end="1,1" strides="1,1"/>
			<input>
				<port id="0">
					<dim>1</dim>
					<dim>64</dim>
					<dim>90</dim>
					<dim>120</dim>
				</port>
				<port id="1">
					<dim>64</dim>
					<dim>64</dim>
					<dim>3</dim>
					<dim>3</dim>
				</port>
			</input>
			<output>
				<port id="2" precision="FP16">
					<dim>1</dim>
					<dim>64</dim>
					<dim>90</dim>
					<dim>120</dim>
				</port>
			</output>
		</layer>
		<layer id="36" name="data_add_1517215177/copy_const" type="Const" version="opset1">
			<data element_type="f16" offset="381484" shape="1,64,1,1" size="128"/>
			<output>
				<port id="1" precision="FP16">
					<dim>1</dim>
					<dim>64</dim>
					<dim>1</dim>
					<dim>1</dim>
				</port>
			</output>
		</layer>
		<layer id="37" name="icnet_features/conv2_1_3x3_bn_2/FusedBatchNorm/variance/Fused_Add_" type="Add" version="opset1">
			<input>
				<port id="0">
					<dim>1</dim>
					<dim>64</dim>
					<dim>90</dim>
					<dim>120</dim>
				</port>
				<port id="1">
					<dim>1</dim>
					<dim>64</dim>
					<dim>1</dim>
					<dim>1</dim>
				</port>
			</input>
			<output>
				<port id="2" precision="FP16">
					<dim>1</dim>
					<dim>64</dim>
					<dim>90</dim>
					<dim>120</dim>
				</port>
			</output>
		</layer>
		<layer id="38" name="icnet_features/conv2_1_3x3_bn_3/conv2_1_3x3_bn" type="ReLU" version="opset1">
			<input>
				<port id="0">
					<dim>1</dim>
					<dim>64</dim>
					<dim>90</dim>
					<dim>120</dim>
				</port>
			</input>
			<output>
				<port id="1" precision="FP16">
					<dim>1</dim>
					<dim>64</dim>
					<dim>90</dim>
					<dim>120</dim>
				</port>
			</output>
		</layer>
		<layer id="39" name="icnet_features/conv2_1_1x1_increase_bn_1/FusedBatchNorm/mean/Fused_Mul_1622516227_const" type="Const" version="opset1">
			<data element_type="f16" offset="381612" shape="256,64,1,1" size="32768"/>
			<output>
				<port id="1" precision="FP16">
					<dim>256</dim>
					<dim>64</dim>
					<dim>1</dim>
					<dim>1</dim>
				</port>
			</output>
		</layer>
		<layer id="40" name="icnet_features/conv2_1_1x1_increase_1/Conv2D" type="Convolution" version="opset1">
			<data auto_pad="valid" dilations="1,1" output_padding="0,0" pads_begin="0,0" pads_end="0,0" strides="1,1"/>
			<input>
				<port id="0">
					<dim>1</dim>
					<dim>64</dim>
					<dim>90</dim>
					<dim>120</dim>
				</port>
				<port id="1">
					<dim>256</dim>
					<dim>64</dim>
					<dim>1</dim>
					<dim>1</dim>
				</port>
			</input>
			<output>
				<port id="2" precision="FP16">
					<dim>1</dim>
					<dim>256</dim>
					<dim>90</dim>
					<dim>120</dim>
				</port>
			</output>
		</layer>
		<layer id="41" name="data_add_1518015185/copy_const" type="Const" version="opset1">
			<data element_type="f16" offset="414380" shape="1,256,1,1" size="512"/>
			<output>
				<port id="1" precision="FP16">
					<dim>1</dim>
					<dim>256</dim>
					<dim>1</dim>
					<dim>1</dim>
				</port>
			</output>
		</layer>
		<layer id="42" name="icnet_features/conv2_1_1x1_increase_bn_1/FusedBatchNorm/variance/Fused_Add_" type="Add" version="opset1">
			<input>
				<port id="0">
					<dim>1</dim>
					<dim>256</dim>
					<dim>90</dim>
					<dim>120</dim>
				</port>
				<port id="1">
					<dim>1</dim>
					<dim>256</dim>
					<dim>1</dim>
					<dim>1</dim>
				</port>
			</input>
			<output>
				<port id="2" precision="FP16">
					<dim>1</dim>
					<dim>256</dim>
					<dim>90</dim>
					<dim>120</dim>
				</port>
			</output>
		</layer>
		<layer id="43" name="icnet_features/conv2_1_1/sum_1" type="Add" version="opset1">
			<input>
				<port id="0">
					<dim>1</dim>
					<dim>256</dim>
					<dim>90</dim>
					<dim>120</dim>
				</port>
				<port id="1">
					<dim>1</dim>
					<dim>256</dim>
					<dim>90</dim>
					<dim>120</dim>
				</port>
			</input>
			<output>
				<port id="2" precision="FP16">
					<dim>1</dim>
					<dim>256</dim>
					<dim>90</dim>
					<dim>120</dim>
				</port>
			</output>
		</layer>
		<layer id="44" name="icnet_features/conv2_1/relu_1" type="ReLU" version="opset1">
			<input>
				<port id="0">
					<dim>1</dim>
					<dim>256</dim>
					<dim>90</dim>
					<dim>120</dim>
				</port>
			</input>
			<output>
				<port id="1" precision="FP16">
					<dim>1</dim>
					<dim>256</dim>
					<dim>90</dim>
					<dim>120</dim>
				</port>
			</output>
		</layer>
		<layer id="45" name="icnet_features/ResizeBilinear_20/Cast_122600_const" type="Const" version="opset1">
			<data element_type="i64" offset="291228" shape="2" size="16"/>
			<output>
				<port id="1" precision="I64">
					<dim>2</dim>
				</port>
			</output>
		</layer>
		<layer id="46" name="icnet_features/ResizeBilinear_20" type="Interpolate" version="opset1">
			<data align_corners="0" antialias="0" axes="2,3" mode="linear" pads_begin="0" pads_end="0"/>
			<input>
				<port id="0">
					<dim>1</dim>
					<dim>256</dim>
					<dim>90</dim>
					<dim>120</dim>
				</port>
				<port id="1">
					<dim>2</dim>
				</port>
			</input>
			<output>
				<port id="2" precision="FP16">
					<dim>1</dim>
					<dim>256</dim>
					<dim>90</dim>
					<dim>120</dim>
				</port>
			</output>
		</layer>
		<layer id="47" name="icnet_features/conv2_2_1x1_reduce_bn_2/FusedBatchNorm/mean/Fused_Mul_1623316235_const" type="Const" version="opset1">
			<data element_type="f16" offset="414892" shape="64,256,1,1" size="32768"/>
			<output>
				<port id="1" precision="FP16">
					<dim>64</dim>
					<dim>256</dim>
					<dim>1</dim>
					<dim>1</dim>
				</port>
			</output>
		</layer>
		<layer id="48" name="icnet_features/conv2_2_1x1_reduce_1/Conv2D" type="Convolution" version="opset1">
			<data auto_pad="valid" dilations="1,1" output_padding="0,0" pads_begin="0,0" pads_end="0,0" strides="1,1"/>
			<input>
				<port id="0">
					<dim>1</dim>
					<dim>256</dim>
					<dim>90</dim>
					<dim>120</dim>
				</port>
				<port id="1">
					<dim>64</dim>
					<dim>256</dim>
					<dim>1</dim>
					<dim>1</dim>
				</port>
			</input>
			<output>
				<port id="2" precision="FP16">
					<dim>1</dim>
					<dim>64</dim>
					<dim>90</dim>
					<dim>120</dim>
				</port>
			</output>
		</layer>
		<layer id="49" name="data_add_1519615201/copy_const" type="Const" version="opset1">
			<data element_type="f16" offset="447660" shape="1,64,1,1" size="128"/>
			<output>
				<port id="1" precision="FP16">
					<dim>1</dim>
					<dim>64</dim>
					<dim>1</dim>
					<dim>1</dim>
				</port>
			</output>
		</layer>
		<layer id="50" name="icnet_features/conv2_2_1x1_reduce_bn_2/FusedBatchNorm/variance/Fused_Add_" type="Add" version="opset1">
			<input>
				<port id="0">
					<dim>1</dim>
					<dim>64</dim>
					<dim>90</dim>
					<dim>120</dim>
				</port>
				<port id="1">
					<dim>1</dim>
					<dim>64</dim>
					<dim>1</dim>
					<dim>1</dim>
				</port>
			</input>
			<output>
				<port id="2" precision="FP16">
					<dim>1</dim>
					<dim>64</dim>
					<dim>90</dim>
					<dim>120</dim>
				</port>
			</output>
		</layer>
		<layer id="51" name="icnet_features/conv2_2_1x1_reduce_bn_3/conv2_2_1x1_reduce_bn" type="ReLU" version="opset1">
			<input>
				<port id="0">
					<dim>1</dim>
					<dim>64</dim>
					<dim>90</dim>
					<dim>120</dim>
				</port>
			</input>
			<output>
				<port id="1" precision="FP16">
					<dim>1</dim>
					<dim>64</dim>
					<dim>90</dim>
					<dim>120</dim>
				</port>
			</output>
		</layer>
		<layer id="52" name="icnet_features/conv2_2_3x3_bn_2/FusedBatchNorm/mean/Fused_Mul_1623716239_const" type="Const" version="opset1">
			<data element_type="f16" offset="447788" shape="64,64,3,3" size="73728"/>
			<output>
				<port id="1" precision="FP16">
					<dim>64</dim>
					<dim>64</dim>
					<dim>3</dim>
					<dim>3</dim>
				</port>
			</output>
		</layer>
		<layer id="53" name="icnet_features/conv2_2_3x3_1/Conv2D" type="Convolution" version="opset1">
			<data dilations="1,1" output_padding="0,0" pads_begin="1,1" pads_end="1,1" strides="1,1"/>
			<input>
				<port id="0">
					<dim>1</dim>
					<dim>64</dim>
					<dim>90</dim>
					<dim>120</dim>
				</port>
				<port id="1">
					<dim>64</dim>
					<dim>64</dim>
					<dim>3</dim>
					<dim>3</dim>
				</port>
			</input>
			<output>
				<port id="2" precision="FP16">
					<dim>1</dim>
					<dim>64</dim>
					<dim>90</dim>
					<dim>120</dim>
				</port>
			</output>
		</layer>
		<layer id="54" name="data_add_1520415209/copy_const" type="Const" version="opset1">
			<data element_type="f16" offset="521516" shape="1,64,1,1" size="128"/>
			<output>
				<port id="1" precision="FP16">
					<dim>1</dim>
					<dim>64</dim>
					<dim>1</dim>
					<dim>1</dim>
				</port>
			</output>
		</layer>
		<layer id="55" name="icnet_features/conv2_2_3x3_bn_2/FusedBatchNorm/variance/Fused_Add_" type="Add" version="opset1">
			<input>
				<port id="0">
					<dim>1</dim>
					<dim>64</dim>
					<dim>90</dim>
					<dim>120</dim>
				</port>
				<port id="1">
					<dim>1</dim>
					<dim>64</dim>
					<dim>1</dim>
					<dim>1</dim>
				</port>
			</input>
			<output>
				<port id="2" precision="FP16">
					<dim>1</dim>
					<dim>64</dim>
					<dim>90</dim>
					<dim>120</dim>
				</port>
			</output>
		</layer>
		<layer id="56" name="icnet_features/conv2_2_3x3_bn_3/conv2_2_3x3_bn" type="ReLU" version="opset1">
			<input>
				<port id="0">
					<dim>1</dim>
					<dim>64</dim>
					<dim>90</dim>
					<dim>120</dim>
				</port>
			</input>
			<output>
				<port id="1" precision="FP16">
					<dim>1</dim>
					<dim>64</dim>
					<dim>90</dim>
					<dim>120</dim>
				</port>
			</output>
		</layer>
		<layer id="57" name="icnet_features/conv2_2_1x1_increase_bn_1/FusedBatchNorm/mean/Fused_Mul_1624116243_const" type="Const" version="opset1">
			<data element_type="f16" offset="521644" shape="256,64,1,1" size="32768"/>
			<output>
				<port id="1" precision="FP16">
					<dim>256</dim>
					<dim>64</dim>
					<dim>1</dim>
					<dim>1</dim>
				</port>
			</output>
		</layer>
		<layer id="58" name="icnet_features/conv2_2_1x1_increase_1/Conv2D" type="Convolution" version="opset1">
			<data auto_pad="valid" dilations="1,1" output_padding="0,0" pads_begin="0,0" pads_end="0,0" strides="1,1"/>
			<input>
				<port id="0">
					<dim>1</dim>
					<dim>64</dim>
					<dim>90</dim>
					<dim>120</dim>
				</port>
				<port id="1">
					<dim>256</dim>
					<dim>64</dim>
					<dim>1</dim>
					<dim>1</dim>
				</port>
			</input>
			<output>
				<port id="2" precision="FP16">
					<dim>1</dim>
					<dim>256</dim>
					<dim>90</dim>
					<dim>120</dim>
				</port>
			</output>
		</layer>
		<layer id="59" name="data_add_1521215217/copy_const" type="Const" version="opset1">
			<data element_type="f16" offset="554412" shape="1,256,1,1" size="512"/>
			<output>
				<port id="1" precision="FP16">
					<dim>1</dim>
					<dim>256</dim>
					<dim>1</dim>
					<dim>1</dim>
				</port>
			</output>
		</layer>
		<layer id="60" name="icnet_features/conv2_2_1x1_increase_bn_1/FusedBatchNorm/variance/Fused_Add_" type="Add" version="opset1">
			<input>
				<port id="0">
					<dim>1</dim>
					<dim>256</dim>
					<dim>90</dim>
					<dim>120</dim>
				</port>
				<port id="1">
					<dim>1</dim>
					<dim>256</dim>
					<dim>1</dim>
					<dim>1</dim>
				</port>
			</input>
			<output>
				<port id="2" precision="FP16">
					<dim>1</dim>
					<dim>256</dim>
					<dim>90</dim>
					<dim>120</dim>
				</port>
			</output>
		</layer>
		<layer id="61" name="icnet_features/conv2_2_1/sum_1" type="Add" version="opset1">
			<input>
				<port id="0">
					<dim>1</dim>
					<dim>256</dim>
					<dim>90</dim>
					<dim>120</dim>
				</port>
				<port id="1">
					<dim>1</dim>
					<dim>256</dim>
					<dim>90</dim>
					<dim>120</dim>
				</port>
			</input>
			<output>
				<port id="2" precision="FP16">
					<dim>1</dim>
					<dim>256</dim>
					<dim>90</dim>
					<dim>120</dim>
				</port>
			</output>
		</layer>
		<layer id="62" name="icnet_features/conv2_2/relu_1" type="ReLU" version="opset1">
			<input>
				<port id="0">
					<dim>1</dim>
					<dim>256</dim>
					<dim>90</dim>
					<dim>120</dim>
				</port>
			</input>
			<output>
				<port id="1" precision="FP16">
					<dim>1</dim>
					<dim>256</dim>
					<dim>90</dim>
					<dim>120</dim>
				</port>
			</output>
		</layer>
		<layer id="63" name="icnet_features/ResizeBilinear_21/Cast_122630_const" type="Const" version="opset1">
			<data element_type="i64" offset="291228" shape="2" size="16"/>
			<output>
				<port id="1" precision="I64">
					<dim>2</dim>
				</port>
			</output>
		</layer>
		<layer id="64" name="icnet_features/ResizeBilinear_21" type="Interpolate" version="opset1">
			<data align_corners="0" antialias="0" axes="2,3" mode="linear" pads_begin="0" pads_end="0"/>
			<input>
				<port id="0">
					<dim>1</dim>
					<dim>256</dim>
					<dim>90</dim>
					<dim>120</dim>
				</port>
				<port id="1">
					<dim>2</dim>
				</port>
			</input>
			<output>
				<port id="2" precision="FP16">
					<dim>1</dim>
					<dim>256</dim>
					<dim>90</dim>
					<dim>120</dim>
				</port>
			</output>
		</layer>
		<layer id="65" name="icnet_features/conv2_3_1x1_reduce_bn_2/FusedBatchNorm/mean/Fused_Mul_1624516247_const" type="Const" version="opset1">
			<data element_type="f16" offset="554924" shape="64,256,1,1" size="32768"/>
			<output>
				<port id="1" precision="FP16">
					<dim>64</dim>
					<dim>256</dim>
					<dim>1</dim>
					<dim>1</dim>
				</port>
			</output>
		</layer>
		<layer id="66" name="icnet_features/conv2_3_1x1_reduce_1/Conv2D" type="Convolution" version="opset1">
			<data auto_pad="valid" dilations="1,1" output_padding="0,0" pads_begin="0,0" pads_end="0,0" strides="1,1"/>
			<input>
				<port id="0">
					<dim>1</dim>
					<dim>256</dim>
					<dim>90</dim>
					<dim>120</dim>
				</port>
				<port id="1">
					<dim>64</dim>
					<dim>256</dim>
					<dim>1</dim>
					<dim>1</dim>
				</port>
			</input>
			<output>
				<port id="2" precision="FP16">
					<dim>1</dim>
					<dim>64</dim>
					<dim>90</dim>
					<dim>120</dim>
				</port>
			</output>
		</layer>
		<layer id="67" name="data_add_1522015225/copy_const" type="Const" version="opset1">
			<data element_type="f16" offset="587692" shape="1,64,1,1" size="128"/>
			<output>
				<port id="1" precision="FP16">
					<dim>1</dim>
					<dim>64</dim>
					<dim>1</dim>
					<dim>1</dim>
				</port>
			</output>
		</layer>
		<layer id="68" name="icnet_features/conv2_3_1x1_reduce_bn_2/FusedBatchNorm/variance/Fused_Add_" type="Add" version="opset1">
			<input>
				<port id="0">
					<dim>1</dim>
					<dim>64</dim>
					<dim>90</dim>
					<dim>120</dim>
				</port>
				<port id="1">
					<dim>1</dim>
					<dim>64</dim>
					<dim>1</dim>
					<dim>1</dim>
				</port>
			</input>
			<output>
				<port id="2" precision="FP16">
					<dim>1</dim>
					<dim>64</dim>
					<dim>90</dim>
					<dim>120</dim>
				</port>
			</output>
		</layer>
		<layer id="69" name="icnet_features/conv2_3_1x1_reduce_bn_3/conv2_3_1x1_reduce_bn" type="ReLU" version="opset1">
			<input>
				<port id="0">
					<dim>1</dim>
					<dim>64</dim>
					<dim>90</dim>
					<dim>120</dim>
				</port>
			</input>
			<output>
				<port id="1" precision="FP16">
					<dim>1</dim>
					<dim>64</dim>
					<dim>90</dim>
					<dim>120</dim>
				</port>
			</output>
		</layer>
		<layer id="70" name="icnet_features/conv2_3_3x3_bn_2/FusedBatchNorm/mean/Fused_Mul_1624916251_const" type="Const" version="opset1">
			<data element_type="f16" offset="587820" shape="64,64,3,3" size="73728"/>
			<output>
				<port id="1" precision="FP16">
					<dim>64</dim>
					<dim>64</dim>
					<dim>3</dim>
					<dim>3</dim>
				</port>
			</output>
		</layer>
		<layer id="71" name="icnet_features/conv2_3_3x3_1/Conv2D" type="Convolution" version="opset1">
			<data dilations="1,1" output_padding="0,0" pads_begin="1,1" pads_end="1,1" strides="1,1"/>
			<input>
				<port id="0">
					<dim>1</dim>
					<dim>64</dim>
					<dim>90</dim>
					<dim>120</dim>
				</port>
				<port id="1">
					<dim>64</dim>
					<dim>64</dim>
					<dim>3</dim>
					<dim>3</dim>
				</port>
			</input>
			<output>
				<port id="2" precision="FP16">
					<dim>1</dim>
					<dim>64</dim>
					<dim>90</dim>
					<dim>120</dim>
				</port>
			</output>
		</layer>
		<layer id="72" name="data_add_1522815233/copy_const" type="Const" version="opset1">
			<data element_type="f16" offset="661548" shape="1,64,1,1" size="128"/>
			<output>
				<port id="1" precision="FP16">
					<dim>1</dim>
					<dim>64</dim>
					<dim>1</dim>
					<dim>1</dim>
				</port>
			</output>
		</layer>
		<layer id="73" name="icnet_features/conv2_3_3x3_bn_2/FusedBatchNorm/variance/Fused_Add_" type="Add" version="opset1">
			<input>
				<port id="0">
					<dim>1</dim>
					<dim>64</dim>
					<dim>90</dim>
					<dim>120</dim>
				</port>
				<port id="1">
					<dim>1</dim>
					<dim>64</dim>
					<dim>1</dim>
					<dim>1</dim>
				</port>
			</input>
			<output>
				<port id="2" precision="FP16">
					<dim>1</dim>
					<dim>64</dim>
					<dim>90</dim>
					<dim>120</dim>
				</port>
			</output>
		</layer>
		<layer id="74" name="icnet_features/conv2_3_3x3_bn_3/conv2_3_3x3_bn" type="ReLU" version="opset1">
			<input>
				<port id="0">
					<dim>1</dim>
					<dim>64</dim>
					<dim>90</dim>
					<dim>120</dim>
				</port>
			</input>
			<output>
				<port id="1" precision="FP16">
					<dim>1</dim>
					<dim>64</dim>
					<dim>90</dim>
					<dim>120</dim>
				</port>
			</output>
		</layer>
		<layer id="75" name="icnet_features/conv2_3_1x1_increase_bn_1/FusedBatchNorm/mean/Fused_Mul_1625316255_const" type="Const" version="opset1">
			<data element_type="f16" offset="661676" shape="256,64,1,1" size="32768"/>
			<output>
				<port id="1" precision="FP16">
					<dim>256</dim>
					<dim>64</dim>
					<dim>1</dim>
					<dim>1</dim>
				</port>
			</output>
		</layer>
		<layer id="76" name="icnet_features/conv2_3_1x1_increase_1/Conv2D" type="Convolution" version="opset1">
			<data auto_pad="valid" dilations="1,1" output_padding="0,0" pads_begin="0,0" pads_end="0,0" strides="1,1"/>
			<input>
				<port id="0">
					<dim>1</dim>
					<dim>64</dim>
					<dim>90</dim>
					<dim>120</dim>
				</port>
				<port id="1">
					<dim>256</dim>
					<dim>64</dim>
					<dim>1</dim>
					<dim>1</dim>
				</port>
			</input>
			<output>
				<port id="2" precision="FP16">
					<dim>1</dim>
					<dim>256</dim>
					<dim>90</dim>
					<dim>120</dim>
				</port>
			</output>
		</layer>
		<layer id="77" name="data_add_1523615241/copy_const" type="Const" version="opset1">
			<data element_type="f16" offset="694444" shape="1,256,1,1" size="512"/>
			<output>
				<port id="1" precision="FP16">
					<dim>1</dim>
					<dim>256</dim>
					<dim>1</dim>
					<dim>1</dim>
				</port>
			</output>
		</layer>
		<layer id="78" name="icnet_features/conv2_3_1x1_increase_bn_1/FusedBatchNorm/variance/Fused_Add_" type="Add" version="opset1">
			<input>
				<port id="0">
					<dim>1</dim>
					<dim>256</dim>
					<dim>90</dim>
					<dim>120</dim>
				</port>
				<port id="1">
					<dim>1</dim>
					<dim>256</dim>
					<dim>1</dim>
					<dim>1</dim>
				</port>
			</input>
			<output>
				<port id="2" precision="FP16">
					<dim>1</dim>
					<dim>256</dim>
					<dim>90</dim>
					<dim>120</dim>
				</port>
			</output>
		</layer>
		<layer id="79" name="icnet_features/conv2_3_1/sum_1" type="Add" version="opset1">
			<input>
				<port id="0">
					<dim>1</dim>
					<dim>256</dim>
					<dim>90</dim>
					<dim>120</dim>
				</port>
				<port id="1">
					<dim>1</dim>
					<dim>256</dim>
					<dim>90</dim>
					<dim>120</dim>
				</port>
			</input>
			<output>
				<port id="2" precision="FP16">
					<dim>1</dim>
					<dim>256</dim>
					<dim>90</dim>
					<dim>120</dim>
				</port>
			</output>
		</layer>
		<layer id="80" name="icnet_features/conv2_3/relu_1" type="ReLU" version="opset1">
			<input>
				<port id="0">
					<dim>1</dim>
					<dim>256</dim>
					<dim>90</dim>
					<dim>120</dim>
				</port>
			</input>
			<output>
				<port id="1" precision="FP16">
					<dim>1</dim>
					<dim>256</dim>
					<dim>90</dim>
					<dim>120</dim>
				</port>
			</output>
		</layer>
		<layer id="81" name="icnet_features/conv3_1_1x1_proj_bn_1/FusedBatchNorm/mean/Fused_Mul_1626916271_const" type="Const" version="opset1">
			<data element_type="f16" offset="694956" shape="512,256,1,1" size="262144"/>
			<output>
				<port id="1" precision="FP16">
					<dim>512</dim>
					<dim>256</dim>
					<dim>1</dim>
					<dim>1</dim>
				</port>
			</output>
		</layer>
		<layer id="82" name="icnet_features/conv3_1_1x1_proj_1/Conv2D" type="Convolution" version="opset1">
			<data auto_pad="valid" dilations="1,1" output_padding="0,0" pads_begin="0,0" pads_end="0,0" strides="2,2"/>
			<input>
				<port id="0">
					<dim>1</dim>
					<dim>256</dim>
					<dim>90</dim>
					<dim>120</dim>
				</port>
				<port id="1">
					<dim>512</dim>
					<dim>256</dim>
					<dim>1</dim>
					<dim>1</dim>
				</port>
			</input>
			<output>
				<port id="2" precision="FP16">
					<dim>1</dim>
					<dim>512</dim>
					<dim>45</dim>
					<dim>60</dim>
				</port>
			</output>
		</layer>
		<layer id="83" name="data_add_1526815273/copy_const" type="Const" version="opset1">
			<data element_type="f16" offset="957100" shape="1,512,1,1" size="1024"/>
			<output>
				<port id="1" precision="FP16">
					<dim>1</dim>
					<dim>512</dim>
					<dim>1</dim>
					<dim>1</dim>
				</port>
			</output>
		</layer>
		<layer id="84" name="icnet_features/conv3_1_1x1_proj_bn_1/FusedBatchNorm/variance/Fused_Add_" type="Add" version="opset1">
			<input>
				<port id="0">
					<dim>1</dim>
					<dim>512</dim>
					<dim>45</dim>
					<dim>60</dim>
				</port>
				<port id="1">
					<dim>1</dim>
					<dim>512</dim>
					<dim>1</dim>
					<dim>1</dim>
				</port>
			</input>
			<output>
				<port id="2" precision="FP16">
					<dim>1</dim>
					<dim>512</dim>
					<dim>45</dim>
					<dim>60</dim>
				</port>
			</output>
		</layer>
		<layer id="85" name="icnet_features/ResizeBilinear_22/Cast_122626_const" type="Const" version="opset1">
			<data element_type="i64" offset="958124" shape="2" size="16"/>
			<output>
				<port id="1" precision="I64">
					<dim>2</dim>
				</port>
			</output>
		</layer>
		<layer id="86" name="icnet_features/ResizeBilinear_22" type="Interpolate" version="opset1">
			<data align_corners="0" antialias="0" axes="2,3" mode="linear" pads_begin="0" pads_end="0"/>
			<input>
				<port id="0">
					<dim>1</dim>
					<dim>512</dim>
					<dim>45</dim>
					<dim>60</dim>
				</port>
				<port id="1">
					<dim>2</dim>
				</port>
			</input>
			<output>
				<port id="2" precision="FP16">
					<dim>1</dim>
					<dim>512</dim>
					<dim>45</dim>
					<dim>60</dim>
				</port>
			</output>
		</layer>
		<layer id="87" name="icnet_features/conv3_1_1x1_reduce_bn_2/FusedBatchNorm/mean/Fused_Mul_1625716259_const" type="Const" version="opset1">
			<data element_type="f16" offset="958140" shape="128,256,1,1" size="65536"/>
			<output>
				<port id="1" precision="FP16">
					<dim>128</dim>
					<dim>256</dim>
					<dim>1</dim>
					<dim>1</dim>
				</port>
			</output>
		</layer>
		<layer id="88" name="icnet_features/conv3_1_1x1_reduce_1/Conv2D" type="Convolution" version="opset1">
			<data auto_pad="valid" dilations="1,1" output_padding="0,0" pads_begin="0,0" pads_end="0,0" strides="2,2"/>
			<input>
				<port id="0">
					<dim>1</dim>
					<dim>256</dim>
					<dim>90</dim>
					<dim>120</dim>
				</port>
				<port id="1">
					<dim>128</dim>
					<dim>256</dim>
					<dim>1</dim>
					<dim>1</dim>
				</port>
			</input>
			<output>
				<port id="2" precision="FP16">
					<dim>1</dim>
					<dim>128</dim>
					<dim>45</dim>
					<dim>60</dim>
				</port>
			</output>
		</layer>
		<layer id="89" name="data_add_1524415249/copy_const" type="Const" version="opset1">
			<data element_type="f16" offset="1023676" shape="1,128,1,1" size="256"/>
			<output>
				<port id="1" precision="FP16">
					<dim>1</dim>
					<dim>128</dim>
					<dim>1</dim>
					<dim>1</dim>
				</port>
			</output>
		</layer>
		<layer id="90" name="icnet_features/conv3_1_1x1_reduce_bn_2/FusedBatchNorm/variance/Fused_Add_" type="Add" version="opset1">
			<input>
				<port id="0">
					<dim>1</dim>
					<dim>128</dim>
					<dim>45</dim>
					<dim>60</dim>
				</port>
				<port id="1">
					<dim>1</dim>
					<dim>128</dim>
					<dim>1</dim>
					<dim>1</dim>
				</port>
			</input>
			<output>
				<port id="2" precision="FP16">
					<dim>1</dim>
					<dim>128</dim>
					<dim>45</dim>
					<dim>60</dim>
				</port>
			</output>
		</layer>
		<layer id="91" name="icnet_features/conv3_1_1x1_reduce_bn_3/conv3_1_1x1_reduce_bn" type="ReLU" version="opset1">
			<input>
				<port id="0">
					<dim>1</dim>
					<dim>128</dim>
					<dim>45</dim>
					<dim>60</dim>
				</port>
			</input>
			<output>
				<port id="1" precision="FP16">
					<dim>1</dim>
					<dim>128</dim>
					<dim>45</dim>
					<dim>60</dim>
				</port>
			</output>
		</layer>
		<layer id="92" name="icnet_features/conv3_1_3x3_bn_2/FusedBatchNorm/mean/Fused_Mul_1626116263_const" type="Const" version="opset1">
			<data element_type="f16" offset="1023932" shape="128,128,3,3" size="294912"/>
			<output>
				<port id="1" precision="FP16">
					<dim>128</dim>
					<dim>128</dim>
					<dim>3</dim>
					<dim>3</dim>
				</port>
			</output>
		</layer>
		<layer id="93" name="icnet_features/conv3_1_3x3_1/Conv2D" type="Convolution" version="opset1">
			<data dilations="1,1" output_padding="0,0" pads_begin="1,1" pads_end="1,1" strides="1,1"/>
			<input>
				<port id="0">
					<dim>1</dim>
					<dim>128</dim>
					<dim>45</dim>
					<dim>60</dim>
				</port>
				<port id="1">
					<dim>128</dim>
					<dim>128</dim>
					<dim>3</dim>
					<dim>3</dim>
				</port>
			</input>
			<output>
				<port id="2" precision="FP16">
					<dim>1</dim>
					<dim>128</dim>
					<dim>45</dim>
					<dim>60</dim>
				</port>
			</output>
		</layer>
		<layer id="94" name="data_add_1525215257/copy_const" type="Const" version="opset1">
			<data element_type="f16" offset="1318844" shape="1,128,1,1" size="256"/>
			<output>
				<port id="1" precision="FP16">
					<dim>1</dim>
					<dim>128</dim>
					<dim>1</dim>
					<dim>1</dim>
				</port>
			</output>
		</layer>
		<layer id="95" name="icnet_features/conv3_1_3x3_bn_2/FusedBatchNorm/variance/Fused_Add_" type="Add" version="opset1">
			<input>
				<port id="0">
					<dim>1</dim>
					<dim>128</dim>
					<dim>45</dim>
					<dim>60</dim>
				</port>
				<port id="1">
					<dim>1</dim>
					<dim>128</dim>
					<dim>1</dim>
					<dim>1</dim>
				</port>
			</input>
			<output>
				<port id="2" precision="FP16">
					<dim>1</dim>
					<dim>128</dim>
					<dim>45</dim>
					<dim>60</dim>
				</port>
			</output>
		</layer>
		<layer id="96" name="icnet_features/conv3_1_3x3_bn_3/conv3_1_3x3_bn" type="ReLU" version="opset1">
			<input>
				<port id="0">
					<dim>1</dim>
					<dim>128</dim>
					<dim>45</dim>
					<dim>60</dim>
				</port>
			</input>
			<output>
				<port id="1" precision="FP16">
					<dim>1</dim>
					<dim>128</dim>
					<dim>45</dim>
					<dim>60</dim>
				</port>
			</output>
		</layer>
		<layer id="97" name="icnet_features/conv3_1_1x1_increase_bn_1/FusedBatchNorm/mean/Fused_Mul_1626516267_const" type="Const" version="opset1">
			<data element_type="f16" offset="1319100" shape="512,128,1,1" size="131072"/>
			<output>
				<port id="1" precision="FP16">
					<dim>512</dim>
					<dim>128</dim>
					<dim>1</dim>
					<dim>1</dim>
				</port>
			</output>
		</layer>
		<layer id="98" name="icnet_features/conv3_1_1x1_increase_1/Conv2D" type="Convolution" version="opset1">
			<data auto_pad="valid" dilations="1,1" output_padding="0,0" pads_begin="0,0" pads_end="0,0" strides="1,1"/>
			<input>
				<port id="0">
					<dim>1</dim>
					<dim>128</dim>
					<dim>45</dim>
					<dim>60</dim>
				</port>
				<port id="1">
					<dim>512</dim>
					<dim>128</dim>
					<dim>1</dim>
					<dim>1</dim>
				</port>
			</input>
			<output>
				<port id="2" precision="FP16">
					<dim>1</dim>
					<dim>512</dim>
					<dim>45</dim>
					<dim>60</dim>
				</port>
			</output>
		</layer>
		<layer id="99" name="data_add_1526015265/copy_const" type="Const" version="opset1">
			<data element_type="f16" offset="1450172" shape="1,512,1,1" size="1024"/>
			<output>
				<port id="1" precision="FP16">
					<dim>1</dim>
					<dim>512</dim>
					<dim>1</dim>
					<dim>1</dim>
				</port>
			</output>
		</layer>
		<layer id="100" name="icnet_features/conv3_1_1x1_increase_bn_1/FusedBatchNorm/variance/Fused_Add_" type="Add" version="opset1">
			<input>
				<port id="0">
					<dim>1</dim>
					<dim>512</dim>
					<dim>45</dim>
					<dim>60</dim>
				</port>
				<port id="1">
					<dim>1</dim>
					<dim>512</dim>
					<dim>1</dim>
					<dim>1</dim>
				</port>
			</input>
			<output>
				<port id="2" precision="FP16">
					<dim>1</dim>
					<dim>512</dim>
					<dim>45</dim>
					<dim>60</dim>
				</port>
			</output>
		</layer>
		<layer id="101" name="icnet_features/conv3_1_1/sum_1" type="Add" version="opset1">
			<input>
				<port id="0">
					<dim>1</dim>
					<dim>512</dim>
					<dim>45</dim>
					<dim>60</dim>
				</port>
				<port id="1">
					<dim>1</dim>
					<dim>512</dim>
					<dim>45</dim>
					<dim>60</dim>
				</port>
			</input>
			<output>
				<port id="2" precision="FP16">
					<dim>1</dim>
					<dim>512</dim>
					<dim>45</dim>
					<dim>60</dim>
				</port>
			</output>
		</layer>
		<layer id="102" name="icnet_features/conv3_1/relu_1" type="ReLU" version="opset1">
			<input>
				<port id="0">
					<dim>1</dim>
					<dim>512</dim>
					<dim>45</dim>
					<dim>60</dim>
				</port>
			</input>
			<output>
				<port id="1" precision="FP16">
					<dim>1</dim>
					<dim>512</dim>
					<dim>45</dim>
					<dim>60</dim>
				</port>
			</output>
		</layer>
		<layer id="103" name="icnet_features/conv3_1_sub4_1/Cast_122620_const" type="Const" version="opset1">
			<data element_type="i64" offset="1451196" shape="2" size="16"/>
			<output>
				<port id="1" precision="I64">
					<dim>2</dim>
				</port>
			</output>
		</layer>
		<layer id="104" name="icnet_features/conv3_1_sub4_1" type="Interpolate" version="opset1">
			<data align_corners="1" antialias="0" axes="2,3" mode="linear" pads_begin="0" pads_end="0"/>
			<input>
				<port id="0">
					<dim>1</dim>
					<dim>512</dim>
					<dim>45</dim>
					<dim>60</dim>
				</port>
				<port id="1">
					<dim>2</dim>
				</port>
			</input>
			<output>
				<port id="2" precision="FP16">
					<dim>1</dim>
					<dim>512</dim>
					<dim>23</dim>
					<dim>30</dim>
				</port>
			</output>
		</layer>
		<layer id="105" name="icnet_features/ResizeBilinear_23/Cast_122602_const" type="Const" version="opset1">
			<data element_type="i64" offset="1451196" shape="2" size="16"/>
			<output>
				<port id="1" precision="I64">
					<dim>2</dim>
				</port>
			</output>
		</layer>
		<layer id="106" name="icnet_features/ResizeBilinear_23" type="Interpolate" version="opset1">
			<data align_corners="0" antialias="0" axes="2,3" mode="linear" pads_begin="0" pads_end="0"/>
			<input>
				<port id="0">
					<dim>1</dim>
					<dim>512</dim>
					<dim>23</dim>
					<dim>30</dim>
				</port>
				<port id="1">
					<dim>2</dim>
				</port>
			</input>
			<output>
				<port id="2" precision="FP16">
					<dim>1</dim>
					<dim>512</dim>
					<dim>23</dim>
					<dim>30</dim>
				</port>
			</output>
		</layer>
		<layer id="107" name="icnet_features/conv3_2_1x1_reduce_bn_2/FusedBatchNorm/mean/Fused_Mul_1627716279_const" type="Const" version="opset1">
			<data element_type="f16" offset="1451212" shape="128,512,1,1" size="131072"/>
			<output>
				<port id="1" precision="FP16">
					<dim>128</dim>
					<dim>512</dim>
					<dim>1</dim>
					<dim>1</dim>
				</port>
			</output>
		</layer>
		<layer id="108" name="icnet_features/conv3_2_1x1_reduce_1/Conv2D" type="Convolution" version="opset1">
			<data auto_pad="valid" dilations="1,1" output_padding="0,0" pads_begin="0,0" pads_end="0,0" strides="1,1"/>
			<input>
				<port id="0">
					<dim>1</dim>
					<dim>512</dim>
					<dim>23</dim>
					<dim>30</dim>
				</port>
				<port id="1">
					<dim>128</dim>
					<dim>512</dim>
					<dim>1</dim>
					<dim>1</dim>
				</port>
			</input>
			<output>
				<port id="2" precision="FP16">
					<dim>1</dim>
					<dim>128</dim>
					<dim>23</dim>
					<dim>30</dim>
				</port>
			</output>
		</layer>
		<layer id="109" name="data_add_1528415289/copy_const" type="Const" version="opset1">
			<data element_type="f16" offset="1582284" shape="1,128,1,1" size="256"/>
			<output>
				<port id="1" precision="FP16">
					<dim>1</dim>
					<dim>128</dim>
					<dim>1</dim>
					<dim>1</dim>
				</port>
			</output>
		</layer>
		<layer id="110" name="icnet_features/conv3_2_1x1_reduce_bn_2/FusedBatchNorm/variance/Fused_Add_" type="Add" version="opset1">
			<input>
				<port id="0">
					<dim>1</dim>
					<dim>128</dim>
					<dim>23</dim>
					<dim>30</dim>
				</port>
				<port id="1">
					<dim>1</dim>
					<dim>128</dim>
					<dim>1</dim>
					<dim>1</dim>
				</port>
			</input>
			<output>
				<port id="2" precision="FP16">
					<dim>1</dim>
					<dim>128</dim>
					<dim>23</dim>
					<dim>30</dim>
				</port>
			</output>
		</layer>
		<layer id="111" name="icnet_features/conv3_2_1x1_reduce_bn_3/conv3_2_1x1_reduce_bn" type="ReLU" version="opset1">
			<input>
				<port id="0">
					<dim>1</dim>
					<dim>128</dim>
					<dim>23</dim>
					<dim>30</dim>
				</port>
			</input>
			<output>
				<port id="1" precision="FP16">
					<dim>1</dim>
					<dim>128</dim>
					<dim>23</dim>
					<dim>30</dim>
				</port>
			</output>
		</layer>
		<layer id="112" name="icnet_features/conv3_2_3x3_bn_2/FusedBatchNorm/mean/Fused_Mul_1628116283_const" type="Const" version="opset1">
			<data element_type="f16" offset="1582540" shape="128,128,3,3" size="294912"/>
			<output>
				<port id="1" precision="FP16">
					<dim>128</dim>
					<dim>128</dim>
					<dim>3</dim>
					<dim>3</dim>
				</port>
			</output>
		</layer>
		<layer id="113" name="icnet_features/conv3_2_3x3_1/Conv2D" type="Convolution" version="opset1">
			<data dilations="1,1" output_padding="0,0" pads_begin="1,1" pads_end="1,1" strides="1,1"/>
			<input>
				<port id="0">
					<dim>1</dim>
					<dim>128</dim>
					<dim>23</dim>
					<dim>30</dim>
				</port>
				<port id="1">
					<dim>128</dim>
					<dim>128</dim>
					<dim>3</dim>
					<dim>3</dim>
				</port>
			</input>
			<output>
				<port id="2" precision="FP16">
					<dim>1</dim>
					<dim>128</dim>
					<dim>23</dim>
					<dim>30</dim>
				</port>
			</output>
		</layer>
		<layer id="114" name="data_add_1529215297/copy_const" type="Const" version="opset1">
			<data element_type="f16" offset="1877452" shape="1,128,1,1" size="256"/>
			<output>
				<port id="1" precision="FP16">
					<dim>1</dim>
					<dim>128</dim>
					<dim>1</dim>
					<dim>1</dim>
				</port>
			</output>
		</layer>
		<layer id="115" name="icnet_features/conv3_2_3x3_bn_2/FusedBatchNorm/variance/Fused_Add_" type="Add" version="opset1">
			<input>
				<port id="0">
					<dim>1</dim>
					<dim>128</dim>
					<dim>23</dim>
					<dim>30</dim>
				</port>
				<port id="1">
					<dim>1</dim>
					<dim>128</dim>
					<dim>1</dim>
					<dim>1</dim>
				</port>
			</input>
			<output>
				<port id="2" precision="FP16">
					<dim>1</dim>
					<dim>128</dim>
					<dim>23</dim>
					<dim>30</dim>
				</port>
			</output>
		</layer>
		<layer id="116" name="icnet_features/conv3_2_3x3_bn_3/conv3_2_3x3_bn" type="ReLU" version="opset1">
			<input>
				<port id="0">
					<dim>1</dim>
					<dim>128</dim>
					<dim>23</dim>
					<dim>30</dim>
				</port>
			</input>
			<output>
				<port id="1" precision="FP16">
					<dim>1</dim>
					<dim>128</dim>
					<dim>23</dim>
					<dim>30</dim>
				</port>
			</output>
		</layer>
		<layer id="117" name="icnet_features/conv3_2_1x1_increase_bn_1/FusedBatchNorm/mean/Fused_Mul_1628516287_const" type="Const" version="opset1">
			<data element_type="f16" offset="1877708" shape="512,128,1,1" size="131072"/>
			<output>
				<port id="1" precision="FP16">
					<dim>512</dim>
					<dim>128</dim>
					<dim>1</dim>
					<dim>1</dim>
				</port>
			</output>
		</layer>
		<layer id="118" name="icnet_features/conv3_2_1x1_increase_1/Conv2D" type="Convolution" version="opset1">
			<data auto_pad="valid" dilations="1,1" output_padding="0,0" pads_begin="0,0" pads_end="0,0" strides="1,1"/>
			<input>
				<port id="0">
					<dim>1</dim>
					<dim>128</dim>
					<dim>23</dim>
					<dim>30</dim>
				</port>
				<port id="1">
					<dim>512</dim>
					<dim>128</dim>
					<dim>1</dim>
					<dim>1</dim>
				</port>
			</input>
			<output>
				<port id="2" precision="FP16">
					<dim>1</dim>
					<dim>512</dim>
					<dim>23</dim>
					<dim>30</dim>
				</port>
			</output>
		</layer>
		<layer id="119" name="data_add_1530015305/copy_const" type="Const" version="opset1">
			<data element_type="f16" offset="2008780" shape="1,512,1,1" size="1024"/>
			<output>
				<port id="1" precision="FP16">
					<dim>1</dim>
					<dim>512</dim>
					<dim>1</dim>
					<dim>1</dim>
				</port>
			</output>
		</layer>
		<layer id="120" name="icnet_features/conv3_2_1x1_increase_bn_1/FusedBatchNorm/variance/Fused_Add_" type="Add" version="opset1">
			<input>
				<port id="0">
					<dim>1</dim>
					<dim>512</dim>
					<dim>23</dim>
					<dim>30</dim>
				</port>
				<port id="1">
					<dim>1</dim>
					<dim>512</dim>
					<dim>1</dim>
					<dim>1</dim>
				</port>
			</input>
			<output>
				<port id="2" precision="FP16">
					<dim>1</dim>
					<dim>512</dim>
					<dim>23</dim>
					<dim>30</dim>
				</port>
			</output>
		</layer>
		<layer id="121" name="icnet_features/conv3_2_1/sum_1" type="Add" version="opset1">
			<input>
				<port id="0">
					<dim>1</dim>
					<dim>512</dim>
					<dim>23</dim>
					<dim>30</dim>
				</port>
				<port id="1">
					<dim>1</dim>
					<dim>512</dim>
					<dim>23</dim>
					<dim>30</dim>
				</port>
			</input>
			<output>
				<port id="2" precision="FP16">
					<dim>1</dim>
					<dim>512</dim>
					<dim>23</dim>
					<dim>30</dim>
				</port>
			</output>
		</layer>
		<layer id="122" name="icnet_features/conv3_2/relu_1" type="ReLU" version="opset1">
			<input>
				<port id="0">
					<dim>1</dim>
					<dim>512</dim>
					<dim>23</dim>
					<dim>30</dim>
				</port>
			</input>
			<output>
				<port id="1" precision="FP16">
					<dim>1</dim>
					<dim>512</dim>
					<dim>23</dim>
					<dim>30</dim>
				</port>
			</output>
		</layer>
		<layer id="123" name="icnet_features/ResizeBilinear_24/Cast_122622_const" type="Const" version="opset1">
			<data element_type="i64" offset="1451196" shape="2" size="16"/>
			<output>
				<port id="1" precision="I64">
					<dim>2</dim>
				</port>
			</output>
		</layer>
		<layer id="124" name="icnet_features/ResizeBilinear_24" type="Interpolate" version="opset1">
			<data align_corners="0" antialias="0" axes="2,3" mode="linear" pads_begin="0" pads_end="0"/>
			<input>
				<port id="0">
					<dim>1</dim>
					<dim>512</dim>
					<dim>23</dim>
					<dim>30</dim>
				</port>
				<port id="1">
					<dim>2</dim>
				</port>
			</input>
			<output>
				<port id="2" precision="FP16">
					<dim>1</dim>
					<dim>512</dim>
					<dim>23</dim>
					<dim>30</dim>
				</port>
			</output>
		</layer>
		<layer id="125" name="icnet_features/conv3_3_1x1_reduce_bn_2/FusedBatchNorm/mean/Fused_Mul_1628916291_const" type="Const" version="opset1">
			<data element_type="f16" offset="2009804" shape="128,512,1,1" size="131072"/>
			<output>
				<port id="1" precision="FP16">
					<dim>128</dim>
					<dim>512</dim>
					<dim>1</dim>
					<dim>1</dim>
				</port>
			</output>
		</layer>
		<layer id="126" name="icnet_features/conv3_3_1x1_reduce_1/Conv2D" type="Convolution" version="opset1">
			<data auto_pad="valid" dilations="1,1" output_padding="0,0" pads_begin="0,0" pads_end="0,0" strides="1,1"/>
			<input>
				<port id="0">
					<dim>1</dim>
					<dim>512</dim>
					<dim>23</dim>
					<dim>30</dim>
				</port>
				<port id="1">
					<dim>128</dim>
					<dim>512</dim>
					<dim>1</dim>
					<dim>1</dim>
				</port>
			</input>
			<output>
				<port id="2" precision="FP16">
					<dim>1</dim>
					<dim>128</dim>
					<dim>23</dim>
					<dim>30</dim>
				</port>
			</output>
		</layer>
		<layer id="127" name="data_add_1530815313/copy_const" type="Const" version="opset1">
			<data element_type="f16" offset="2140876" shape="1,128,1,1" size="256"/>
			<output>
				<port id="1" precision="FP16">
					<dim>1</dim>
					<dim>128</dim>
					<dim>1</dim>
					<dim>1</dim>
				</port>
			</output>
		</layer>
		<layer id="128" name="icnet_features/conv3_3_1x1_reduce_bn_2/FusedBatchNorm/variance/Fused_Add_" type="Add" version="opset1">
			<input>
				<port id="0">
					<dim>1</dim>
					<dim>128</dim>
					<dim>23</dim>
					<dim>30</dim>
				</port>
				<port id="1">
					<dim>1</dim>
					<dim>128</dim>
					<dim>1</dim>
					<dim>1</dim>
				</port>
			</input>
			<output>
				<port id="2" precision="FP16">
					<dim>1</dim>
					<dim>128</dim>
					<dim>23</dim>
					<dim>30</dim>
				</port>
			</output>
		</layer>
		<layer id="129" name="icnet_features/conv3_3_1x1_reduce_bn_3/conv3_3_1x1_reduce_bn" type="ReLU" version="opset1">
			<input>
				<port id="0">
					<dim>1</dim>
					<dim>128</dim>
					<dim>23</dim>
					<dim>30</dim>
				</port>
			</input>
			<output>
				<port id="1" precision="FP16">
					<dim>1</dim>
					<dim>128</dim>
					<dim>23</dim>
					<dim>30</dim>
				</port>
			</output>
		</layer>
		<layer id="130" name="icnet_features/conv3_3_3x3_bn_2/FusedBatchNorm/mean/Fused_Mul_1629316295_const" type="Const" version="opset1">
			<data element_type="f16" offset="2141132" shape="128,128,3,3" size="294912"/>
			<output>
				<port id="1" precision="FP16">
					<dim>128</dim>
					<dim>128</dim>
					<dim>3</dim>
					<dim>3</dim>
				</port>
			</output>
		</layer>
		<layer id="131" name="icnet_features/conv3_3_3x3_1/Conv2D" type="Convolution" version="opset1">
			<data dilations="1,1" output_padding="0,0" pads_begin="1,1" pads_end="1,1" strides="1,1"/>
			<input>
				<port id="0">
					<dim>1</dim>
					<dim>128</dim>
					<dim>23</dim>
					<dim>30</dim>
				</port>
				<port id="1">
					<dim>128</dim>
					<dim>128</dim>
					<dim>3</dim>
					<dim>3</dim>
				</port>
			</input>
			<output>
				<port id="2" precision="FP16">
					<dim>1</dim>
					<dim>128</dim>
					<dim>23</dim>
					<dim>30</dim>
				</port>
			</output>
		</layer>
		<layer id="132" name="data_add_1531615321/copy_const" type="Const" version="opset1">
			<data element_type="f16" offset="2436044" shape="1,128,1,1" size="256"/>
			<output>
				<port id="1" precision="FP16">
					<dim>1</dim>
					<dim>128</dim>
					<dim>1</dim>
					<dim>1</dim>
				</port>
			</output>
		</layer>
		<layer id="133" name="icnet_features/conv3_3_3x3_bn_2/FusedBatchNorm/variance/Fused_Add_" type="Add" version="opset1">
			<input>
				<port id="0">
					<dim>1</dim>
					<dim>128</dim>
					<dim>23</dim>
					<dim>30</dim>
				</port>
				<port id="1">
					<dim>1</dim>
					<dim>128</dim>
					<dim>1</dim>
					<dim>1</dim>
				</port>
			</input>
			<output>
				<port id="2" precision="FP16">
					<dim>1</dim>
					<dim>128</dim>
					<dim>23</dim>
					<dim>30</dim>
				</port>
			</output>
		</layer>
		<layer id="134" name="icnet_features/conv3_3_3x3_bn_3/conv3_3_3x3_bn" type="ReLU" version="opset1">
			<input>
				<port id="0">
					<dim>1</dim>
					<dim>128</dim>
					<dim>23</dim>
					<dim>30</dim>
				</port>
			</input>
			<output>
				<port id="1" precision="FP16">
					<dim>1</dim>
					<dim>128</dim>
					<dim>23</dim>
					<dim>30</dim>
				</port>
			</output>
		</layer>
		<layer id="135" name="icnet_features/conv3_3_1x1_increase_bn_1/FusedBatchNorm/mean/Fused_Mul_1629716299_const" type="Const" version="opset1">
			<data element_type="f16" offset="2436300" shape="512,128,1,1" size="131072"/>
			<output>
				<port id="1" precision="FP16">
					<dim>512</dim>
					<dim>128</dim>
					<dim>1</dim>
					<dim>1</dim>
				</port>
			</output>
		</layer>
		<layer id="136" name="icnet_features/conv3_3_1x1_increase_1/Conv2D" type="Convolution" version="opset1">
			<data auto_pad="valid" dilations="1,1" output_padding="0,0" pads_begin="0,0" pads_end="0,0" strides="1,1"/>
			<input>
				<port id="0">
					<dim>1</dim>
					<dim>128</dim>
					<dim>23</dim>
					<dim>30</dim>
				</port>
				<port id="1">
					<dim>512</dim>
					<dim>128</dim>
					<dim>1</dim>
					<dim>1</dim>
				</port>
			</input>
			<output>
				<port id="2" precision="FP16">
					<dim>1</dim>
					<dim>512</dim>
					<dim>23</dim>
					<dim>30</dim>
				</port>
			</output>
		</layer>
		<layer id="137" name="data_add_1532415329/copy_const" type="Const" version="opset1">
			<data element_type="f16" offset="2567372" shape="1,512,1,1" size="1024"/>
			<output>
				<port id="1" precision="FP16">
					<dim>1</dim>
					<dim>512</dim>
					<dim>1</dim>
					<dim>1</dim>
				</port>
			</output>
		</layer>
		<layer id="138" name="icnet_features/conv3_3_1x1_increase_bn_1/FusedBatchNorm/variance/Fused_Add_" type="Add" version="opset1">
			<input>
				<port id="0">
					<dim>1</dim>
					<dim>512</dim>
					<dim>23</dim>
					<dim>30</dim>
				</port>
				<port id="1">
					<dim>1</dim>
					<dim>512</dim>
					<dim>1</dim>
					<dim>1</dim>
				</port>
			</input>
			<output>
				<port id="2" precision="FP16">
					<dim>1</dim>
					<dim>512</dim>
					<dim>23</dim>
					<dim>30</dim>
				</port>
			</output>
		</layer>
		<layer id="139" name="icnet_features/conv3_3_1/sum_1" type="Add" version="opset1">
			<input>
				<port id="0">
					<dim>1</dim>
					<dim>512</dim>
					<dim>23</dim>
					<dim>30</dim>
				</port>
				<port id="1">
					<dim>1</dim>
					<dim>512</dim>
					<dim>23</dim>
					<dim>30</dim>
				</port>
			</input>
			<output>
				<port id="2" precision="FP16">
					<dim>1</dim>
					<dim>512</dim>
					<dim>23</dim>
					<dim>30</dim>
				</port>
			</output>
		</layer>
		<layer id="140" name="icnet_features/conv3_3/relu_1" type="ReLU" version="opset1">
			<input>
				<port id="0">
					<dim>1</dim>
					<dim>512</dim>
					<dim>23</dim>
					<dim>30</dim>
				</port>
			</input>
			<output>
				<port id="1" precision="FP16">
					<dim>1</dim>
					<dim>512</dim>
					<dim>23</dim>
					<dim>30</dim>
				</port>
			</output>
		</layer>
		<layer id="141" name="icnet_features/ResizeBilinear_25/Cast_122606_const" type="Const" version="opset1">
			<data element_type="i64" offset="1451196" shape="2" size="16"/>
			<output>
				<port id="1" precision="I64">
					<dim>2</dim>
				</port>
			</output>
		</layer>
		<layer id="142" name="icnet_features/ResizeBilinear_25" type="Interpolate" version="opset1">
			<data align_corners="0" antialias="0" axes="2,3" mode="linear" pads_begin="0" pads_end="0"/>
			<input>
				<port id="0">
					<dim>1</dim>
					<dim>512</dim>
					<dim>23</dim>
					<dim>30</dim>
				</port>
				<port id="1">
					<dim>2</dim>
				</port>
			</input>
			<output>
				<port id="2" precision="FP16">
					<dim>1</dim>
					<dim>512</dim>
					<dim>23</dim>
					<dim>30</dim>
				</port>
			</output>
		</layer>
		<layer id="143" name="icnet_features/conv3_4_1x1_reduce_bn_2/FusedBatchNorm/mean/Fused_Mul_1630116303_const" type="Const" version="opset1">
			<data element_type="f16" offset="2568396" shape="128,512,1,1" size="131072"/>
			<output>
				<port id="1" precision="FP16">
					<dim>128</dim>
					<dim>512</dim>
					<dim>1</dim>
					<dim>1</dim>
				</port>
			</output>
		</layer>
		<layer id="144" name="icnet_features/conv3_4_1x1_reduce_1/Conv2D" type="Convolution" version="opset1">
			<data auto_pad="valid" dilations="1,1" output_padding="0,0" pads_begin="0,0" pads_end="0,0" strides="1,1"/>
			<input>
				<port id="0">
					<dim>1</dim>
					<dim>512</dim>
					<dim>23</dim>
					<dim>30</dim>
				</port>
				<port id="1">
					<dim>128</dim>
					<dim>512</dim>
					<dim>1</dim>
					<dim>1</dim>
				</port>
			</input>
			<output>
				<port id="2" precision="FP16">
					<dim>1</dim>
					<dim>128</dim>
					<dim>23</dim>
					<dim>30</dim>
				</port>
			</output>
		</layer>
		<layer id="145" name="data_add_1533215337/copy_const" type="Const" version="opset1">
			<data element_type="f16" offset="2699468" shape="1,128,1,1" size="256"/>
			<output>
				<port id="1" precision="FP16">
					<dim>1</dim>
					<dim>128</dim>
					<dim>1</dim>
					<dim>1</dim>
				</port>
			</output>
		</layer>
		<layer id="146" name="icnet_features/conv3_4_1x1_reduce_bn_2/FusedBatchNorm/variance/Fused_Add_" type="Add" version="opset1">
			<input>
				<port id="0">
					<dim>1</dim>
					<dim>128</dim>
					<dim>23</dim>
					<dim>30</dim>
				</port>
				<port id="1">
					<dim>1</dim>
					<dim>128</dim>
					<dim>1</dim>
					<dim>1</dim>
				</port>
			</input>
			<output>
				<port id="2" precision="FP16">
					<dim>1</dim>
					<dim>128</dim>
					<dim>23</dim>
					<dim>30</dim>
				</port>
			</output>
		</layer>
		<layer id="147" name="icnet_features/conv3_4_1x1_reduce_bn_3/conv3_4_1x1_reduce_bn" type="ReLU" version="opset1">
			<input>
				<port id="0">
					<dim>1</dim>
					<dim>128</dim>
					<dim>23</dim>
					<dim>30</dim>
				</port>
			</input>
			<output>
				<port id="1" precision="FP16">
					<dim>1</dim>
					<dim>128</dim>
					<dim>23</dim>
					<dim>30</dim>
				</port>
			</output>
		</layer>
		<layer id="148" name="icnet_features/conv3_4_3x3_bn_2/FusedBatchNorm/mean/Fused_Mul_1630516307_const" type="Const" version="opset1">
			<data element_type="f16" offset="2699724" shape="128,128,3,3" size="294912"/>
			<output>
				<port id="1" precision="FP16">
					<dim>128</dim>
					<dim>128</dim>
					<dim>3</dim>
					<dim>3</dim>
				</port>
			</output>
		</layer>
		<layer id="149" name="icnet_features/conv3_4_3x3_1/Conv2D" type="Convolution" version="opset1">
			<data dilations="1,1" output_padding="0,0" pads_begin="1,1" pads_end="1,1" strides="1,1"/>
			<input>
				<port id="0">
					<dim>1</dim>
					<dim>128</dim>
					<dim>23</dim>
					<dim>30</dim>
				</port>
				<port id="1">
					<dim>128</dim>
					<dim>128</dim>
					<dim>3</dim>
					<dim>3</dim>
				</port>
			</input>
			<output>
				<port id="2" precision="FP16">
					<dim>1</dim>
					<dim>128</dim>
					<dim>23</dim>
					<dim>30</dim>
				</port>
			</output>
		</layer>
		<layer id="150" name="data_add_1534015345/copy_const" type="Const" version="opset1">
			<data element_type="f16" offset="2994636" shape="1,128,1,1" size="256"/>
			<output>
				<port id="1" precision="FP16">
					<dim>1</dim>
					<dim>128</dim>
					<dim>1</dim>
					<dim>1</dim>
				</port>
			</output>
		</layer>
		<layer id="151" name="icnet_features/conv3_4_3x3_bn_2/FusedBatchNorm/variance/Fused_Add_" type="Add" version="opset1">
			<input>
				<port id="0">
					<dim>1</dim>
					<dim>128</dim>
					<dim>23</dim>
					<dim>30</dim>
				</port>
				<port id="1">
					<dim>1</dim>
					<dim>128</dim>
					<dim>1</dim>
					<dim>1</dim>
				</port>
			</input>
			<output>
				<port id="2" precision="FP16">
					<dim>1</dim>
					<dim>128</dim>
					<dim>23</dim>
					<dim>30</dim>
				</port>
			</output>
		</layer>
		<layer id="152" name="icnet_features/conv3_4_3x3_bn_3/conv3_4_3x3_bn" type="ReLU" version="opset1">
			<input>
				<port id="0">
					<dim>1</dim>
					<dim>128</dim>
					<dim>23</dim>
					<dim>30</dim>
				</port>
			</input>
			<output>
				<port id="1" precision="FP16">
					<dim>1</dim>
					<dim>128</dim>
					<dim>23</dim>
					<dim>30</dim>
				</port>
			</output>
		</layer>
		<layer id="153" name="icnet_features/conv3_4_1x1_increase_bn_1/FusedBatchNorm/mean/Fused_Mul_1630916311_const" type="Const" version="opset1">
			<data element_type="f16" offset="2994892" shape="512,128,1,1" size="131072"/>
			<output>
				<port id="1" precision="FP16">
					<dim>512</dim>
					<dim>128</dim>
					<dim>1</dim>
					<dim>1</dim>
				</port>
			</output>
		</layer>
		<layer id="154" name="icnet_features/conv3_4_1x1_increase_1/Conv2D" type="Convolution" version="opset1">
			<data auto_pad="valid" dilations="1,1" output_padding="0,0" pads_begin="0,0" pads_end="0,0" strides="1,1"/>
			<input>
				<port id="0">
					<dim>1</dim>
					<dim>128</dim>
					<dim>23</dim>
					<dim>30</dim>
				</port>
				<port id="1">
					<dim>512</dim>
					<dim>128</dim>
					<dim>1</dim>
					<dim>1</dim>
				</port>
			</input>
			<output>
				<port id="2" precision="FP16">
					<dim>1</dim>
					<dim>512</dim>
					<dim>23</dim>
					<dim>30</dim>
				</port>
			</output>
		</layer>
		<layer id="155" name="data_add_1534815353/copy_const" type="Const" version="opset1">
			<data element_type="f16" offset="3125964" shape="1,512,1,1" size="1024"/>
			<output>
				<port id="1" precision="FP16">
					<dim>1</dim>
					<dim>512</dim>
					<dim>1</dim>
					<dim>1</dim>
				</port>
			</output>
		</layer>
		<layer id="156" name="icnet_features/conv3_4_1x1_increase_bn_1/FusedBatchNorm/variance/Fused_Add_" type="Add" version="opset1">
			<input>
				<port id="0">
					<dim>1</dim>
					<dim>512</dim>
					<dim>23</dim>
					<dim>30</dim>
				</port>
				<port id="1">
					<dim>1</dim>
					<dim>512</dim>
					<dim>1</dim>
					<dim>1</dim>
				</port>
			</input>
			<output>
				<port id="2" precision="FP16">
					<dim>1</dim>
					<dim>512</dim>
					<dim>23</dim>
					<dim>30</dim>
				</port>
			</output>
		</layer>
		<layer id="157" name="icnet_features/conv3_4_1/sum_1" type="Add" version="opset1">
			<input>
				<port id="0">
					<dim>1</dim>
					<dim>512</dim>
					<dim>23</dim>
					<dim>30</dim>
				</port>
				<port id="1">
					<dim>1</dim>
					<dim>512</dim>
					<dim>23</dim>
					<dim>30</dim>
				</port>
			</input>
			<output>
				<port id="2" precision="FP16">
					<dim>1</dim>
					<dim>512</dim>
					<dim>23</dim>
					<dim>30</dim>
				</port>
			</output>
		</layer>
		<layer id="158" name="icnet_features/conv3_4/relu_1" type="ReLU" version="opset1">
			<input>
				<port id="0">
					<dim>1</dim>
					<dim>512</dim>
					<dim>23</dim>
					<dim>30</dim>
				</port>
			</input>
			<output>
				<port id="1" precision="FP16">
					<dim>1</dim>
					<dim>512</dim>
					<dim>23</dim>
					<dim>30</dim>
				</port>
			</output>
		</layer>
		<layer id="159" name="icnet_features/conv4_1_1x1_proj_bn_1/FusedBatchNorm/mean/Fused_Mul_1632516327_const" type="Const" version="opset1">
			<data element_type="f16" offset="3126988" shape="1024,512,1,1" size="1048576"/>
			<output>
				<port id="1" precision="FP16">
					<dim>1024</dim>
					<dim>512</dim>
					<dim>1</dim>
					<dim>1</dim>
				</port>
			</output>
		</layer>
		<layer id="160" name="icnet_features/conv4_1_1x1_proj_1/Conv2D" type="Convolution" version="opset1">
			<data auto_pad="valid" dilations="1,1" output_padding="0,0" pads_begin="0,0" pads_end="0,0" strides="1,1"/>
			<input>
				<port id="0">
					<dim>1</dim>
					<dim>512</dim>
					<dim>23</dim>
					<dim>30</dim>
				</port>
				<port id="1">
					<dim>1024</dim>
					<dim>512</dim>
					<dim>1</dim>
					<dim>1</dim>
				</port>
			</input>
			<output>
				<port id="2" precision="FP16">
					<dim>1</dim>
					<dim>1024</dim>
					<dim>23</dim>
					<dim>30</dim>
				</port>
			</output>
		</layer>
		<layer id="161" name="data_add_1538015385/copy_const" type="Const" version="opset1">
			<data element_type="f16" offset="4175564" shape="1,1024,1,1" size="2048"/>
			<output>
				<port id="1" precision="FP16">
					<dim>1</dim>
					<dim>1024</dim>
					<dim>1</dim>
					<dim>1</dim>
				</port>
			</output>
		</layer>
		<layer id="162" name="icnet_features/conv4_1_1x1_proj_bn_1/FusedBatchNorm/variance/Fused_Add_" type="Add" version="opset1">
			<input>
				<port id="0">
					<dim>1</dim>
					<dim>1024</dim>
					<dim>23</dim>
					<dim>30</dim>
				</port>
				<port id="1">
					<dim>1</dim>
					<dim>1024</dim>
					<dim>1</dim>
					<dim>1</dim>
				</port>
			</input>
			<output>
				<port id="2" precision="FP16">
					<dim>1</dim>
					<dim>1024</dim>
					<dim>23</dim>
					<dim>30</dim>
				</port>
			</output>
		</layer>
		<layer id="163" name="icnet_features/ResizeBilinear_26/Cast_122646_const" type="Const" version="opset1">
			<data element_type="i64" offset="1451196" shape="2" size="16"/>
			<output>
				<port id="1" precision="I64">
					<dim>2</dim>
				</port>
			</output>
		</layer>
		<layer id="164" name="icnet_features/ResizeBilinear_26" type="Interpolate" version="opset1">
			<data align_corners="0" antialias="0" axes="2,3" mode="linear" pads_begin="0" pads_end="0"/>
			<input>
				<port id="0">
					<dim>1</dim>
					<dim>1024</dim>
					<dim>23</dim>
					<dim>30</dim>
				</port>
				<port id="1">
					<dim>2</dim>
				</port>
			</input>
			<output>
				<port id="2" precision="FP16">
					<dim>1</dim>
					<dim>1024</dim>
					<dim>23</dim>
					<dim>30</dim>
				</port>
			</output>
		</layer>
		<layer id="165" name="icnet_features/conv4_1_1x1_reduce_bn_2/FusedBatchNorm/mean/Fused_Mul_1631316315_const" type="Const" version="opset1">
			<data element_type="f16" offset="4177612" shape="256,512,1,1" size="262144"/>
			<output>
				<port id="1" precision="FP16">
					<dim>256</dim>
					<dim>512</dim>
					<dim>1</dim>
					<dim>1</dim>
				</port>
			</output>
		</layer>
		<layer id="166" name="icnet_features/conv4_1_1x1_reduce_1/Conv2D" type="Convolution" version="opset1">
			<data auto_pad="valid" dilations="1,1" output_padding="0,0" pads_begin="0,0" pads_end="0,0" strides="1,1"/>
			<input>
				<port id="0">
					<dim>1</dim>
					<dim>512</dim>
					<dim>23</dim>
					<dim>30</dim>
				</port>
				<port id="1">
					<dim>256</dim>
					<dim>512</dim>
					<dim>1</dim>
					<dim>1</dim>
				</port>
			</input>
			<output>
				<port id="2" precision="FP16">
					<dim>1</dim>
					<dim>256</dim>
					<dim>23</dim>
					<dim>30</dim>
				</port>
			</output>
		</layer>
		<layer id="167" name="data_add_1535615361/copy_const" type="Const" version="opset1">
			<data element_type="f16" offset="4439756" shape="1,256,1,1" size="512"/>
			<output>
				<port id="1" precision="FP16">
					<dim>1</dim>
					<dim>256</dim>
					<dim>1</dim>
					<dim>1</dim>
				</port>
			</output>
		</layer>
		<layer id="168" name="icnet_features/conv4_1_1x1_reduce_bn_2/FusedBatchNorm/variance/Fused_Add_" type="Add" version="opset1">
			<input>
				<port id="0">
					<dim>1</dim>
					<dim>256</dim>
					<dim>23</dim>
					<dim>30</dim>
				</port>
				<port id="1">
					<dim>1</dim>
					<dim>256</dim>
					<dim>1</dim>
					<dim>1</dim>
				</port>
			</input>
			<output>
				<port id="2" precision="FP16">
					<dim>1</dim>
					<dim>256</dim>
					<dim>23</dim>
					<dim>30</dim>
				</port>
			</output>
		</layer>
		<layer id="169" name="icnet_features/conv4_1_1x1_reduce_bn_3/conv4_1_1x1_reduce_bn" type="ReLU" version="opset1">
			<input>
				<port id="0">
					<dim>1</dim>
					<dim>256</dim>
					<dim>23</dim>
					<dim>30</dim>
				</port>
			</input>
			<output>
				<port id="1" precision="FP16">
					<dim>1</dim>
					<dim>256</dim>
					<dim>23</dim>
					<dim>30</dim>
				</port>
			</output>
		</layer>
		<layer id="170" name="icnet_features/conv4_1_3x3_bn_2/FusedBatchNorm/mean/Fused_Mul_1631716319_const" type="Const" version="opset1">
			<data element_type="f16" offset="4440268" shape="256,256,3,3" size="1179648"/>
			<output>
				<port id="1" precision="FP16">
					<dim>256</dim>
					<dim>256</dim>
					<dim>3</dim>
					<dim>3</dim>
				</port>
			</output>
		</layer>
		<layer id="171" name="icnet_features/conv4_1_3x3_1/Conv2D" type="Convolution" version="opset1">
			<data dilations="2,2" output_padding="0,0" pads_begin="2,2" pads_end="2,2" strides="1,1"/>
			<input>
				<port id="0">
					<dim>1</dim>
					<dim>256</dim>
					<dim>23</dim>
					<dim>30</dim>
				</port>
				<port id="1">
					<dim>256</dim>
					<dim>256</dim>
					<dim>3</dim>
					<dim>3</dim>
				</port>
			</input>
			<output>
				<port id="2" precision="FP16">
					<dim>1</dim>
					<dim>256</dim>
					<dim>23</dim>
					<dim>30</dim>
				</port>
			</output>
		</layer>
		<layer id="172" name="data_add_1536415369/copy_const" type="Const" version="opset1">
			<data element_type="f16" offset="5619916" shape="1,256,1,1" size="512"/>
			<output>
				<port id="1" precision="FP16">
					<dim>1</dim>
					<dim>256</dim>
					<dim>1</dim>
					<dim>1</dim>
				</port>
			</output>
		</layer>
		<layer id="173" name="icnet_features/conv4_1_3x3_bn_2/FusedBatchNorm/variance/Fused_Add_" type="Add" version="opset1">
			<input>
				<port id="0">
					<dim>1</dim>
					<dim>256</dim>
					<dim>23</dim>
					<dim>30</dim>
				</port>
				<port id="1">
					<dim>1</dim>
					<dim>256</dim>
					<dim>1</dim>
					<dim>1</dim>
				</port>
			</input>
			<output>
				<port id="2" precision="FP16">
					<dim>1</dim>
					<dim>256</dim>
					<dim>23</dim>
					<dim>30</dim>
				</port>
			</output>
		</layer>
		<layer id="174" name="icnet_features/conv4_1_3x3_bn_3/conv4_1_3x3_bn" type="ReLU" version="opset1">
			<input>
				<port id="0">
					<dim>1</dim>
					<dim>256</dim>
					<dim>23</dim>
					<dim>30</dim>
				</port>
			</input>
			<output>
				<port id="1" precision="FP16">
					<dim>1</dim>
					<dim>256</dim>
					<dim>23</dim>
					<dim>30</dim>
				</port>
			</output>
		</layer>
		<layer id="175" name="icnet_features/conv4_1_1x1_increase_bn_1/FusedBatchNorm/mean/Fused_Mul_1632116323_const" type="Const" version="opset1">
			<data element_type="f16" offset="5620428" shape="1024,256,1,1" size="524288"/>
			<output>
				<port id="1" precision="FP16">
					<dim>1024</dim>
					<dim>256</dim>
					<dim>1</dim>
					<dim>1</dim>
				</port>
			</output>
		</layer>
		<layer id="176" name="icnet_features/conv4_1_1x1_increase_1/Conv2D" type="Convolution" version="opset1">
			<data auto_pad="valid" dilations="1,1" output_padding="0,0" pads_begin="0,0" pads_end="0,0" strides="1,1"/>
			<input>
				<port id="0">
					<dim>1</dim>
					<dim>256</dim>
					<dim>23</dim>
					<dim>30</dim>
				</port>
				<port id="1">
					<dim>1024</dim>
					<dim>256</dim>
					<dim>1</dim>
					<dim>1</dim>
				</port>
			</input>
			<output>
				<port id="2" precision="FP16">
					<dim>1</dim>
					<dim>1024</dim>
					<dim>23</dim>
					<dim>30</dim>
				</port>
			</output>
		</layer>
		<layer id="177" name="data_add_1537215377/copy_const" type="Const" version="opset1">
			<data element_type="f16" offset="6144716" shape="1,1024,1,1" size="2048"/>
			<output>
				<port id="1" precision="FP16">
					<dim>1</dim>
					<dim>1024</dim>
					<dim>1</dim>
					<dim>1</dim>
				</port>
			</output>
		</layer>
		<layer id="178" name="icnet_features/conv4_1_1x1_increase_bn_1/FusedBatchNorm/variance/Fused_Add_" type="Add" version="opset1">
			<input>
				<port id="0">
					<dim>1</dim>
					<dim>1024</dim>
					<dim>23</dim>
					<dim>30</dim>
				</port>
				<port id="1">
					<dim>1</dim>
					<dim>1024</dim>
					<dim>1</dim>
					<dim>1</dim>
				</port>
			</input>
			<output>
				<port id="2" precision="FP16">
					<dim>1</dim>
					<dim>1024</dim>
					<dim>23</dim>
					<dim>30</dim>
				</port>
			</output>
		</layer>
		<layer id="179" name="icnet_features/conv4_1_1/sum_1" type="Add" version="opset1">
			<input>
				<port id="0">
					<dim>1</dim>
					<dim>1024</dim>
					<dim>23</dim>
					<dim>30</dim>
				</port>
				<port id="1">
					<dim>1</dim>
					<dim>1024</dim>
					<dim>23</dim>
					<dim>30</dim>
				</port>
			</input>
			<output>
				<port id="2" precision="FP16">
					<dim>1</dim>
					<dim>1024</dim>
					<dim>23</dim>
					<dim>30</dim>
				</port>
			</output>
		</layer>
		<layer id="180" name="icnet_features/conv4_1/relu_1" type="ReLU" version="opset1">
			<input>
				<port id="0">
					<dim>1</dim>
					<dim>1024</dim>
					<dim>23</dim>
					<dim>30</dim>
				</port>
			</input>
			<output>
				<port id="1" precision="FP16">
					<dim>1</dim>
					<dim>1024</dim>
					<dim>23</dim>
					<dim>30</dim>
				</port>
			</output>
		</layer>
		<layer id="181" name="icnet_features/ResizeBilinear_27/Cast_122610_const" type="Const" version="opset1">
			<data element_type="i64" offset="1451196" shape="2" size="16"/>
			<output>
				<port id="1" precision="I64">
					<dim>2</dim>
				</port>
			</output>
		</layer>
		<layer id="182" name="icnet_features/ResizeBilinear_27" type="Interpolate" version="opset1">
			<data align_corners="0" antialias="0" axes="2,3" mode="linear" pads_begin="0" pads_end="0"/>
			<input>
				<port id="0">
					<dim>1</dim>
					<dim>1024</dim>
					<dim>23</dim>
					<dim>30</dim>
				</port>
				<port id="1">
					<dim>2</dim>
				</port>
			</input>
			<output>
				<port id="2" precision="FP16">
					<dim>1</dim>
					<dim>1024</dim>
					<dim>23</dim>
					<dim>30</dim>
				</port>
			</output>
		</layer>
		<layer id="183" name="icnet_features/conv4_2_1x1_reduce_bn_2/FusedBatchNorm/mean/Fused_Mul_1632916331_const" type="Const" version="opset1">
			<data element_type="f16" offset="6146764" shape="256,1024,1,1" size="524288"/>
			<output>
				<port id="1" precision="FP16">
					<dim>256</dim>
					<dim>1024</dim>
					<dim>1</dim>
					<dim>1</dim>
				</port>
			</output>
		</layer>
		<layer id="184" name="icnet_features/conv4_2_1x1_reduce_1/Conv2D" type="Convolution" version="opset1">
			<data auto_pad="valid" dilations="1,1" output_padding="0,0" pads_begin="0,0" pads_end="0,0" strides="1,1"/>
			<input>
				<port id="0">
					<dim>1</dim>
					<dim>1024</dim>
					<dim>23</dim>
					<dim>30</dim>
				</port>
				<port id="1">
					<dim>256</dim>
					<dim>1024</dim>
					<dim>1</dim>
					<dim>1</dim>
				</port>
			</input>
			<output>
				<port id="2" precision="FP16">
					<dim>1</dim>
					<dim>256</dim>
					<dim>23</dim>
					<dim>30</dim>
				</port>
			</output>
		</layer>
		<layer id="185" name="data_add_1538815393/copy_const" type="Const" version="opset1">
			<data element_type="f16" offset="6671052" shape="1,256,1,1" size="512"/>
			<output>
				<port id="1" precision="FP16">
					<dim>1</dim>
					<dim>256</dim>
					<dim>1</dim>
					<dim>1</dim>
				</port>
			</output>
		</layer>
		<layer id="186" name="icnet_features/conv4_2_1x1_reduce_bn_2/FusedBatchNorm/variance/Fused_Add_" type="Add" version="opset1">
			<input>
				<port id="0">
					<dim>1</dim>
					<dim>256</dim>
					<dim>23</dim>
					<dim>30</dim>
				</port>
				<port id="1">
					<dim>1</dim>
					<dim>256</dim>
					<dim>1</dim>
					<dim>1</dim>
				</port>
			</input>
			<output>
				<port id="2" precision="FP16">
					<dim>1</dim>
					<dim>256</dim>
					<dim>23</dim>
					<dim>30</dim>
				</port>
			</output>
		</layer>
		<layer id="187" name="icnet_features/conv4_2_1x1_reduce_bn_3/conv4_2_1x1_reduce_bn" type="ReLU" version="opset1">
			<input>
				<port id="0">
					<dim>1</dim>
					<dim>256</dim>
					<dim>23</dim>
					<dim>30</dim>
				</port>
			</input>
			<output>
				<port id="1" precision="FP16">
					<dim>1</dim>
					<dim>256</dim>
					<dim>23</dim>
					<dim>30</dim>
				</port>
			</output>
		</layer>
		<layer id="188" name="icnet_features/conv4_2_3x3_bn_2/FusedBatchNorm/mean/Fused_Mul_1633316335_const" type="Const" version="opset1">
			<data element_type="f16" offset="6671564" shape="256,256,3,3" size="1179648"/>
			<output>
				<port id="1" precision="FP16">
					<dim>256</dim>
					<dim>256</dim>
					<dim>3</dim>
					<dim>3</dim>
				</port>
			</output>
		</layer>
		<layer id="189" name="icnet_features/conv4_2_3x3_1/Conv2D" type="Convolution" version="opset1">
			<data dilations="2,2" output_padding="0,0" pads_begin="2,2" pads_end="2,2" strides="1,1"/>
			<input>
				<port id="0">
					<dim>1</dim>
					<dim>256</dim>
					<dim>23</dim>
					<dim>30</dim>
				</port>
				<port id="1">
					<dim>256</dim>
					<dim>256</dim>
					<dim>3</dim>
					<dim>3</dim>
				</port>
			</input>
			<output>
				<port id="2" precision="FP16">
					<dim>1</dim>
					<dim>256</dim>
					<dim>23</dim>
					<dim>30</dim>
				</port>
			</output>
		</layer>
		<layer id="190" name="data_add_1539615401/copy_const" type="Const" version="opset1">
			<data element_type="f16" offset="7851212" shape="1,256,1,1" size="512"/>
			<output>
				<port id="1" precision="FP16">
					<dim>1</dim>
					<dim>256</dim>
					<dim>1</dim>
					<dim>1</dim>
				</port>
			</output>
		</layer>
		<layer id="191" name="icnet_features/conv4_2_3x3_bn_2/FusedBatchNorm/variance/Fused_Add_" type="Add" version="opset1">
			<input>
				<port id="0">
					<dim>1</dim>
					<dim>256</dim>
					<dim>23</dim>
					<dim>30</dim>
				</port>
				<port id="1">
					<dim>1</dim>
					<dim>256</dim>
					<dim>1</dim>
					<dim>1</dim>
				</port>
			</input>
			<output>
				<port id="2" precision="FP16">
					<dim>1</dim>
					<dim>256</dim>
					<dim>23</dim>
					<dim>30</dim>
				</port>
			</output>
		</layer>
		<layer id="192" name="icnet_features/conv4_2_3x3_bn_3/conv4_2_3x3_bn" type="ReLU" version="opset1">
			<input>
				<port id="0">
					<dim>1</dim>
					<dim>256</dim>
					<dim>23</dim>
					<dim>30</dim>
				</port>
			</input>
			<output>
				<port id="1" precision="FP16">
					<dim>1</dim>
					<dim>256</dim>
					<dim>23</dim>
					<dim>30</dim>
				</port>
			</output>
		</layer>
		<layer id="193" name="icnet_features/conv4_2_1x1_increase_bn_1/FusedBatchNorm/mean/Fused_Mul_1633716339_const" type="Const" version="opset1">
			<data element_type="f16" offset="7851724" shape="1024,256,1,1" size="524288"/>
			<output>
				<port id="1" precision="FP16">
					<dim>1024</dim>
					<dim>256</dim>
					<dim>1</dim>
					<dim>1</dim>
				</port>
			</output>
		</layer>
		<layer id="194" name="icnet_features/conv4_2_1x1_increase_1/Conv2D" type="Convolution" version="opset1">
			<data auto_pad="valid" dilations="1,1" output_padding="0,0" pads_begin="0,0" pads_end="0,0" strides="1,1"/>
			<input>
				<port id="0">
					<dim>1</dim>
					<dim>256</dim>
					<dim>23</dim>
					<dim>30</dim>
				</port>
				<port id="1">
					<dim>1024</dim>
					<dim>256</dim>
					<dim>1</dim>
					<dim>1</dim>
				</port>
			</input>
			<output>
				<port id="2" precision="FP16">
					<dim>1</dim>
					<dim>1024</dim>
					<dim>23</dim>
					<dim>30</dim>
				</port>
			</output>
		</layer>
		<layer id="195" name="data_add_1540415409/copy_const" type="Const" version="opset1">
			<data element_type="f16" offset="8376012" shape="1,1024,1,1" size="2048"/>
			<output>
				<port id="1" precision="FP16">
					<dim>1</dim>
					<dim>1024</dim>
					<dim>1</dim>
					<dim>1</dim>
				</port>
			</output>
		</layer>
		<layer id="196" name="icnet_features/conv4_2_1x1_increase_bn_1/FusedBatchNorm/variance/Fused_Add_" type="Add" version="opset1">
			<input>
				<port id="0">
					<dim>1</dim>
					<dim>1024</dim>
					<dim>23</dim>
					<dim>30</dim>
				</port>
				<port id="1">
					<dim>1</dim>
					<dim>1024</dim>
					<dim>1</dim>
					<dim>1</dim>
				</port>
			</input>
			<output>
				<port id="2" precision="FP16">
					<dim>1</dim>
					<dim>1024</dim>
					<dim>23</dim>
					<dim>30</dim>
				</port>
			</output>
		</layer>
		<layer id="197" name="icnet_features/conv4_2_1/sum_1" type="Add" version="opset1">
			<input>
				<port id="0">
					<dim>1</dim>
					<dim>1024</dim>
					<dim>23</dim>
					<dim>30</dim>
				</port>
				<port id="1">
					<dim>1</dim>
					<dim>1024</dim>
					<dim>23</dim>
					<dim>30</dim>
				</port>
			</input>
			<output>
				<port id="2" precision="FP16">
					<dim>1</dim>
					<dim>1024</dim>
					<dim>23</dim>
					<dim>30</dim>
				</port>
			</output>
		</layer>
		<layer id="198" name="icnet_features/conv4_2/relu_1" type="ReLU" version="opset1">
			<input>
				<port id="0">
					<dim>1</dim>
					<dim>1024</dim>
					<dim>23</dim>
					<dim>30</dim>
				</port>
			</input>
			<output>
				<port id="1" precision="FP16">
					<dim>1</dim>
					<dim>1024</dim>
					<dim>23</dim>
					<dim>30</dim>
				</port>
			</output>
		</layer>
		<layer id="199" name="icnet_features/ResizeBilinear_28/Cast_122648_const" type="Const" version="opset1">
			<data element_type="i64" offset="1451196" shape="2" size="16"/>
			<output>
				<port id="1" precision="I64">
					<dim>2</dim>
				</port>
			</output>
		</layer>
		<layer id="200" name="icnet_features/ResizeBilinear_28" type="Interpolate" version="opset1">
			<data align_corners="0" antialias="0" axes="2,3" mode="linear" pads_begin="0" pads_end="0"/>
			<input>
				<port id="0">
					<dim>1</dim>
					<dim>1024</dim>
					<dim>23</dim>
					<dim>30</dim>
				</port>
				<port id="1">
					<dim>2</dim>
				</port>
			</input>
			<output>
				<port id="2" precision="FP16">
					<dim>1</dim>
					<dim>1024</dim>
					<dim>23</dim>
					<dim>30</dim>
				</port>
			</output>
		</layer>
		<layer id="201" name="icnet_features/conv4_3_1x1_reduce_bn_2/FusedBatchNorm/mean/Fused_Mul_1634116343_const" type="Const" version="opset1">
			<data element_type="f16" offset="8378060" shape="256,1024,1,1" size="524288"/>
			<output>
				<port id="1" precision="FP16">
					<dim>256</dim>
					<dim>1024</dim>
					<dim>1</dim>
					<dim>1</dim>
				</port>
			</output>
		</layer>
		<layer id="202" name="icnet_features/conv4_3_1x1_reduce_1/Conv2D" type="Convolution" version="opset1">
			<data auto_pad="valid" dilations="1,1" output_padding="0,0" pads_begin="0,0" pads_end="0,0" strides="1,1"/>
			<input>
				<port id="0">
					<dim>1</dim>
					<dim>1024</dim>
					<dim>23</dim>
					<dim>30</dim>
				</port>
				<port id="1">
					<dim>256</dim>
					<dim>1024</dim>
					<dim>1</dim>
					<dim>1</dim>
				</port>
			</input>
			<output>
				<port id="2" precision="FP16">
					<dim>1</dim>
					<dim>256</dim>
					<dim>23</dim>
					<dim>30</dim>
				</port>
			</output>
		</layer>
		<layer id="203" name="data_add_1541215417/copy_const" type="Const" version="opset1">
			<data element_type="f16" offset="8902348" shape="1,256,1,1" size="512"/>
			<output>
				<port id="1" precision="FP16">
					<dim>1</dim>
					<dim>256</dim>
					<dim>1</dim>
					<dim>1</dim>
				</port>
			</output>
		</layer>
		<layer id="204" name="icnet_features/conv4_3_1x1_reduce_bn_2/FusedBatchNorm/variance/Fused_Add_" type="Add" version="opset1">
			<input>
				<port id="0">
					<dim>1</dim>
					<dim>256</dim>
					<dim>23</dim>
					<dim>30</dim>
				</port>
				<port id="1">
					<dim>1</dim>
					<dim>256</dim>
					<dim>1</dim>
					<dim>1</dim>
				</port>
			</input>
			<output>
				<port id="2" precision="FP16">
					<dim>1</dim>
					<dim>256</dim>
					<dim>23</dim>
					<dim>30</dim>
				</port>
			</output>
		</layer>
		<layer id="205" name="icnet_features/conv4_3_1x1_reduce_bn_3/conv4_3_1x1_reduce_bn" type="ReLU" version="opset1">
			<input>
				<port id="0">
					<dim>1</dim>
					<dim>256</dim>
					<dim>23</dim>
					<dim>30</dim>
				</port>
			</input>
			<output>
				<port id="1" precision="FP16">
					<dim>1</dim>
					<dim>256</dim>
					<dim>23</dim>
					<dim>30</dim>
				</port>
			</output>
		</layer>
		<layer id="206" name="icnet_features/conv4_3_3x3_bn_2/FusedBatchNorm/mean/Fused_Mul_1634516347_const" type="Const" version="opset1">
			<data element_type="f16" offset="8902860" shape="256,256,3,3" size="1179648"/>
			<output>
				<port id="1" precision="FP16">
					<dim>256</dim>
					<dim>256</dim>
					<dim>3</dim>
					<dim>3</dim>
				</port>
			</output>
		</layer>
		<layer id="207" name="icnet_features/conv4_3_3x3_1/Conv2D" type="Convolution" version="opset1">
			<data dilations="2,2" output_padding="0,0" pads_begin="2,2" pads_end="2,2" strides="1,1"/>
			<input>
				<port id="0">
					<dim>1</dim>
					<dim>256</dim>
					<dim>23</dim>
					<dim>30</dim>
				</port>
				<port id="1">
					<dim>256</dim>
					<dim>256</dim>
					<dim>3</dim>
					<dim>3</dim>
				</port>
			</input>
			<output>
				<port id="2" precision="FP16">
					<dim>1</dim>
					<dim>256</dim>
					<dim>23</dim>
					<dim>30</dim>
				</port>
			</output>
		</layer>
		<layer id="208" name="data_add_1542015425/copy_const" type="Const" version="opset1">
			<data element_type="f16" offset="10082508" shape="1,256,1,1" size="512"/>
			<output>
				<port id="1" precision="FP16">
					<dim>1</dim>
					<dim>256</dim>
					<dim>1</dim>
					<dim>1</dim>
				</port>
			</output>
		</layer>
		<layer id="209" name="icnet_features/conv4_3_3x3_bn_2/FusedBatchNorm/variance/Fused_Add_" type="Add" version="opset1">
			<input>
				<port id="0">
					<dim>1</dim>
					<dim>256</dim>
					<dim>23</dim>
					<dim>30</dim>
				</port>
				<port id="1">
					<dim>1</dim>
					<dim>256</dim>
					<dim>1</dim>
					<dim>1</dim>
				</port>
			</input>
			<output>
				<port id="2" precision="FP16">
					<dim>1</dim>
					<dim>256</dim>
					<dim>23</dim>
					<dim>30</dim>
				</port>
			</output>
		</layer>
		<layer id="210" name="icnet_features/conv4_3_3x3_bn_3/conv4_3_3x3_bn" type="ReLU" version="opset1">
			<input>
				<port id="0">
					<dim>1</dim>
					<dim>256</dim>
					<dim>23</dim>
					<dim>30</dim>
				</port>
			</input>
			<output>
				<port id="1" precision="FP16">
					<dim>1</dim>
					<dim>256</dim>
					<dim>23</dim>
					<dim>30</dim>
				</port>
			</output>
		</layer>
		<layer id="211" name="icnet_features/conv4_3_1x1_increase_bn_1/FusedBatchNorm/mean/Fused_Mul_1634916351_const" type="Const" version="opset1">
			<data element_type="f16" offset="10083020" shape="1024,256,1,1" size="524288"/>
			<output>
				<port id="1" precision="FP16">
					<dim>1024</dim>
					<dim>256</dim>
					<dim>1</dim>
					<dim>1</dim>
				</port>
			</output>
		</layer>
		<layer id="212" name="icnet_features/conv4_3_1x1_increase_1/Conv2D" type="Convolution" version="opset1">
			<data auto_pad="valid" dilations="1,1" output_padding="0,0" pads_begin="0,0" pads_end="0,0" strides="1,1"/>
			<input>
				<port id="0">
					<dim>1</dim>
					<dim>256</dim>
					<dim>23</dim>
					<dim>30</dim>
				</port>
				<port id="1">
					<dim>1024</dim>
					<dim>256</dim>
					<dim>1</dim>
					<dim>1</dim>
				</port>
			</input>
			<output>
				<port id="2" precision="FP16">
					<dim>1</dim>
					<dim>1024</dim>
					<dim>23</dim>
					<dim>30</dim>
				</port>
			</output>
		</layer>
		<layer id="213" name="data_add_1542815433/copy_const" type="Const" version="opset1">
			<data element_type="f16" offset="10607308" shape="1,1024,1,1" size="2048"/>
			<output>
				<port id="1" precision="FP16">
					<dim>1</dim>
					<dim>1024</dim>
					<dim>1</dim>
					<dim>1</dim>
				</port>
			</output>
		</layer>
		<layer id="214" name="icnet_features/conv4_3_1x1_increase_bn_1/FusedBatchNorm/variance/Fused_Add_" type="Add" version="opset1">
			<input>
				<port id="0">
					<dim>1</dim>
					<dim>1024</dim>
					<dim>23</dim>
					<dim>30</dim>
				</port>
				<port id="1">
					<dim>1</dim>
					<dim>1024</dim>
					<dim>1</dim>
					<dim>1</dim>
				</port>
			</input>
			<output>
				<port id="2" precision="FP16">
					<dim>1</dim>
					<dim>1024</dim>
					<dim>23</dim>
					<dim>30</dim>
				</port>
			</output>
		</layer>
		<layer id="215" name="icnet_features/conv4_3_1/sum_1" type="Add" version="opset1">
			<input>
				<port id="0">
					<dim>1</dim>
					<dim>1024</dim>
					<dim>23</dim>
					<dim>30</dim>
				</port>
				<port id="1">
					<dim>1</dim>
					<dim>1024</dim>
					<dim>23</dim>
					<dim>30</dim>
				</port>
			</input>
			<output>
				<port id="2" precision="FP16">
					<dim>1</dim>
					<dim>1024</dim>
					<dim>23</dim>
					<dim>30</dim>
				</port>
			</output>
		</layer>
		<layer id="216" name="icnet_features/conv4_3/relu_1" type="ReLU" version="opset1">
			<input>
				<port id="0">
					<dim>1</dim>
					<dim>1024</dim>
					<dim>23</dim>
					<dim>30</dim>
				</port>
			</input>
			<output>
				<port id="1" precision="FP16">
					<dim>1</dim>
					<dim>1024</dim>
					<dim>23</dim>
					<dim>30</dim>
				</port>
			</output>
		</layer>
		<layer id="217" name="icnet_features/ResizeBilinear_29/Cast_122654_const" type="Const" version="opset1">
			<data element_type="i64" offset="1451196" shape="2" size="16"/>
			<output>
				<port id="1" precision="I64">
					<dim>2</dim>
				</port>
			</output>
		</layer>
		<layer id="218" name="icnet_features/ResizeBilinear_29" type="Interpolate" version="opset1">
			<data align_corners="0" antialias="0" axes="2,3" mode="linear" pads_begin="0" pads_end="0"/>
			<input>
				<port id="0">
					<dim>1</dim>
					<dim>1024</dim>
					<dim>23</dim>
					<dim>30</dim>
				</port>
				<port id="1">
					<dim>2</dim>
				</port>
			</input>
			<output>
				<port id="2" precision="FP16">
					<dim>1</dim>
					<dim>1024</dim>
					<dim>23</dim>
					<dim>30</dim>
				</port>
			</output>
		</layer>
		<layer id="219" name="icnet_features/conv4_4_1x1_reduce_bn_2/FusedBatchNorm/mean/Fused_Mul_1635316355_const" type="Const" version="opset1">
			<data element_type="f16" offset="10609356" shape="256,1024,1,1" size="524288"/>
			<output>
				<port id="1" precision="FP16">
					<dim>256</dim>
					<dim>1024</dim>
					<dim>1</dim>
					<dim>1</dim>
				</port>
			</output>
		</layer>
		<layer id="220" name="icnet_features/conv4_4_1x1_reduce_1/Conv2D" type="Convolution" version="opset1">
			<data auto_pad="valid" dilations="1,1" output_padding="0,0" pads_begin="0,0" pads_end="0,0" strides="1,1"/>
			<input>
				<port id="0">
					<dim>1</dim>
					<dim>1024</dim>
					<dim>23</dim>
					<dim>30</dim>
				</port>
				<port id="1">
					<dim>256</dim>
					<dim>1024</dim>
					<dim>1</dim>
					<dim>1</dim>
				</port>
			</input>
			<output>
				<port id="2" precision="FP16">
					<dim>1</dim>
					<dim>256</dim>
					<dim>23</dim>
					<dim>30</dim>
				</port>
			</output>
		</layer>
		<layer id="221" name="data_add_1543615441/copy_const" type="Const" version="opset1">
			<data element_type="f16" offset="11133644" shape="1,256,1,1" size="512"/>
			<output>
				<port id="1" precision="FP16">
					<dim>1</dim>
					<dim>256</dim>
					<dim>1</dim>
					<dim>1</dim>
				</port>
			</output>
		</layer>
		<layer id="222" name="icnet_features/conv4_4_1x1_reduce_bn_2/FusedBatchNorm/variance/Fused_Add_" type="Add" version="opset1">
			<input>
				<port id="0">
					<dim>1</dim>
					<dim>256</dim>
					<dim>23</dim>
					<dim>30</dim>
				</port>
				<port id="1">
					<dim>1</dim>
					<dim>256</dim>
					<dim>1</dim>
					<dim>1</dim>
				</port>
			</input>
			<output>
				<port id="2" precision="FP16">
					<dim>1</dim>
					<dim>256</dim>
					<dim>23</dim>
					<dim>30</dim>
				</port>
			</output>
		</layer>
		<layer id="223" name="icnet_features/conv4_4_1x1_reduce_bn_3/conv4_4_1x1_reduce_bn" type="ReLU" version="opset1">
			<input>
				<port id="0">
					<dim>1</dim>
					<dim>256</dim>
					<dim>23</dim>
					<dim>30</dim>
				</port>
			</input>
			<output>
				<port id="1" precision="FP16">
					<dim>1</dim>
					<dim>256</dim>
					<dim>23</dim>
					<dim>30</dim>
				</port>
			</output>
		</layer>
		<layer id="224" name="icnet_features/conv4_4_3x3_bn_2/FusedBatchNorm/mean/Fused_Mul_1635716359_const" type="Const" version="opset1">
			<data element_type="f16" offset="11134156" shape="256,256,3,3" size="1179648"/>
			<output>
				<port id="1" precision="FP16">
					<dim>256</dim>
					<dim>256</dim>
					<dim>3</dim>
					<dim>3</dim>
				</port>
			</output>
		</layer>
		<layer id="225" name="icnet_features/conv4_4_3x3_1/Conv2D" type="Convolution" version="opset1">
			<data dilations="2,2" output_padding="0,0" pads_begin="2,2" pads_end="2,2" strides="1,1"/>
			<input>
				<port id="0">
					<dim>1</dim>
					<dim>256</dim>
					<dim>23</dim>
					<dim>30</dim>
				</port>
				<port id="1">
					<dim>256</dim>
					<dim>256</dim>
					<dim>3</dim>
					<dim>3</dim>
				</port>
			</input>
			<output>
				<port id="2" precision="FP16">
					<dim>1</dim>
					<dim>256</dim>
					<dim>23</dim>
					<dim>30</dim>
				</port>
			</output>
		</layer>
		<layer id="226" name="data_add_1544415449/copy_const" type="Const" version="opset1">
			<data element_type="f16" offset="12313804" shape="1,256,1,1" size="512"/>
			<output>
				<port id="1" precision="FP16">
					<dim>1</dim>
					<dim>256</dim>
					<dim>1</dim>
					<dim>1</dim>
				</port>
			</output>
		</layer>
		<layer id="227" name="icnet_features/conv4_4_3x3_bn_2/FusedBatchNorm/variance/Fused_Add_" type="Add" version="opset1">
			<input>
				<port id="0">
					<dim>1</dim>
					<dim>256</dim>
					<dim>23</dim>
					<dim>30</dim>
				</port>
				<port id="1">
					<dim>1</dim>
					<dim>256</dim>
					<dim>1</dim>
					<dim>1</dim>
				</port>
			</input>
			<output>
				<port id="2" precision="FP16">
					<dim>1</dim>
					<dim>256</dim>
					<dim>23</dim>
					<dim>30</dim>
				</port>
			</output>
		</layer>
		<layer id="228" name="icnet_features/conv4_4_3x3_bn_3/conv4_4_3x3_bn" type="ReLU" version="opset1">
			<input>
				<port id="0">
					<dim>1</dim>
					<dim>256</dim>
					<dim>23</dim>
					<dim>30</dim>
				</port>
			</input>
			<output>
				<port id="1" precision="FP16">
					<dim>1</dim>
					<dim>256</dim>
					<dim>23</dim>
					<dim>30</dim>
				</port>
			</output>
		</layer>
		<layer id="229" name="icnet_features/conv4_4_1x1_increase_bn_1/FusedBatchNorm/mean/Fused_Mul_1636116363_const" type="Const" version="opset1">
			<data element_type="f16" offset="12314316" shape="1024,256,1,1" size="524288"/>
			<output>
				<port id="1" precision="FP16">
					<dim>1024</dim>
					<dim>256</dim>
					<dim>1</dim>
					<dim>1</dim>
				</port>
			</output>
		</layer>
		<layer id="230" name="icnet_features/conv4_4_1x1_increase_1/Conv2D" type="Convolution" version="opset1">
			<data auto_pad="valid" dilations="1,1" output_padding="0,0" pads_begin="0,0" pads_end="0,0" strides="1,1"/>
			<input>
				<port id="0">
					<dim>1</dim>
					<dim>256</dim>
					<dim>23</dim>
					<dim>30</dim>
				</port>
				<port id="1">
					<dim>1024</dim>
					<dim>256</dim>
					<dim>1</dim>
					<dim>1</dim>
				</port>
			</input>
			<output>
				<port id="2" precision="FP16">
					<dim>1</dim>
					<dim>1024</dim>
					<dim>23</dim>
					<dim>30</dim>
				</port>
			</output>
		</layer>
		<layer id="231" name="data_add_1545215457/copy_const" type="Const" version="opset1">
			<data element_type="f16" offset="12838604" shape="1,1024,1,1" size="2048"/>
			<output>
				<port id="1" precision="FP16">
					<dim>1</dim>
					<dim>1024</dim>
					<dim>1</dim>
					<dim>1</dim>
				</port>
			</output>
		</layer>
		<layer id="232" name="icnet_features/conv4_4_1x1_increase_bn_1/FusedBatchNorm/variance/Fused_Add_" type="Add" version="opset1">
			<input>
				<port id="0">
					<dim>1</dim>
					<dim>1024</dim>
					<dim>23</dim>
					<dim>30</dim>
				</port>
				<port id="1">
					<dim>1</dim>
					<dim>1024</dim>
					<dim>1</dim>
					<dim>1</dim>
				</port>
			</input>
			<output>
				<port id="2" precision="FP16">
					<dim>1</dim>
					<dim>1024</dim>
					<dim>23</dim>
					<dim>30</dim>
				</port>
			</output>
		</layer>
		<layer id="233" name="icnet_features/conv4_4_1/sum_1" type="Add" version="opset1">
			<input>
				<port id="0">
					<dim>1</dim>
					<dim>1024</dim>
					<dim>23</dim>
					<dim>30</dim>
				</port>
				<port id="1">
					<dim>1</dim>
					<dim>1024</dim>
					<dim>23</dim>
					<dim>30</dim>
				</port>
			</input>
			<output>
				<port id="2" precision="FP16">
					<dim>1</dim>
					<dim>1024</dim>
					<dim>23</dim>
					<dim>30</dim>
				</port>
			</output>
		</layer>
		<layer id="234" name="icnet_features/conv4_4/relu_1" type="ReLU" version="opset1">
			<input>
				<port id="0">
					<dim>1</dim>
					<dim>1024</dim>
					<dim>23</dim>
					<dim>30</dim>
				</port>
			</input>
			<output>
				<port id="1" precision="FP16">
					<dim>1</dim>
					<dim>1024</dim>
					<dim>23</dim>
					<dim>30</dim>
				</port>
			</output>
		</layer>
		<layer id="235" name="icnet_features/ResizeBilinear_30/Cast_122632_const" type="Const" version="opset1">
			<data element_type="i64" offset="1451196" shape="2" size="16"/>
			<output>
				<port id="1" precision="I64">
					<dim>2</dim>
				</port>
			</output>
		</layer>
		<layer id="236" name="icnet_features/ResizeBilinear_30" type="Interpolate" version="opset1">
			<data align_corners="0" antialias="0" axes="2,3" mode="linear" pads_begin="0" pads_end="0"/>
			<input>
				<port id="0">
					<dim>1</dim>
					<dim>1024</dim>
					<dim>23</dim>
					<dim>30</dim>
				</port>
				<port id="1">
					<dim>2</dim>
				</port>
			</input>
			<output>
				<port id="2" precision="FP16">
					<dim>1</dim>
					<dim>1024</dim>
					<dim>23</dim>
					<dim>30</dim>
				</port>
			</output>
		</layer>
		<layer id="237" name="icnet_features/conv4_5_1x1_reduce_bn_2/FusedBatchNorm/mean/Fused_Mul_1636516367_const" type="Const" version="opset1">
			<data element_type="f16" offset="12840652" shape="256,1024,1,1" size="524288"/>
			<output>
				<port id="1" precision="FP16">
					<dim>256</dim>
					<dim>1024</dim>
					<dim>1</dim>
					<dim>1</dim>
				</port>
			</output>
		</layer>
		<layer id="238" name="icnet_features/conv4_5_1x1_reduce_1/Conv2D" type="Convolution" version="opset1">
			<data auto_pad="valid" dilations="1,1" output_padding="0,0" pads_begin="0,0" pads_end="0,0" strides="1,1"/>
			<input>
				<port id="0">
					<dim>1</dim>
					<dim>1024</dim>
					<dim>23</dim>
					<dim>30</dim>
				</port>
				<port id="1">
					<dim>256</dim>
					<dim>1024</dim>
					<dim>1</dim>
					<dim>1</dim>
				</port>
			</input>
			<output>
				<port id="2" precision="FP16">
					<dim>1</dim>
					<dim>256</dim>
					<dim>23</dim>
					<dim>30</dim>
				</port>
			</output>
		</layer>
		<layer id="239" name="data_add_1546015465/copy_const" type="Const" version="opset1">
			<data element_type="f16" offset="13364940" shape="1,256,1,1" size="512"/>
			<output>
				<port id="1" precision="FP16">
					<dim>1</dim>
					<dim>256</dim>
					<dim>1</dim>
					<dim>1</dim>
				</port>
			</output>
		</layer>
		<layer id="240" name="icnet_features/conv4_5_1x1_reduce_bn_2/FusedBatchNorm/variance/Fused_Add_" type="Add" version="opset1">
			<input>
				<port id="0">
					<dim>1</dim>
					<dim>256</dim>
					<dim>23</dim>
					<dim>30</dim>
				</port>
				<port id="1">
					<dim>1</dim>
					<dim>256</dim>
					<dim>1</dim>
					<dim>1</dim>
				</port>
			</input>
			<output>
				<port id="2" precision="FP16">
					<dim>1</dim>
					<dim>256</dim>
					<dim>23</dim>
					<dim>30</dim>
				</port>
			</output>
		</layer>
		<layer id="241" name="icnet_features/conv4_5_1x1_reduce_bn_3/conv4_5_1x1_reduce_bn" type="ReLU" version="opset1">
			<input>
				<port id="0">
					<dim>1</dim>
					<dim>256</dim>
					<dim>23</dim>
					<dim>30</dim>
				</port>
			</input>
			<output>
				<port id="1" precision="FP16">
					<dim>1</dim>
					<dim>256</dim>
					<dim>23</dim>
					<dim>30</dim>
				</port>
			</output>
		</layer>
		<layer id="242" name="icnet_features/conv4_5_3x3_bn_2/FusedBatchNorm/mean/Fused_Mul_1636916371_const" type="Const" version="opset1">
			<data element_type="f16" offset="13365452" shape="256,256,3,3" size="1179648"/>
			<output>
				<port id="1" precision="FP16">
					<dim>256</dim>
					<dim>256</dim>
					<dim>3</dim>
					<dim>3</dim>
				</port>
			</output>
		</layer>
		<layer id="243" name="icnet_features/conv4_5_3x3_1/Conv2D" type="Convolution" version="opset1">
			<data dilations="2,2" output_padding="0,0" pads_begin="2,2" pads_end="2,2" strides="1,1"/>
			<input>
				<port id="0">
					<dim>1</dim>
					<dim>256</dim>
					<dim>23</dim>
					<dim>30</dim>
				</port>
				<port id="1">
					<dim>256</dim>
					<dim>256</dim>
					<dim>3</dim>
					<dim>3</dim>
				</port>
			</input>
			<output>
				<port id="2" precision="FP16">
					<dim>1</dim>
					<dim>256</dim>
					<dim>23</dim>
					<dim>30</dim>
				</port>
			</output>
		</layer>
		<layer id="244" name="data_add_1546815473/copy_const" type="Const" version="opset1">
			<data element_type="f16" offset="14545100" shape="1,256,1,1" size="512"/>
			<output>
				<port id="1" precision="FP16">
					<dim>1</dim>
					<dim>256</dim>
					<dim>1</dim>
					<dim>1</dim>
				</port>
			</output>
		</layer>
		<layer id="245" name="icnet_features/conv4_5_3x3_bn_2/FusedBatchNorm/variance/Fused_Add_" type="Add" version="opset1">
			<input>
				<port id="0">
					<dim>1</dim>
					<dim>256</dim>
					<dim>23</dim>
					<dim>30</dim>
				</port>
				<port id="1">
					<dim>1</dim>
					<dim>256</dim>
					<dim>1</dim>
					<dim>1</dim>
				</port>
			</input>
			<output>
				<port id="2" precision="FP16">
					<dim>1</dim>
					<dim>256</dim>
					<dim>23</dim>
					<dim>30</dim>
				</port>
			</output>
		</layer>
		<layer id="246" name="icnet_features/conv4_5_3x3_bn_3/conv4_5_3x3_bn" type="ReLU" version="opset1">
			<input>
				<port id="0">
					<dim>1</dim>
					<dim>256</dim>
					<dim>23</dim>
					<dim>30</dim>
				</port>
			</input>
			<output>
				<port id="1" precision="FP16">
					<dim>1</dim>
					<dim>256</dim>
					<dim>23</dim>
					<dim>30</dim>
				</port>
			</output>
		</layer>
		<layer id="247" name="icnet_features/conv4_5_1x1_increase_bn_1/FusedBatchNorm/mean/Fused_Mul_1637316375_const" type="Const" version="opset1">
			<data element_type="f16" offset="14545612" shape="1024,256,1,1" size="524288"/>
			<output>
				<port id="1" precision="FP16">
					<dim>1024</dim>
					<dim>256</dim>
					<dim>1</dim>
					<dim>1</dim>
				</port>
			</output>
		</layer>
		<layer id="248" name="icnet_features/conv4_5_1x1_increase_1/Conv2D" type="Convolution" version="opset1">
			<data auto_pad="valid" dilations="1,1" output_padding="0,0" pads_begin="0,0" pads_end="0,0" strides="1,1"/>
			<input>
				<port id="0">
					<dim>1</dim>
					<dim>256</dim>
					<dim>23</dim>
					<dim>30</dim>
				</port>
				<port id="1">
					<dim>1024</dim>
					<dim>256</dim>
					<dim>1</dim>
					<dim>1</dim>
				</port>
			</input>
			<output>
				<port id="2" precision="FP16">
					<dim>1</dim>
					<dim>1024</dim>
					<dim>23</dim>
					<dim>30</dim>
				</port>
			</output>
		</layer>
		<layer id="249" name="data_add_1547615481/copy_const" type="Const" version="opset1">
			<data element_type="f16" offset="15069900" shape="1,1024,1,1" size="2048"/>
			<output>
				<port id="1" precision="FP16">
					<dim>1</dim>
					<dim>1024</dim>
					<dim>1</dim>
					<dim>1</dim>
				</port>
			</output>
		</layer>
		<layer id="250" name="icnet_features/conv4_5_1x1_increase_bn_1/FusedBatchNorm/variance/Fused_Add_" type="Add" version="opset1">
			<input>
				<port id="0">
					<dim>1</dim>
					<dim>1024</dim>
					<dim>23</dim>
					<dim>30</dim>
				</port>
				<port id="1">
					<dim>1</dim>
					<dim>1024</dim>
					<dim>1</dim>
					<dim>1</dim>
				</port>
			</input>
			<output>
				<port id="2" precision="FP16">
					<dim>1</dim>
					<dim>1024</dim>
					<dim>23</dim>
					<dim>30</dim>
				</port>
			</output>
		</layer>
		<layer id="251" name="icnet_features/conv4_5_1/sum_1" type="Add" version="opset1">
			<input>
				<port id="0">
					<dim>1</dim>
					<dim>1024</dim>
					<dim>23</dim>
					<dim>30</dim>
				</port>
				<port id="1">
					<dim>1</dim>
					<dim>1024</dim>
					<dim>23</dim>
					<dim>30</dim>
				</port>
			</input>
			<output>
				<port id="2" precision="FP16">
					<dim>1</dim>
					<dim>1024</dim>
					<dim>23</dim>
					<dim>30</dim>
				</port>
			</output>
		</layer>
		<layer id="252" name="icnet_features/conv4_5/relu_1" type="ReLU" version="opset1">
			<input>
				<port id="0">
					<dim>1</dim>
					<dim>1024</dim>
					<dim>23</dim>
					<dim>30</dim>
				</port>
			</input>
			<output>
				<port id="1" precision="FP16">
					<dim>1</dim>
					<dim>1024</dim>
					<dim>23</dim>
					<dim>30</dim>
				</port>
			</output>
		</layer>
		<layer id="253" name="icnet_features/ResizeBilinear_31/Cast_122638_const" type="Const" version="opset1">
			<data element_type="i64" offset="1451196" shape="2" size="16"/>
			<output>
				<port id="1" precision="I64">
					<dim>2</dim>
				</port>
			</output>
		</layer>
		<layer id="254" name="icnet_features/ResizeBilinear_31" type="Interpolate" version="opset1">
			<data align_corners="0" antialias="0" axes="2,3" mode="linear" pads_begin="0" pads_end="0"/>
			<input>
				<port id="0">
					<dim>1</dim>
					<dim>1024</dim>
					<dim>23</dim>
					<dim>30</dim>
				</port>
				<port id="1">
					<dim>2</dim>
				</port>
			</input>
			<output>
				<port id="2" precision="FP16">
					<dim>1</dim>
					<dim>1024</dim>
					<dim>23</dim>
					<dim>30</dim>
				</port>
			</output>
		</layer>
		<layer id="255" name="icnet_features/conv4_6_1x1_reduce_bn_2/FusedBatchNorm/mean/Fused_Mul_1637716379_const" type="Const" version="opset1">
			<data element_type="f16" offset="15071948" shape="256,1024,1,1" size="524288"/>
			<output>
				<port id="1" precision="FP16">
					<dim>256</dim>
					<dim>1024</dim>
					<dim>1</dim>
					<dim>1</dim>
				</port>
			</output>
		</layer>
		<layer id="256" name="icnet_features/conv4_6_1x1_reduce_1/Conv2D" type="Convolution" version="opset1">
			<data auto_pad="valid" dilations="1,1" output_padding="0,0" pads_begin="0,0" pads_end="0,0" strides="1,1"/>
			<input>
				<port id="0">
					<dim>1</dim>
					<dim>1024</dim>
					<dim>23</dim>
					<dim>30</dim>
				</port>
				<port id="1">
					<dim>256</dim>
					<dim>1024</dim>
					<dim>1</dim>
					<dim>1</dim>
				</port>
			</input>
			<output>
				<port id="2" precision="FP16">
					<dim>1</dim>
					<dim>256</dim>
					<dim>23</dim>
					<dim>30</dim>
				</port>
			</output>
		</layer>
		<layer id="257" name="data_add_1548415489/copy_const" type="Const" version="opset1">
			<data element_type="f16" offset="15596236" shape="1,256,1,1" size="512"/>
			<output>
				<port id="1" precision="FP16">
					<dim>1</dim>
					<dim>256</dim>
					<dim>1</dim>
					<dim>1</dim>
				</port>
			</output>
		</layer>
		<layer id="258" name="icnet_features/conv4_6_1x1_reduce_bn_2/FusedBatchNorm/variance/Fused_Add_" type="Add" version="opset1">
			<input>
				<port id="0">
					<dim>1</dim>
					<dim>256</dim>
					<dim>23</dim>
					<dim>30</dim>
				</port>
				<port id="1">
					<dim>1</dim>
					<dim>256</dim>
					<dim>1</dim>
					<dim>1</dim>
				</port>
			</input>
			<output>
				<port id="2" precision="FP16">
					<dim>1</dim>
					<dim>256</dim>
					<dim>23</dim>
					<dim>30</dim>
				</port>
			</output>
		</layer>
		<layer id="259" name="icnet_features/conv4_6_1x1_reduce_bn_3/conv4_6_1x1_reduce_bn" type="ReLU" version="opset1">
			<input>
				<port id="0">
					<dim>1</dim>
					<dim>256</dim>
					<dim>23</dim>
					<dim>30</dim>
				</port>
			</input>
			<output>
				<port id="1" precision="FP16">
					<dim>1</dim>
					<dim>256</dim>
					<dim>23</dim>
					<dim>30</dim>
				</port>
			</output>
		</layer>
		<layer id="260" name="icnet_features/conv4_6_3x3_bn_2/FusedBatchNorm/mean/Fused_Mul_1638116383_const" type="Const" version="opset1">
			<data element_type="f16" offset="15596748" shape="256,256,3,3" size="1179648"/>
			<output>
				<port id="1" precision="FP16">
					<dim>256</dim>
					<dim>256</dim>
					<dim>3</dim>
					<dim>3</dim>
				</port>
			</output>
		</layer>
		<layer id="261" name="icnet_features/conv4_6_3x3_1/Conv2D" type="Convolution" version="opset1">
			<data dilations="2,2" output_padding="0,0" pads_begin="2,2" pads_end="2,2" strides="1,1"/>
			<input>
				<port id="0">
					<dim>1</dim>
					<dim>256</dim>
					<dim>23</dim>
					<dim>30</dim>
				</port>
				<port id="1">
					<dim>256</dim>
					<dim>256</dim>
					<dim>3</dim>
					<dim>3</dim>
				</port>
			</input>
			<output>
				<port id="2" precision="FP16">
					<dim>1</dim>
					<dim>256</dim>
					<dim>23</dim>
					<dim>30</dim>
				</port>
			</output>
		</layer>
		<layer id="262" name="data_add_1549215497/copy_const" type="Const" version="opset1">
			<data element_type="f16" offset="16776396" shape="1,256,1,1" size="512"/>
			<output>
				<port id="1" precision="FP16">
					<dim>1</dim>
					<dim>256</dim>
					<dim>1</dim>
					<dim>1</dim>
				</port>
			</output>
		</layer>
		<layer id="263" name="icnet_features/conv4_6_3x3_bn_2/FusedBatchNorm/variance/Fused_Add_" type="Add" version="opset1">
			<input>
				<port id="0">
					<dim>1</dim>
					<dim>256</dim>
					<dim>23</dim>
					<dim>30</dim>
				</port>
				<port id="1">
					<dim>1</dim>
					<dim>256</dim>
					<dim>1</dim>
					<dim>1</dim>
				</port>
			</input>
			<output>
				<port id="2" precision="FP16">
					<dim>1</dim>
					<dim>256</dim>
					<dim>23</dim>
					<dim>30</dim>
				</port>
			</output>
		</layer>
		<layer id="264" name="icnet_features/conv4_6_3x3_bn_3/conv4_6_3x3_bn" type="ReLU" version="opset1">
			<input>
				<port id="0">
					<dim>1</dim>
					<dim>256</dim>
					<dim>23</dim>
					<dim>30</dim>
				</port>
			</input>
			<output>
				<port id="1" precision="FP16">
					<dim>1</dim>
					<dim>256</dim>
					<dim>23</dim>
					<dim>30</dim>
				</port>
			</output>
		</layer>
		<layer id="265" name="icnet_features/conv4_6_1x1_increase_bn_1/FusedBatchNorm/mean/Fused_Mul_1638516387_const" type="Const" version="opset1">
			<data element_type="f16" offset="16776908" shape="1024,256,1,1" size="524288"/>
			<output>
				<port id="1" precision="FP16">
					<dim>1024</dim>
					<dim>256</dim>
					<dim>1</dim>
					<dim>1</dim>
				</port>
			</output>
		</layer>
		<layer id="266" name="icnet_features/conv4_6_1x1_increase_1/Conv2D" type="Convolution" version="opset1">
			<data auto_pad="valid" dilations="1,1" output_padding="0,0" pads_begin="0,0" pads_end="0,0" strides="1,1"/>
			<input>
				<port id="0">
					<dim>1</dim>
					<dim>256</dim>
					<dim>23</dim>
					<dim>30</dim>
				</port>
				<port id="1">
					<dim>1024</dim>
					<dim>256</dim>
					<dim>1</dim>
					<dim>1</dim>
				</port>
			</input>
			<output>
				<port id="2" precision="FP16">
					<dim>1</dim>
					<dim>1024</dim>
					<dim>23</dim>
					<dim>30</dim>
				</port>
			</output>
		</layer>
		<layer id="267" name="data_add_1550015505/copy_const" type="Const" version="opset1">
			<data element_type="f16" offset="17301196" shape="1,1024,1,1" size="2048"/>
			<output>
				<port id="1" precision="FP16">
					<dim>1</dim>
					<dim>1024</dim>
					<dim>1</dim>
					<dim>1</dim>
				</port>
			</output>
		</layer>
		<layer id="268" name="icnet_features/conv4_6_1x1_increase_bn_1/FusedBatchNorm/variance/Fused_Add_" type="Add" version="opset1">
			<input>
				<port id="0">
					<dim>1</dim>
					<dim>1024</dim>
					<dim>23</dim>
					<dim>30</dim>
				</port>
				<port id="1">
					<dim>1</dim>
					<dim>1024</dim>
					<dim>1</dim>
					<dim>1</dim>
				</port>
			</input>
			<output>
				<port id="2" precision="FP16">
					<dim>1</dim>
					<dim>1024</dim>
					<dim>23</dim>
					<dim>30</dim>
				</port>
			</output>
		</layer>
		<layer id="269" name="icnet_features/conv4_6_1/sum_1" type="Add" version="opset1">
			<input>
				<port id="0">
					<dim>1</dim>
					<dim>1024</dim>
					<dim>23</dim>
					<dim>30</dim>
				</port>
				<port id="1">
					<dim>1</dim>
					<dim>1024</dim>
					<dim>23</dim>
					<dim>30</dim>
				</port>
			</input>
			<output>
				<port id="2" precision="FP16">
					<dim>1</dim>
					<dim>1024</dim>
					<dim>23</dim>
					<dim>30</dim>
				</port>
			</output>
		</layer>
		<layer id="270" name="icnet_features/conv4_6/relu_1" type="ReLU" version="opset1">
			<input>
				<port id="0">
					<dim>1</dim>
					<dim>1024</dim>
					<dim>23</dim>
					<dim>30</dim>
				</port>
			</input>
			<output>
				<port id="1" precision="FP16">
					<dim>1</dim>
					<dim>1024</dim>
					<dim>23</dim>
					<dim>30</dim>
				</port>
			</output>
		</layer>
		<layer id="271" name="icnet_features/conv5_1_1x1_proj_bn_1/FusedBatchNorm/mean/Fused_Mul_1640116403_const" type="Const" version="opset1">
			<data element_type="f16" offset="17303244" shape="2048,1024,1,1" size="4194304"/>
			<output>
				<port id="1" precision="FP16">
					<dim>2048</dim>
					<dim>1024</dim>
					<dim>1</dim>
					<dim>1</dim>
				</port>
			</output>
		</layer>
		<layer id="272" name="icnet_features/conv5_1_1x1_proj_1/Conv2D" type="Convolution" version="opset1">
			<data auto_pad="valid" dilations="1,1" output_padding="0,0" pads_begin="0,0" pads_end="0,0" strides="1,1"/>
			<input>
				<port id="0">
					<dim>1</dim>
					<dim>1024</dim>
					<dim>23</dim>
					<dim>30</dim>
				</port>
				<port id="1">
					<dim>2048</dim>
					<dim>1024</dim>
					<dim>1</dim>
					<dim>1</dim>
				</port>
			</input>
			<output>
				<port id="2" precision="FP16">
					<dim>1</dim>
					<dim>2048</dim>
					<dim>23</dim>
					<dim>30</dim>
				</port>
			</output>
		</layer>
		<layer id="273" name="data_add_1553215537/copy_const" type="Const" version="opset1">
			<data element_type="f16" offset="21497548" shape="1,2048,1,1" size="4096"/>
			<output>
				<port id="1" precision="FP16">
					<dim>1</dim>
					<dim>2048</dim>
					<dim>1</dim>
					<dim>1</dim>
				</port>
			</output>
		</layer>
		<layer id="274" name="icnet_features/conv5_1_1x1_proj_bn_1/FusedBatchNorm/variance/Fused_Add_" type="Add" version="opset1">
			<input>
				<port id="0">
					<dim>1</dim>
					<dim>2048</dim>
					<dim>23</dim>
					<dim>30</dim>
				</port>
				<port id="1">
					<dim>1</dim>
					<dim>2048</dim>
					<dim>1</dim>
					<dim>1</dim>
				</port>
			</input>
			<output>
				<port id="2" precision="FP16">
					<dim>1</dim>
					<dim>2048</dim>
					<dim>23</dim>
					<dim>30</dim>
				</port>
			</output>
		</layer>
		<layer id="275" name="icnet_features/ResizeBilinear_32/Cast_122636_const" type="Const" version="opset1">
			<data element_type="i64" offset="1451196" shape="2" size="16"/>
			<output>
				<port id="1" precision="I64">
					<dim>2</dim>
				</port>
			</output>
		</layer>
		<layer id="276" name="icnet_features/ResizeBilinear_32" type="Interpolate" version="opset1">
			<data align_corners="0" antialias="0" axes="2,3" mode="linear" pads_begin="0" pads_end="0"/>
			<input>
				<port id="0">
					<dim>1</dim>
					<dim>2048</dim>
					<dim>23</dim>
					<dim>30</dim>
				</port>
				<port id="1">
					<dim>2</dim>
				</port>
			</input>
			<output>
				<port id="2" precision="FP16">
					<dim>1</dim>
					<dim>2048</dim>
					<dim>23</dim>
					<dim>30</dim>
				</port>
			</output>
		</layer>
		<layer id="277" name="icnet_features/conv5_1_1x1_reduce_bn_2/FusedBatchNorm/mean/Fused_Mul_1638916391_const" type="Const" version="opset1">
			<data element_type="f16" offset="21501644" shape="512,1024,1,1" size="1048576"/>
			<output>
				<port id="1" precision="FP16">
					<dim>512</dim>
					<dim>1024</dim>
					<dim>1</dim>
					<dim>1</dim>
				</port>
			</output>
		</layer>
		<layer id="278" name="icnet_features/conv5_1_1x1_reduce_1/Conv2D" type="Convolution" version="opset1">
			<data auto_pad="valid" dilations="1,1" output_padding="0,0" pads_begin="0,0" pads_end="0,0" strides="1,1"/>
			<input>
				<port id="0">
					<dim>1</dim>
					<dim>1024</dim>
					<dim>23</dim>
					<dim>30</dim>
				</port>
				<port id="1">
					<dim>512</dim>
					<dim>1024</dim>
					<dim>1</dim>
					<dim>1</dim>
				</port>
			</input>
			<output>
				<port id="2" precision="FP16">
					<dim>1</dim>
					<dim>512</dim>
					<dim>23</dim>
					<dim>30</dim>
				</port>
			</output>
		</layer>
		<layer id="279" name="data_add_1550815513/copy_const" type="Const" version="opset1">
			<data element_type="f16" offset="22550220" shape="1,512,1,1" size="1024"/>
			<output>
				<port id="1" precision="FP16">
					<dim>1</dim>
					<dim>512</dim>
					<dim>1</dim>
					<dim>1</dim>
				</port>
			</output>
		</layer>
		<layer id="280" name="icnet_features/conv5_1_1x1_reduce_bn_2/FusedBatchNorm/variance/Fused_Add_" type="Add" version="opset1">
			<input>
				<port id="0">
					<dim>1</dim>
					<dim>512</dim>
					<dim>23</dim>
					<dim>30</dim>
				</port>
				<port id="1">
					<dim>1</dim>
					<dim>512</dim>
					<dim>1</dim>
					<dim>1</dim>
				</port>
			</input>
			<output>
				<port id="2" precision="FP16">
					<dim>1</dim>
					<dim>512</dim>
					<dim>23</dim>
					<dim>30</dim>
				</port>
			</output>
		</layer>
		<layer id="281" name="icnet_features/conv5_1_1x1_reduce_bn_3/conv5_1_1x1_reduce_bn" type="ReLU" version="opset1">
			<input>
				<port id="0">
					<dim>1</dim>
					<dim>512</dim>
					<dim>23</dim>
					<dim>30</dim>
				</port>
			</input>
			<output>
				<port id="1" precision="FP16">
					<dim>1</dim>
					<dim>512</dim>
					<dim>23</dim>
					<dim>30</dim>
				</port>
			</output>
		</layer>
		<layer id="282" name="icnet_features/conv5_1_3x3_bn_2/FusedBatchNorm/mean/Fused_Mul_1639316395_const" type="Const" version="opset1">
			<data element_type="f16" offset="22551244" shape="512,512,3,3" size="4718592"/>
			<output>
				<port id="1" precision="FP16">
					<dim>512</dim>
					<dim>512</dim>
					<dim>3</dim>
					<dim>3</dim>
				</port>
			</output>
		</layer>
		<layer id="283" name="icnet_features/conv5_1_3x3_1/Conv2D" type="Convolution" version="opset1">
			<data dilations="4,4" output_padding="0,0" pads_begin="4,4" pads_end="4,4" strides="1,1"/>
			<input>
				<port id="0">
					<dim>1</dim>
					<dim>512</dim>
					<dim>23</dim>
					<dim>30</dim>
				</port>
				<port id="1">
					<dim>512</dim>
					<dim>512</dim>
					<dim>3</dim>
					<dim>3</dim>
				</port>
			</input>
			<output>
				<port id="2" precision="FP16">
					<dim>1</dim>
					<dim>512</dim>
					<dim>23</dim>
					<dim>30</dim>
				</port>
			</output>
		</layer>
		<layer id="284" name="data_add_1551615521/copy_const" type="Const" version="opset1">
			<data element_type="f16" offset="27269836" shape="1,512,1,1" size="1024"/>
			<output>
				<port id="1" precision="FP16">
					<dim>1</dim>
					<dim>512</dim>
					<dim>1</dim>
					<dim>1</dim>
				</port>
			</output>
		</layer>
		<layer id="285" name="icnet_features/conv5_1_3x3_bn_2/FusedBatchNorm/variance/Fused_Add_" type="Add" version="opset1">
			<input>
				<port id="0">
					<dim>1</dim>
					<dim>512</dim>
					<dim>23</dim>
					<dim>30</dim>
				</port>
				<port id="1">
					<dim>1</dim>
					<dim>512</dim>
					<dim>1</dim>
					<dim>1</dim>
				</port>
			</input>
			<output>
				<port id="2" precision="FP16">
					<dim>1</dim>
					<dim>512</dim>
					<dim>23</dim>
					<dim>30</dim>
				</port>
			</output>
		</layer>
		<layer id="286" name="icnet_features/conv5_1_3x3_bn_3/conv5_1_3x3_bn" type="ReLU" version="opset1">
			<input>
				<port id="0">
					<dim>1</dim>
					<dim>512</dim>
					<dim>23</dim>
					<dim>30</dim>
				</port>
			</input>
			<output>
				<port id="1" precision="FP16">
					<dim>1</dim>
					<dim>512</dim>
					<dim>23</dim>
					<dim>30</dim>
				</port>
			</output>
		</layer>
		<layer id="287" name="icnet_features/conv5_1_1x1_increase_bn_1/FusedBatchNorm/mean/Fused_Mul_1639716399_const" type="Const" version="opset1">
			<data element_type="f16" offset="27270860" shape="2048,512,1,1" size="2097152"/>
			<output>
				<port id="1" precision="FP16">
					<dim>2048</dim>
					<dim>512</dim>
					<dim>1</dim>
					<dim>1</dim>
				</port>
			</output>
		</layer>
		<layer id="288" name="icnet_features/conv5_1_1x1_increase_1/Conv2D" type="Convolution" version="opset1">
			<data auto_pad="valid" dilations="1,1" output_padding="0,0" pads_begin="0,0" pads_end="0,0" strides="1,1"/>
			<input>
				<port id="0">
					<dim>1</dim>
					<dim>512</dim>
					<dim>23</dim>
					<dim>30</dim>
				</port>
				<port id="1">
					<dim>2048</dim>
					<dim>512</dim>
					<dim>1</dim>
					<dim>1</dim>
				</port>
			</input>
			<output>
				<port id="2" precision="FP16">
					<dim>1</dim>
					<dim>2048</dim>
					<dim>23</dim>
					<dim>30</dim>
				</port>
			</output>
		</layer>
		<layer id="289" name="data_add_1552415529/copy_const" type="Const" version="opset1">
			<data element_type="f16" offset="29368012" shape="1,2048,1,1" size="4096"/>
			<output>
				<port id="1" precision="FP16">
					<dim>1</dim>
					<dim>2048</dim>
					<dim>1</dim>
					<dim>1</dim>
				</port>
			</output>
		</layer>
		<layer id="290" name="icnet_features/conv5_1_1x1_increase_bn_1/FusedBatchNorm/variance/Fused_Add_" type="Add" version="opset1">
			<input>
				<port id="0">
					<dim>1</dim>
					<dim>2048</dim>
					<dim>23</dim>
					<dim>30</dim>
				</port>
				<port id="1">
					<dim>1</dim>
					<dim>2048</dim>
					<dim>1</dim>
					<dim>1</dim>
				</port>
			</input>
			<output>
				<port id="2" precision="FP16">
					<dim>1</dim>
					<dim>2048</dim>
					<dim>23</dim>
					<dim>30</dim>
				</port>
			</output>
		</layer>
		<layer id="291" name="icnet_features/conv5_1_1/sum_1" type="Add" version="opset1">
			<input>
				<port id="0">
					<dim>1</dim>
					<dim>2048</dim>
					<dim>23</dim>
					<dim>30</dim>
				</port>
				<port id="1">
					<dim>1</dim>
					<dim>2048</dim>
					<dim>23</dim>
					<dim>30</dim>
				</port>
			</input>
			<output>
				<port id="2" precision="FP16">
					<dim>1</dim>
					<dim>2048</dim>
					<dim>23</dim>
					<dim>30</dim>
				</port>
			</output>
		</layer>
		<layer id="292" name="icnet_features/conv5_1/relu_1" type="ReLU" version="opset1">
			<input>
				<port id="0">
					<dim>1</dim>
					<dim>2048</dim>
					<dim>23</dim>
					<dim>30</dim>
				</port>
			</input>
			<output>
				<port id="1" precision="FP16">
					<dim>1</dim>
					<dim>2048</dim>
					<dim>23</dim>
					<dim>30</dim>
				</port>
			</output>
		</layer>
		<layer id="293" name="icnet_features/ResizeBilinear_33/Cast_122614_const" type="Const" version="opset1">
			<data element_type="i64" offset="1451196" shape="2" size="16"/>
			<output>
				<port id="1" precision="I64">
					<dim>2</dim>
				</port>
			</output>
		</layer>
		<layer id="294" name="icnet_features/ResizeBilinear_33" type="Interpolate" version="opset1">
			<data align_corners="0" antialias="0" axes="2,3" mode="linear" pads_begin="0" pads_end="0"/>
			<input>
				<port id="0">
					<dim>1</dim>
					<dim>2048</dim>
					<dim>23</dim>
					<dim>30</dim>
				</port>
				<port id="1">
					<dim>2</dim>
				</port>
			</input>
			<output>
				<port id="2" precision="FP16">
					<dim>1</dim>
					<dim>2048</dim>
					<dim>23</dim>
					<dim>30</dim>
				</port>
			</output>
		</layer>
		<layer id="295" name="icnet_features/conv5_2_1x1_reduce_bn_2/FusedBatchNorm/mean/Fused_Mul_1640516407_const" type="Const" version="opset1">
			<data element_type="f16" offset="29372108" shape="512,2048,1,1" size="2097152"/>
			<output>
				<port id="1" precision="FP16">
					<dim>512</dim>
					<dim>2048</dim>
					<dim>1</dim>
					<dim>1</dim>
				</port>
			</output>
		</layer>
		<layer id="296" name="icnet_features/conv5_2_1x1_reduce_1/Conv2D" type="Convolution" version="opset1">
			<data auto_pad="valid" dilations="1,1" output_padding="0,0" pads_begin="0,0" pads_end="0,0" strides="1,1"/>
			<input>
				<port id="0">
					<dim>1</dim>
					<dim>2048</dim>
					<dim>23</dim>
					<dim>30</dim>
				</port>
				<port id="1">
					<dim>512</dim>
					<dim>2048</dim>
					<dim>1</dim>
					<dim>1</dim>
				</port>
			</input>
			<output>
				<port id="2" precision="FP16">
					<dim>1</dim>
					<dim>512</dim>
					<dim>23</dim>
					<dim>30</dim>
				</port>
			</output>
		</layer>
		<layer id="297" name="data_add_1554015545/copy_const" type="Const" version="opset1">
			<data element_type="f16" offset="31469260" shape="1,512,1,1" size="1024"/>
			<output>
				<port id="1" precision="FP16">
					<dim>1</dim>
					<dim>512</dim>
					<dim>1</dim>
					<dim>1</dim>
				</port>
			</output>
		</layer>
		<layer id="298" name="icnet_features/conv5_2_1x1_reduce_bn_2/FusedBatchNorm/variance/Fused_Add_" type="Add" version="opset1">
			<input>
				<port id="0">
					<dim>1</dim>
					<dim>512</dim>
					<dim>23</dim>
					<dim>30</dim>
				</port>
				<port id="1">
					<dim>1</dim>
					<dim>512</dim>
					<dim>1</dim>
					<dim>1</dim>
				</port>
			</input>
			<output>
				<port id="2" precision="FP16">
					<dim>1</dim>
					<dim>512</dim>
					<dim>23</dim>
					<dim>30</dim>
				</port>
			</output>
		</layer>
		<layer id="299" name="icnet_features/conv5_2_1x1_reduce_bn_3/conv5_2_1x1_reduce_bn" type="ReLU" version="opset1">
			<input>
				<port id="0">
					<dim>1</dim>
					<dim>512</dim>
					<dim>23</dim>
					<dim>30</dim>
				</port>
			</input>
			<output>
				<port id="1" precision="FP16">
					<dim>1</dim>
					<dim>512</dim>
					<dim>23</dim>
					<dim>30</dim>
				</port>
			</output>
		</layer>
		<layer id="300" name="icnet_features/conv5_2_3x3_bn_2/FusedBatchNorm/mean/Fused_Mul_1640916411_const" type="Const" version="opset1">
			<data element_type="f16" offset="31470284" shape="512,512,3,3" size="4718592"/>
			<output>
				<port id="1" precision="FP16">
					<dim>512</dim>
					<dim>512</dim>
					<dim>3</dim>
					<dim>3</dim>
				</port>
			</output>
		</layer>
		<layer id="301" name="icnet_features/conv5_2_3x3_1/Conv2D" type="Convolution" version="opset1">
			<data dilations="4,4" output_padding="0,0" pads_begin="4,4" pads_end="4,4" strides="1,1"/>
			<input>
				<port id="0">
					<dim>1</dim>
					<dim>512</dim>
					<dim>23</dim>
					<dim>30</dim>
				</port>
				<port id="1">
					<dim>512</dim>
					<dim>512</dim>
					<dim>3</dim>
					<dim>3</dim>
				</port>
			</input>
			<output>
				<port id="2" precision="FP16">
					<dim>1</dim>
					<dim>512</dim>
					<dim>23</dim>
					<dim>30</dim>
				</port>
			</output>
		</layer>
		<layer id="302" name="data_add_1554815553/copy_const" type="Const" version="opset1">
			<data element_type="f16" offset="36188876" shape="1,512,1,1" size="1024"/>
			<output>
				<port id="1" precision="FP16">
					<dim>1</dim>
					<dim>512</dim>
					<dim>1</dim>
					<dim>1</dim>
				</port>
			</output>
		</layer>
		<layer id="303" name="icnet_features/conv5_2_3x3_bn_2/FusedBatchNorm/variance/Fused_Add_" type="Add" version="opset1">
			<input>
				<port id="0">
					<dim>1</dim>
					<dim>512</dim>
					<dim>23</dim>
					<dim>30</dim>
				</port>
				<port id="1">
					<dim>1</dim>
					<dim>512</dim>
					<dim>1</dim>
					<dim>1</dim>
				</port>
			</input>
			<output>
				<port id="2" precision="FP16">
					<dim>1</dim>
					<dim>512</dim>
					<dim>23</dim>
					<dim>30</dim>
				</port>
			</output>
		</layer>
		<layer id="304" name="icnet_features/conv5_2_3x3_bn_3/conv5_2_3x3_bn" type="ReLU" version="opset1">
			<input>
				<port id="0">
					<dim>1</dim>
					<dim>512</dim>
					<dim>23</dim>
					<dim>30</dim>
				</port>
			</input>
			<output>
				<port id="1" precision="FP16">
					<dim>1</dim>
					<dim>512</dim>
					<dim>23</dim>
					<dim>30</dim>
				</port>
			</output>
		</layer>
		<layer id="305" name="icnet_features/conv5_2_1x1_increase_bn_1/FusedBatchNorm/mean/Fused_Mul_1641316415_const" type="Const" version="opset1">
			<data element_type="f16" offset="36189900" shape="2048,512,1,1" size="2097152"/>
			<output>
				<port id="1" precision="FP16">
					<dim>2048</dim>
					<dim>512</dim>
					<dim>1</dim>
					<dim>1</dim>
				</port>
			</output>
		</layer>
		<layer id="306" name="icnet_features/conv5_2_1x1_increase_1/Conv2D" type="Convolution" version="opset1">
			<data auto_pad="valid" dilations="1,1" output_padding="0,0" pads_begin="0,0" pads_end="0,0" strides="1,1"/>
			<input>
				<port id="0">
					<dim>1</dim>
					<dim>512</dim>
					<dim>23</dim>
					<dim>30</dim>
				</port>
				<port id="1">
					<dim>2048</dim>
					<dim>512</dim>
					<dim>1</dim>
					<dim>1</dim>
				</port>
			</input>
			<output>
				<port id="2" precision="FP16">
					<dim>1</dim>
					<dim>2048</dim>
					<dim>23</dim>
					<dim>30</dim>
				</port>
			</output>
		</layer>
		<layer id="307" name="data_add_1555615561/copy_const" type="Const" version="opset1">
			<data element_type="f16" offset="38287052" shape="1,2048,1,1" size="4096"/>
			<output>
				<port id="1" precision="FP16">
					<dim>1</dim>
					<dim>2048</dim>
					<dim>1</dim>
					<dim>1</dim>
				</port>
			</output>
		</layer>
		<layer id="308" name="icnet_features/conv5_2_1x1_increase_bn_1/FusedBatchNorm/variance/Fused_Add_" type="Add" version="opset1">
			<input>
				<port id="0">
					<dim>1</dim>
					<dim>2048</dim>
					<dim>23</dim>
					<dim>30</dim>
				</port>
				<port id="1">
					<dim>1</dim>
					<dim>2048</dim>
					<dim>1</dim>
					<dim>1</dim>
				</port>
			</input>
			<output>
				<port id="2" precision="FP16">
					<dim>1</dim>
					<dim>2048</dim>
					<dim>23</dim>
					<dim>30</dim>
				</port>
			</output>
		</layer>
		<layer id="309" name="icnet_features/conv5_2_1/sum_1" type="Add" version="opset1">
			<input>
				<port id="0">
					<dim>1</dim>
					<dim>2048</dim>
					<dim>23</dim>
					<dim>30</dim>
				</port>
				<port id="1">
					<dim>1</dim>
					<dim>2048</dim>
					<dim>23</dim>
					<dim>30</dim>
				</port>
			</input>
			<output>
				<port id="2" precision="FP16">
					<dim>1</dim>
					<dim>2048</dim>
					<dim>23</dim>
					<dim>30</dim>
				</port>
			</output>
		</layer>
		<layer id="310" name="icnet_features/conv5_2/relu_1" type="ReLU" version="opset1">
			<input>
				<port id="0">
					<dim>1</dim>
					<dim>2048</dim>
					<dim>23</dim>
					<dim>30</dim>
				</port>
			</input>
			<output>
				<port id="1" precision="FP16">
					<dim>1</dim>
					<dim>2048</dim>
					<dim>23</dim>
					<dim>30</dim>
				</port>
			</output>
		</layer>
		<layer id="311" name="icnet_features/ResizeBilinear_34/Cast_122634_const" type="Const" version="opset1">
			<data element_type="i64" offset="1451196" shape="2" size="16"/>
			<output>
				<port id="1" precision="I64">
					<dim>2</dim>
				</port>
			</output>
		</layer>
		<layer id="312" name="icnet_features/ResizeBilinear_34" type="Interpolate" version="opset1">
			<data align_corners="0" antialias="0" axes="2,3" mode="linear" pads_begin="0" pads_end="0"/>
			<input>
				<port id="0">
					<dim>1</dim>
					<dim>2048</dim>
					<dim>23</dim>
					<dim>30</dim>
				</port>
				<port id="1">
					<dim>2</dim>
				</port>
			</input>
			<output>
				<port id="2" precision="FP16">
					<dim>1</dim>
					<dim>2048</dim>
					<dim>23</dim>
					<dim>30</dim>
				</port>
			</output>
		</layer>
		<layer id="313" name="icnet_features/conv5_3_1x1_reduce_bn_2/FusedBatchNorm/mean/Fused_Mul_1641716419_const" type="Const" version="opset1">
			<data element_type="f16" offset="38291148" shape="512,2048,1,1" size="2097152"/>
			<output>
				<port id="1" precision="FP16">
					<dim>512</dim>
					<dim>2048</dim>
					<dim>1</dim>
					<dim>1</dim>
				</port>
			</output>
		</layer>
		<layer id="314" name="icnet_features/conv5_3_1x1_reduce_1/Conv2D" type="Convolution" version="opset1">
			<data auto_pad="valid" dilations="1,1" output_padding="0,0" pads_begin="0,0" pads_end="0,0" strides="1,1"/>
			<input>
				<port id="0">
					<dim>1</dim>
					<dim>2048</dim>
					<dim>23</dim>
					<dim>30</dim>
				</port>
				<port id="1">
					<dim>512</dim>
					<dim>2048</dim>
					<dim>1</dim>
					<dim>1</dim>
				</port>
			</input>
			<output>
				<port id="2" precision="FP16">
					<dim>1</dim>
					<dim>512</dim>
					<dim>23</dim>
					<dim>30</dim>
				</port>
			</output>
		</layer>
		<layer id="315" name="data_add_1556415569/copy_const" type="Const" version="opset1">
			<data element_type="f16" offset="40388300" shape="1,512,1,1" size="1024"/>
			<output>
				<port id="1" precision="FP16">
					<dim>1</dim>
					<dim>512</dim>
					<dim>1</dim>
					<dim>1</dim>
				</port>
			</output>
		</layer>
		<layer id="316" name="icnet_features/conv5_3_1x1_reduce_bn_2/FusedBatchNorm/variance/Fused_Add_" type="Add" version="opset1">
			<input>
				<port id="0">
					<dim>1</dim>
					<dim>512</dim>
					<dim>23</dim>
					<dim>30</dim>
				</port>
				<port id="1">
					<dim>1</dim>
					<dim>512</dim>
					<dim>1</dim>
					<dim>1</dim>
				</port>
			</input>
			<output>
				<port id="2" precision="FP16">
					<dim>1</dim>
					<dim>512</dim>
					<dim>23</dim>
					<dim>30</dim>
				</port>
			</output>
		</layer>
		<layer id="317" name="icnet_features/conv5_3_1x1_reduce_bn_3/conv5_3_1x1_reduce_bn" type="ReLU" version="opset1">
			<input>
				<port id="0">
					<dim>1</dim>
					<dim>512</dim>
					<dim>23</dim>
					<dim>30</dim>
				</port>
			</input>
			<output>
				<port id="1" precision="FP16">
					<dim>1</dim>
					<dim>512</dim>
					<dim>23</dim>
					<dim>30</dim>
				</port>
			</output>
		</layer>
		<layer id="318" name="icnet_features/conv5_3_3x3_bn_2/FusedBatchNorm/mean/Fused_Mul_1642116423_const" type="Const" version="opset1">
			<data element_type="f16" offset="40389324" shape="512,512,3,3" size="4718592"/>
			<output>
				<port id="1" precision="FP16">
					<dim>512</dim>
					<dim>512</dim>
					<dim>3</dim>
					<dim>3</dim>
				</port>
			</output>
		</layer>
		<layer id="319" name="icnet_features/conv5_3_3x3_1/Conv2D" type="Convolution" version="opset1">
			<data dilations="4,4" output_padding="0,0" pads_begin="4,4" pads_end="4,4" strides="1,1"/>
			<input>
				<port id="0">
					<dim>1</dim>
					<dim>512</dim>
					<dim>23</dim>
					<dim>30</dim>
				</port>
				<port id="1">
					<dim>512</dim>
					<dim>512</dim>
					<dim>3</dim>
					<dim>3</dim>
				</port>
			</input>
			<output>
				<port id="2" precision="FP16">
					<dim>1</dim>
					<dim>512</dim>
					<dim>23</dim>
					<dim>30</dim>
				</port>
			</output>
		</layer>
		<layer id="320" name="data_add_1557215577/copy_const" type="Const" version="opset1">
			<data element_type="f16" offset="45107916" shape="1,512,1,1" size="1024"/>
			<output>
				<port id="1" precision="FP16">
					<dim>1</dim>
					<dim>512</dim>
					<dim>1</dim>
					<dim>1</dim>
				</port>
			</output>
		</layer>
		<layer id="321" name="icnet_features/conv5_3_3x3_bn_2/FusedBatchNorm/variance/Fused_Add_" type="Add" version="opset1">
			<input>
				<port id="0">
					<dim>1</dim>
					<dim>512</dim>
					<dim>23</dim>
					<dim>30</dim>
				</port>
				<port id="1">
					<dim>1</dim>
					<dim>512</dim>
					<dim>1</dim>
					<dim>1</dim>
				</port>
			</input>
			<output>
				<port id="2" precision="FP16">
					<dim>1</dim>
					<dim>512</dim>
					<dim>23</dim>
					<dim>30</dim>
				</port>
			</output>
		</layer>
		<layer id="322" name="icnet_features/conv5_3_3x3_bn_3/conv5_3_3x3_bn" type="ReLU" version="opset1">
			<input>
				<port id="0">
					<dim>1</dim>
					<dim>512</dim>
					<dim>23</dim>
					<dim>30</dim>
				</port>
			</input>
			<output>
				<port id="1" precision="FP16">
					<dim>1</dim>
					<dim>512</dim>
					<dim>23</dim>
					<dim>30</dim>
				</port>
			</output>
		</layer>
		<layer id="323" name="icnet_features/conv5_3_1x1_increase_bn_1/FusedBatchNorm/mean/Fused_Mul_1642516427_const" type="Const" version="opset1">
			<data element_type="f16" offset="45108940" shape="2048,512,1,1" size="2097152"/>
			<output>
				<port id="1" precision="FP16">
					<dim>2048</dim>
					<dim>512</dim>
					<dim>1</dim>
					<dim>1</dim>
				</port>
			</output>
		</layer>
		<layer id="324" name="icnet_features/conv5_3_1x1_increase_1/Conv2D" type="Convolution" version="opset1">
			<data auto_pad="valid" dilations="1,1" output_padding="0,0" pads_begin="0,0" pads_end="0,0" strides="1,1"/>
			<input>
				<port id="0">
					<dim>1</dim>
					<dim>512</dim>
					<dim>23</dim>
					<dim>30</dim>
				</port>
				<port id="1">
					<dim>2048</dim>
					<dim>512</dim>
					<dim>1</dim>
					<dim>1</dim>
				</port>
			</input>
			<output>
				<port id="2" precision="FP16">
					<dim>1</dim>
					<dim>2048</dim>
					<dim>23</dim>
					<dim>30</dim>
				</port>
			</output>
		</layer>
		<layer id="325" name="data_add_1558015585/copy_const" type="Const" version="opset1">
			<data element_type="f16" offset="47206092" shape="1,2048,1,1" size="4096"/>
			<output>
				<port id="1" precision="FP16">
					<dim>1</dim>
					<dim>2048</dim>
					<dim>1</dim>
					<dim>1</dim>
				</port>
			</output>
		</layer>
		<layer id="326" name="icnet_features/conv5_3_1x1_increase_bn_1/FusedBatchNorm/variance/Fused_Add_" type="Add" version="opset1">
			<input>
				<port id="0">
					<dim>1</dim>
					<dim>2048</dim>
					<dim>23</dim>
					<dim>30</dim>
				</port>
				<port id="1">
					<dim>1</dim>
					<dim>2048</dim>
					<dim>1</dim>
					<dim>1</dim>
				</port>
			</input>
			<output>
				<port id="2" precision="FP16">
					<dim>1</dim>
					<dim>2048</dim>
					<dim>23</dim>
					<dim>30</dim>
				</port>
			</output>
		</layer>
		<layer id="327" name="icnet_features/conv5_3_1/sum_1" type="Add" version="opset1">
			<input>
				<port id="0">
					<dim>1</dim>
					<dim>2048</dim>
					<dim>23</dim>
					<dim>30</dim>
				</port>
				<port id="1">
					<dim>1</dim>
					<dim>2048</dim>
					<dim>23</dim>
					<dim>30</dim>
				</port>
			</input>
			<output>
				<port id="2" precision="FP16">
					<dim>1</dim>
					<dim>2048</dim>
					<dim>23</dim>
					<dim>30</dim>
				</port>
			</output>
		</layer>
		<layer id="328" name="icnet_features/conv5_3/relu_1" type="ReLU" version="opset1">
			<input>
				<port id="0">
					<dim>1</dim>
					<dim>2048</dim>
					<dim>23</dim>
					<dim>30</dim>
				</port>
			</input>
			<output>
				<port id="1" precision="FP16">
					<dim>1</dim>
					<dim>2048</dim>
					<dim>23</dim>
					<dim>30</dim>
				</port>
			</output>
		</layer>
		<layer id="329" name="icnet_features/ResizeBilinear_35/Cast_122624_const" type="Const" version="opset1">
			<data element_type="i64" offset="1451196" shape="2" size="16"/>
			<output>
				<port id="1" precision="I64">
					<dim>2</dim>
				</port>
			</output>
		</layer>
		<layer id="330" name="icnet_features/ResizeBilinear_35" type="Interpolate" version="opset1">
			<data align_corners="0" antialias="0" axes="2,3" mode="linear" pads_begin="0" pads_end="0"/>
			<input>
				<port id="0">
					<dim>1</dim>
					<dim>2048</dim>
					<dim>23</dim>
					<dim>30</dim>
				</port>
				<port id="1">
					<dim>2</dim>
				</port>
			</input>
			<output>
				<port id="2" precision="FP16">
					<dim>1</dim>
					<dim>2048</dim>
					<dim>23</dim>
					<dim>30</dim>
				</port>
			</output>
		</layer>
		<layer id="331" name="icnet_features/conv5_3_pool6_1/AvgPool" type="AvgPool" version="opset1">
			<data auto_pad="valid" exclude-pad="true" kernel="5,7" pads_begin="0,0" pads_end="0,0" strides="5,7"/>
			<input>
				<port id="0">
					<dim>1</dim>
					<dim>2048</dim>
					<dim>23</dim>
					<dim>30</dim>
				</port>
			</input>
			<output>
				<port id="1" precision="FP16">
					<dim>1</dim>
					<dim>2048</dim>
					<dim>4</dim>
					<dim>4</dim>
				</port>
			</output>
		</layer>
		<layer id="332" name="icnet_features/conv5_3_pool6_interp_1/Cast_122650_const" type="Const" version="opset1">
			<data element_type="i64" offset="1451196" shape="2" size="16"/>
			<output>
				<port id="1" precision="I64">
					<dim>2</dim>
				</port>
			</output>
		</layer>
		<layer id="333" name="icnet_features/conv5_3_pool6_interp_1" type="Interpolate" version="opset1">
			<data align_corners="1" antialias="0" axes="2,3" mode="linear" pads_begin="0" pads_end="0"/>
			<input>
				<port id="0">
					<dim>1</dim>
					<dim>2048</dim>
					<dim>4</dim>
					<dim>4</dim>
				</port>
				<port id="1">
					<dim>2</dim>
				</port>
			</input>
			<output>
				<port id="2" precision="FP16">
					<dim>1</dim>
					<dim>2048</dim>
					<dim>23</dim>
					<dim>30</dim>
				</port>
			</output>
		</layer>
		<layer id="334" name="icnet_features/conv5_3_sum_1/sum_1" type="Add" version="opset1">
			<input>
				<port id="0">
					<dim>1</dim>
					<dim>2048</dim>
					<dim>23</dim>
					<dim>30</dim>
				</port>
				<port id="1">
					<dim>1</dim>
					<dim>2048</dim>
					<dim>23</dim>
					<dim>30</dim>
				</port>
			</input>
			<output>
				<port id="2" precision="FP16">
					<dim>1</dim>
					<dim>2048</dim>
					<dim>23</dim>
					<dim>30</dim>
				</port>
			</output>
		</layer>
		<layer id="335" name="icnet_features/conv5_3_pool3_1/AvgPool" type="AvgPool" version="opset1">
			<data auto_pad="valid" exclude-pad="true" kernel="7,10" pads_begin="0,0" pads_end="0,0" strides="7,10"/>
			<input>
				<port id="0">
					<dim>1</dim>
					<dim>2048</dim>
					<dim>23</dim>
					<dim>30</dim>
				</port>
			</input>
			<output>
				<port id="1" precision="FP16">
					<dim>1</dim>
					<dim>2048</dim>
					<dim>3</dim>
					<dim>3</dim>
				</port>
			</output>
		</layer>
		<layer id="336" name="icnet_features/conv5_3_pool3_interp_1/Cast_122618_const" type="Const" version="opset1">
			<data element_type="i64" offset="1451196" shape="2" size="16"/>
			<output>
				<port id="1" precision="I64">
					<dim>2</dim>
				</port>
			</output>
		</layer>
		<layer id="337" name="icnet_features/conv5_3_pool3_interp_1" type="Interpolate" version="opset1">
			<data align_corners="1" antialias="0" axes="2,3" mode="linear" pads_begin="0" pads_end="0"/>
			<input>
				<port id="0">
					<dim>1</dim>
					<dim>2048</dim>
					<dim>3</dim>
					<dim>3</dim>
				</port>
				<port id="1">
					<dim>2</dim>
				</port>
			</input>
			<output>
				<port id="2" precision="FP16">
					<dim>1</dim>
					<dim>2048</dim>
					<dim>23</dim>
					<dim>30</dim>
				</port>
			</output>
		</layer>
		<layer id="338" name="icnet_features/conv5_3_sum_1/sum_2" type="Add" version="opset1">
			<input>
				<port id="0">
					<dim>1</dim>
					<dim>2048</dim>
					<dim>23</dim>
					<dim>30</dim>
				</port>
				<port id="1">
					<dim>1</dim>
					<dim>2048</dim>
					<dim>23</dim>
					<dim>30</dim>
				</port>
			</input>
			<output>
				<port id="2" precision="FP16">
					<dim>1</dim>
					<dim>2048</dim>
					<dim>23</dim>
					<dim>30</dim>
				</port>
			</output>
		</layer>
		<layer id="339" name="icnet_features/conv5_3_pool2_1/AvgPool" type="AvgPool" version="opset1">
			<data auto_pad="valid" exclude-pad="true" kernel="11,15" pads_begin="0,0" pads_end="0,0" strides="11,15"/>
			<input>
				<port id="0">
					<dim>1</dim>
					<dim>2048</dim>
					<dim>23</dim>
					<dim>30</dim>
				</port>
			</input>
			<output>
				<port id="1" precision="FP16">
					<dim>1</dim>
					<dim>2048</dim>
					<dim>2</dim>
					<dim>2</dim>
				</port>
			</output>
		</layer>
		<layer id="340" name="icnet_features/conv5_3_pool2_interp_1/Cast_122628_const" type="Const" version="opset1">
			<data element_type="i64" offset="1451196" shape="2" size="16"/>
			<output>
				<port id="1" precision="I64">
					<dim>2</dim>
				</port>
			</output>
		</layer>
		<layer id="341" name="icnet_features/conv5_3_pool2_interp_1" type="Interpolate" version="opset1">
			<data align_corners="1" antialias="0" axes="2,3" mode="linear" pads_begin="0" pads_end="0"/>
			<input>
				<port id="0">
					<dim>1</dim>
…
		<layer id="365" name="icnet_features/sub24_sum/relu_1" type="ReLU" version="opset1">
			<input>
				<port id="0">
					<dim>1</dim>
					<dim>256</dim>
					<dim>45</dim>
					<dim>60</dim>
				</port>
			</input>
			<output>
				<port id="1" precision="FP16">
					<dim>1</dim>
					<dim>256</dim>
					<dim>45</dim>
					<dim>60</dim>
				</port>
			</output>
		</layer>
		<layer id="366" name="icnet_features/sub24_sum_interp_1/Cast_122604_const" type="Const" version="opset1">
			<data element_type="i64" offset="51930844" shape="2" size="16"/>
			<output>
				<port id="1" precision="I64">
					<dim>2</dim>
				</port>
			</output>
		</layer>
		<layer id="367" name="icnet_features/sub24_sum_interp_1" type="Interpolate" version="opset1">
			<data align_corners="1" antialias="0" axes="2,3" mode="linear" pads_begin="0" pads_end="0"/>
			<input>
				<port id="0">
					<dim>1</dim>
					<dim>256</dim>
					<dim>45</dim>
					<dim>60</dim>
				</port>
				<port id="1">
					<dim>2</dim>
				</port>
			</input>
			<output>
				<port id="2" precision="FP16">
					<dim>1</dim>
					<dim>256</dim>
					<dim>89</dim>
					<dim>119</dim>
				</port>
			</output>
		</layer>
		<layer id="368" name="icnet_features/conv_sub2_bn_1/FusedBatchNorm/mean/Fused_Mul_1643716439_const" type="Const" version="opset1">
			<data element_type="f16" offset="51930860" shape="256,256,3,3" size="1179648"/>
			<output>
				<port id="1" precision="FP16">
					<dim>256</dim>
					<dim>256</dim>
					<dim>3</dim>
					<dim>3</dim>
				</port>
			</output>
		</layer>
		<layer id="369" name="icnet_features/conv_sub2_1/Conv2D" type="Convolution" version="opset1">
			<data dilations="2,2" output_padding="0,0" pads_begin="2,2" pads_end="2,2" strides="1,1"/>
			<input>
				<port id="0">
					<dim>1</dim>
					<dim>256</dim>
					<dim>89</dim>
					<dim>119</dim>
				</port>
				<port id="1">
					<dim>256</dim>
					<dim>256</dim>
					<dim>3</dim>
					<dim>3</dim>
				</port>
			</input>
			<output>
				<port id="2" precision="FP16">
					<dim>1</dim>
					<dim>256</dim>
					<dim>89</dim>
					<dim>119</dim>
				</port>
			</output>
		</layer>
		<layer id="370" name="data_add_1560415609/copy_const" type="Const" version="opset1">
			<data element_type="f16" offset="53110508" shape="1,256,1,1" size="512"/>
			<output>
				<port id="1" precision="FP16">
					<dim>1</dim>
					<dim>256</dim>
					<dim>1</dim>
					<dim>1</dim>
				</port>
			</output>
		</layer>
		<layer id="371" name="icnet_features/conv_sub2_bn_1/FusedBatchNorm/variance/Fused_Add_" type="Add" version="opset1">
			<input>
				<port id="0">
					<dim>1</dim>
					<dim>256</dim>
					<dim>89</dim>
					<dim>119</dim>
				</port>
				<port id="1">
					<dim>1</dim>
					<dim>256</dim>
					<dim>1</dim>
					<dim>1</dim>
				</port>
			</input>
			<output>
				<port id="2" precision="FP16">
					<dim>1</dim>
					<dim>256</dim>
					<dim>89</dim>
					<dim>119</dim>
				</port>
			</output>
		</layer>
		<layer id="372" name="icnet_features/ResizeBilinear_37/Cast_122652_const" type="Const" version="opset1">
			<data element_type="i64" offset="291228" shape="2" size="16"/>
			<output>
				<port id="1" precision="I64">
					<dim>2</dim>
				</port>
			</output>
		</layer>
		<layer id="373" name="icnet_features/ResizeBilinear_37" type="Interpolate" version="opset1">
			<data align_corners="0" antialias="0" axes="2,3" mode="linear" pads_begin="0" pads_end="0"/>
			<input>
				<port id="0">
					<dim>1</dim>
					<dim>256</dim>
					<dim>89</dim>
					<dim>119</dim>
				</port>
				<port id="1">
					<dim>2</dim>
				</port>
			</input>
			<output>
				<port id="2" precision="FP16">
					<dim>1</dim>
					<dim>256</dim>
					<dim>90</dim>
					<dim>120</dim>
				</port>
			</output>
		</layer>
		<layer id="374" name="icnet_features/conv1_sub1_bn_2/FusedBatchNorm/mean/Fused_Mul_1618916191_const" type="Const" version="opset1">
			<data element_type="f16" offset="53111020" shape="64,3,3,3" size="3456"/>
			<output>
				<port id="1" precision="FP16">
					<dim>64</dim>
					<dim>3</dim>
					<dim>3</dim>
					<dim>3</dim>
				</port>
			</output>
		</layer>
		<layer id="375" name="icnet_features/conv1_sub1_1/Conv2D" type="Convolution" version="opset1">
			<data auto_pad="same_upper" dilations="1,1" output_padding="0,0" pads_begin="0,0" pads_end="1,1" strides="2,2"/>
			<input>
				<port id="0">
					<dim>1</dim>
					<dim>3</dim>
					<dim>720</dim>
					<dim>960</dim>
				</port>
				<port id="1">
					<dim>64</dim>
					<dim>3</dim>
					<dim>3</dim>
					<dim>3</dim>
				</port>
			</input>
			<output>
				<port id="2" precision="FP16">
					<dim>1</dim>
					<dim>64</dim>
					<dim>360</dim>
					<dim>480</dim>
				</port>
			</output>
		</layer>
		<layer id="376" name="data_add_15113/copy_const" type="Const" version="opset1">
			<data element_type="f16" offset="53114476" shape="1,64,1,1" size="128"/>
			<output>
				<port id="1" precision="FP16">
					<dim>1</dim>
					<dim>64</dim>
					<dim>1</dim>
					<dim>1</dim>
				</port>
			</output>
		</layer>
		<layer id="377" name="icnet_features/conv1_sub1_bn_2/FusedBatchNorm/variance/Fused_Add_" type="Add" version="opset1">
			<input>
				<port id="0">
					<dim>1</dim>
					<dim>64</dim>
					<dim>360</dim>
					<dim>480</dim>
				</port>
				<port id="1">
					<dim>1</dim>
					<dim>64</dim>
					<dim>1</dim>
					<dim>1</dim>
				</port>
			</input>
			<output>
				<port id="2" precision="FP16">
					<dim>1</dim>
					<dim>64</dim>
					<dim>360</dim>
					<dim>480</dim>
				</port>
			</output>
		</layer>
		<layer id="378" name="icnet_features/conv1_sub1_bn_3/conv1_sub1_bn" type="ReLU" version="opset1">
			<input>
				<port id="0">
					<dim>1</dim>
					<dim>64</dim>
					<dim>360</dim>
					<dim>480</dim>
				</port>
			</input>
			<output>
				<port id="1" precision="FP16">
					<dim>1</dim>
					<dim>64</dim>
					<dim>360</dim>
					<dim>480</dim>
				</port>
			</output>
		</layer>
		<layer id="379" name="icnet_features/conv2_sub1_bn_2/FusedBatchNorm/mean/Fused_Mul_1619316195_const" type="Const" version="opset1">
			<data element_type="f16" offset="53114604" shape="64,64,3,3" size="73728"/>
			<output>
				<port id="1" precision="FP16">
					<dim>64</dim>
					<dim>64</dim>
					<dim>3</dim>
					<dim>3</dim>
				</port>
			</output>
		</layer>
		<layer id="380" name="icnet_features/conv2_sub1_1/Conv2D" type="Convolution" version="opset1">
			<data auto_pad="same_upper" dilations="1,1" output_padding="0,0" pads_begin="0,0" pads_end="1,1" strides="2,2"/>
			<input>
				<port id="0">
					<dim>1</dim>
					<dim>64</dim>
					<dim>360</dim>
					<dim>480</dim>
				</port>
				<port id="1">
					<dim>64</dim>
					<dim>64</dim>
					<dim>3</dim>
					<dim>3</dim>
				</port>
			</input>
			<output>
				<port id="2" precision="FP16">
					<dim>1</dim>
					<dim>64</dim>
					<dim>180</dim>
					<dim>240</dim>
				</port>
			</output>
		</layer>
		<layer id="381" name="data_add_1511615121/copy_const" type="Const" version="opset1">
			<data element_type="f16" offset="53188332" shape="1,64,1,1" size="128"/>
			<output>
				<port id="1" precision="FP16">
					<dim>1</dim>
					<dim>64</dim>
					<dim>1</dim>
					<dim>1</dim>
				</port>
			</output>
		</layer>
		<layer id="382" name="icnet_features/conv2_sub1_bn_2/FusedBatchNorm/variance/Fused_Add_" type="Add" version="opset1">
			<input>
				<port id="0">
					<dim>1</dim>
					<dim>64</dim>
					<dim>180</dim>
					<dim>240</dim>
				</port>
				<port id="1">
					<dim>1</dim>
					<dim>64</dim>
					<dim>1</dim>
					<dim>1</dim>
				</port>
			</input>
			<output>
				<port id="2" precision="FP16">
					<dim>1</dim>
					<dim>64</dim>
					<dim>180</dim>
					<dim>240</dim>
				</port>
			</output>
		</layer>
		<layer id="383" name="icnet_features/conv2_sub1_bn_3/conv2_sub1_bn" type="ReLU" version="opset1">
			<input>
				<port id="0">
					<dim>1</dim>
					<dim>64</dim>
					<dim>180</dim>
					<dim>240</dim>
				</port>
			</input>
			<output>
				<port id="1" precision="FP16">
					<dim>1</dim>
					<dim>64</dim>
					<dim>180</dim>
					<dim>240</dim>
				</port>
			</output>
		</layer>
		<layer id="384" name="icnet_features/conv3_sub1_bn_2/FusedBatchNorm/mean/Fused_Mul_1619716199_const" type="Const" version="opset1">
			<data element_type="f16" offset="53188460" shape="128,64,3,3" size="147456"/>
			<output>
				<port id="1" precision="FP16">
					<dim>128</dim>
					<dim>64</dim>
					<dim>3</dim>
					<dim>3</dim>
				</port>
			</output>
		</layer>
		<layer id="385" name="icnet_features/conv3_sub1_1/Conv2D" type="Convolution" version="opset1">
			<data auto_pad="same_upper" dilations="1,1" output_padding="0,0" pads_begin="0,0" pads_end="1,1" strides="2,2"/>
			<input>
				<port id="0">
					<dim>1</dim>
					<dim>64</dim>
					<dim>180</dim>
					<dim>240</dim>
				</port>
				<port id="1">
					<dim>128</dim>
					<dim>64</dim>
					<dim>3</dim>
					<dim>3</dim>
				</port>
			</input>
			<output>
				<port id="2" precision="FP16">
					<dim>1</dim>
					<dim>128</dim>
					<dim>90</dim>
					<dim>120</dim>
				</port>
			</output>
		</layer>
		<layer id="386" name="data_add_1512415129/copy_const" type="Const" version="opset1">
			<data element_type="f16" offset="53335916" shape="1,128,1,1" size="256"/>
			<output>
				<port id="1" precision="FP16">
					<dim>1</dim>
					<dim>128</dim>
					<dim>1</dim>
					<dim>1</dim>
				</port>
			</output>
		</layer>
		<layer id="387" name="icnet_features/conv3_sub1_bn_2/FusedBatchNorm/variance/Fused_Add_" type="Add" version="opset1">
			<input>
				<port id="0">
					<dim>1</dim>
					<dim>128</dim>
					<dim>90</dim>
					<dim>120</dim>
				</port>
				<port id="1">
					<dim>1</dim>
					<dim>128</dim>
					<dim>1</dim>
					<dim>1</dim>
				</port>
			</input>
			<output>
				<port id="2" precision="FP16">
					<dim>1</dim>
					<dim>128</dim>
					<dim>90</dim>
					<dim>120</dim>
				</port>
			</output>
		</layer>
		<layer id="388" name="icnet_features/conv3_sub1_bn_3/conv3_sub1_bn" type="ReLU" version="opset1">
			<input>
				<port id="0">
					<dim>1</dim>
					<dim>128</dim>
					<dim>90</dim>
					<dim>120</dim>
				</port>
			</input>
			<output>
				<port id="1" precision="FP16">
					<dim>1</dim>
					<dim>128</dim>
					<dim>90</dim>
					<dim>120</dim>
				</port>
			</output>
		</layer>
		<layer id="389" name="icnet_features/conv3_sub1_proj_bn_1/FusedBatchNorm/mean/Fused_Mul_1620116203_const" type="Const" version="opset1">
			<data element_type="f16" offset="53336172" shape="256,128,1,1" size="65536"/>
			<output>
				<port id="1" precision="FP16">
					<dim>256</dim>
					<dim>128</dim>
					<dim>1</dim>
					<dim>1</dim>
				</port>
			</output>
		</layer>
		<layer id="390" name="icnet_features/conv3_sub1_proj_1/Conv2D" type="Convolution" version="opset1">
			<data auto_pad="valid" dilations="1,1" output_padding="0,0" pads_begin="0,0" pads_end="0,0" strides="1,1"/>
			<input>
				<port id="0">
					<dim>1</dim>
					<dim>128</dim>
					<dim>90</dim>
					<dim>120</dim>
				</port>
				<port id="1">
					<dim>256</dim>
					<dim>128</dim>
					<dim>1</dim>
					<dim>1</dim>
				</port>
			</input>
			<output>
				<port id="2" precision="FP16">
					<dim>1</dim>
					<dim>256</dim>
					<dim>90</dim>
					<dim>120</dim>
				</port>
			</output>
		</layer>
		<layer id="391" name="data_add_1513215137/copy_const" type="Const" version="opset1">
			<data element_type="f16" offset="53401708" shape="1,256,1,1" size="512"/>
			<output>
				<port id="1" precision="FP16">
					<dim>1</dim>
					<dim>256</dim>
					<dim>1</dim>
					<dim>1</dim>
				</port>
			</output>
		</layer>
		<layer id="392" name="icnet_features/conv3_sub1_proj_bn_1/FusedBatchNorm/variance/Fused_Add_" type="Add" version="opset1">
			<input>
				<port id="0">
					<dim>1</dim>
					<dim>256</dim>
					<dim>90</dim>
					<dim>120</dim>
				</port>
				<port id="1">
					<dim>1</dim>
					<dim>256</dim>
					<dim>1</dim>
					<dim>1</dim>
				</port>
			</input>
			<output>
				<port id="2" precision="FP16">
					<dim>1</dim>
					<dim>256</dim>
					<dim>90</dim>
					<dim>120</dim>
				</port>
			</output>
		</layer>
		<layer id="393" name="icnet_features/sub12_sum_1/sum_1" type="Add" version="opset1">
			<input>
				<port id="0">
					<dim>1</dim>
					<dim>256</dim>
					<dim>90</dim>
					<dim>120</dim>
				</port>
				<port id="1">
					<dim>1</dim>
					<dim>256</dim>
					<dim>90</dim>
					<dim>120</dim>
				</port>
			</input>
			<output>
				<port id="2" precision="FP16">
					<dim>1</dim>
					<dim>256</dim>
					<dim>90</dim>
					<dim>120</dim>
				</port>
			</output>
		</layer>
		<layer id="394" name="icnet_features/sub12_sum/relu_1" type="ReLU" version="opset1">
			<input>
				<port id="0">
					<dim>1</dim>
					<dim>256</dim>
					<dim>90</dim>
					<dim>120</dim>
				</port>
			</input>
			<output>
				<port id="1" precision="FP16">
					<dim>1</dim>
					<dim>256</dim>
					<dim>90</dim>
					<dim>120</dim>
				</port>
			</output>
		</layer>
		<layer id="395" name="icnet_features/sub12_sum_interp_1/Cast_122658_const" type="Const" version="opset1">
			<data element_type="i64" offset="53402220" shape="2" size="16"/>
			<output>
				<port id="1" precision="I64">
					<dim>2</dim>
				</port>
			</output>
		</layer>
		<layer id="396" name="icnet_features/sub12_sum_interp_1" type="Interpolate" version="opset1">
			<data align_corners="1" antialias="0" axes="2,3" mode="linear" pads_begin="0" pads_end="0"/>
			<input>
				<port id="0">
					<dim>1</dim>
					<dim>256</dim>
					<dim>90</dim>
					<dim>120</dim>
				</port>
				<port id="1">
					<dim>2</dim>
				</port>
			</input>
			<output>
				<port id="2" precision="FP16">
					<dim>1</dim>
					<dim>256</dim>
					<dim>179</dim>
					<dim>239</dim>
				</port>
			</output>
		</layer>
		<layer id="397" name="conv6_cls/W/read/Output_0/Data__const" type="Const" version="opset1">
			<data element_type="f16" offset="53402236" shape="12,256,1,1" size="6144"/>
			<output>
				<port id="1" precision="FP16">
					<dim>12</dim>
					<dim>256</dim>
					<dim>1</dim>
					<dim>1</dim>
				</port>
			</output>
		</layer>
		<layer id="398" name="icnet_features/conv6_cls_1/Conv2D" type="Convolution" version="opset1">
			<data auto_pad="valid" dilations="1,1" output_padding="0,0" pads_begin="0,0" pads_end="0,0" strides="1,1"/>
			<input>
				<port id="0">
					<dim>1</dim>
					<dim>256</dim>
					<dim>179</dim>
					<dim>239</dim>
				</port>
				<port id="1">
					<dim>12</dim>
					<dim>256</dim>
					<dim>1</dim>
					<dim>1</dim>
				</port>
			</input>
			<output>
				<port id="2" precision="FP16">
					<dim>1</dim>
					<dim>12</dim>
					<dim>179</dim>
					<dim>239</dim>
				</port>
			</output>
		</layer>
		<layer id="399" name="conv6_cls/b/read/Output_0/Data_/copy_const" type="Const" version="opset1">
			<data element_type="f16" offset="53408380" shape="1,12,1,1" size="24"/>
			<output>
				<port id="1" precision="FP16">
					<dim>1</dim>
					<dim>12</dim>
					<dim>1</dim>
					<dim>1</dim>
				</port>
			</output>
		</layer>
		<layer id="400" name="icnet_features/conv6_cls_1/BiasAdd/Add" type="Add" version="opset1">
			<input>
				<port id="0">
					<dim>1</dim>
					<dim>12</dim>
					<dim>179</dim>
					<dim>239</dim>
				</port>
				<port id="1">
					<dim>1</dim>
					<dim>12</dim>
					<dim>1</dim>
					<dim>1</dim>
				</port>
			</input>
			<output>
				<port id="2" precision="FP16">
					<dim>1</dim>
					<dim>12</dim>
					<dim>179</dim>
					<dim>239</dim>
				</port>
			</output>
		</layer>
		<layer id="401" name="ResizeBilinear/Cast_122642_const" type="Const" version="opset1">
			<data element_type="i64" offset="53408404" shape="2" size="16"/>
			<output>
				<port id="1" precision="I64">
					<dim>2</dim>
				</port>
			</output>
		</layer>
		<layer id="402" name="ResizeBilinear" type="Interpolate" version="opset1">
			<data align_corners="1" antialias="0" axes="2,3" mode="linear" pads_begin="0" pads_end="0"/>
			<input>
				<port id="0">
					<dim>1</dim>
					<dim>12</dim>
					<dim>179</dim>
					<dim>239</dim>
				</port>
				<port id="1">
					<dim>2</dim>
				</port>
			</input>
			<output>
				<port id="2" precision="FP16">
					<dim>1</dim>
					<dim>12</dim>
					<dim>720</dim>
					<dim>960</dim>
				</port>
			</output>
		</layer>
		<layer id="403" name="12471/Cast_122608_const" type="Const" version="opset1">
			<data element_type="i32" offset="53408420" shape="" size="4"/>
			<output>
				<port id="1" precision="I32"/>
			</output>
		</layer>
		<layer id="404" name="12471" type="TopK" version="opset1">
			<data axis="1" mode="max" sort="index"/>
			<input>
				<port id="0">
					<dim>1</dim>
					<dim>12</dim>
					<dim>720</dim>
					<dim>960</dim>
				</port>
				<port id="1"/>
			</input>
			<output>
				<port id="2" precision="FP16">
					<dim>1</dim>
					<dim>1</dim>
					<dim>720</dim>
					<dim>960</dim>
				</port>
				<port id="3" precision="I32">
					<dim>1</dim>
					<dim>1</dim>
					<dim>720</dim>
					<dim>960</dim>
				</port>
			</output>
		</layer>
		<layer id="406" name="12471/Transpose/Cast_122640_const" type="Const" version="opset1">
			<data element_type="i64" offset="53408424" shape="4" size="32"/>
			<output>
				<port id="1" precision="I64">
					<dim>4</dim>
				</port>
			</output>
		</layer>
		<layer id="407" name="12471/Transpose" type="Transpose" version="opset1">
			<input>
				<port id="0">
					<dim>1</dim>
					<dim>1</dim>
					<dim>720</dim>
					<dim>960</dim>
				</port>
				<port id="1">
					<dim>4</dim>
				</port>
			</input>
			<output>
				<port id="2" precision="I32">
					<dim>1</dim>
					<dim>720</dim>
					<dim>960</dim>
					<dim>1</dim>
				</port>
			</output>
		</layer>
		<layer id="408" name="segmentation_output/dimension/Output_0/Data__const" type="Const" version="opset1">
			<data element_type="i64" offset="53408456" shape="1" size="8"/>
			<output>
				<port id="1" precision="I64">
					<dim>1</dim>
				</port>
			</output>
		</layer>
		<layer id="409" name="segmentation_output/Squeeze" type="Squeeze" version="opset1">
			<input>
				<port id="0">
					<dim>1</dim>
					<dim>720</dim>
					<dim>960</dim>
					<dim>1</dim>
				</port>
				<port id="1">
					<dim>1</dim>
				</port>
			</input>
			<output>
				<port id="2" precision="I32">
					<dim>1</dim>
					<dim>720</dim>
					<dim>960</dim>
				</port>
			</output>
		</layer>
		<layer id="410" name="segmentation_output/sink_port_0" type="Result" version="opset1">
			<input>
				<port id="0">
					<dim>1</dim>
					<dim>720</dim>
					<dim>960</dim>
				</port>
			</input>
		</layer>
	</layers>
	<edges>
		<edge from-layer="0" from-port="0" to-layer="2" to-port="0"/>
		<edge from-layer="1" from-port="1" to-layer="2" to-port="1"/>
		<edge from-layer="2" from-port="2" to-layer="4" to-port="0"/>
		<edge from-layer="3" from-port="1" to-layer="4" to-port="1"/>
		<edge from-layer="4" from-port="2" to-layer="6" to-port="0"/>
		<edge from-layer="5" from-port="1" to-layer="6" to-port="1"/>
		<edge from-layer="6" from-port="2" to-layer="8" to-port="0"/>
		<edge from-layer="7" from-port="1" to-layer="8" to-port="1"/>
		<edge from-layer="8" from-port="2" to-layer="10" to-port="0"/>
		<edge from-layer="9" from-port="1" to-layer="10" to-port="1"/>
		<edge from-layer="10" from-port="2" to-layer="11" to-port="0"/>
		<edge from-layer="11" from-port="1" to-layer="13" to-port="0"/>
		<edge from-layer="12" from-port="1" to-layer="13" to-port="1"/>
		<edge from-layer="13" from-port="2" to-layer="15" to-port="0"/>
		<edge from-layer="14" from-port="1" to-layer="15" to-port="1"/>
		<edge from-layer="15" from-port="2" to-layer="16" to-port="0"/>
		<edge from-layer="16" from-port="1" to-layer="18" to-port="0"/>
		<edge from-layer="17" from-port="1" to-layer="18" to-port="1"/>
		<edge from-layer="18" from-port="2" to-layer="20" to-port="0"/>
		<edge from-layer="19" from-port="1" to-layer="20" to-port="1"/>
		<edge from-layer="20" from-port="2" to-layer="21" to-port="0"/>
		<edge from-layer="21" from-port="1" to-layer="22" to-port="0"/>
		<edge from-layer="22" from-port="1" to-layer="24" to-port="0"/>
		<edge from-layer="23" from-port="1" to-layer="24" to-port="1"/>
		<edge from-layer="24" from-port="2" to-layer="26" to-port="0"/>
		<edge from-layer="25" from-port="1" to-layer="26" to-port="1"/>
		<edge from-layer="26" from-port="2" to-layer="28" to-port="0"/>
		<edge from-layer="27" from-port="1" to-layer="28" to-port="1"/>
		<edge from-layer="22" from-port="1" to-layer="30" to-port="0"/>
		<edge from-layer="29" from-port="1" to-layer="30" to-port="1"/>
		<edge from-layer="30" from-port="2" to-layer="32" to-port="0"/>
		<edge from-layer="31" from-port="1" to-layer="32" to-port="1"/>
		<edge from-layer="32" from-port="2" to-layer="33" to-port="0"/>
		<edge from-layer="33" from-port="1" to-layer="35" to-port="0"/>
		<edge from-layer="34" from-port="1" to-layer="35" to-port="1"/>
		<edge from-layer="35" from-port="2" to-layer="37" to-port="0"/>
		<edge from-layer="36" from-port="1" to-layer="37" to-port="1"/>
		<edge from-layer="37" from-port="2" to-layer="38" to-port="0"/>
		<edge from-layer="38" from-port="1" to-layer="40" to-port="0"/>
		<edge from-layer="39" from-port="1" to-layer="40" to-port="1"/>
		<edge from-layer="40" from-port="2" to-layer="42" to-port="0"/>
		<edge from-layer="41" from-port="1" to-layer="42" to-port="1"/>
		<edge from-layer="28" from-port="2" to-layer="43" to-port="0"/>
		<edge from-layer="42" from-port="2" to-layer="43" to-port="1"/>
		<edge from-layer="43" from-port="2" to-layer="44" to-port="0"/>
		<edge from-layer="44" from-port="1" to-layer="46" to-port="0"/>
		<edge from-layer="45" from-port="1" to-layer="46" to-port="1"/>
		<edge from-layer="44" from-port="1" to-layer="48" to-port="0"/>
		<edge from-layer="47" from-port="1" to-layer="48" to-port="1"/>
		<edge from-layer="48" from-port="2" to-layer="50" to-port="0"/>
		<edge from-layer="49" from-port="1" to-layer="50" to-port="1"/>
		<edge from-layer="50" from-port="2" to-layer="51" to-port="0"/>
		<edge from-layer="51" from-port="1" to-layer="53" to-port="0"/>
		<edge from-layer="52" from-port="1" to-layer="53" to-port="1"/>
		<edge from-layer="53" from-port="2" to-layer="55" to-port="0"/>
		<edge from-layer="54" from-port="1" to-layer="55" to-port="1"/>
		<edge from-layer="55" from-port="2" to-layer="56" to-port="0"/>
		<edge from-layer="56" from-port="1" to-layer="58" to-port="0"/>
		<edge from-layer="57" from-port="1" to-layer="58" to-port="1"/>
		<edge from-layer="58" from-port="2" to-layer="60" to-port="0"/>
		<edge from-layer="59" from-port="1" to-layer="60" to-port="1"/>
		<edge from-layer="46" from-port="2" to-layer="61" to-port="0"/>
		<edge from-layer="60" from-port="2" to-layer="61" to-port="1"/>
		<edge from-layer="61" from-port="2" to-layer="62" to-port="0"/>
		<edge from-layer="62" from-port="1" to-layer="64" to-port="0"/>
		<edge from-layer="63" from-port="1" to-layer="64" to-port="1"/>
		<edge from-layer="62" from-port="1" to-layer="66" to-port="0"/>
		<edge from-layer="65" from-port="1" to-layer="66" to-port="1"/>
		<edge from-layer="66" from-port="2" to-layer="68" to-port="0"/>
		<edge from-layer="67" from-port="1" to-layer="68" to-port="1"/>
		<edge from-layer="68" from-port="2" to-layer="69" to-port="0"/>
		<edge from-layer="69" from-port="1" to-layer="71" to-port="0"/>
		<edge from-layer="70" from-port="1" to-layer="71" to-port="1"/>
		<edge from-layer="71" from-port="2" to-layer="73" to-port="0"/>
		<edge from-layer="72" from-port="1" to-layer="73" to-port="1"/>
		<edge from-layer="73" from-port="2" to-layer="74" to-port="0"/>
		<edge from-layer="74" from-port="1" to-layer="76" to-port="0"/>
		<edge from-layer="75" from-port="1" to-layer="76" to-port="1"/>
		<edge from-layer="76" from-port="2" to-layer="78" to-port="0"/>
		<edge from-layer="77" from-port="1" to-layer="78" to-port="1"/>
		<edge from-layer="64" from-port="2" to-layer="79" to-port="0"/>
		<edge from-layer="78" from-port="2" to-layer="79" to-port="1"/>
		<edge from-layer="79" from-port="2" to-layer="80" to-port="0"/>
		<edge from-layer="80" from-port="1" to-layer="82" to-port="0"/>
		<edge from-layer="81" from-port="1" to-layer="82" to-port="1"/>
		<edge from-layer="82" from-port="2" to-layer="84" to-port="0"/>
		<edge from-layer="83" from-port="1" to-layer="84" to-port="1"/>
		<edge from-layer="84" from-port="2" to-layer="86" to-port="0"/>
		<edge from-layer="85" from-port="1" to-layer="86" to-port="1"/>
		<edge from-layer="80" from-port="1" to-layer="88" to-port="0"/>
		<edge from-layer="87" from-port="1" to-layer="88" to-port="1"/>
		<edge from-layer="88" from-port="2" to-layer="90" to-port="0"/>
		<edge from-layer="89" from-port="1" to-layer="90" to-port="1"/>
		<edge from-layer="90" from-port="2" to-layer="91" to-port="0"/>
		<edge from-layer="91" from-port="1" to-layer="93" to-port="0"/>
		<edge from-layer="92" from-port="1" to-layer="93" to-port="1"/>
		<edge from-layer="93" from-port="2" to-layer="95" to-port="0"/>
		<edge from-layer="94" from-port="1" to-layer="95" to-port="1"/>
		<edge from-layer="95" from-port="2" to-layer="96" to-port="0"/>
		<edge from-layer="96" from-port="1" to-layer="98" to-port="0"/>
		<edge from-layer="97" from-port="1" to-layer="98" to-port="1"/>
		<edge from-layer="98" from-port="2" to-layer="100" to-port="0"/>
		<edge from-layer="99" from-port="1" to-layer="100" to-port="1"/>
		<edge from-layer="86" from-port="2" to-layer="101" to-port="0"/>
		<edge from-layer="100" from-port="2" to-layer="101" to-port="1"/>
		<edge from-layer="101" from-port="2" to-layer="102" to-port="0"/>
		<edge from-layer="102" from-port="1" to-layer="104" to-port="0"/>
		<edge from-layer="103" from-port="1" to-layer="104" to-port="1"/>
		<edge from-layer="104" from-port="2" to-layer="106" to-port="0"/>
		<edge from-layer="105" from-port="1" to-layer="106" to-port="1"/>
		<edge from-layer="104" from-port="2" to-layer="108" to-port="0"/>
		<edge from-layer="107" from-port="1" to-layer="108" to-port="1"/>
		<edge from-layer="108" from-port="2" to-layer="110" to-port="0"/>
		<edge from-layer="109" from-port="1" to-layer="110" to-port="1"/>
		<edge from-layer="110" from-port="2" to-layer="111" to-port="0"/>
		<edge from-layer="111" from-port="1" to-layer="113" to-port="0"/>
		<edge from-layer="112" from-port="1" to-layer="113" to-port="1"/>
		<edge from-layer="113" from-port="2" to-layer="115" to-port="0"/>
		<edge from-layer="114" from-port="1" to-layer="115" to-port="1"/>
		<edge from-layer="115" from-port="2" to-layer="116" to-port="0"/>
		<edge from-layer="116" from-port="1" to-layer="118" to-port="0"/>
		<edge from-layer="117" from-port="1" to-layer="118" to-port="1"/>
		<edge from-layer="118" from-port="2" to-layer="120" to-port="0"/>
		<edge from-layer="119" from-port="1" to-layer="120" to-port="1"/>
		<edge from-layer="106" from-port="2" to-layer="121" to-port="0"/>
		<edge from-layer="120" from-port="2" to-layer="121" to-port="1"/>
		<edge from-layer="121" from-port="2" to-layer="122" to-port="0"/>
		<edge from-layer="122" from-port="1" to-layer="124" to-port="0"/>
		<edge from-layer="123" from-port="1" to-layer="124" to-port="1"/>
		<edge from-layer="122" from-port="1" to-layer="126" to-port="0"/>
		<edge from-layer="125" from-port="1" to-layer="126" to-port="1"/>
		<edge from-layer="126" from-port="2" to-layer="128" to-port="0"/>
		<edge from-layer="127" from-port="1" to-layer="128" to-port="1"/>
		<edge from-layer="128" from-port="2" to-layer="129" to-port="0"/>
		<edge from-layer="129" from-port="1" to-layer="131" to-port="0"/>
		<edge from-layer="130" from-port="1" to-layer="131" to-port="1"/>
		<edge from-layer="131" from-port="2" to-layer="133" to-port="0"/>
		<edge from-layer="132" from-port="1" to-layer="133" to-port="1"/>
		<edge from-layer="133" from-port="2" to-layer="134" to-port="0"/>
		<edge from-layer="134" from-port="1" to-layer="136" to-port="0"/>
		<edge from-layer="135" from-port="1" to-layer="136" to-port="1"/>
		<edge from-layer="136" from-port="2" to-layer="138" to-port="0"/>
		<edge from-layer="137" from-port="1" to-layer="138" to-port="1"/>
		<edge from-layer="124" from-port="2" to-layer="139" to-port="0"/>
		<edge from-layer="138" from-port="2" to-layer="139" to-port="1"/>
		<edge from-layer="139" from-port="2" to-layer="140" to-port="0"/>
		<edge from-layer="140" from-port="1" to-layer="142" to-port="0"/>
		<edge from-layer="141" from-port="1" to-layer="142" to-port="1"/>
		<edge from-layer="140" from-port="1" to-layer="144" to-port="0"/>
		<edge from-layer="143" from-port="1" to-layer="144" to-port="1"/>
		<edge from-layer="144" from-port="2" to-layer="146" to-port="0"/>
		<edge from-layer="145" from-port="1" to-layer="146" to-port="1"/>
		<edge from-layer="146" from-port="2" to-layer="147" to-port="0"/>
		<edge from-layer="147" from-port="1" to-layer="149" to-port="0"/>
		<edge from-layer="148" from-port="1" to-layer="149" to-port="1"/>
		<edge from-layer="149" from-port="2" to-layer="151" to-port="0"/>
		<edge from-layer="150" from-port="1" to-layer="151" to-port="1"/>
		<edge from-layer="151" from-port="2" to-layer="152" to-port="0"/>
		<edge from-layer="152" from-port="1" to-layer="154" to-port="0"/>
		<edge from-layer="153" from-port="1" to-layer="154" to-port="1"/>
		<edge from-layer="154" from-port="2" to-layer="156" to-port="0"/>
		<edge from-layer="155" from-port="1" to-layer="156" to-port="1"/>
		<edge from-layer="142" from-port="2" to-layer="157" to-port="0"/>
		<edge from-layer="156" from-port="2" to-layer="157" to-port="1"/>
		<edge from-layer="157" from-port="2" to-layer="158" to-port="0"/>
		<edge from-layer="158" from-port="1" to-layer="160" to-port="0"/>
		<edge from-layer="159" from-port="1" to-layer="160" to-port="1"/>
		<edge from-layer="160" from-port="2" to-layer="162" to-port="0"/>
		<edge from-layer="161" from-port="1" to-layer="162" to-port="1"/>
		<edge from-layer="162" from-port="2" to-layer="164" to-port="0"/>
		<edge from-layer="163" from-port="1" to-layer="164" to-port="1"/>
		<edge from-layer="158" from-port="1" to-layer="166" to-port="0"/>
		<edge from-layer="165" from-port="1" to-layer="166" to-port="1"/>
		<edge from-layer="166" from-port="2" to-layer="168" to-port="0"/>
		<edge from-layer="167" from-port="1" to-layer="168" to-port="1"/>
		<edge from-layer="168" from-port="2" to-layer="169" to-port="0"/>
		<edge from-layer="169" from-port="1" to-layer="171" to-port="0"/>
		<edge from-layer="170" from-port="1" to-layer="171" to-port="1"/>
		<edge from-layer="171" from-port="2" to-layer="173" to-port="0"/>
		<edge from-layer="172" from-port="1" to-layer="173" to-port="1"/>
		<edge from-layer="173" from-port="2" to-layer="174" to-port="0"/>
		<edge from-layer="174" from-port="1" to-layer="176" to-port="0"/>
		<edge from-layer="175" from-port="1" to-layer="176" to-port="1"/>
		<edge from-layer="176" from-port="2" to-layer="178" to-port="0"/>
		<edge from-layer="177" from-port="1" to-layer="178" to-port="1"/>
		<edge from-layer="164" from-port="2" to-layer="179" to-port="0"/>
		<edge from-layer="178" from-port="2" to-layer="179" to-port="1"/>
		<edge from-layer="179" from-port="2" to-layer="180" to-port="0"/>
		<edge from-layer="180" from-port="1" to-layer="182" to-port="0"/>
		<edge from-layer="181" from-port="1" to-layer="182" to-port="1"/>
		<edge from-layer="180" from-port="1" to-layer="184" to-port="0"/>
		<edge from-layer="183" from-port="1" to-layer="184" to-port="1"/>
		<edge from-layer="184" from-port="2" to-layer="186" to-port="0"/>
		<edge from-layer="185" from-port="1" to-layer="186" to-port="1"/>
		<edge from-layer="186" from-port="2" to-layer="187" to-port="0"/>
		<edge from-layer="187" from-port="1" to-layer="189" to-port="0"/>
		<edge from-layer="188" from-port="1" to-layer="189" to-port="1"/>
		<edge from-layer="189" from-port="2" to-layer="191" to-port="0"/>
		<edge from-layer="190" from-port="1" to-layer="191" to-port="1"/>
		<edge from-layer="191" from-port="2" to-layer="192" to-port="0"/>
		<edge from-layer="192" from-port="1" to-layer="194" to-port="0"/>
		<edge from-layer="193" from-port="1" to-layer="194" to-port="1"/>
		<edge from-layer="194" from-port="2" to-layer="196" to-port="0"/>
		<edge from-layer="195" from-port="1" to-layer="196" to-port="1"/>
		<edge from-layer="182" from-port="2" to-layer="197" to-port="0"/>
		<edge from-layer="196" from-port="2" to-layer="197" to-port="1"/>
		<edge from-layer="197" from-port="2" to-layer="198" to-port="0"/>
		<edge from-layer="198" from-port="1" to-layer="200" to-port="0"/>
		<edge from-layer="199" from-port="1" to-layer="200" to-port="1"/>
		<edge from-layer="198" from-port="1" to-layer="202" to-port="0"/>
		<edge from-layer="201" from-port="1" to-layer="202" to-port="1"/>
		<edge from-layer="202" from-port="2" to-layer="204" to-port="0"/>
		<edge from-layer="203" from-port="1" to-layer="204" to-port="1"/>
		<edge from-layer="204" from-port="2" to-layer="205" to-port="0"/>
		<edge from-layer="205" from-port="1" to-layer="207" to-port="0"/>
		<edge from-layer="206" from-port="1" to-layer="207" to-port="1"/>
		<edge from-layer="207" from-port="2" to-layer="209" to-port="0"/>
		<edge from-layer="208" from-port="1" to-layer="209" to-port="1"/>
		<edge from-layer="209" from-port="2" to-layer="210" to-port="0"/>
		<edge from-layer="210" from-port="1" to-layer="212" to-port="0"/>
		<edge from-layer="211" from-port="1" to-layer="212" to-port="1"/>
		<edge from-layer="212" from-port="2" to-layer="214" to-port="0"/>
		<edge from-layer="213" from-port="1" to-layer="214" to-port="1"/>
		<edge from-layer="200" from-port="2" to-layer="215" to-port="0"/>
		<edge from-layer="214" from-port="2" to-layer="215" to-port="1"/>
		<edge from-layer="215" from-port="2" to-layer="216" to-port="0"/>
		<edge from-layer="216" from-port="1" to-layer="218" to-port="0"/>
		<edge from-layer="217" from-port="1" to-layer="218" to-port="1"/>
		<edge from-layer="216" from-port="1" to-layer="220" to-port="0"/>
		<edge from-layer="219" from-port="1" to-layer="220" to-port="1"/>
		<edge from-layer="220" from-port="2" to-layer="222" to-port="0"/>
		<edge from-layer="221" from-port="1" to-layer="222" to-port="1"/>
		<edge from-layer="222" from-port="2" to-layer="223" to-port="0"/>
		<edge from-layer="223" from-port="1" to-layer="225" to-port="0"/>
		<edge from-layer="224" from-port="1" to-layer="225" to-port="1"/>
		<edge from-layer="225" from-port="2" to-layer="227" to-port="0"/>
		<edge from-layer="226" from-port="1" to-layer="227" to-port="1"/>
		<edge from-layer="227" from-port="2" to-layer="228" to-port="0"/>
		<edge from-layer="228" from-port="1" to-layer="230" to-port="0"/>
		<edge from-layer="229" from-port="1" to-layer="230" to-port="1"/>
		<edge from-layer="230" from-port="2" to-layer="232" to-port="0"/>
		<edge from-layer="231" from-port="1" to-layer="232" to-port="1"/>
		<edge from-layer="218" from-port="2" to-layer="233" to-port="0"/>
		<edge from-layer="232" from-port="2" to-layer="233" to-port="1"/>
		<edge from-layer="233" from-port="2" to-layer="234" to-port="0"/>
		<edge from-layer="234" from-port="1" to-layer="236" to-port="0"/>
		<edge from-layer="235" from-port="1" to-layer="236" to-port="1"/>
		<edge from-layer="234" from-port="1" to-layer="238" to-port="0"/>
		<edge from-layer="237" from-port="1" to-layer="238" to-port="1"/>
		<edge from-layer="238" from-port="2" to-layer="240" to-port="0"/>
		<edge from-layer="239" from-port="1" to-layer="240" to-port="1"/>
		<edge from-layer="240" from-port="2" to-layer="241" to-port="0"/>
		<edge from-layer="241" from-port="1" to-layer="243" to-port="0"/>
		<edge from-layer="242" from-port="1" to-layer="243" to-port="1"/>
		<edge from-layer="243" from-port="2" to-layer="245" to-port="0"/>
		<edge from-layer="244" from-port="1" to-layer="245" to-port="1"/>
		<edge from-layer="245" from-port="2" to-layer="246" to-port="0"/>
		<edge from-layer="246" from-port="1" to-layer="248" to-port="0"/>
		<edge from-layer="247" from-port="1" to-layer="248" to-port="1"/>
		<edge from-layer="248" from-port="2" to-layer="250" to-port="0"/>
		<edge from-layer="249" from-port="1" to-layer="250" to-port="1"/>
		<edge from-layer="236" from-port="2" to-layer="251" to-port="0"/>
		<edge from-layer="250" from-port="2" to-layer="251" to-port="1"/>
		<edge from-layer="251" from-port="2" to-layer="252" to-port="0"/>
		<edge from-layer="252" from-port="1" to-layer="254" to-port="0"/>
		<edge from-layer="253" from-port="1" to-layer="254" to-port="1"/>
		<edge from-layer="252" from-port="1" to-layer="256" to-port="0"/>
		<edge from-layer="255" from-port="1" to-layer="256" to-port="1"/>
		<edge from-layer="256" from-port="2" to-layer="258" to-port="0"/>
		<edge from-layer="257" from-port="1" to-layer="258" to-port="1"/>
		<edge from-layer="258" from-port="2" to-layer="259" to-port="0"/>
		<edge from-layer="259" from-port="1" to-layer="261" to-port="0"/>
		<edge from-layer="260" from-port="1" to-layer="261" to-port="1"/>
		<edge from-layer="261" from-port="2" to-layer="263" to-port="0"/>
		<edge from-layer="262" from-port="1" to-layer="263" to-port="1"/>
		<edge from-layer="263" from-port="2" to-layer="264" to-port="0"/>
		<edge from-layer="264" from-port="1" to-layer="266" to-port="0"/>
		<edge from-layer="265" from-port="1" to-layer="266" to-port="1"/>
		<edge from-layer="266" from-port="2" to-layer="268" to-port="0"/>
		<edge from-layer="267" from-port="1" to-layer="268" to-port="1"/>
		<edge from-layer="254" from-port="2" to-layer="269" to-port="0"/>
		<edge from-layer="268" from-port="2" to-layer="269" to-port="1"/>
		<edge from-layer="269" from-port="2" to-layer="270" to-port="0"/>
		<edge from-layer="270" from-port="1" to-layer="272" to-port="0"/>
		<edge from-layer="271" from-port="1" to-layer="272" to-port="1"/>
		<edge from-layer="272" from-port="2" to-layer="274" to-port="0"/>
		<edge from-layer="273" from-port="1" to-layer="274" to-port="1"/>
		<edge from-layer="274" from-port="2" to-layer="276" to-port="0"/>
		<edge from-layer="275" from-port="1" to-layer="276" to-port="1"/>
		<edge from-layer="270" from-port="1" to-layer="278" to-port="0"/>
		<edge from-layer="277" from-port="1" to-layer="278" to-port="1"/>
		<edge from-layer="278" from-port="2" to-layer="280" to-port="0"/>
		<edge from-layer="279" from-port="1" to-layer="280" to-port="1"/>
		<edge from-layer="280" from-port="2" to-layer="281" to-port="0"/>
		<edge from-layer="281" from-port="1" to-layer="283" to-port="0"/>
		<edge from-layer="282" from-port="1" to-layer="283" to-port="1"/>
		<edge from-layer="283" from-port="2" to-layer="285" to-port="0"/>
		<edge from-layer="284" from-port="1" to-layer="285" to-port="1"/>
		<edge from-layer="285" from-port="2" to-layer="286" to-port="0"/>
		<edge from-layer="286" from-port="1" to-layer="288" to-port="0"/>
		<edge from-layer="287" from-port="1" to-layer="288" to-port="1"/>
		<edge from-layer="288" from-port="2" to-layer="290" to-port="0"/>
		<edge from-layer="289" from-port="1" to-layer="290" to-port="1"/>
		<edge from-layer="276" from-port="2" to-layer="291" to-port="0"/>
		<edge from-layer="290" from-port="2" to-layer="291" to-port="1"/>
		<edge from-layer="291" from-port="2" to-layer="292" to-port="0"/>
		<edge from-layer="292" from-port="1" to-layer="294" to-port="0"/>
		<edge from-layer="293" from-port="1" to-layer="294" to-port="1"/>
		<edge from-layer="292" from-port="1" to-layer="296" to-port="0"/>
		<edge from-layer="295" from-port="1" to-layer="296" to-port="1"/>
		<edge from-layer="296" from-port="2" to-layer="298" to-port="0"/>
		<edge from-layer="297" from-port="1" to-layer="298" to-port="1"/>
		<edge from-layer="298" from-port="2" to-layer="299" to-port="0"/>
		<edge from-layer="299" from-port="1" to-layer="301" to-port="0"/>
		<edge from-layer="300" from-port="1" to-layer="301" to-port="1"/>
		<edge from-layer="301" from-port="2" to-layer="303" to-port="0"/>
		<edge from-layer="302" from-port="1" to-layer="303" to-port="1"/>
		<edge from-layer="303" from-port="2" to-layer="304" to-port="0"/>
		<edge from-layer="304" from-port="1" to-layer="306" to-port="0"/>
		<edge from-layer="305" from-port="1" to-layer="306" to-port="1"/>
		<edge from-layer="306" from-port="2" to-layer="308" to-port="0"/>
		<edge from-layer="307" from-port="1" to-layer="308" to-port="1"/>
		<edge from-layer="294" from-port="2" to-layer="309" to-port="0"/>
		<edge from-layer="308" from-port="2" to-layer="309" to-port="1"/>
		<edge from-layer="309" from-port="2" to-layer="310" to-port="0"/>
		<edge from-layer="310" from-port="1" to-layer="312" to-port="0"/>
		<edge from-layer="311" from-port="1" to-layer="312" to-port="1"/>
		<edge from-layer="310" from-port="1" to-layer="314" to-port="0"/>
		<edge from-layer="313" from-port="1" to-layer="314" to-port="1"/>
		<edge from-layer="314" from-port="2" to-layer="316" to-port="0"/>
		<edge from-layer="315" from-port="1" to-layer="316" to-port="1"/>
		<edge from-layer="316" from-port="2" to-layer="317" to-port="0"/>
		<edge from-layer="317" from-port="1" to-layer="319" to-port="0"/>
		<edge from-layer="318" from-port="1" to-layer="319" to-port="1"/>
		<edge from-layer="319" from-port="2" to-layer="321" to-port="0"/>
		<edge from-layer="320" from-port="1" to-layer="321" to-port="1"/>
		<edge from-layer="321" from-port="2" to-layer="322" to-port="0"/>
		<edge from-layer="322" from-port="1" to-layer="324" to-port="0"/>
		<edge from-layer="323" from-port="1" to-layer="324" to-port="1"/>
		<edge from-layer="324" from-port="2" to-layer="326" to-port="0"/>
		<edge from-layer="325" from-port="1" to-layer="326" to-port="1"/>
		<edge from-layer="312" from-port="2" to-layer="327" to-port="0"/>
		<edge from-layer="326" from-port="2" to-layer="327" to-port="1"/>
		<edge from-layer="327" from-port="2" to-layer="328" to-port="0"/>
		<edge from-layer="328" from-port="1" to-layer="330" to-port="0"/>
		<edge from-layer="329" from-port="1" to-layer="330" to-port="1"/>
		<edge from-layer="328" from-port="1" to-layer="331" to-port="0"/>
		<edge from-layer="331" from-port="1" to-layer="333" to-port="0"/>
		<edge from-layer="332" from-port="1" to-layer="333" to-port="1"/>
		<edge from-layer="330" from-port="2" to-layer="334" to-port="0"/>
		<edge from-layer="333" from-port="2" to-layer="334" to-port="1"/>
		<edge from-layer="328" from-port="1" to-layer="335" to-port="0"/>
		<edge from-layer="335" from-port="1" to-layer="337" to-port="0"/>
		<edge from-layer="336" from-port="1" to-layer="337" to-port="1"/>
		<edge from-layer="334" from-port="2" to-layer="338" to-port="0"/>
		<edge from-layer="337" from-port="2" to-layer="338" to-port="1"/>
		<edge from-layer="328" from-port="1" to-layer="339" to-port="0"/>
		<edge from-layer="339" from-port="1" to-layer="341" to-port="0"/>
		<edge from-layer="340" from-port="1" to-layer="341" to-port="1"/>
		<edge from-layer="338" from-port="2" to-layer="342" to-port="0"/>
		<edge from-layer="341" from-port="2" to-layer="342" to-port="1"/>
		<edge from-layer="328" from-port="1" to-layer="343" to-port="0"/>
		<edge from-layer="343" from-port="1" to-layer="345" to-port="0"/>
		<edge from-layer="344" from-port="1" to-layer="345" to-port="1"/>
		<edge from-layer="342" from-port="2" to-layer="346" to-port="0"/>
		<edge from-layer="345" from-port="2" to-layer="346" to-port="1"/>
		<edge from-layer="346" from-port="2" to-layer="348" to-port="0"/>
		<edge from-layer="347" from-port="1" to-layer="348" to-port="1"/>
		<edge from-layer="348" from-port="2" to-layer="350" to-port="0"/>
		<edge from-layer="349" from-port="1" to-layer="350" to-port="1"/>
		<edge from-layer="350" from-port="2" to-layer="351" to-port="0"/>
		<edge from-layer="351" from-port="1" to-layer="353" to-port="0"/>
		<edge from-layer="352" from-port="1" to-layer="353" to-port="1"/>
		<edge from-layer="353" from-port="2" to-layer="355" to-port="0"/>
		<edge from-layer="354" from-port="1" to-layer="355" to-port="1"/>
		<edge from-layer="355" from-port="2" to-layer="357" to-port="0"/>
		<edge from-layer="356" from-port="1" to-layer="357" to-port="1"/>
		<edge from-layer="357" from-port="2" to-layer="359" to-port="0"/>
		<edge from-layer="358" from-port="1" to-layer="359" to-port="1"/>
		<edge from-layer="102" from-port="1" to-layer="361" to-port="0"/>
		<edge from-layer="360" from-port="1" to-layer="361" to-port="1"/>
		<edge from-layer="361" from-port="2" to-layer="363" to-port="0"/>
		<edge from-layer="362" from-port="1" to-layer="363" to-port="1"/>
		<edge from-layer="359" from-port="2" to-layer="364" to-port="0"/>
		<edge from-layer="363" from-port="2" to-layer="364" to-port="1"/>
		<edge from-layer="364" from-port="2" to-layer="365" to-port="0"/>
		<edge from-layer="365" from-port="1" to-layer="367" to-port="0"/>
		<edge from-layer="366" from-port="1" to-layer="367" to-port="1"/>
		<edge from-layer="367" from-port="2" to-layer="369" to-port="0"/>
		<edge from-layer="368" from-port="1" to-layer="369" to-port="1"/>
		<edge from-layer="369" from-port="2" to-layer="371" to-port="0"/>
		<edge from-layer="370" from-port="1" to-layer="371" to-port="1"/>
		<edge from-layer="371" from-port="2" to-layer="373" to-port="0"/>
		<edge from-layer="372" from-port="1" to-layer="373" to-port="1"/>
		<edge from-layer="4" from-port="2" to-layer="375" to-port="0"/>
		<edge from-layer="374" from-port="1" to-layer="375" to-port="1"/>
		<edge from-layer="375" from-port="2" to-layer="377" to-port="0"/>
		<edge from-layer="376" from-port="1" to-layer="377" to-port="1"/>
		<edge from-layer="377" from-port="2" to-layer="378" to-port="0"/>
		<edge from-layer="378" from-port="1" to-layer="380" to-port="0"/>
		<edge from-layer="379" from-port="1" to-layer="380" to-port="1"/>
		<edge from-layer="380" from-port="2" to-layer="382" to-port="0"/>
		<edge from-layer="381" from-port="1" to-layer="382" to-port="1"/>
		<edge from-layer="382" from-port="2" to-layer="383" to-port="0"/>
		<edge from-layer="383" from-port="1" to-layer="385" to-port="0"/>
		<edge from-layer="384" from-port="1" to-layer="385" to-port="1"/>
		<edge from-layer="385" from-port="2" to-layer="387" to-port="0"/>
		<edge from-layer="386" from-port="1" to-layer="387" to-port="1"/>
		<edge from-layer="387" from-port="2" to-layer="388" to-port="0"/>
		<edge from-layer="388" from-port="1" to-layer="390" to-port="0"/>
		<edge from-layer="389" from-port="1" to-layer="390" to-port="1"/>
		<edge from-layer="390" from-port="2" to-layer="392" to-port="0"/>
		<edge from-layer="391" from-port="1" to-layer="392" to-port="1"/>
		<edge from-layer="373" from-port="2" to-layer="393" to-port="0"/>
		<edge from-layer="392" from-port="2" to-layer="393" to-port="1"/>
		<edge from-layer="393" from-port="2" to-layer="394" to-port="0"/>
		<edge from-layer="394" from-port="1" to-layer="396" to-port="0"/>
		<edge from-layer="395" from-port="1" to-layer="396" to-port="1"/>
		<edge from-layer="396" from-port="2" to-layer="398" to-port="0"/>
		<edge from-layer="397" from-port="1" to-layer="398" to-port="1"/>
		<edge from-layer="398" from-port="2" to-layer="400" to-port="0"/>
		<edge from-layer="399" from-port="1" to-layer="400" to-port="1"/>
		<edge from-layer="400" from-port="2" to-layer="402" to-port="0"/>
		<edge from-layer="401" from-port="1" to-layer="402" to-port="1"/>
		<edge from-layer="402" from-port="2" to-layer="404" to-port="0"/>
		<edge from-layer="403" from-port="1" to-layer="404" to-port="1"/>
		<edge from-layer="404" from-port="3" to-layer="407" to-port="0"/>
		<edge from-layer="406" from-port="1" to-layer="407" to-port="1"/>
		<edge from-layer="407" from-port="2" to-layer="409" to-port="0"/>
		<edge from-layer="408" from-port="1" to-layer="409" to-port="1"/>
		<edge from-layer="409" from-port="2" to-layer="410" to-port="0"/>
	</edges>
	<meta_data>
		<MO_version value="2020.2.0-37-gd17ecf5ae7"/>
		<cli_parameters>
			<blobs_as_inputs value="True"/>
			<caffe_parser_path value="DIR"/>
			<data_type value="FP16"/>
			<disable_nhwc_to_nchw value="False"/>
			<disable_omitting_optional value="False"/>
			<disable_resnet_optimization value="False"/>
			<disable_weights_compression value="False"/>
			<enable_concat_optimization value="False"/>
			<enable_flattening_nested_params value="False"/>
			<enable_ssd_gluoncv value="False"/>
			<extensions value="DIR"/>
			<framework value="tf"/>
			<freeze_placeholder_with_value value="{}"/>
			<generate_deprecated_IR_V2 value="False"/>
			<generate_deprecated_IR_V7 value="False"/>
			<generate_experimental_IR_V10 value="True"/>
			<input value="data"/>
			<input_model value="DIR/frozen_graph.pb"/>
			<input_model_is_text value="False"/>
			<input_shape value="[1,720,960,3]"/>
			<k value="DIR/CustomLayersMapping.xml"/>
			<keep_quantize_ops_in_IR value="True"/>
			<keep_shape_ops value="False"/>
			<legacy_mxnet_model value="False"/>
			<log_level value="ERROR"/>
			<mean_scale_values value="{}"/>
			<mean_values value="()"/>
			<model_name value="icnet-camvid-ava-0001"/>
			<move_to_preprocess value="False"/>
			<output value="['segmentation_output']"/>
			<output_dir value="DIR"/>
			<placeholder_data_types value="{}"/>
			<placeholder_shapes value="{'data': array([  1, 720, 960,   3])}"/>
			<progress value="False"/>
			<remove_memory value="False"/>
			<remove_output_softmax value="False"/>
			<reverse_input_channels value="False"/>
			<save_params_from_nd value="False"/>
			<scale_values value="()"/>
			<silent value="False"/>
			<stream_output value="False"/>
			<unset unset_cli_parameters="batch, counts, disable_fusing, disable_gfusing, finegrain_fusing, input_checkpoint, input_meta_graph, input_proto, input_symbol, mean_file, mean_file_offsets, nd_prefix_name, pretrained_model_name, saved_model_dir, saved_model_tags, scale, tensorboard_logdir, tensorflow_custom_layer_libraries, tensorflow_custom_operations_config_update, tensorflow_object_detection_api_pipeline_config, tensorflow_use_custom_operations_config, transformations_config"/>
		</cli_parameters>
	</meta_data>
</net>
