<?xml version="1.0" ?>
<net name="icnet-camvid-ava-0001" version="10">
	<layers>
		<layer id="0" name="data" type="Parameter" version="opset1">
			<data element_type="f16" shape="1,3,720,960"/>
			<output>
				<port id="0" precision="FP16">
					<dim>1</dim>
					<dim>3</dim>
					<dim>720</dim>
					<dim>960</dim>
				</port>
			</output>
		</layer>
		<layer id="1" name="image_preprocess/truediv/reciprocal_14400/copy_const412_const" type="Const" version="opset1">
			<data element_type="f16" offset="0" shape="1,3,1,1" size="6"/>
			<output>
				<port id="1" precision="FP16">
					<dim>1</dim>
					<dim>3</dim>
					<dim>1</dim>
					<dim>1</dim>
				</port>
			</output>
		</layer>
		<layer id="2" name="image_preprocess/truediv" type="Multiply" version="opset1">
			<input>
				<port id="0">
					<dim>1</dim>
					<dim>3</dim>
					<dim>720</dim>
					<dim>960</dim>
				</port>
				<port id="1">
					<dim>1</dim>
					<dim>3</dim>
					<dim>1</dim>
					<dim>1</dim>
				</port>
			</input>
			<output>
				<port id="2" precision="FP16">
					<dim>1</dim>
					<dim>3</dim>
					<dim>720</dim>
					<dim>960</dim>
				</port>
			</output>
		</layer>
		<layer id="3" name="image_preprocess/sub/neg_14406/copy_const414_const" type="Const" version="opset1">
			<data element_type="f16" offset="6" shape="1,3,1,1" size="6"/>
			<output>
				<port id="1" precision="FP16">
					<dim>1</dim>
					<dim>3</dim>
					<dim>1</dim>
					<dim>1</dim>
				</port>
			</output>
		</layer>
		<layer id="4" name="image_preprocess/sub" type="Add" version="opset1">
			<input>
				<port id="0">
					<dim>1</dim>
					<dim>3</dim>
					<dim>720</dim>
					<dim>960</dim>
				</port>
				<port id="1">
					<dim>1</dim>
					<dim>3</dim>
					<dim>1</dim>
					<dim>1</dim>
				</port>
			</input>
			<output>
				<port id="2" precision="FP16">
					<dim>1</dim>
					<dim>3</dim>
					<dim>720</dim>
					<dim>960</dim>
				</port>
			</output>
		</layer>
		<layer id="5" name="24672471_const" type="Const" version="opset1">
			<data element_type="f16" offset="12" shape="" size="2"/>
			<output>
				<port id="1" precision="FP16"/>
			</output>
		</layer>
		<layer id="6" name="24682472_const" type="Const" version="opset1">
			<data element_type="f16" offset="14" shape="" size="2"/>
			<output>
				<port id="1" precision="FP16"/>
			</output>
		</layer>
		<layer id="7" name="24692473_const" type="Const" version="opset1">
			<data element_type="f16" offset="12" shape="" size="2"/>
			<output>
				<port id="1" precision="FP16"/>
			</output>
		</layer>
		<layer id="8" name="24702474_const" type="Const" version="opset1">
			<data element_type="f16" offset="14" shape="" size="2"/>
			<output>
				<port id="1" precision="FP16"/>
			</output>
		</layer>
		<layer id="9" name="icnet_features/conv1_sub1_1/Conv2D/fq_input_0" type="FakeQuantize" version="opset1">
			<data levels="256"/>
			<input>
				<port id="0">
					<dim>1</dim>
					<dim>3</dim>
					<dim>720</dim>
					<dim>960</dim>
				</port>
				<port id="1"/>
				<port id="2"/>
				<port id="3"/>
				<port id="4"/>
			</input>
			<output>
				<port id="5" precision="FP16">
					<dim>1</dim>
					<dim>3</dim>
					<dim>720</dim>
					<dim>960</dim>
				</port>
			</output>
		</layer>
		<layer id="10" name="icnet_features/data_sub2_1/Cast_17715_const" type="Const" version="opset1">
			<data element_type="i64" offset="16" shape="2" size="16"/>
			<output>
				<port id="1" precision="I64">
					<dim>2</dim>
				</port>
			</output>
		</layer>
		<layer id="11" name="icnet_features/data_sub2_1" type="Interpolate" version="opset1">
			<data align_corners="1" antialias="0" axes="2,3" mode="linear" pads_begin="0" pads_end="0"/>
			<input>
				<port id="0">
					<dim>1</dim>
					<dim>3</dim>
					<dim>720</dim>
					<dim>960</dim>
				</port>
				<port id="1">
					<dim>2</dim>
				</port>
			</input>
			<output>
				<port id="2" precision="FP16">
					<dim>1</dim>
					<dim>3</dim>
					<dim>360</dim>
					<dim>480</dim>
				</port>
			</output>
		</layer>
		<layer id="12" name="13971401_const" type="Const" version="opset1">
			<data element_type="f16" offset="12" shape="" size="2"/>
			<output>
				<port id="1" precision="FP16"/>
			</output>
		</layer>
		<layer id="13" name="13981402_const" type="Const" version="opset1">
			<data element_type="f16" offset="14" shape="" size="2"/>
			<output>
				<port id="1" precision="FP16"/>
			</output>
		</layer>
		<layer id="14" name="13991403_const" type="Const" version="opset1">
			<data element_type="f16" offset="12" shape="" size="2"/>
			<output>
				<port id="1" precision="FP16"/>
			</output>
		</layer>
		<layer id="15" name="14001404_const" type="Const" version="opset1">
			<data element_type="f16" offset="14" shape="" size="2"/>
			<output>
				<port id="1" precision="FP16"/>
			</output>
		</layer>
		<layer id="16" name="icnet_features/conv1_1_3x3_s2_1/Conv2D/fq_input_0" type="FakeQuantize" version="opset1">
			<data levels="256"/>
			<input>
				<port id="0">
					<dim>1</dim>
					<dim>3</dim>
					<dim>360</dim>
					<dim>480</dim>
				</port>
				<port id="1"/>
				<port id="2"/>
				<port id="3"/>
				<port id="4"/>
			</input>
			<output>
				<port id="5" precision="FP16">
					<dim>1</dim>
					<dim>3</dim>
					<dim>360</dim>
					<dim>480</dim>
				</port>
			</output>
		</layer>
		<layer id="17" name="icnet_features/conv1_1_3x3_s2_1/Conv2D/fq_weights_1/Convert_to_float/Cast_07799_const" type="Const" version="opset1">
			<data element_type="u8" offset="32" shape="64,3,3,3" size="1728"/>
			<output>
				<port id="1" precision="U8">
					<dim>64</dim>
					<dim>3</dim>
					<dim>3</dim>
					<dim>3</dim>
				</port>
			</output>
		</layer>
		<layer id="18" name="icnet_features/conv1_1_3x3_s2_1/Conv2D/fq_weights_1/Convert_to_float" type="Convert" version="opset1">
			<data destination_type="f16"/>
			<input>
				<port id="0">
					<dim>64</dim>
					<dim>3</dim>
					<dim>3</dim>
					<dim>3</dim>
				</port>
			</input>
			<output>
				<port id="1" precision="FP16">
					<dim>64</dim>
					<dim>3</dim>
					<dim>3</dim>
					<dim>3</dim>
				</port>
			</output>
		</layer>
		<layer id="19" name="icnet_features/conv1_1_3x3_s2_1/Conv2D/fq_weights_1/Copy/out_low6313_const" type="Const" version="opset1">
			<data element_type="f16" offset="1760" shape="1" size="2"/>
			<output>
				<port id="1" precision="FP16">
					<dim>1</dim>
				</port>
			</output>
		</layer>
		<layer id="20" name="icnet_features/conv1_1_3x3_s2_1/Conv2D/fq_weights_1/Copy/out_high6314_const" type="Const" version="opset1">
			<data element_type="f16" offset="1762" shape="1" size="2"/>
			<output>
				<port id="1" precision="FP16">
					<dim>1</dim>
				</port>
			</output>
		</layer>
		<layer id="21" name="14091413_const" type="Const" version="opset1">
			<data element_type="f16" offset="1764" shape="64,1,1,1" size="128"/>
			<output>
				<port id="1" precision="FP16">
					<dim>64</dim>
					<dim>1</dim>
					<dim>1</dim>
					<dim>1</dim>
				</port>
			</output>
		</layer>
		<layer id="22" name="14101414_const" type="Const" version="opset1">
			<data element_type="f16" offset="1892" shape="64,1,1,1" size="128"/>
			<output>
				<port id="1" precision="FP16">
					<dim>64</dim>
					<dim>1</dim>
					<dim>1</dim>
					<dim>1</dim>
				</port>
			</output>
		</layer>
		<layer id="23" name="icnet_features/conv1_1_3x3_s2_1/Conv2D/fq_weights_1" type="FakeQuantize" version="opset1">
			<data levels="255"/>
			<input>
				<port id="0">
					<dim>64</dim>
					<dim>3</dim>
					<dim>3</dim>
					<dim>3</dim>
				</port>
				<port id="1">
					<dim>1</dim>
				</port>
				<port id="2">
					<dim>1</dim>
				</port>
				<port id="3">
					<dim>64</dim>
					<dim>1</dim>
					<dim>1</dim>
					<dim>1</dim>
				</port>
				<port id="4">
					<dim>64</dim>
					<dim>1</dim>
					<dim>1</dim>
					<dim>1</dim>
				</port>
			</input>
			<output>
				<port id="5" precision="FP16">
					<dim>64</dim>
					<dim>3</dim>
					<dim>3</dim>
					<dim>3</dim>
				</port>
			</output>
		</layer>
		<layer id="24" name="icnet_features/conv1_1_3x3_s2_1/Conv2D" type="Convolution" version="opset1">
			<data auto_pad="same_upper" dilations="1,1" output_padding="0,0" pads_begin="0,0" pads_end="1,1" strides="2,2"/>
			<input>
				<port id="0">
					<dim>1</dim>
					<dim>3</dim>
					<dim>360</dim>
					<dim>480</dim>
				</port>
				<port id="1">
					<dim>64</dim>
					<dim>3</dim>
					<dim>3</dim>
					<dim>3</dim>
				</port>
			</input>
			<output>
				<port id="2" precision="FP16">
					<dim>1</dim>
					<dim>64</dim>
					<dim>180</dim>
					<dim>240</dim>
				</port>
			</output>
		</layer>
		<layer id="25" name="data_add_1514015145/copy_const420_const" type="Const" version="opset1">
			<data element_type="f16" offset="2020" shape="1,64,1,1" size="128"/>
			<output>
				<port id="1" precision="FP16">
					<dim>1</dim>
					<dim>64</dim>
					<dim>1</dim>
					<dim>1</dim>
				</port>
			</output>
		</layer>
		<layer id="26" name="icnet_features/conv1_1_3x3_s2_bn_2/FusedBatchNorm/variance/Fused_Add_" type="Add" version="opset1">
			<input>
				<port id="0">
					<dim>1</dim>
					<dim>64</dim>
					<dim>180</dim>
					<dim>240</dim>
				</port>
				<port id="1">
					<dim>1</dim>
					<dim>64</dim>
					<dim>1</dim>
					<dim>1</dim>
				</port>
			</input>
			<output>
				<port id="2" precision="FP16">
					<dim>1</dim>
					<dim>64</dim>
					<dim>180</dim>
					<dim>240</dim>
				</port>
			</output>
		</layer>
		<layer id="27" name="icnet_features/conv1_1_3x3_s2_bn_3/conv1_1_3x3_s2_bn" type="ReLU" version="opset1">
			<input>
				<port id="0">
					<dim>1</dim>
					<dim>64</dim>
					<dim>180</dim>
					<dim>240</dim>
				</port>
			</input>
			<output>
				<port id="1" precision="FP16">
					<dim>1</dim>
					<dim>64</dim>
					<dim>180</dim>
					<dim>240</dim>
				</port>
			</output>
		</layer>
		<layer id="28" name="30073011_const" type="Const" version="opset1">
			<data element_type="f16" offset="2148" shape="" size="2"/>
			<output>
				<port id="1" precision="FP16"/>
			</output>
		</layer>
		<layer id="29" name="30083012_const" type="Const" version="opset1">
			<data element_type="f16" offset="2150" shape="" size="2"/>
			<output>
				<port id="1" precision="FP16"/>
			</output>
		</layer>
		<layer id="30" name="30093013_const" type="Const" version="opset1">
			<data element_type="f16" offset="2148" shape="" size="2"/>
			<output>
				<port id="1" precision="FP16"/>
			</output>
		</layer>
		<layer id="31" name="30103014_const" type="Const" version="opset1">
			<data element_type="f16" offset="2150" shape="" size="2"/>
			<output>
				<port id="1" precision="FP16"/>
			</output>
		</layer>
		<layer id="32" name="icnet_features/conv1_2_3x3_1/Conv2D/fq_input_0" type="FakeQuantize" version="opset1">
			<data levels="256"/>
			<input>
				<port id="0">
					<dim>1</dim>
					<dim>64</dim>
					<dim>180</dim>
					<dim>240</dim>
				</port>
				<port id="1"/>
				<port id="2"/>
				<port id="3"/>
				<port id="4"/>
			</input>
			<output>
				<port id="5" precision="FP16">
					<dim>1</dim>
					<dim>64</dim>
					<dim>180</dim>
					<dim>240</dim>
				</port>
			</output>
		</layer>
		<layer id="33" name="icnet_features/conv1_2_3x3_1/Conv2D/fq_weights_1/Convert_to_float/Cast_07675_const" type="Const" version="opset1">
			<data element_type="u8" offset="2152" shape="64,64,3,3" size="36864"/>
			<output>
				<port id="1" precision="U8">
					<dim>64</dim>
					<dim>64</dim>
					<dim>3</dim>
					<dim>3</dim>
				</port>
			</output>
		</layer>
		<layer id="34" name="icnet_features/conv1_2_3x3_1/Conv2D/fq_weights_1/Convert_to_float" type="Convert" version="opset1">
			<data destination_type="f16"/>
			<input>
				<port id="0">
					<dim>64</dim>
					<dim>64</dim>
					<dim>3</dim>
					<dim>3</dim>
				</port>
			</input>
			<output>
				<port id="1" precision="FP16">
					<dim>64</dim>
					<dim>64</dim>
					<dim>3</dim>
					<dim>3</dim>
				</port>
			</output>
		</layer>
		<layer id="35" name="icnet_features/conv1_2_3x3_1/Conv2D/fq_weights_1/Copy/out_low6705_const" type="Const" version="opset1">
			<data element_type="f16" offset="39016" shape="1" size="2"/>
			<output>
				<port id="1" precision="FP16">
					<dim>1</dim>
				</port>
			</output>
		</layer>
		<layer id="36" name="icnet_features/conv1_2_3x3_1/Conv2D/fq_weights_1/Copy/out_high6706_const" type="Const" version="opset1">
			<data element_type="f16" offset="1762" shape="1" size="2"/>
			<output>
				<port id="1" precision="FP16">
					<dim>1</dim>
				</port>
			</output>
		</layer>
		<layer id="37" name="30193023_const" type="Const" version="opset1">
			<data element_type="f16" offset="39018" shape="64,1,1,1" size="128"/>
			<output>
				<port id="1" precision="FP16">
					<dim>64</dim>
					<dim>1</dim>
					<dim>1</dim>
					<dim>1</dim>
				</port>
			</output>
		</layer>
		<layer id="38" name="30203024_const" type="Const" version="opset1">
			<data element_type="f16" offset="39146" shape="64,1,1,1" size="128"/>
			<output>
				<port id="1" precision="FP16">
					<dim>64</dim>
					<dim>1</dim>
					<dim>1</dim>
					<dim>1</dim>
				</port>
			</output>
		</layer>
		<layer id="39" name="icnet_features/conv1_2_3x3_1/Conv2D/fq_weights_1" type="FakeQuantize" version="opset1">
			<data levels="255"/>
			<input>
				<port id="0">
					<dim>64</dim>
					<dim>64</dim>
					<dim>3</dim>
					<dim>3</dim>
				</port>
				<port id="1">
					<dim>1</dim>
				</port>
				<port id="2">
					<dim>1</dim>
				</port>
				<port id="3">
					<dim>64</dim>
					<dim>1</dim>
					<dim>1</dim>
					<dim>1</dim>
				</port>
				<port id="4">
					<dim>64</dim>
					<dim>1</dim>
					<dim>1</dim>
					<dim>1</dim>
				</port>
			</input>
			<output>
				<port id="5" precision="FP16">
					<dim>64</dim>
					<dim>64</dim>
					<dim>3</dim>
					<dim>3</dim>
				</port>
			</output>
		</layer>
		<layer id="40" name="icnet_features/conv1_2_3x3_1/Conv2D" type="Convolution" version="opset1">
			<data auto_pad="same_upper" dilations="1,1" output_padding="0,0" pads_begin="1,1" pads_end="1,1" strides="1,1"/>
			<input>
				<port id="0">
					<dim>1</dim>
					<dim>64</dim>
					<dim>180</dim>
					<dim>240</dim>
				</port>
				<port id="1">
					<dim>64</dim>
					<dim>64</dim>
					<dim>3</dim>
					<dim>3</dim>
				</port>
			</input>
			<output>
				<port id="2" precision="FP16">
					<dim>1</dim>
					<dim>64</dim>
					<dim>180</dim>
					<dim>240</dim>
				</port>
			</output>
		</layer>
		<layer id="41" name="data_add_1514815153/copy_const425_const" type="Const" version="opset1">
			<data element_type="f16" offset="39274" shape="1,64,1,1" size="128"/>
			<output>
				<port id="1" precision="FP16">
					<dim>1</dim>
					<dim>64</dim>
					<dim>1</dim>
					<dim>1</dim>
				</port>
			</output>
		</layer>
		<layer id="42" name="icnet_features/conv1_2_3x3_bn_2/FusedBatchNorm/variance/Fused_Add_" type="Add" version="opset1">
			<input>
				<port id="0">
					<dim>1</dim>
					<dim>64</dim>
					<dim>180</dim>
					<dim>240</dim>
				</port>
				<port id="1">
					<dim>1</dim>
					<dim>64</dim>
					<dim>1</dim>
					<dim>1</dim>
				</port>
			</input>
			<output>
				<port id="2" precision="FP16">
					<dim>1</dim>
					<dim>64</dim>
					<dim>180</dim>
					<dim>240</dim>
				</port>
			</output>
		</layer>
		<layer id="43" name="icnet_features/conv1_2_3x3_bn_3/conv1_2_3x3_bn" type="ReLU" version="opset1">
			<input>
				<port id="0">
					<dim>1</dim>
					<dim>64</dim>
					<dim>180</dim>
					<dim>240</dim>
				</port>
			</input>
			<output>
				<port id="1" precision="FP16">
					<dim>1</dim>
					<dim>64</dim>
					<dim>180</dim>
					<dim>240</dim>
				</port>
			</output>
		</layer>
		<layer id="44" name="13171321_const" type="Const" version="opset1">
			<data element_type="f16" offset="39402" shape="" size="2"/>
			<output>
				<port id="1" precision="FP16"/>
			</output>
		</layer>
		<layer id="45" name="13181322_const" type="Const" version="opset1">
			<data element_type="f16" offset="39404" shape="" size="2"/>
			<output>
				<port id="1" precision="FP16"/>
			</output>
		</layer>
		<layer id="46" name="13191323_const" type="Const" version="opset1">
			<data element_type="f16" offset="39402" shape="" size="2"/>
			<output>
				<port id="1" precision="FP16"/>
			</output>
		</layer>
		<layer id="47" name="13201324_const" type="Const" version="opset1">
			<data element_type="f16" offset="39404" shape="" size="2"/>
			<output>
				<port id="1" precision="FP16"/>
			</output>
		</layer>
		<layer id="48" name="icnet_features/conv1_3_3x3_1/Conv2D/fq_input_0" type="FakeQuantize" version="opset1">
			<data levels="256"/>
			<input>
				<port id="0">
					<dim>1</dim>
					<dim>64</dim>
					<dim>180</dim>
					<dim>240</dim>
				</port>
				<port id="1"/>
				<port id="2"/>
				<port id="3"/>
				<port id="4"/>
			</input>
			<output>
				<port id="5" precision="FP16">
					<dim>1</dim>
					<dim>64</dim>
					<dim>180</dim>
					<dim>240</dim>
				</port>
			</output>
		</layer>
		<layer id="49" name="icnet_features/conv1_3_3x3_1/Conv2D/fq_weights_1/Convert_to_float/Cast_07755_const" type="Const" version="opset1">
			<data element_type="u8" offset="39406" shape="128,64,3,3" size="73728"/>
			<output>
				<port id="1" precision="U8">
					<dim>128</dim>
					<dim>64</dim>
					<dim>3</dim>
					<dim>3</dim>
				</port>
			</output>
		</layer>
		<layer id="50" name="icnet_features/conv1_3_3x3_1/Conv2D/fq_weights_1/Convert_to_float" type="Convert" version="opset1">
			<data destination_type="f16"/>
			<input>
				<port id="0">
					<dim>128</dim>
					<dim>64</dim>
					<dim>3</dim>
					<dim>3</dim>
				</port>
			</input>
			<output>
				<port id="1" precision="FP16">
					<dim>128</dim>
					<dim>64</dim>
					<dim>3</dim>
					<dim>3</dim>
				</port>
			</output>
		</layer>
		<layer id="51" name="icnet_features/conv1_3_3x3_1/Conv2D/fq_weights_1/Copy/out_low6297_const" type="Const" version="opset1">
			<data element_type="f16" offset="113134" shape="1" size="2"/>
			<output>
				<port id="1" precision="FP16">
					<dim>1</dim>
				</port>
			</output>
		</layer>
		<layer id="52" name="icnet_features/conv1_3_3x3_1/Conv2D/fq_weights_1/Copy/out_high6298_const" type="Const" version="opset1">
			<data element_type="f16" offset="1762" shape="1" size="2"/>
			<output>
				<port id="1" precision="FP16">
					<dim>1</dim>
				</port>
			</output>
		</layer>
		<layer id="53" name="13291333_const" type="Const" version="opset1">
			<data element_type="f16" offset="113136" shape="128,1,1,1" size="256"/>
			<output>
				<port id="1" precision="FP16">
					<dim>128</dim>
					<dim>1</dim>
					<dim>1</dim>
					<dim>1</dim>
				</port>
			</output>
		</layer>
		<layer id="54" name="13301334_const" type="Const" version="opset1">
			<data element_type="f16" offset="113392" shape="128,1,1,1" size="256"/>
			<output>
				<port id="1" precision="FP16">
					<dim>128</dim>
					<dim>1</dim>
					<dim>1</dim>
					<dim>1</dim>
				</port>
			</output>
		</layer>
		<layer id="55" name="icnet_features/conv1_3_3x3_1/Conv2D/fq_weights_1" type="FakeQuantize" version="opset1">
			<data levels="255"/>
			<input>
				<port id="0">
					<dim>128</dim>
					<dim>64</dim>
					<dim>3</dim>
					<dim>3</dim>
				</port>
				<port id="1">
					<dim>1</dim>
				</port>
				<port id="2">
					<dim>1</dim>
				</port>
				<port id="3">
					<dim>128</dim>
					<dim>1</dim>
					<dim>1</dim>
					<dim>1</dim>
				</port>
				<port id="4">
					<dim>128</dim>
					<dim>1</dim>
					<dim>1</dim>
					<dim>1</dim>
				</port>
			</input>
			<output>
				<port id="5" precision="FP16">
					<dim>128</dim>
					<dim>64</dim>
					<dim>3</dim>
					<dim>3</dim>
				</port>
			</output>
		</layer>
		<layer id="56" name="icnet_features/conv1_3_3x3_1/Conv2D" type="Convolution" version="opset1">
			<data auto_pad="same_upper" dilations="1,1" output_padding="0,0" pads_begin="1,1" pads_end="1,1" strides="1,1"/>
			<input>
				<port id="0">
					<dim>1</dim>
					<dim>64</dim>
					<dim>180</dim>
					<dim>240</dim>
				</port>
				<port id="1">
					<dim>128</dim>
					<dim>64</dim>
					<dim>3</dim>
					<dim>3</dim>
				</port>
			</input>
			<output>
				<port id="2" precision="FP16">
					<dim>1</dim>
					<dim>128</dim>
					<dim>180</dim>
					<dim>240</dim>
				</port>
			</output>
		</layer>
		<layer id="57" name="data_add_1515615161/copy_const430_const" type="Const" version="opset1">
			<data element_type="f16" offset="113648" shape="1,128,1,1" size="256"/>
			<output>
				<port id="1" precision="FP16">
					<dim>1</dim>
					<dim>128</dim>
					<dim>1</dim>
					<dim>1</dim>
				</port>
			</output>
		</layer>
		<layer id="58" name="icnet_features/conv1_3_3x3_bn_2/FusedBatchNorm/variance/Fused_Add_" type="Add" version="opset1">
			<input>
				<port id="0">
					<dim>1</dim>
					<dim>128</dim>
					<dim>180</dim>
					<dim>240</dim>
				</port>
				<port id="1">
					<dim>1</dim>
					<dim>128</dim>
					<dim>1</dim>
					<dim>1</dim>
				</port>
			</input>
			<output>
				<port id="2" precision="FP16">
					<dim>1</dim>
					<dim>128</dim>
					<dim>180</dim>
					<dim>240</dim>
				</port>
			</output>
		</layer>
		<layer id="59" name="icnet_features/conv1_3_3x3_bn_3/conv1_3_3x3_bn" type="ReLU" version="opset1">
			<input>
				<port id="0">
					<dim>1</dim>
					<dim>128</dim>
					<dim>180</dim>
					<dim>240</dim>
				</port>
			</input>
			<output>
				<port id="1" precision="FP16">
					<dim>1</dim>
					<dim>128</dim>
					<dim>180</dim>
					<dim>240</dim>
				</port>
			</output>
		</layer>
		<layer id="60" name="43394343_const" type="Const" version="opset1">
			<data element_type="f16" offset="113904" shape="" size="2"/>
			<output>
				<port id="1" precision="FP16"/>
			</output>
		</layer>
		<layer id="61" name="43404344_const" type="Const" version="opset1">
			<data element_type="f16" offset="113906" shape="" size="2"/>
			<output>
				<port id="1" precision="FP16"/>
			</output>
		</layer>
		<layer id="62" name="43414345_const" type="Const" version="opset1">
			<data element_type="f16" offset="113904" shape="" size="2"/>
			<output>
				<port id="1" precision="FP16"/>
			</output>
		</layer>
		<layer id="63" name="43424346_const" type="Const" version="opset1">
			<data element_type="f16" offset="113906" shape="" size="2"/>
			<output>
				<port id="1" precision="FP16"/>
			</output>
		</layer>
		<layer id="64" name="icnet_features/pool1_3x3_s2_1/MaxPool/fq_input_0" type="FakeQuantize" version="opset1">
			<data levels="256"/>
			<input>
				<port id="0">
					<dim>1</dim>
					<dim>128</dim>
					<dim>180</dim>
					<dim>240</dim>
				</port>
				<port id="1"/>
				<port id="2"/>
				<port id="3"/>
				<port id="4"/>
			</input>
			<output>
				<port id="5" precision="FP16">
					<dim>1</dim>
					<dim>128</dim>
					<dim>180</dim>
					<dim>240</dim>
				</port>
			</output>
		</layer>
		<layer id="65" name="icnet_features/pool1_3x3_s2_1/MaxPool" type="MaxPool" version="opset1">
			<data kernel="3,3" pads_begin="1,1" pads_end="1,1" strides="2,2"/>
			<input>
				<port id="0">
					<dim>1</dim>
					<dim>128</dim>
					<dim>180</dim>
					<dim>240</dim>
				</port>
			</input>
			<output>
				<port id="1" precision="FP16">
					<dim>1</dim>
					<dim>128</dim>
					<dim>90</dim>
					<dim>120</dim>
				</port>
			</output>
		</layer>
		<layer id="66" name="icnet_features/conv2_1_1x1_proj_1/Conv2D/fq_weights_1/Convert_to_float/Cast_07671_const" type="Const" version="opset1">
			<data element_type="u8" offset="113908" shape="256,128,1,1" size="32768"/>
			<output>
				<port id="1" precision="U8">
					<dim>256</dim>
					<dim>128</dim>
					<dim>1</dim>
					<dim>1</dim>
				</port>
			</output>
		</layer>
		<layer id="67" name="icnet_features/conv2_1_1x1_proj_1/Conv2D/fq_weights_1/Convert_to_float" type="Convert" version="opset1">
			<data destination_type="f16"/>
			<input>
				<port id="0">
					<dim>256</dim>
					<dim>128</dim>
					<dim>1</dim>
					<dim>1</dim>
				</port>
			</input>
			<output>
				<port id="1" precision="FP16">
					<dim>256</dim>
					<dim>128</dim>
					<dim>1</dim>
					<dim>1</dim>
				</port>
			</output>
		</layer>
		<layer id="68" name="icnet_features/conv2_1_1x1_proj_1/Conv2D/fq_weights_1/Copy/out_low6457_const" type="Const" version="opset1">
			<data element_type="f16" offset="146676" shape="1" size="2"/>
			<output>
				<port id="1" precision="FP16">
					<dim>1</dim>
				</port>
			</output>
		</layer>
		<layer id="69" name="icnet_features/conv2_1_1x1_proj_1/Conv2D/fq_weights_1/Copy/out_high6458_const" type="Const" version="opset1">
			<data element_type="f16" offset="1762" shape="1" size="2"/>
			<output>
				<port id="1" precision="FP16">
					<dim>1</dim>
				</port>
			</output>
		</layer>
		<layer id="70" name="23292333_const" type="Const" version="opset1">
			<data element_type="f16" offset="146678" shape="256,1,1,1" size="512"/>
			<output>
				<port id="1" precision="FP16">
					<dim>256</dim>
					<dim>1</dim>
					<dim>1</dim>
					<dim>1</dim>
				</port>
			</output>
		</layer>
		<layer id="71" name="23302334_const" type="Const" version="opset1">
			<data element_type="f16" offset="147190" shape="256,1,1,1" size="512"/>
			<output>
				<port id="1" precision="FP16">
					<dim>256</dim>
					<dim>1</dim>
					<dim>1</dim>
					<dim>1</dim>
				</port>
			</output>
		</layer>
		<layer id="72" name="icnet_features/conv2_1_1x1_proj_1/Conv2D/fq_weights_1" type="FakeQuantize" version="opset1">
			<data levels="255"/>
			<input>
				<port id="0">
					<dim>256</dim>
					<dim>128</dim>
					<dim>1</dim>
					<dim>1</dim>
				</port>
				<port id="1">
					<dim>1</dim>
				</port>
				<port id="2">
					<dim>1</dim>
				</port>
				<port id="3">
					<dim>256</dim>
					<dim>1</dim>
					<dim>1</dim>
					<dim>1</dim>
				</port>
				<port id="4">
					<dim>256</dim>
					<dim>1</dim>
					<dim>1</dim>
					<dim>1</dim>
				</port>
			</input>
			<output>
				<port id="5" precision="FP16">
					<dim>256</dim>
					<dim>128</dim>
					<dim>1</dim>
					<dim>1</dim>
				</port>
			</output>
		</layer>
		<layer id="73" name="icnet_features/conv2_1_1x1_proj_1/Conv2D" type="Convolution" version="opset1">
			<data auto_pad="valid" dilations="1,1" output_padding="0,0" pads_begin="0,0" pads_end="0,0" strides="1,1"/>
			<input>
				<port id="0">
					<dim>1</dim>
					<dim>128</dim>
					<dim>90</dim>
					<dim>120</dim>
				</port>
				<port id="1">
					<dim>256</dim>
					<dim>128</dim>
					<dim>1</dim>
					<dim>1</dim>
				</port>
			</input>
			<output>
				<port id="2" precision="FP16">
					<dim>1</dim>
					<dim>256</dim>
					<dim>90</dim>
					<dim>120</dim>
				</port>
			</output>
		</layer>
		<layer id="74" name="data_add_1518815193/copy_const436_const" type="Const" version="opset1">
			<data element_type="f16" offset="147702" shape="1,256,1,1" size="512"/>
			<output>
				<port id="1" precision="FP16">
					<dim>1</dim>
					<dim>256</dim>
					<dim>1</dim>
					<dim>1</dim>
				</port>
			</output>
		</layer>
		<layer id="75" name="icnet_features/conv2_1_1x1_proj_bn_1/FusedBatchNorm/variance/Fused_Add_" type="Add" version="opset1">
			<input>
				<port id="0">
					<dim>1</dim>
					<dim>256</dim>
					<dim>90</dim>
					<dim>120</dim>
				</port>
				<port id="1">
					<dim>1</dim>
					<dim>256</dim>
					<dim>1</dim>
					<dim>1</dim>
				</port>
			</input>
			<output>
				<port id="2" precision="FP16">
					<dim>1</dim>
					<dim>256</dim>
					<dim>90</dim>
					<dim>120</dim>
				</port>
			</output>
		</layer>
		<layer id="76" name="13571361_const" type="Const" version="opset1">
			<data element_type="f16" offset="148214" shape="" size="2"/>
			<output>
				<port id="1" precision="FP16"/>
			</output>
		</layer>
		<layer id="77" name="13581362_const" type="Const" version="opset1">
			<data element_type="f16" offset="148216" shape="" size="2"/>
			<output>
				<port id="1" precision="FP16"/>
			</output>
		</layer>
		<layer id="78" name="13591363_const" type="Const" version="opset1">
			<data element_type="f16" offset="148214" shape="" size="2"/>
			<output>
				<port id="1" precision="FP16"/>
			</output>
		</layer>
		<layer id="79" name="13601364_const" type="Const" version="opset1">
			<data element_type="f16" offset="148216" shape="" size="2"/>
			<output>
				<port id="1" precision="FP16"/>
			</output>
		</layer>
		<layer id="80" name="icnet_features/ResizeBilinear_19/fq_input_0" type="FakeQuantize" version="opset1">
			<data levels="256"/>
			<input>
				<port id="0">
					<dim>1</dim>
					<dim>256</dim>
					<dim>90</dim>
					<dim>120</dim>
				</port>
				<port id="1"/>
				<port id="2"/>
				<port id="3"/>
				<port id="4"/>
			</input>
			<output>
				<port id="5" precision="FP16">
					<dim>1</dim>
					<dim>256</dim>
					<dim>90</dim>
					<dim>120</dim>
				</port>
			</output>
		</layer>
		<layer id="81" name="icnet_features/ResizeBilinear_19/Cast_17683_const" type="Const" version="opset1">
			<data element_type="i64" offset="148218" shape="2" size="16"/>
			<output>
				<port id="1" precision="I64">
					<dim>2</dim>
				</port>
			</output>
		</layer>
		<layer id="82" name="icnet_features/ResizeBilinear_19" type="Interpolate" version="opset1">
			<data align_corners="0" antialias="0" axes="2,3" mode="linear" pads_begin="0" pads_end="0"/>
			<input>
				<port id="0">
					<dim>1</dim>
					<dim>256</dim>
					<dim>90</dim>
					<dim>120</dim>
				</port>
				<port id="1">
					<dim>2</dim>
				</port>
			</input>
			<output>
				<port id="2" precision="FP16">
					<dim>1</dim>
					<dim>256</dim>
					<dim>90</dim>
					<dim>120</dim>
				</port>
			</output>
		</layer>
		<layer id="83" name="29672971_const" type="Const" version="opset1">
			<data element_type="f16" offset="148214" shape="" size="2"/>
			<output>
				<port id="1" precision="FP16"/>
			</output>
		</layer>
		<layer id="84" name="29682972_const" type="Const" version="opset1">
			<data element_type="f16" offset="148216" shape="" size="2"/>
			<output>
				<port id="1" precision="FP16"/>
			</output>
		</layer>
		<layer id="85" name="29692973_const" type="Const" version="opset1">
			<data element_type="f16" offset="148214" shape="" size="2"/>
			<output>
				<port id="1" precision="FP16"/>
			</output>
		</layer>
		<layer id="86" name="29702974_const" type="Const" version="opset1">
			<data element_type="f16" offset="148216" shape="" size="2"/>
			<output>
				<port id="1" precision="FP16"/>
			</output>
		</layer>
		<layer id="87" name="icnet_features/conv2_1_1/sum_1/fq_input_0" type="FakeQuantize" version="opset1">
			<data levels="256"/>
			<input>
				<port id="0">
					<dim>1</dim>
					<dim>256</dim>
					<dim>90</dim>
					<dim>120</dim>
				</port>
				<port id="1"/>
				<port id="2"/>
				<port id="3"/>
				<port id="4"/>
			</input>
			<output>
				<port id="5" precision="FP16">
					<dim>1</dim>
					<dim>256</dim>
					<dim>90</dim>
					<dim>120</dim>
				</port>
			</output>
		</layer>
		<layer id="88" name="icnet_features/conv2_1_1x1_reduce_1/Conv2D/fq_weights_1/Convert_to_float/Cast_07815_const" type="Const" version="opset1">
			<data element_type="u8" offset="148234" shape="64,128,1,1" size="8192"/>
			<output>
				<port id="1" precision="U8">
					<dim>64</dim>
					<dim>128</dim>
					<dim>1</dim>
					<dim>1</dim>
				</port>
			</output>
		</layer>
		<layer id="89" name="icnet_features/conv2_1_1x1_reduce_1/Conv2D/fq_weights_1/Convert_to_float" type="Convert" version="opset1">
			<data destination_type="f16"/>
			<input>
				<port id="0">
					<dim>64</dim>
					<dim>128</dim>
					<dim>1</dim>
					<dim>1</dim>
				</port>
			</input>
			<output>
				<port id="1" precision="FP16">
					<dim>64</dim>
					<dim>128</dim>
					<dim>1</dim>
					<dim>1</dim>
				</port>
			</output>
		</layer>
		<layer id="90" name="icnet_features/conv2_1_1x1_reduce_1/Conv2D/fq_weights_1/Copy/out_low6633_const" type="Const" version="opset1">
			<data element_type="f16" offset="146676" shape="1" size="2"/>
			<output>
				<port id="1" precision="FP16">
					<dim>1</dim>
				</port>
			</output>
		</layer>
		<layer id="91" name="icnet_features/conv2_1_1x1_reduce_1/Conv2D/fq_weights_1/Copy/out_high6634_const" type="Const" version="opset1">
			<data element_type="f16" offset="1762" shape="1" size="2"/>
			<output>
				<port id="1" precision="FP16">
					<dim>1</dim>
				</port>
			</output>
		</layer>
		<layer id="92" name="19891993_const" type="Const" version="opset1">
			<data element_type="f16" offset="156426" shape="64,1,1,1" size="128"/>
			<output>
				<port id="1" precision="FP16">
					<dim>64</dim>
					<dim>1</dim>
					<dim>1</dim>
					<dim>1</dim>
				</port>
			</output>
		</layer>
		<layer id="93" name="19901994_const" type="Const" version="opset1">
			<data element_type="f16" offset="156554" shape="64,1,1,1" size="128"/>
			<output>
				<port id="1" precision="FP16">
					<dim>64</dim>
					<dim>1</dim>
					<dim>1</dim>
					<dim>1</dim>
				</port>
			</output>
		</layer>
		<layer id="94" name="icnet_features/conv2_1_1x1_reduce_1/Conv2D/fq_weights_1" type="FakeQuantize" version="opset1">
			<data levels="255"/>
			<input>
				<port id="0">
					<dim>64</dim>
					<dim>128</dim>
					<dim>1</dim>
					<dim>1</dim>
				</port>
				<port id="1">
					<dim>1</dim>
				</port>
				<port id="2">
					<dim>1</dim>
				</port>
				<port id="3">
					<dim>64</dim>
					<dim>1</dim>
					<dim>1</dim>
					<dim>1</dim>
				</port>
				<port id="4">
					<dim>64</dim>
					<dim>1</dim>
					<dim>1</dim>
					<dim>1</dim>
				</port>
			</input>
			<output>
				<port id="5" precision="FP16">
					<dim>64</dim>
					<dim>128</dim>
					<dim>1</dim>
					<dim>1</dim>
				</port>
			</output>
		</layer>
		<layer id="95" name="icnet_features/conv2_1_1x1_reduce_1/Conv2D" type="Convolution" version="opset1">
			<data auto_pad="valid" dilations="1,1" output_padding="0,0" pads_begin="0,0" pads_end="0,0" strides="1,1"/>
			<input>
				<port id="0">
					<dim>1</dim>
					<dim>128</dim>
					<dim>90</dim>
					<dim>120</dim>
				</port>
				<port id="1">
					<dim>64</dim>
					<dim>128</dim>
					<dim>1</dim>
					<dim>1</dim>
				</port>
			</input>
			<output>
				<port id="2" precision="FP16">
					<dim>1</dim>
					<dim>64</dim>
					<dim>90</dim>
					<dim>120</dim>
				</port>
			</output>
		</layer>
		<layer id="96" name="data_add_1516415169/copy_const442_const" type="Const" version="opset1">
			<data element_type="f16" offset="156682" shape="1,64,1,1" size="128"/>
			<output>
				<port id="1" precision="FP16">
					<dim>1</dim>
					<dim>64</dim>
					<dim>1</dim>
					<dim>1</dim>
				</port>
			</output>
		</layer>
		<layer id="97" name="icnet_features/conv2_1_1x1_reduce_bn_2/FusedBatchNorm/variance/Fused_Add_" type="Add" version="opset1">
			<input>
				<port id="0">
					<dim>1</dim>
					<dim>64</dim>
					<dim>90</dim>
					<dim>120</dim>
				</port>
				<port id="1">
					<dim>1</dim>
					<dim>64</dim>
					<dim>1</dim>
					<dim>1</dim>
				</port>
			</input>
			<output>
				<port id="2" precision="FP16">
					<dim>1</dim>
					<dim>64</dim>
					<dim>90</dim>
					<dim>120</dim>
				</port>
			</output>
		</layer>
		<layer id="98" name="icnet_features/conv2_1_1x1_reduce_bn_3/conv2_1_1x1_reduce_bn" type="ReLU" version="opset1">
			<input>
				<port id="0">
					<dim>1</dim>
					<dim>64</dim>
					<dim>90</dim>
					<dim>120</dim>
				</port>
			</input>
			<output>
				<port id="1" precision="FP16">
					<dim>1</dim>
					<dim>64</dim>
					<dim>90</dim>
					<dim>120</dim>
				</port>
			</output>
		</layer>
		<layer id="99" name="20972101_const" type="Const" version="opset1">
			<data element_type="f16" offset="156810" shape="" size="2"/>
			<output>
				<port id="1" precision="FP16"/>
			</output>
		</layer>
		<layer id="100" name="20982102_const" type="Const" version="opset1">
			<data element_type="f16" offset="156812" shape="" size="2"/>
			<output>
				<port id="1" precision="FP16"/>
			</output>
		</layer>
		<layer id="101" name="20992103_const" type="Const" version="opset1">
			<data element_type="f16" offset="156810" shape="" size="2"/>
			<output>
				<port id="1" precision="FP16"/>
			</output>
		</layer>
		<layer id="102" name="21002104_const" type="Const" version="opset1">
			<data element_type="f16" offset="156812" shape="" size="2"/>
			<output>
				<port id="1" precision="FP16"/>
			</output>
		</layer>
		<layer id="103" name="icnet_features/conv2_1_3x3_1/Conv2D/fq_input_0" type="FakeQuantize" version="opset1">
			<data levels="256"/>
			<input>
				<port id="0">
					<dim>1</dim>
					<dim>64</dim>
					<dim>90</dim>
					<dim>120</dim>
				</port>
				<port id="1"/>
				<port id="2"/>
				<port id="3"/>
				<port id="4"/>
			</input>
			<output>
				<port id="5" precision="FP16">
					<dim>1</dim>
					<dim>64</dim>
					<dim>90</dim>
					<dim>120</dim>
				</port>
			</output>
		</layer>
		<layer id="104" name="icnet_features/conv2_1_3x3_1/Conv2D/fq_weights_1/Convert_to_float/Cast_07805_const" type="Const" version="opset1">
			<data element_type="u8" offset="156814" shape="64,64,3,3" size="36864"/>
			<output>
				<port id="1" precision="U8">
					<dim>64</dim>
					<dim>64</dim>
					<dim>3</dim>
					<dim>3</dim>
				</port>
			</output>
		</layer>
		<layer id="105" name="icnet_features/conv2_1_3x3_1/Conv2D/fq_weights_1/Convert_to_float" type="Convert" version="opset1">
			<data destination_type="f16"/>
			<input>
				<port id="0">
					<dim>64</dim>
					<dim>64</dim>
					<dim>3</dim>
					<dim>3</dim>
				</port>
			</input>
			<output>
				<port id="1" precision="FP16">
					<dim>64</dim>
					<dim>64</dim>
					<dim>3</dim>
					<dim>3</dim>
				</port>
			</output>
		</layer>
		<layer id="106" name="icnet_features/conv2_1_3x3_1/Conv2D/fq_weights_1/Copy/out_low6689_const" type="Const" version="opset1">
			<data element_type="f16" offset="193678" shape="1" size="2"/>
			<output>
				<port id="1" precision="FP16">
					<dim>1</dim>
				</port>
			</output>
		</layer>
		<layer id="107" name="icnet_features/conv2_1_3x3_1/Conv2D/fq_weights_1/Copy/out_high6690_const" type="Const" version="opset1">
			<data element_type="f16" offset="1762" shape="1" size="2"/>
			<output>
				<port id="1" precision="FP16">
					<dim>1</dim>
				</port>
			</output>
		</layer>
		<layer id="108" name="21092113_const" type="Const" version="opset1">
			<data element_type="f16" offset="193680" shape="64,1,1,1" size="128"/>
			<output>
				<port id="1" precision="FP16">
					<dim>64</dim>
					<dim>1</dim>
					<dim>1</dim>
					<dim>1</dim>
				</port>
			</output>
		</layer>
		<layer id="109" name="21102114_const" type="Const" version="opset1">
			<data element_type="f16" offset="193808" shape="64,1,1,1" size="128"/>
			<output>
				<port id="1" precision="FP16">
					<dim>64</dim>
					<dim>1</dim>
					<dim>1</dim>
					<dim>1</dim>
				</port>
			</output>
		</layer>
		<layer id="110" name="icnet_features/conv2_1_3x3_1/Conv2D/fq_weights_1" type="FakeQuantize" version="opset1">
			<data levels="255"/>
			<input>
				<port id="0">
					<dim>64</dim>
					<dim>64</dim>
					<dim>3</dim>
					<dim>3</dim>
				</port>
				<port id="1">
					<dim>1</dim>
				</port>
				<port id="2">
					<dim>1</dim>
				</port>
				<port id="3">
					<dim>64</dim>
					<dim>1</dim>
					<dim>1</dim>
					<dim>1</dim>
				</port>
				<port id="4">
					<dim>64</dim>
					<dim>1</dim>
					<dim>1</dim>
					<dim>1</dim>
				</port>
			</input>
			<output>
				<port id="5" precision="FP16">
					<dim>64</dim>
					<dim>64</dim>
					<dim>3</dim>
					<dim>3</dim>
				</port>
			</output>
		</layer>
		<layer id="111" name="icnet_features/conv2_1_3x3_1/Conv2D" type="Convolution" version="opset1">
			<data dilations="1,1" output_padding="0,0" pads_begin="1,1" pads_end="1,1" strides="1,1"/>
			<input>
				<port id="0">
					<dim>1</dim>
					<dim>64</dim>
					<dim>90</dim>
					<dim>120</dim>
				</port>
				<port id="1">
					<dim>64</dim>
					<dim>64</dim>
					<dim>3</dim>
					<dim>3</dim>
				</port>
			</input>
			<output>
				<port id="2" precision="FP16">
					<dim>1</dim>
					<dim>64</dim>
					<dim>90</dim>
					<dim>120</dim>
				</port>
			</output>
		</layer>
		<layer id="112" name="data_add_1517215177/copy_const447_const" type="Const" version="opset1">
			<data element_type="f16" offset="193936" shape="1,64,1,1" size="128"/>
			<output>
				<port id="1" precision="FP16">
					<dim>1</dim>
					<dim>64</dim>
					<dim>1</dim>
					<dim>1</dim>
				</port>
			</output>
		</layer>
		<layer id="113" name="icnet_features/conv2_1_3x3_bn_2/FusedBatchNorm/variance/Fused_Add_" type="Add" version="opset1">
			<input>
				<port id="0">
					<dim>1</dim>
					<dim>64</dim>
					<dim>90</dim>
					<dim>120</dim>
				</port>
				<port id="1">
					<dim>1</dim>
					<dim>64</dim>
					<dim>1</dim>
					<dim>1</dim>
				</port>
			</input>
			<output>
				<port id="2" precision="FP16">
					<dim>1</dim>
					<dim>64</dim>
					<dim>90</dim>
					<dim>120</dim>
				</port>
			</output>
		</layer>
		<layer id="114" name="icnet_features/conv2_1_3x3_bn_3/conv2_1_3x3_bn" type="ReLU" version="opset1">
			<input>
				<port id="0">
					<dim>1</dim>
					<dim>64</dim>
					<dim>90</dim>
					<dim>120</dim>
				</port>
			</input>
			<output>
				<port id="1" precision="FP16">
					<dim>1</dim>
					<dim>64</dim>
					<dim>90</dim>
					<dim>120</dim>
				</port>
			</output>
		</layer>
		<layer id="115" name="20372041_const" type="Const" version="opset1">
			<data element_type="f16" offset="194064" shape="" size="2"/>
			<output>
				<port id="1" precision="FP16"/>
			</output>
		</layer>
		<layer id="116" name="20382042_const" type="Const" version="opset1">
			<data element_type="f16" offset="194066" shape="" size="2"/>
			<output>
				<port id="1" precision="FP16"/>
			</output>
		</layer>
		<layer id="117" name="20392043_const" type="Const" version="opset1">
			<data element_type="f16" offset="194064" shape="" size="2"/>
			<output>
				<port id="1" precision="FP16"/>
			</output>
		</layer>
		<layer id="118" name="20402044_const" type="Const" version="opset1">
			<data element_type="f16" offset="194066" shape="" size="2"/>
			<output>
				<port id="1" precision="FP16"/>
			</output>
		</layer>
		<layer id="119" name="icnet_features/conv2_1_1x1_increase_1/Conv2D/fq_input_0" type="FakeQuantize" version="opset1">
			<data levels="256"/>
			<input>
				<port id="0">
					<dim>1</dim>
					<dim>64</dim>
					<dim>90</dim>
					<dim>120</dim>
				</port>
				<port id="1"/>
				<port id="2"/>
				<port id="3"/>
				<port id="4"/>
			</input>
			<output>
				<port id="5" precision="FP16">
					<dim>1</dim>
					<dim>64</dim>
					<dim>90</dim>
					<dim>120</dim>
				</port>
			</output>
		</layer>
		<layer id="120" name="icnet_features/conv2_1_1x1_increase_1/Conv2D/fq_weights_1/Convert_to_float/Cast_07745_const" type="Const" version="opset1">
			<data element_type="u8" offset="194068" shape="256,64,1,1" size="16384"/>
			<output>
				<port id="1" precision="U8">
					<dim>256</dim>
					<dim>64</dim>
					<dim>1</dim>
					<dim>1</dim>
				</port>
			</output>
		</layer>
		<layer id="121" name="icnet_features/conv2_1_1x1_increase_1/Conv2D/fq_weights_1/Convert_to_float" type="Convert" version="opset1">
			<data destination_type="f16"/>
			<input>
				<port id="0">
					<dim>256</dim>
					<dim>64</dim>
					<dim>1</dim>
					<dim>1</dim>
				</port>
			</input>
			<output>
				<port id="1" precision="FP16">
					<dim>256</dim>
					<dim>64</dim>
					<dim>1</dim>
					<dim>1</dim>
				</port>
			</output>
		</layer>
		<layer id="122" name="icnet_features/conv2_1_1x1_increase_1/Conv2D/fq_weights_1/Copy/out_low6441_const" type="Const" version="opset1">
			<data element_type="f16" offset="210452" shape="1" size="2"/>
			<output>
				<port id="1" precision="FP16">
					<dim>1</dim>
				</port>
			</output>
		</layer>
		<layer id="123" name="icnet_features/conv2_1_1x1_increase_1/Conv2D/fq_weights_1/Copy/out_high6442_const" type="Const" version="opset1">
			<data element_type="f16" offset="1762" shape="1" size="2"/>
			<output>
				<port id="1" precision="FP16">
					<dim>1</dim>
				</port>
			</output>
		</layer>
		<layer id="124" name="20492053_const" type="Const" version="opset1">
			<data element_type="f16" offset="210454" shape="256,1,1,1" size="512"/>
			<output>
				<port id="1" precision="FP16">
					<dim>256</dim>
					<dim>1</dim>
					<dim>1</dim>
					<dim>1</dim>
				</port>
			</output>
		</layer>
		<layer id="125" name="20502054_const" type="Const" version="opset1">
			<data element_type="f16" offset="210966" shape="256,1,1,1" size="512"/>
			<output>
				<port id="1" precision="FP16">
					<dim>256</dim>
					<dim>1</dim>
					<dim>1</dim>
					<dim>1</dim>
				</port>
			</output>
		</layer>
		<layer id="126" name="icnet_features/conv2_1_1x1_increase_1/Conv2D/fq_weights_1" type="FakeQuantize" version="opset1">
			<data levels="255"/>
			<input>
				<port id="0">
					<dim>256</dim>
					<dim>64</dim>
					<dim>1</dim>
					<dim>1</dim>
				</port>
				<port id="1">
					<dim>1</dim>
				</port>
				<port id="2">
					<dim>1</dim>
				</port>
				<port id="3">
					<dim>256</dim>
					<dim>1</dim>
					<dim>1</dim>
					<dim>1</dim>
				</port>
				<port id="4">
					<dim>256</dim>
					<dim>1</dim>
					<dim>1</dim>
					<dim>1</dim>
				</port>
			</input>
			<output>
				<port id="5" precision="FP16">
					<dim>256</dim>
					<dim>64</dim>
					<dim>1</dim>
					<dim>1</dim>
				</port>
			</output>
		</layer>
		<layer id="127" name="icnet_features/conv2_1_1x1_increase_1/Conv2D" type="Convolution" version="opset1">
			<data auto_pad="valid" dilations="1,1" output_padding="0,0" pads_begin="0,0" pads_end="0,0" strides="1,1"/>
			<input>
				<port id="0">
					<dim>1</dim>
					<dim>64</dim>
					<dim>90</dim>
					<dim>120</dim>
				</port>
				<port id="1">
					<dim>256</dim>
					<dim>64</dim>
					<dim>1</dim>
					<dim>1</dim>
				</port>
			</input>
			<output>
				<port id="2" precision="FP16">
					<dim>1</dim>
					<dim>256</dim>
					<dim>90</dim>
					<dim>120</dim>
				</port>
			</output>
		</layer>
		<layer id="128" name="data_add_1518015185/copy_const452_const" type="Const" version="opset1">
			<data element_type="f16" offset="211478" shape="1,256,1,1" size="512"/>
			<output>
				<port id="1" precision="FP16">
					<dim>1</dim>
					<dim>256</dim>
					<dim>1</dim>
					<dim>1</dim>
				</port>
			</output>
		</layer>
		<layer id="129" name="icnet_features/conv2_1_1x1_increase_bn_1/FusedBatchNorm/variance/Fused_Add_" type="Add" version="opset1">
			<input>
				<port id="0">
					<dim>1</dim>
					<dim>256</dim>
					<dim>90</dim>
					<dim>120</dim>
				</port>
				<port id="1">
					<dim>1</dim>
					<dim>256</dim>
					<dim>1</dim>
					<dim>1</dim>
				</port>
			</input>
			<output>
				<port id="2" precision="FP16">
					<dim>1</dim>
					<dim>256</dim>
					<dim>90</dim>
					<dim>120</dim>
				</port>
			</output>
		</layer>
		<layer id="130" name="29772981_const" type="Const" version="opset1">
			<data element_type="f16" offset="211990" shape="" size="2"/>
			<output>
				<port id="1" precision="FP16"/>
			</output>
		</layer>
		<layer id="131" name="29782982_const" type="Const" version="opset1">
			<data element_type="f16" offset="211992" shape="" size="2"/>
			<output>
				<port id="1" precision="FP16"/>
			</output>
		</layer>
		<layer id="132" name="29792983_const" type="Const" version="opset1">
			<data element_type="f16" offset="211990" shape="" size="2"/>
			<output>
				<port id="1" precision="FP16"/>
			</output>
		</layer>
		<layer id="133" name="29802984_const" type="Const" version="opset1">
			<data element_type="f16" offset="211992" shape="" size="2"/>
			<output>
				<port id="1" precision="FP16"/>
			</output>
		</layer>
		<layer id="134" name="icnet_features/conv2_1_1/sum_1/fq_input_1" type="FakeQuantize" version="opset1">
			<data levels="256"/>
			<input>
				<port id="0">
					<dim>1</dim>
					<dim>256</dim>
					<dim>90</dim>
					<dim>120</dim>
				</port>
				<port id="1"/>
				<port id="2"/>
				<port id="3"/>
				<port id="4"/>
			</input>
			<output>
				<port id="5" precision="FP16">
					<dim>1</dim>
					<dim>256</dim>
					<dim>90</dim>
					<dim>120</dim>
				</port>
			</output>
		</layer>
		<layer id="135" name="icnet_features/conv2_1_1/sum_1" type="Add" version="opset1">
			<input>
				<port id="0">
					<dim>1</dim>
					<dim>256</dim>
					<dim>90</dim>
					<dim>120</dim>
				</port>
				<port id="1">
					<dim>1</dim>
					<dim>256</dim>
					<dim>90</dim>
					<dim>120</dim>
				</port>
			</input>
			<output>
				<port id="2" precision="FP16">
					<dim>1</dim>
					<dim>256</dim>
					<dim>90</dim>
					<dim>120</dim>
				</port>
			</output>
		</layer>
		<layer id="136" name="icnet_features/conv2_1/relu_1" type="ReLU" version="opset1">
			<input>
				<port id="0">
					<dim>1</dim>
					<dim>256</dim>
					<dim>90</dim>
					<dim>120</dim>
				</port>
			</input>
			<output>
				<port id="1" precision="FP16">
					<dim>1</dim>
					<dim>256</dim>
					<dim>90</dim>
					<dim>120</dim>
				</port>
			</output>
		</layer>
		<layer id="137" name="15671571_const" type="Const" version="opset1">
			<data element_type="f16" offset="211994" shape="" size="2"/>
			<output>
				<port id="1" precision="FP16"/>
			</output>
		</layer>
		<layer id="138" name="15681572_const" type="Const" version="opset1">
			<data element_type="f16" offset="211996" shape="" size="2"/>
			<output>
				<port id="1" precision="FP16"/>
			</output>
		</layer>
		<layer id="139" name="15691573_const" type="Const" version="opset1">
			<data element_type="f16" offset="211994" shape="" size="2"/>
			<output>
				<port id="1" precision="FP16"/>
			</output>
		</layer>
		<layer id="140" name="15701574_const" type="Const" version="opset1">
			<data element_type="f16" offset="211996" shape="" size="2"/>
			<output>
				<port id="1" precision="FP16"/>
			</output>
		</layer>
		<layer id="141" name="icnet_features/ResizeBilinear_20/fq_input_0" type="FakeQuantize" version="opset1">
			<data levels="256"/>
			<input>
				<port id="0">
					<dim>1</dim>
					<dim>256</dim>
					<dim>90</dim>
					<dim>120</dim>
				</port>
				<port id="1"/>
				<port id="2"/>
				<port id="3"/>
				<port id="4"/>
			</input>
			<output>
				<port id="5" precision="FP16">
					<dim>1</dim>
					<dim>256</dim>
					<dim>90</dim>
					<dim>120</dim>
				</port>
			</output>
		</layer>
		<layer id="142" name="icnet_features/ResizeBilinear_20/Cast_17751_const" type="Const" version="opset1">
			<data element_type="i64" offset="148218" shape="2" size="16"/>
			<output>
				<port id="1" precision="I64">
					<dim>2</dim>
				</port>
			</output>
		</layer>
		<layer id="143" name="icnet_features/ResizeBilinear_20" type="Interpolate" version="opset1">
			<data align_corners="0" antialias="0" axes="2,3" mode="linear" pads_begin="0" pads_end="0"/>
			<input>
				<port id="0">
					<dim>1</dim>
					<dim>256</dim>
					<dim>90</dim>
					<dim>120</dim>
				</port>
				<port id="1">
					<dim>2</dim>
				</port>
			</input>
			<output>
				<port id="2" precision="FP16">
					<dim>1</dim>
					<dim>256</dim>
					<dim>90</dim>
					<dim>120</dim>
				</port>
			</output>
		</layer>
		<layer id="144" name="26472651_const" type="Const" version="opset1">
			<data element_type="f16" offset="211994" shape="" size="2"/>
			<output>
				<port id="1" precision="FP16"/>
			</output>
		</layer>
		<layer id="145" name="26482652_const" type="Const" version="opset1">
			<data element_type="f16" offset="211996" shape="" size="2"/>
			<output>
				<port id="1" precision="FP16"/>
			</output>
		</layer>
		<layer id="146" name="26492653_const" type="Const" version="opset1">
			<data element_type="f16" offset="211994" shape="" size="2"/>
			<output>
				<port id="1" precision="FP16"/>
			</output>
		</layer>
		<layer id="147" name="26502654_const" type="Const" version="opset1">
			<data element_type="f16" offset="211996" shape="" size="2"/>
			<output>
				<port id="1" precision="FP16"/>
			</output>
		</layer>
		<layer id="148" name="icnet_features/conv2_2_1/sum_1/fq_input_0" type="FakeQuantize" version="opset1">
			<data levels="256"/>
			<input>
				<port id="0">
					<dim>1</dim>
					<dim>256</dim>
					<dim>90</dim>
					<dim>120</dim>
				</port>
				<port id="1"/>
				<port id="2"/>
				<port id="3"/>
				<port id="4"/>
			</input>
			<output>
				<port id="5" precision="FP16">
					<dim>1</dim>
					<dim>256</dim>
					<dim>90</dim>
					<dim>120</dim>
				</port>
			</output>
		</layer>
		<layer id="149" name="icnet_features/conv2_2_1x1_reduce_1/Conv2D/fq_weights_1/Convert_to_float/Cast_07813_const" type="Const" version="opset1">
			<data element_type="u8" offset="211998" shape="64,256,1,1" size="16384"/>
			<output>
				<port id="1" precision="U8">
					<dim>64</dim>
					<dim>256</dim>
					<dim>1</dim>
					<dim>1</dim>
				</port>
			</output>
		</layer>
		<layer id="150" name="icnet_features/conv2_2_1x1_reduce_1/Conv2D/fq_weights_1/Convert_to_float" type="Convert" version="opset1">
			<data destination_type="f16"/>
			<input>
				<port id="0">
					<dim>64</dim>
					<dim>256</dim>
					<dim>1</dim>
					<dim>1</dim>
				</port>
			</input>
			<output>
				<port id="1" precision="FP16">
					<dim>64</dim>
					<dim>256</dim>
					<dim>1</dim>
					<dim>1</dim>
				</port>
			</output>
		</layer>
		<layer id="151" name="icnet_features/conv2_2_1x1_reduce_1/Conv2D/fq_weights_1/Copy/out_low6561_const" type="Const" version="opset1">
			<data element_type="f16" offset="228382" shape="1" size="2"/>
			<output>
				<port id="1" precision="FP16">
					<dim>1</dim>
				</port>
			</output>
		</layer>
		<layer id="152" name="icnet_features/conv2_2_1x1_reduce_1/Conv2D/fq_weights_1/Copy/out_high6562_const" type="Const" version="opset1">
			<data element_type="f16" offset="1762" shape="1" size="2"/>
			<output>
				<port id="1" precision="FP16">
					<dim>1</dim>
				</port>
			</output>
		</layer>
		<layer id="153" name="18291833_const" type="Const" version="opset1">
			<data element_type="f16" offset="228384" shape="64,1,1,1" size="128"/>
			<output>
				<port id="1" precision="FP16">
					<dim>64</dim>
					<dim>1</dim>
					<dim>1</dim>
					<dim>1</dim>
				</port>
			</output>
		</layer>
		<layer id="154" name="18301834_const" type="Const" version="opset1">
			<data element_type="f16" offset="228512" shape="64,1,1,1" size="128"/>
			<output>
				<port id="1" precision="FP16">
					<dim>64</dim>
					<dim>1</dim>
					<dim>1</dim>
					<dim>1</dim>
				</port>
			</output>
		</layer>
		<layer id="155" name="icnet_features/conv2_2_1x1_reduce_1/Conv2D/fq_weights_1" type="FakeQuantize" version="opset1">
			<data levels="255"/>
			<input>
				<port id="0">
					<dim>64</dim>
					<dim>256</dim>
					<dim>1</dim>
					<dim>1</dim>
				</port>
				<port id="1">
					<dim>1</dim>
				</port>
				<port id="2">
					<dim>1</dim>
				</port>
				<port id="3">
					<dim>64</dim>
					<dim>1</dim>
					<dim>1</dim>
					<dim>1</dim>
				</port>
				<port id="4">
					<dim>64</dim>
					<dim>1</dim>
					<dim>1</dim>
					<dim>1</dim>
				</port>
			</input>
			<output>
				<port id="5" precision="FP16">
					<dim>64</dim>
					<dim>256</dim>
					<dim>1</dim>
					<dim>1</dim>
				</port>
			</output>
		</layer>
		<layer id="156" name="icnet_features/conv2_2_1x1_reduce_1/Conv2D" type="Convolution" version="opset1">
			<data auto_pad="valid" dilations="1,1" output_padding="0,0" pads_begin="0,0" pads_end="0,0" strides="1,1"/>
			<input>
				<port id="0">
					<dim>1</dim>
					<dim>256</dim>
					<dim>90</dim>
					<dim>120</dim>
				</port>
				<port id="1">
					<dim>64</dim>
					<dim>256</dim>
					<dim>1</dim>
					<dim>1</dim>
				</port>
			</input>
			<output>
				<port id="2" precision="FP16">
					<dim>1</dim>
					<dim>64</dim>
					<dim>90</dim>
					<dim>120</dim>
				</port>
			</output>
		</layer>
		<layer id="157" name="data_add_1519615201/copy_const460_const" type="Const" version="opset1">
			<data element_type="f16" offset="228640" shape="1,64,1,1" size="128"/>
			<output>
				<port id="1" precision="FP16">
					<dim>1</dim>
					<dim>64</dim>
					<dim>1</dim>
					<dim>1</dim>
				</port>
			</output>
		</layer>
		<layer id="158" name="icnet_features/conv2_2_1x1_reduce_bn_2/FusedBatchNorm/variance/Fused_Add_" type="Add" version="opset1">
			<input>
				<port id="0">
					<dim>1</dim>
					<dim>64</dim>
					<dim>90</dim>
					<dim>120</dim>
				</port>
				<port id="1">
					<dim>1</dim>
					<dim>64</dim>
					<dim>1</dim>
					<dim>1</dim>
				</port>
			</input>
			<output>
				<port id="2" precision="FP16">
					<dim>1</dim>
					<dim>64</dim>
					<dim>90</dim>
					<dim>120</dim>
				</port>
			</output>
		</layer>
		<layer id="159" name="icnet_features/conv2_2_1x1_reduce_bn_3/conv2_2_1x1_reduce_bn" type="ReLU" version="opset1">
			<input>
				<port id="0">
					<dim>1</dim>
					<dim>64</dim>
					<dim>90</dim>
					<dim>120</dim>
				</port>
			</input>
			<output>
				<port id="1" precision="FP16">
					<dim>1</dim>
					<dim>64</dim>
					<dim>90</dim>
					<dim>120</dim>
				</port>
			</output>
		</layer>
		<layer id="160" name="15771581_const" type="Const" version="opset1">
			<data element_type="f16" offset="228768" shape="" size="2"/>
			<output>
				<port id="1" precision="FP16"/>
			</output>
		</layer>
		<layer id="161" name="15781582_const" type="Const" version="opset1">
			<data element_type="f16" offset="228770" shape="" size="2"/>
			<output>
				<port id="1" precision="FP16"/>
			</output>
		</layer>
		<layer id="162" name="15791583_const" type="Const" version="opset1">
			<data element_type="f16" offset="228768" shape="" size="2"/>
			<output>
				<port id="1" precision="FP16"/>
			</output>
		</layer>
		<layer id="163" name="15801584_const" type="Const" version="opset1">
			<data element_type="f16" offset="228770" shape="" size="2"/>
			<output>
				<port id="1" precision="FP16"/>
			</output>
		</layer>
		<layer id="164" name="icnet_features/conv2_2_3x3_1/Conv2D/fq_input_0" type="FakeQuantize" version="opset1">
			<data levels="256"/>
			<input>
				<port id="0">
					<dim>1</dim>
					<dim>64</dim>
					<dim>90</dim>
					<dim>120</dim>
				</port>
				<port id="1"/>
				<port id="2"/>
				<port id="3"/>
				<port id="4"/>
			</input>
			<output>
				<port id="5" precision="FP16">
					<dim>1</dim>
					<dim>64</dim>
					<dim>90</dim>
					<dim>120</dim>
				</port>
			</output>
		</layer>
		<layer id="165" name="icnet_features/conv2_2_3x3_1/Conv2D/fq_weights_1/Convert_to_float/Cast_07637_const" type="Const" version="opset1">
			<data element_type="u8" offset="228772" shape="64,64,3,3" size="36864"/>
			<output>
				<port id="1" precision="U8">
					<dim>64</dim>
					<dim>64</dim>
					<dim>3</dim>
					<dim>3</dim>
				</port>
			</output>
		</layer>
		<layer id="166" name="icnet_features/conv2_2_3x3_1/Conv2D/fq_weights_1/Convert_to_float" type="Convert" version="opset1">
			<data destination_type="f16"/>
			<input>
				<port id="0">
					<dim>64</dim>
					<dim>64</dim>
					<dim>3</dim>
					<dim>3</dim>
				</port>
			</input>
			<output>
				<port id="1" precision="FP16">
					<dim>64</dim>
					<dim>64</dim>
					<dim>3</dim>
					<dim>3</dim>
				</port>
			</output>
		</layer>
		<layer id="167" name="icnet_features/conv2_2_3x3_1/Conv2D/fq_weights_1/Copy/out_low6353_const" type="Const" version="opset1">
			<data element_type="f16" offset="265636" shape="1" size="2"/>
			<output>
				<port id="1" precision="FP16">
					<dim>1</dim>
				</port>
			</output>
		</layer>
		<layer id="168" name="icnet_features/conv2_2_3x3_1/Conv2D/fq_weights_1/Copy/out_high6354_const" type="Const" version="opset1">
			<data element_type="f16" offset="1762" shape="1" size="2"/>
			<output>
				<port id="1" precision="FP16">
					<dim>1</dim>
				</port>
			</output>
		</layer>
		<layer id="169" name="15891593_const" type="Const" version="opset1">
			<data element_type="f16" offset="265638" shape="64,1,1,1" size="128"/>
			<output>
				<port id="1" precision="FP16">
					<dim>64</dim>
					<dim>1</dim>
					<dim>1</dim>
					<dim>1</dim>
				</port>
			</output>
		</layer>
		<layer id="170" name="15901594_const" type="Const" version="opset1">
			<data element_type="f16" offset="265766" shape="64,1,1,1" size="128"/>
			<output>
				<port id="1" precision="FP16">
					<dim>64</dim>
					<dim>1</dim>
					<dim>1</dim>
					<dim>1</dim>
				</port>
			</output>
		</layer>
		<layer id="171" name="icnet_features/conv2_2_3x3_1/Conv2D/fq_weights_1" type="FakeQuantize" version="opset1">
			<data levels="255"/>
			<input>
				<port id="0">
					<dim>64</dim>
					<dim>64</dim>
					<dim>3</dim>
					<dim>3</dim>
				</port>
				<port id="1">
					<dim>1</dim>
				</port>
				<port id="2">
					<dim>1</dim>
				</port>
				<port id="3">
					<dim>64</dim>
					<dim>1</dim>
					<dim>1</dim>
					<dim>1</dim>
				</port>
				<port id="4">
					<dim>64</dim>
					<dim>1</dim>
					<dim>1</dim>
					<dim>1</dim>
				</port>
			</input>
			<output>
				<port id="5" precision="FP16">
					<dim>64</dim>
					<dim>64</dim>
					<dim>3</dim>
					<dim>3</dim>
				</port>
			</output>
		</layer>
		<layer id="172" name="icnet_features/conv2_2_3x3_1/Conv2D" type="Convolution" version="opset1">
			<data dilations="1,1" output_padding="0,0" pads_begin="1,1" pads_end="1,1" strides="1,1"/>
			<input>
				<port id="0">
					<dim>1</dim>
					<dim>64</dim>
					<dim>90</dim>
					<dim>120</dim>
				</port>
				<port id="1">
					<dim>64</dim>
					<dim>64</dim>
					<dim>3</dim>
					<dim>3</dim>
				</port>
			</input>
			<output>
				<port id="2" precision="FP16">
					<dim>1</dim>
					<dim>64</dim>
					<dim>90</dim>
					<dim>120</dim>
				</port>
			</output>
		</layer>
		<layer id="173" name="data_add_1520415209/copy_const465_const" type="Const" version="opset1">
			<data element_type="f16" offset="265894" shape="1,64,1,1" size="128"/>
			<output>
				<port id="1" precision="FP16">
					<dim>1</dim>
					<dim>64</dim>
					<dim>1</dim>
					<dim>1</dim>
				</port>
			</output>
		</layer>
		<layer id="174" name="icnet_features/conv2_2_3x3_bn_2/FusedBatchNorm/variance/Fused_Add_" type="Add" version="opset1">
			<input>
				<port id="0">
					<dim>1</dim>
					<dim>64</dim>
					<dim>90</dim>
					<dim>120</dim>
				</port>
				<port id="1">
					<dim>1</dim>
					<dim>64</dim>
					<dim>1</dim>
					<dim>1</dim>
				</port>
			</input>
			<output>
				<port id="2" precision="FP16">
					<dim>1</dim>
					<dim>64</dim>
					<dim>90</dim>
					<dim>120</dim>
				</port>
			</output>
		</layer>
		<layer id="175" name="icnet_features/conv2_2_3x3_bn_3/conv2_2_3x3_bn" type="ReLU" version="opset1">
			<input>
				<port id="0">
					<dim>1</dim>
					<dim>64</dim>
					<dim>90</dim>
					<dim>120</dim>
				</port>
			</input>
			<output>
				<port id="1" precision="FP16">
					<dim>1</dim>
					<dim>64</dim>
					<dim>90</dim>
					<dim>120</dim>
				</port>
			</output>
		</layer>
		<layer id="176" name="24472451_const" type="Const" version="opset1">
			<data element_type="f16" offset="266022" shape="" size="2"/>
			<output>
				<port id="1" precision="FP16"/>
			</output>
		</layer>
		<layer id="177" name="24482452_const" type="Const" version="opset1">
			<data element_type="f16" offset="266024" shape="" size="2"/>
			<output>
				<port id="1" precision="FP16"/>
			</output>
		</layer>
		<layer id="178" name="24492453_const" type="Const" version="opset1">
			<data element_type="f16" offset="266022" shape="" size="2"/>
			<output>
				<port id="1" precision="FP16"/>
			</output>
		</layer>
		<layer id="179" name="24502454_const" type="Const" version="opset1">
			<data element_type="f16" offset="266024" shape="" size="2"/>
			<output>
				<port id="1" precision="FP16"/>
			</output>
		</layer>
		<layer id="180" name="icnet_features/conv2_2_1x1_increase_1/Conv2D/fq_input_0" type="FakeQuantize" version="opset1">
			<data levels="256"/>
			<input>
				<port id="0">
					<dim>1</dim>
					<dim>64</dim>
					<dim>90</dim>
					<dim>120</dim>
				</port>
				<port id="1"/>
				<port id="2"/>
				<port id="3"/>
				<port id="4"/>
			</input>
			<output>
				<port id="5" precision="FP16">
					<dim>1</dim>
					<dim>64</dim>
					<dim>90</dim>
					<dim>120</dim>
				</port>
			</output>
		</layer>
		<layer id="181" name="icnet_features/conv2_2_1x1_increase_1/Conv2D/fq_weights_1/Convert_to_float/Cast_07767_const" type="Const" version="opset1">
			<data element_type="u8" offset="266026" shape="256,64,1,1" size="16384"/>
			<output>
				<port id="1" precision="U8">
					<dim>256</dim>
					<dim>64</dim>
					<dim>1</dim>
					<dim>1</dim>
				</port>
			</output>
		</layer>
		<layer id="182" name="icnet_features/conv2_2_1x1_increase_1/Conv2D/fq_weights_1/Convert_to_float" type="Convert" version="opset1">
			<data destination_type="f16"/>
			<input>
				<port id="0">
					<dim>256</dim>
					<dim>64</dim>
					<dim>1</dim>
					<dim>1</dim>
				</port>
			</input>
			<output>
				<port id="1" precision="FP16">
					<dim>256</dim>
					<dim>64</dim>
					<dim>1</dim>
					<dim>1</dim>
				</port>
			</output>
		</layer>
		<layer id="183" name="icnet_features/conv2_2_1x1_increase_1/Conv2D/fq_weights_1/Copy/out_low6497_const" type="Const" version="opset1">
			<data element_type="f16" offset="282410" shape="1" size="2"/>
			<output>
				<port id="1" precision="FP16">
					<dim>1</dim>
				</port>
			</output>
		</layer>
		<layer id="184" name="icnet_features/conv2_2_1x1_increase_1/Conv2D/fq_weights_1/Copy/out_high6498_const" type="Const" version="opset1">
			<data element_type="f16" offset="1762" shape="1" size="2"/>
			<output>
				<port id="1" precision="FP16">
					<dim>1</dim>
				</port>
			</output>
		</layer>
		<layer id="185" name="24592463_const" type="Const" version="opset1">
			<data element_type="f16" offset="282412" shape="256,1,1,1" size="512"/>
			<output>
				<port id="1" precision="FP16">
					<dim>256</dim>
					<dim>1</dim>
					<dim>1</dim>
					<dim>1</dim>
				</port>
			</output>
		</layer>
		<layer id="186" name="24602464_const" type="Const" version="opset1">
			<data element_type="f16" offset="282924" shape="256,1,1,1" size="512"/>
			<output>
				<port id="1" precision="FP16">
					<dim>256</dim>
					<dim>1</dim>
					<dim>1</dim>
					<dim>1</dim>
				</port>
			</output>
		</layer>
		<layer id="187" name="icnet_features/conv2_2_1x1_increase_1/Conv2D/fq_weights_1" type="FakeQuantize" version="opset1">
			<data levels="255"/>
			<input>
				<port id="0">
					<dim>256</dim>
					<dim>64</dim>
					<dim>1</dim>
					<dim>1</dim>
				</port>
				<port id="1">
					<dim>1</dim>
				</port>
				<port id="2">
					<dim>1</dim>
				</port>
				<port id="3">
					<dim>256</dim>
					<dim>1</dim>
					<dim>1</dim>
					<dim>1</dim>
				</port>
				<port id="4">
					<dim>256</dim>
					<dim>1</dim>
					<dim>1</dim>
					<dim>1</dim>
				</port>
			</input>
			<output>
				<port id="5" precision="FP16">
					<dim>256</dim>
					<dim>64</dim>
					<dim>1</dim>
					<dim>1</dim>
				</port>
			</output>
		</layer>
		<layer id="188" name="icnet_features/conv2_2_1x1_increase_1/Conv2D" type="Convolution" version="opset1">
			<data auto_pad="valid" dilations="1,1" output_padding="0,0" pads_begin="0,0" pads_end="0,0" strides="1,1"/>
			<input>
				<port id="0">
					<dim>1</dim>
					<dim>64</dim>
					<dim>90</dim>
					<dim>120</dim>
				</port>
				<port id="1">
					<dim>256</dim>
					<dim>64</dim>
					<dim>1</dim>
					<dim>1</dim>
				</port>
			</input>
			<output>
				<port id="2" precision="FP16">
					<dim>1</dim>
					<dim>256</dim>
					<dim>90</dim>
					<dim>120</dim>
				</port>
			</output>
		</layer>
		<layer id="189" name="data_add_1521215217/copy_const470_const" type="Const" version="opset1">
			<data element_type="f16" offset="283436" shape="1,256,1,1" size="512"/>
			<output>
				<port id="1" precision="FP16">
					<dim>1</dim>
					<dim>256</dim>
					<dim>1</dim>
					<dim>1</dim>
				</port>
			</output>
		</layer>
		<layer id="190" name="icnet_features/conv2_2_1x1_increase_bn_1/FusedBatchNorm/variance/Fused_Add_" type="Add" version="opset1">
			<input>
				<port id="0">
					<dim>1</dim>
					<dim>256</dim>
					<dim>90</dim>
					<dim>120</dim>
				</port>
				<port id="1">
					<dim>1</dim>
					<dim>256</dim>
					<dim>1</dim>
					<dim>1</dim>
				</port>
			</input>
			<output>
				<port id="2" precision="FP16">
					<dim>1</dim>
					<dim>256</dim>
					<dim>90</dim>
					<dim>120</dim>
				</port>
			</output>
		</layer>
		<layer id="191" name="26572661_const" type="Const" version="opset1">
			<data element_type="f16" offset="283948" shape="" size="2"/>
			<output>
				<port id="1" precision="FP16"/>
			</output>
		</layer>
		<layer id="192" name="26582662_const" type="Const" version="opset1">
			<data element_type="f16" offset="283950" shape="" size="2"/>
			<output>
				<port id="1" precision="FP16"/>
			</output>
		</layer>
		<layer id="193" name="26592663_const" type="Const" version="opset1">
			<data element_type="f16" offset="283948" shape="" size="2"/>
			<output>
				<port id="1" precision="FP16"/>
			</output>
		</layer>
		<layer id="194" name="26602664_const" type="Const" version="opset1">
			<data element_type="f16" offset="283950" shape="" size="2"/>
			<output>
				<port id="1" precision="FP16"/>
			</output>
		</layer>
		<layer id="195" name="icnet_features/conv2_2_1/sum_1/fq_input_1" type="FakeQuantize" version="opset1">
			<data levels="256"/>
			<input>
				<port id="0">
					<dim>1</dim>
					<dim>256</dim>
					<dim>90</dim>
					<dim>120</dim>
				</port>
				<port id="1"/>
				<port id="2"/>
				<port id="3"/>
				<port id="4"/>
			</input>
			<output>
				<port id="5" precision="FP16">
					<dim>1</dim>
					<dim>256</dim>
					<dim>90</dim>
					<dim>120</dim>
				</port>
			</output>
		</layer>
		<layer id="196" name="icnet_features/conv2_2_1/sum_1" type="Add" version="opset1">
			<input>
				<port id="0">
					<dim>1</dim>
					<dim>256</dim>
					<dim>90</dim>
					<dim>120</dim>
				</port>
				<port id="1">
					<dim>1</dim>
					<dim>256</dim>
					<dim>90</dim>
					<dim>120</dim>
				</port>
			</input>
			<output>
				<port id="2" precision="FP16">
					<dim>1</dim>
					<dim>256</dim>
					<dim>90</dim>
					<dim>120</dim>
				</port>
			</output>
		</layer>
		<layer id="197" name="icnet_features/conv2_2/relu_1" type="ReLU" version="opset1">
			<input>
				<port id="0">
					<dim>1</dim>
					<dim>256</dim>
					<dim>90</dim>
					<dim>120</dim>
				</port>
			</input>
			<output>
				<port id="1" precision="FP16">
					<dim>1</dim>
					<dim>256</dim>
					<dim>90</dim>
					<dim>120</dim>
				</port>
			</output>
		</layer>
		<layer id="198" name="15371541_const" type="Const" version="opset1">
			<data element_type="f16" offset="283952" shape="" size="2"/>
			<output>
				<port id="1" precision="FP16"/>
			</output>
		</layer>
		<layer id="199" name="15381542_const" type="Const" version="opset1">
			<data element_type="f16" offset="283954" shape="" size="2"/>
			<output>
				<port id="1" precision="FP16"/>
			</output>
		</layer>
		<layer id="200" name="15391543_const" type="Const" version="opset1">
			<data element_type="f16" offset="283952" shape="" size="2"/>
			<output>
				<port id="1" precision="FP16"/>
			</output>
		</layer>
		<layer id="201" name="15401544_const" type="Const" version="opset1">
			<data element_type="f16" offset="283954" shape="" size="2"/>
			<output>
				<port id="1" precision="FP16"/>
			</output>
		</layer>
		<layer id="202" name="icnet_features/ResizeBilinear_21/fq_input_0" type="FakeQuantize" version="opset1">
			<data levels="256"/>
			<input>
				<port id="0">
					<dim>1</dim>
					<dim>256</dim>
					<dim>90</dim>
					<dim>120</dim>
				</port>
				<port id="1"/>
				<port id="2"/>
				<port id="3"/>
				<port id="4"/>
			</input>
			<output>
				<port id="5" precision="FP16">
					<dim>1</dim>
					<dim>256</dim>
					<dim>90</dim>
					<dim>120</dim>
				</port>
			</output>
		</layer>
		<layer id="203" name="icnet_features/ResizeBilinear_21/Cast_17697_const" type="Const" version="opset1">
			<data element_type="i64" offset="148218" shape="2" size="16"/>
			<output>
				<port id="1" precision="I64">
					<dim>2</dim>
				</port>
			</output>
		</layer>
		<layer id="204" name="icnet_features/ResizeBilinear_21" type="Interpolate" version="opset1">
			<data align_corners="0" antialias="0" axes="2,3" mode="linear" pads_begin="0" pads_end="0"/>
			<input>
				<port id="0">
					<dim>1</dim>
					<dim>256</dim>
					<dim>90</dim>
					<dim>120</dim>
				</port>
				<port id="1">
					<dim>2</dim>
				</port>
			</input>
			<output>
				<port id="2" precision="FP16">
					<dim>1</dim>
					<dim>256</dim>
					<dim>90</dim>
					<dim>120</dim>
				</port>
			</output>
		</layer>
		<layer id="205" name="20572061_const" type="Const" version="opset1">
			<data element_type="f16" offset="283952" shape="" size="2"/>
			<output>
				<port id="1" precision="FP16"/>
			</output>
		</layer>
		<layer id="206" name="20582062_const" type="Const" version="opset1">
			<data element_type="f16" offset="283954" shape="" size="2"/>
			<output>
				<port id="1" precision="FP16"/>
			</output>
		</layer>
		<layer id="207" name="20592063_const" type="Const" version="opset1">
			<data element_type="f16" offset="283952" shape="" size="2"/>
			<output>
				<port id="1" precision="FP16"/>
			</output>
		</layer>
		<layer id="208" name="20602064_const" type="Const" version="opset1">
			<data element_type="f16" offset="283954" shape="" size="2"/>
			<output>
				<port id="1" precision="FP16"/>
			</output>
		</layer>
		<layer id="209" name="icnet_features/conv2_3_1/sum_1/fq_input_0" type="FakeQuantize" version="opset1">
			<data levels="256"/>
			<input>
				<port id="0">
					<dim>1</dim>
					<dim>256</dim>
					<dim>90</dim>
					<dim>120</dim>
				</port>
				<port id="1"/>
				<port id="2"/>
				<port id="3"/>
				<port id="4"/>
			</input>
			<output>
				<port id="5" precision="FP16">
					<dim>1</dim>
					<dim>256</dim>
					<dim>90</dim>
					<dim>120</dim>
				</port>
			</output>
		</layer>
		<layer id="210" name="icnet_features/conv2_3_1x1_reduce_1/Conv2D/fq_weights_1/Convert_to_float/Cast_07647_const" type="Const" version="opset1">
			<data element_type="u8" offset="283956" shape="64,256,1,1" size="16384"/>
			<output>
				<port id="1" precision="U8">
					<dim>64</dim>
					<dim>256</dim>
					<dim>1</dim>
					<dim>1</dim>
				</port>
			</output>
		</layer>
		<layer id="211" name="icnet_features/conv2_3_1x1_reduce_1/Conv2D/fq_weights_1/Convert_to_float" type="Convert" version="opset1">
			<data destination_type="f16"/>
			<input>
				<port id="0">
					<dim>64</dim>
					<dim>256</dim>
					<dim>1</dim>
					<dim>1</dim>
				</port>
			</input>
			<output>
				<port id="1" precision="FP16">
					<dim>64</dim>
					<dim>256</dim>
					<dim>1</dim>
					<dim>1</dim>
				</port>
			</output>
		</layer>
		<layer id="212" name="icnet_features/conv2_3_1x1_reduce_1/Conv2D/fq_weights_1/Copy/out_low6585_const" type="Const" version="opset1">
			<data element_type="f16" offset="300340" shape="1" size="2"/>
			<output>
				<port id="1" precision="FP16">
					<dim>1</dim>
				</port>
			</output>
		</layer>
		<layer id="213" name="icnet_features/conv2_3_1x1_reduce_1/Conv2D/fq_weights_1/Copy/out_high6586_const" type="Const" version="opset1">
			<data element_type="f16" offset="1762" shape="1" size="2"/>
			<output>
				<port id="1" precision="FP16">
					<dim>1</dim>
				</port>
			</output>
		</layer>
		<layer id="214" name="31393143_const" type="Const" version="opset1">
			<data element_type="f16" offset="300342" shape="64,1,1,1" size="128"/>
			<output>
				<port id="1" precision="FP16">
					<dim>64</dim>
					<dim>1</dim>
					<dim>1</dim>
					<dim>1</dim>
				</port>
			</output>
		</layer>
		<layer id="215" name="31403144_const" type="Const" version="opset1">
			<data element_type="f16" offset="300470" shape="64,1,1,1" size="128"/>
			<output>
				<port id="1" precision="FP16">
					<dim>64</dim>
					<dim>1</dim>
					<dim>1</dim>
					<dim>1</dim>
				</port>
			</output>
		</layer>
		<layer id="216" name="icnet_features/conv2_3_1x1_reduce_1/Conv2D/fq_weights_1" type="FakeQuantize" version="opset1">
			<data levels="255"/>
			<input>
				<port id="0">
					<dim>64</dim>
					<dim>256</dim>
					<dim>1</dim>
					<dim>1</dim>
				</port>
				<port id="1">
					<dim>1</dim>
				</port>
				<port id="2">
					<dim>1</dim>
				</port>
				<port id="3">
					<dim>64</dim>
					<dim>1</dim>
					<dim>1</dim>
					<dim>1</dim>
				</port>
				<port id="4">
					<dim>64</dim>
					<dim>1</dim>
					<dim>1</dim>
					<dim>1</dim>
				</port>
			</input>
			<output>
				<port id="5" precision="FP16">
					<dim>64</dim>
					<dim>256</dim>
					<dim>1</dim>
					<dim>1</dim>
				</port>
			</output>
		</layer>
		<layer id="217" name="icnet_features/conv2_3_1x1_reduce_1/Conv2D" type="Convolution" version="opset1">
			<data auto_pad="valid" dilations="1,1" output_padding="0,0" pads_begin="0,0" pads_end="0,0" strides="1,1"/>
			<input>
				<port id="0">
					<dim>1</dim>
					<dim>256</dim>
					<dim>90</dim>
					<dim>120</dim>
				</port>
				<port id="1">
					<dim>64</dim>
					<dim>256</dim>
					<dim>1</dim>
					<dim>1</dim>
				</port>
			</input>
			<output>
				<port id="2" precision="FP16">
					<dim>1</dim>
					<dim>64</dim>
					<dim>90</dim>
					<dim>120</dim>
				</port>
			</output>
		</layer>
		<layer id="218" name="data_add_1522015225/copy_const478_const" type="Const" version="opset1">
			<data element_type="f16" offset="300598" shape="1,64,1,1" size="128"/>
			<output>
				<port id="1" precision="FP16">
					<dim>1</dim>
					<dim>64</dim>
					<dim>1</dim>
					<dim>1</dim>
				</port>
			</output>
		</layer>
		<layer id="219" name="icnet_features/conv2_3_1x1_reduce_bn_2/FusedBatchNorm/variance/Fused_Add_" type="Add" version="opset1">
			<input>
				<port id="0">
					<dim>1</dim>
					<dim>64</dim>
					<dim>90</dim>
					<dim>120</dim>
				</port>
				<port id="1">
					<dim>1</dim>
					<dim>64</dim>
					<dim>1</dim>
					<dim>1</dim>
				</port>
			</input>
			<output>
				<port id="2" precision="FP16">
					<dim>1</dim>
					<dim>64</dim>
					<dim>90</dim>
					<dim>120</dim>
				</port>
			</output>
		</layer>
		<layer id="220" name="icnet_features/conv2_3_1x1_reduce_bn_3/conv2_3_1x1_reduce_bn" type="ReLU" version="opset1">
			<input>
				<port id="0">
					<dim>1</dim>
					<dim>64</dim>
					<dim>90</dim>
					<dim>120</dim>
				</port>
			</input>
			<output>
				<port id="1" precision="FP16">
					<dim>1</dim>
					<dim>64</dim>
					<dim>90</dim>
					<dim>120</dim>
				</port>
			</output>
		</layer>
		<layer id="221" name="29172921_const" type="Const" version="opset1">
			<data element_type="f16" offset="300726" shape="" size="2"/>
			<output>
				<port id="1" precision="FP16"/>
			</output>
		</layer>
		<layer id="222" name="29182922_const" type="Const" version="opset1">
			<data element_type="f16" offset="300728" shape="" size="2"/>
			<output>
				<port id="1" precision="FP16"/>
			</output>
		</layer>
		<layer id="223" name="29192923_const" type="Const" version="opset1">
			<data element_type="f16" offset="300726" shape="" size="2"/>
			<output>
				<port id="1" precision="FP16"/>
			</output>
		</layer>
		<layer id="224" name="29202924_const" type="Const" version="opset1">
			<data element_type="f16" offset="300728" shape="" size="2"/>
			<output>
				<port id="1" precision="FP16"/>
			</output>
		</layer>
		<layer id="225" name="icnet_features/conv2_3_3x3_1/Conv2D/fq_input_0" type="FakeQuantize" version="opset1">
			<data levels="256"/>
			<input>
				<port id="0">
					<dim>1</dim>
					<dim>64</dim>
					<dim>90</dim>
					<dim>120</dim>
				</port>
				<port id="1"/>
				<port id="2"/>
				<port id="3"/>
				<port id="4"/>
			</input>
			<output>
				<port id="5" precision="FP16">
					<dim>1</dim>
					<dim>64</dim>
					<dim>90</dim>
					<dim>120</dim>
				</port>
			</output>
		</layer>
		<layer id="226" name="icnet_features/conv2_3_3x3_1/Conv2D/fq_weights_1/Convert_to_float/Cast_07783_const" type="Const" version="opset1">
			<data element_type="u8" offset="300730" shape="64,64,3,3" size="36864"/>
			<output>
				<port id="1" precision="U8">
					<dim>64</dim>
					<dim>64</dim>
					<dim>3</dim>
					<dim>3</dim>
				</port>
			</output>
		</layer>
		<layer id="227" name="icnet_features/conv2_3_3x3_1/Conv2D/fq_weights_1/Convert_to_float" type="Convert" version="opset1">
			<data destination_type="f16"/>
			<input>
				<port id="0">
					<dim>64</dim>
					<dim>64</dim>
					<dim>3</dim>
					<dim>3</dim>
				</port>
			</input>
			<output>
				<port id="1" precision="FP16">
					<dim>64</dim>
					<dim>64</dim>
					<dim>3</dim>
					<dim>3</dim>
				</port>
			</output>
		</layer>
		<layer id="228" name="icnet_features/conv2_3_3x3_1/Conv2D/fq_weights_1/Copy/out_low6673_const" type="Const" version="opset1">
			<data element_type="f16" offset="337594" shape="1" size="2"/>
			<output>
				<port id="1" precision="FP16">
					<dim>1</dim>
				</port>
			</output>
		</layer>
		<layer id="229" name="icnet_features/conv2_3_3x3_1/Conv2D/fq_weights_1/Copy/out_high6674_const" type="Const" version="opset1">
			<data element_type="f16" offset="1762" shape="1" size="2"/>
			<output>
				<port id="1" precision="FP16">
					<dim>1</dim>
				</port>
			</output>
		</layer>
		<layer id="230" name="29292933_const" type="Const" version="opset1">
			<data element_type="f16" offset="337596" shape="64,1,1,1" size="128"/>
			<output>
				<port id="1" precision="FP16">
					<dim>64</dim>
					<dim>1</dim>
					<dim>1</dim>
					<dim>1</dim>
				</port>
			</output>
		</layer>
		<layer id="231" name="29302934_const" type="Const" version="opset1">
			<data element_type="f16" offset="337724" shape="64,1,1,1" size="128"/>
			<output>
				<port id="1" precision="FP16">
					<dim>64</dim>
					<dim>1</dim>
					<dim>1</dim>
					<dim>1</dim>
				</port>
			</output>
		</layer>
		<layer id="232" name="icnet_features/conv2_3_3x3_1/Conv2D/fq_weights_1" type="FakeQuantize" version="opset1">
			<data levels="255"/>
			<input>
				<port id="0">
					<dim>64</dim>
					<dim>64</dim>
					<dim>3</dim>
					<dim>3</dim>
				</port>
				<port id="1">
					<dim>1</dim>
				</port>
				<port id="2">
					<dim>1</dim>
				</port>
				<port id="3">
					<dim>64</dim>
					<dim>1</dim>
					<dim>1</dim>
					<dim>1</dim>
				</port>
				<port id="4">
					<dim>64</dim>
					<dim>1</dim>
					<dim>1</dim>
					<dim>1</dim>
				</port>
			</input>
			<output>
				<port id="5" precision="FP16">
					<dim>64</dim>
					<dim>64</dim>
					<dim>3</dim>
					<dim>3</dim>
				</port>
			</output>
		</layer>
		<layer id="233" name="icnet_features/conv2_3_3x3_1/Conv2D" type="Convolution" version="opset1">
			<data dilations="1,1" output_padding="0,0" pads_begin="1,1" pads_end="1,1" strides="1,1"/>
			<input>
				<port id="0">
					<dim>1</dim>
					<dim>64</dim>
					<dim>90</dim>
					<dim>120</dim>
				</port>
				<port id="1">
					<dim>64</dim>
					<dim>64</dim>
					<dim>3</dim>
					<dim>3</dim>
				</port>
			</input>
			<output>
				<port id="2" precision="FP16">
					<dim>1</dim>
					<dim>64</dim>
					<dim>90</dim>
					<dim>120</dim>
				</port>
			</output>
		</layer>
		<layer id="234" name="data_add_1522815233/copy_const483_const" type="Const" version="opset1">
			<data element_type="f16" offset="337852" shape="1,64,1,1" size="128"/>
			<output>
				<port id="1" precision="FP16">
					<dim>1</dim>
					<dim>64</dim>
					<dim>1</dim>
					<dim>1</dim>
				</port>
			</output>
		</layer>
		<layer id="235" name="icnet_features/conv2_3_3x3_bn_2/FusedBatchNorm/variance/Fused_Add_" type="Add" version="opset1">
			<input>
				<port id="0">
					<dim>1</dim>
					<dim>64</dim>
					<dim>90</dim>
					<dim>120</dim>
				</port>
				<port id="1">
					<dim>1</dim>
					<dim>64</dim>
					<dim>1</dim>
					<dim>1</dim>
				</port>
			</input>
			<output>
				<port id="2" precision="FP16">
					<dim>1</dim>
					<dim>64</dim>
					<dim>90</dim>
					<dim>120</dim>
				</port>
			</output>
		</layer>
		<layer id="236" name="icnet_features/conv2_3_3x3_bn_3/conv2_3_3x3_bn" type="ReLU" version="opset1">
			<input>
				<port id="0">
					<dim>1</dim>
					<dim>64</dim>
					<dim>90</dim>
					<dim>120</dim>
				</port>
			</input>
			<output>
				<port id="1" precision="FP16">
					<dim>1</dim>
					<dim>64</dim>
					<dim>90</dim>
					<dim>120</dim>
				</port>
			</output>
		</layer>
		<layer id="237" name="31873191_const" type="Const" version="opset1">
			<data element_type="f16" offset="337980" shape="" size="2"/>
			<output>
				<port id="1" precision="FP16"/>
			</output>
		</layer>
		<layer id="238" name="31883192_const" type="Const" version="opset1">
			<data element_type="f16" offset="337982" shape="" size="2"/>
			<output>
				<port id="1" precision="FP16"/>
			</output>
		</layer>
		<layer id="239" name="31893193_const" type="Const" version="opset1">
			<data element_type="f16" offset="337980" shape="" size="2"/>
			<output>
				<port id="1" precision="FP16"/>
			</output>
		</layer>
		<layer id="240" name="31903194_const" type="Const" version="opset1">
			<data element_type="f16" offset="337982" shape="" size="2"/>
			<output>
				<port id="1" precision="FP16"/>
			</output>
		</layer>
		<layer id="241" name="icnet_features/conv2_3_1x1_increase_1/Conv2D/fq_input_0" type="FakeQuantize" version="opset1">
			<data levels="256"/>
			<input>
				<port id="0">
					<dim>1</dim>
					<dim>64</dim>
					<dim>90</dim>
					<dim>120</dim>
				</port>
				<port id="1"/>
				<port id="2"/>
				<port id="3"/>
				<port id="4"/>
			</input>
			<output>
				<port id="5" precision="FP16">
					<dim>1</dim>
					<dim>64</dim>
					<dim>90</dim>
					<dim>120</dim>
				</port>
			</output>
		</layer>
		<layer id="242" name="icnet_features/conv2_3_1x1_increase_1/Conv2D/fq_weights_1/Convert_to_float/Cast_07809_const" type="Const" version="opset1">
			<data element_type="u8" offset="337984" shape="256,64,1,1" size="16384"/>
			<output>
				<port id="1" precision="U8">
					<dim>256</dim>
					<dim>64</dim>
					<dim>1</dim>
					<dim>1</dim>
				</port>
			</output>
		</layer>
		<layer id="243" name="icnet_features/conv2_3_1x1_increase_1/Conv2D/fq_weights_1/Convert_to_float" type="Convert" version="opset1">
			<data destination_type="f16"/>
			<input>
				<port id="0">
					<dim>256</dim>
					<dim>64</dim>
					<dim>1</dim>
					<dim>1</dim>
				</port>
			</input>
			<output>
				<port id="1" precision="FP16">
					<dim>256</dim>
					<dim>64</dim>
					<dim>1</dim>
					<dim>1</dim>
				</port>
			</output>
		</layer>
		<layer id="244" name="icnet_features/conv2_3_1x1_increase_1/Conv2D/fq_weights_1/Copy/out_low6609_const" type="Const" version="opset1">
			<data element_type="f16" offset="354368" shape="1" size="2"/>
			<output>
				<port id="1" precision="FP16">
					<dim>1</dim>
				</port>
			</output>
		</layer>
		<layer id="245" name="icnet_features/conv2_3_1x1_increase_1/Conv2D/fq_weights_1/Copy/out_high6610_const" type="Const" version="opset1">
			<data element_type="f16" offset="1762" shape="1" size="2"/>
			<output>
				<port id="1" precision="FP16">
					<dim>1</dim>
				</port>
			</output>
		</layer>
		<layer id="246" name="31993203_const" type="Const" version="opset1">
			<data element_type="f16" offset="354370" shape="256,1,1,1" size="512"/>
			<output>
				<port id="1" precision="FP16">
					<dim>256</dim>
					<dim>1</dim>
					<dim>1</dim>
					<dim>1</dim>
				</port>
			</output>
		</layer>
		<layer id="247" name="32003204_const" type="Const" version="opset1">
			<data element_type="f16" offset="354882" shape="256,1,1,1" size="512"/>
			<output>
				<port id="1" precision="FP16">
					<dim>256</dim>
					<dim>1</dim>
					<dim>1</dim>
					<dim>1</dim>
				</port>
			</output>
		</layer>
		<layer id="248" name="icnet_features/conv2_3_1x1_increase_1/Conv2D/fq_weights_1" type="FakeQuantize" version="opset1">
			<data levels="255"/>
			<input>
				<port id="0">
					<dim>256</dim>
					<dim>64</dim>
					<dim>1</dim>
					<dim>1</dim>
				</port>
				<port id="1">
					<dim>1</dim>
				</port>
				<port id="2">
					<dim>1</dim>
				</port>
				<port id="3">
					<dim>256</dim>
					<dim>1</dim>
					<dim>1</dim>
					<dim>1</dim>
				</port>
				<port id="4">
					<dim>256</dim>
					<dim>1</dim>
					<dim>1</dim>
					<dim>1</dim>
				</port>
			</input>
			<output>
				<port id="5" precision="FP16">
					<dim>256</dim>
					<dim>64</dim>
					<dim>1</dim>
					<dim>1</dim>
				</port>
			</output>
		</layer>
		<layer id="249" name="icnet_features/conv2_3_1x1_increase_1/Conv2D" type="Convolution" version="opset1">
			<data auto_pad="valid" dilations="1,1" output_padding="0,0" pads_begin="0,0" pads_end="0,0" strides="1,1"/>
			<input>
				<port id="0">
					<dim>1</dim>
					<dim>64</dim>
					<dim>90</dim>
					<dim>120</dim>
				</port>
				<port id="1">
					<dim>256</dim>
					<dim>64</dim>
					<dim>1</dim>
					<dim>1</dim>
				</port>
			</input>
			<output>
				<port id="2" precision="FP16">
					<dim>1</dim>
					<dim>256</dim>
					<dim>90</dim>
					<dim>120</dim>
				</port>
			</output>
		</layer>
		<layer id="250" name="data_add_1523615241/copy_const488_const" type="Const" version="opset1">
			<data element_type="f16" offset="355394" shape="1,256,1,1" size="512"/>
			<output>
				<port id="1" precision="FP16">
					<dim>1</dim>
					<dim>256</dim>
					<dim>1</dim>
					<dim>1</dim>
				</port>
			</output>
		</layer>
		<layer id="251" name="icnet_features/conv2_3_1x1_increase_bn_1/FusedBatchNorm/variance/Fused_Add_" type="Add" version="opset1">
			<input>
				<port id="0">
					<dim>1</dim>
					<dim>256</dim>
					<dim>90</dim>
					<dim>120</dim>
				</port>
				<port id="1">
					<dim>1</dim>
					<dim>256</dim>
					<dim>1</dim>
					<dim>1</dim>
				</port>
			</input>
			<output>
				<port id="2" precision="FP16">
					<dim>1</dim>
					<dim>256</dim>
					<dim>90</dim>
					<dim>120</dim>
				</port>
			</output>
		</layer>
		<layer id="252" name="20672071_const" type="Const" version="opset1">
			<data element_type="f16" offset="355906" shape="" size="2"/>
			<output>
				<port id="1" precision="FP16"/>
			</output>
		</layer>
		<layer id="253" name="20682072_const" type="Const" version="opset1">
			<data element_type="f16" offset="355908" shape="" size="2"/>
			<output>
				<port id="1" precision="FP16"/>
			</output>
		</layer>
		<layer id="254" name="20692073_const" type="Const" version="opset1">
			<data element_type="f16" offset="355906" shape="" size="2"/>
			<output>
				<port id="1" precision="FP16"/>
			</output>
		</layer>
		<layer id="255" name="20702074_const" type="Const" version="opset1">
			<data element_type="f16" offset="355908" shape="" size="2"/>
			<output>
				<port id="1" precision="FP16"/>
			</output>
		</layer>
		<layer id="256" name="icnet_features/conv2_3_1/sum_1/fq_input_1" type="FakeQuantize" version="opset1">
			<data levels="256"/>
			<input>
				<port id="0">
					<dim>1</dim>
					<dim>256</dim>
					<dim>90</dim>
					<dim>120</dim>
				</port>
				<port id="1"/>
				<port id="2"/>
				<port id="3"/>
				<port id="4"/>
			</input>
			<output>
				<port id="5" precision="FP16">
					<dim>1</dim>
					<dim>256</dim>
					<dim>90</dim>
					<dim>120</dim>
				</port>
			</output>
		</layer>
		<layer id="257" name="icnet_features/conv2_3_1/sum_1" type="Add" version="opset1">
			<input>
				<port id="0">
					<dim>1</dim>
					<dim>256</dim>
					<dim>90</dim>
					<dim>120</dim>
				</port>
				<port id="1">
					<dim>1</dim>
					<dim>256</dim>
					<dim>90</dim>
					<dim>120</dim>
				</port>
			</input>
			<output>
				<port id="2" precision="FP16">
					<dim>1</dim>
					<dim>256</dim>
					<dim>90</dim>
					<dim>120</dim>
				</port>
			</output>
		</layer>
		<layer id="258" name="icnet_features/conv2_3/relu_1" type="ReLU" version="opset1">
			<input>
				<port id="0">
					<dim>1</dim>
					<dim>256</dim>
					<dim>90</dim>
					<dim>120</dim>
				</port>
			</input>
			<output>
				<port id="1" precision="FP16">
					<dim>1</dim>
					<dim>256</dim>
					<dim>90</dim>
					<dim>120</dim>
				</port>
			</output>
		</layer>
		<layer id="259" name="31073111_const" type="Const" version="opset1">
			<data element_type="f16" offset="355910" shape="" size="2"/>
			<output>
				<port id="1" precision="FP16"/>
			</output>
		</layer>
		<layer id="260" name="31083112_const" type="Const" version="opset1">
			<data element_type="f16" offset="355912" shape="" size="2"/>
			<output>
				<port id="1" precision="FP16"/>
			</output>
		</layer>
		<layer id="261" name="31093113_const" type="Const" version="opset1">
			<data element_type="f16" offset="355910" shape="" size="2"/>
			<output>
				<port id="1" precision="FP16"/>
			</output>
		</layer>
		<layer id="262" name="31103114_const" type="Const" version="opset1">
			<data element_type="f16" offset="355912" shape="" size="2"/>
			<output>
				<port id="1" precision="FP16"/>
			</output>
		</layer>
		<layer id="263" name="icnet_features/conv3_1_1x1_proj_1/Conv2D/fq_input_0" type="FakeQuantize" version="opset1">
			<data levels="256"/>
			<input>
				<port id="0">
					<dim>1</dim>
					<dim>256</dim>
					<dim>90</dim>
					<dim>120</dim>
				</port>
				<port id="1"/>
				<port id="2"/>
				<port id="3"/>
				<port id="4"/>
			</input>
			<output>
				<port id="5" precision="FP16">
					<dim>1</dim>
					<dim>256</dim>
					<dim>90</dim>
					<dim>120</dim>
				</port>
			</output>
		</layer>
		<layer id="264" name="icnet_features/conv3_1_1x1_proj_1/Conv2D/fq_weights_1/Convert_to_float/Cast_07823_const" type="Const" version="opset1">
			<data element_type="u8" offset="355914" shape="512,256,1,1" size="131072"/>
			<output>
				<port id="1" precision="U8">
					<dim>512</dim>
					<dim>256</dim>
					<dim>1</dim>
					<dim>1</dim>
				</port>
			</output>
		</layer>
		<layer id="265" name="icnet_features/conv3_1_1x1_proj_1/Conv2D/fq_weights_1/Convert_to_float" type="Convert" version="opset1">
			<data destination_type="f16"/>
			<input>
				<port id="0">
					<dim>512</dim>
					<dim>256</dim>
					<dim>1</dim>
					<dim>1</dim>
				</port>
			</input>
			<output>
				<port id="1" precision="FP16">
					<dim>512</dim>
					<dim>256</dim>
					<dim>1</dim>
					<dim>1</dim>
				</port>
			</output>
		</layer>
		<layer id="266" name="icnet_features/conv3_1_1x1_proj_1/Conv2D/fq_weights_1/Copy/out_low6329_const" type="Const" version="opset1">
			<data element_type="f16" offset="486986" shape="1" size="2"/>
			<output>
				<port id="1" precision="FP16">
					<dim>1</dim>
				</port>
			</output>
		</layer>
		<layer id="267" name="icnet_features/conv3_1_1x1_proj_1/Conv2D/fq_weights_1/Copy/out_high6330_const" type="Const" version="opset1">
			<data element_type="f16" offset="1762" shape="1" size="2"/>
			<output>
				<port id="1" precision="FP16">
					<dim>1</dim>
				</port>
			</output>
		</layer>
		<layer id="268" name="31193123_const" type="Const" version="opset1">
			<data element_type="f16" offset="486988" shape="512,1,1,1" size="1024"/>
			<output>
				<port id="1" precision="FP16">
					<dim>512</dim>
					<dim>1</dim>
					<dim>1</dim>
					<dim>1</dim>
				</port>
			</output>
		</layer>
		<layer id="269" name="31203124_const" type="Const" version="opset1">
			<data element_type="f16" offset="488012" shape="512,1,1,1" size="1024"/>
			<output>
				<port id="1" precision="FP16">
					<dim>512</dim>
					<dim>1</dim>
					<dim>1</dim>
					<dim>1</dim>
				</port>
			</output>
		</layer>
		<layer id="270" name="icnet_features/conv3_1_1x1_proj_1/Conv2D/fq_weights_1" type="FakeQuantize" version="opset1">
			<data levels="255"/>
			<input>
				<port id="0">
					<dim>512</dim>
					<dim>256</dim>
					<dim>1</dim>
					<dim>1</dim>
				</port>
				<port id="1">
					<dim>1</dim>
				</port>
				<port id="2">
					<dim>1</dim>
				</port>
				<port id="3">
					<dim>512</dim>
					<dim>1</dim>
					<dim>1</dim>
					<dim>1</dim>
				</port>
				<port id="4">
					<dim>512</dim>
					<dim>1</dim>
					<dim>1</dim>
					<dim>1</dim>
				</port>
			</input>
			<output>
				<port id="5" precision="FP16">
					<dim>512</dim>
					<dim>256</dim>
					<dim>1</dim>
					<dim>1</dim>
				</port>
			</output>
		</layer>
		<layer id="271" name="icnet_features/conv3_1_1x1_proj_1/Conv2D" type="Convolution" version="opset1">
			<data auto_pad="valid" dilations="1,1" output_padding="0,0" pads_begin="0,0" pads_end="0,0" strides="2,2"/>
			<input>
				<port id="0">
					<dim>1</dim>
					<dim>256</dim>
					<dim>90</dim>
					<dim>120</dim>
				</port>
				<port id="1">
					<dim>512</dim>
					<dim>256</dim>
					<dim>1</dim>
					<dim>1</dim>
				</port>
			</input>
			<output>
				<port id="2" precision="FP16">
					<dim>1</dim>
					<dim>512</dim>
					<dim>45</dim>
					<dim>60</dim>
				</port>
			</output>
		</layer>
		<layer id="272" name="data_add_1526815273/copy_const494_const" type="Const" version="opset1">
			<data element_type="f16" offset="489036" shape="1,512,1,1" size="1024"/>
			<output>
				<port id="1" precision="FP16">
					<dim>1</dim>
					<dim>512</dim>
					<dim>1</dim>
					<dim>1</dim>
				</port>
			</output>
		</layer>
		<layer id="273" name="icnet_features/conv3_1_1x1_proj_bn_1/FusedBatchNorm/variance/Fused_Add_" type="Add" version="opset1">
			<input>
				<port id="0">
					<dim>1</dim>
					<dim>512</dim>
					<dim>45</dim>
					<dim>60</dim>
				</port>
				<port id="1">
					<dim>1</dim>
					<dim>512</dim>
					<dim>1</dim>
					<dim>1</dim>
				</port>
			</input>
			<output>
				<port id="2" precision="FP16">
					<dim>1</dim>
					<dim>512</dim>
					<dim>45</dim>
					<dim>60</dim>
				</port>
			</output>
		</layer>
		<layer id="274" name="25172521_const" type="Const" version="opset1">
			<data element_type="f16" offset="490060" shape="" size="2"/>
			<output>
				<port id="1" precision="FP16"/>
			</output>
		</layer>
		<layer id="275" name="25182522_const" type="Const" version="opset1">
			<data element_type="f16" offset="490062" shape="" size="2"/>
			<output>
				<port id="1" precision="FP16"/>
			</output>
		</layer>
		<layer id="276" name="25192523_const" type="Const" version="opset1">
			<data element_type="f16" offset="490060" shape="" size="2"/>
			<output>
				<port id="1" precision="FP16"/>
			</output>
		</layer>
		<layer id="277" name="25202524_const" type="Const" version="opset1">
			<data element_type="f16" offset="490062" shape="" size="2"/>
			<output>
				<port id="1" precision="FP16"/>
			</output>
		</layer>
		<layer id="278" name="icnet_features/ResizeBilinear_22/fq_input_0" type="FakeQuantize" version="opset1">
			<data levels="256"/>
			<input>
				<port id="0">
					<dim>1</dim>
					<dim>512</dim>
					<dim>45</dim>
					<dim>60</dim>
				</port>
				<port id="1"/>
				<port id="2"/>
				<port id="3"/>
				<port id="4"/>
			</input>
			<output>
				<port id="5" precision="FP16">
					<dim>1</dim>
					<dim>512</dim>
					<dim>45</dim>
					<dim>60</dim>
				</port>
			</output>
		</layer>
		<layer id="279" name="icnet_features/ResizeBilinear_22/Cast_17661_const" type="Const" version="opset1">
			<data element_type="i64" offset="490064" shape="2" size="16"/>
			<output>
				<port id="1" precision="I64">
					<dim>2</dim>
				</port>
			</output>
		</layer>
		<layer id="280" name="icnet_features/ResizeBilinear_22" type="Interpolate" version="opset1">
			<data align_corners="0" antialias="0" axes="2,3" mode="linear" pads_begin="0" pads_end="0"/>
			<input>
				<port id="0">
					<dim>1</dim>
					<dim>512</dim>
					<dim>45</dim>
					<dim>60</dim>
				</port>
				<port id="1">
					<dim>2</dim>
				</port>
			</input>
			<output>
				<port id="2" precision="FP16">
					<dim>1</dim>
					<dim>512</dim>
					<dim>45</dim>
					<dim>60</dim>
				</port>
			</output>
		</layer>
		<layer id="281" name="16971701_const" type="Const" version="opset1">
			<data element_type="f16" offset="490060" shape="" size="2"/>
			<output>
				<port id="1" precision="FP16"/>
			</output>
		</layer>
		<layer id="282" name="16981702_const" type="Const" version="opset1">
			<data element_type="f16" offset="490062" shape="" size="2"/>
			<output>
				<port id="1" precision="FP16"/>
			</output>
		</layer>
		<layer id="283" name="16991703_const" type="Const" version="opset1">
			<data element_type="f16" offset="490060" shape="" size="2"/>
			<output>
				<port id="1" precision="FP16"/>
			</output>
		</layer>
		<layer id="284" name="17001704_const" type="Const" version="opset1">
			<data element_type="f16" offset="490062" shape="" size="2"/>
			<output>
				<port id="1" precision="FP16"/>
			</output>
		</layer>
		<layer id="285" name="icnet_features/conv3_1_1/sum_1/fq_input_0" type="FakeQuantize" version="opset1">
			<data levels="256"/>
			<input>
				<port id="0">
					<dim>1</dim>
					<dim>512</dim>
					<dim>45</dim>
					<dim>60</dim>
				</port>
				<port id="1"/>
				<port id="2"/>
				<port id="3"/>
				<port id="4"/>
			</input>
			<output>
				<port id="5" precision="FP16">
					<dim>1</dim>
					<dim>512</dim>
					<dim>45</dim>
					<dim>60</dim>
				</port>
			</output>
		</layer>
		<layer id="286" name="icnet_features/conv3_1_1x1_reduce_1/Conv2D/fq_weights_1/Convert_to_float/Cast_07757_const" type="Const" version="opset1">
			<data element_type="u8" offset="490080" shape="128,256,1,1" size="32768"/>
			<output>
				<port id="1" precision="U8">
					<dim>128</dim>
					<dim>256</dim>
					<dim>1</dim>
					<dim>1</dim>
				</port>
			</output>
		</layer>
		<layer id="287" name="icnet_features/conv3_1_1x1_reduce_1/Conv2D/fq_weights_1/Convert_to_float" type="Convert" version="opset1">
			<data destination_type="f16"/>
			<input>
				<port id="0">
					<dim>128</dim>
					<dim>256</dim>
					<dim>1</dim>
					<dim>1</dim>
				</port>
			</input>
			<output>
				<port id="1" precision="FP16">
					<dim>128</dim>
					<dim>256</dim>
					<dim>1</dim>
					<dim>1</dim>
				</port>
			</output>
		</layer>
		<layer id="288" name="icnet_features/conv3_1_1x1_reduce_1/Conv2D/fq_weights_1/Copy/out_low6377_const" type="Const" version="opset1">
			<data element_type="f16" offset="486986" shape="1" size="2"/>
			<output>
				<port id="1" precision="FP16">
					<dim>1</dim>
				</port>
			</output>
		</layer>
		<layer id="289" name="icnet_features/conv3_1_1x1_reduce_1/Conv2D/fq_weights_1/Copy/out_high6378_const" type="Const" version="opset1">
			<data element_type="f16" offset="1762" shape="1" size="2"/>
			<output>
				<port id="1" precision="FP16">
					<dim>1</dim>
				</port>
			</output>
		</layer>
		<layer id="290" name="27692773_const" type="Const" version="opset1">
			<data element_type="f16" offset="522848" shape="128,1,1,1" size="256"/>
			<output>
				<port id="1" precision="FP16">
					<dim>128</dim>
					<dim>1</dim>
					<dim>1</dim>
					<dim>1</dim>
				</port>
			</output>
		</layer>
		<layer id="291" name="27702774_const" type="Const" version="opset1">
			<data element_type="f16" offset="523104" shape="128,1,1,1" size="256"/>
			<output>
				<port id="1" precision="FP16">
					<dim>128</dim>
					<dim>1</dim>
					<dim>1</dim>
					<dim>1</dim>
				</port>
			</output>
		</layer>
		<layer id="292" name="icnet_features/conv3_1_1x1_reduce_1/Conv2D/fq_weights_1" type="FakeQuantize" version="opset1">
			<data levels="255"/>
			<input>
				<port id="0">
					<dim>128</dim>
					<dim>256</dim>
					<dim>1</dim>
					<dim>1</dim>
				</port>
				<port id="1">
					<dim>1</dim>
				</port>
				<port id="2">
					<dim>1</dim>
				</port>
				<port id="3">
					<dim>128</dim>
					<dim>1</dim>
					<dim>1</dim>
					<dim>1</dim>
				</port>
				<port id="4">
					<dim>128</dim>
					<dim>1</dim>
					<dim>1</dim>
					<dim>1</dim>
				</port>
			</input>
			<output>
				<port id="5" precision="FP16">
					<dim>128</dim>
					<dim>256</dim>
					<dim>1</dim>
					<dim>1</dim>
				</port>
			</output>
		</layer>
		<layer id="293" name="icnet_features/conv3_1_1x1_reduce_1/Conv2D" type="Convolution" version="opset1">
			<data auto_pad="valid" dilations="1,1" output_padding="0,0" pads_begin="0,0" pads_end="0,0" strides="2,2"/>
			<input>
				<port id="0">
					<dim>1</dim>
					<dim>256</dim>
					<dim>90</dim>
					<dim>120</dim>
				</port>
				<port id="1">
					<dim>128</dim>
					<dim>256</dim>
					<dim>1</dim>
					<dim>1</dim>
				</port>
			</input>
			<output>
				<port id="2" precision="FP16">
					<dim>1</dim>
					<dim>128</dim>
					<dim>45</dim>
					<dim>60</dim>
				</port>
			</output>
		</layer>
		<layer id="294" name="data_add_1524415249/copy_const500_const" type="Const" version="opset1">
			<data element_type="f16" offset="523360" shape="1,128,1,1" size="256"/>
			<output>
				<port id="1" precision="FP16">
					<dim>1</dim>
					<dim>128</dim>
					<dim>1</dim>
					<dim>1</dim>
				</port>
			</output>
		</layer>
		<layer id="295" name="icnet_features/conv3_1_1x1_reduce_bn_2/FusedBatchNorm/variance/Fused_Add_" type="Add" version="opset1">
			<input>
				<port id="0">
					<dim>1</dim>
					<dim>128</dim>
					<dim>45</dim>
					<dim>60</dim>
				</port>
				<port id="1">
					<dim>1</dim>
					<dim>128</dim>
					<dim>1</dim>
					<dim>1</dim>
				</port>
			</input>
			<output>
				<port id="2" precision="FP16">
					<dim>1</dim>
					<dim>128</dim>
					<dim>45</dim>
					<dim>60</dim>
				</port>
			</output>
		</layer>
		<layer id="296" name="icnet_features/conv3_1_1x1_reduce_bn_3/conv3_1_1x1_reduce_bn" type="ReLU" version="opset1">
			<input>
				<port id="0">
					<dim>1</dim>
					<dim>128</dim>
					<dim>45</dim>
					<dim>60</dim>
				</port>
			</input>
			<output>
				<port id="1" precision="FP16">
					<dim>1</dim>
					<dim>128</dim>
					<dim>45</dim>
					<dim>60</dim>
				</port>
			</output>
		</layer>
		<layer id="297" name="18571861_const" type="Const" version="opset1">
			<data element_type="f16" offset="523616" shape="" size="2"/>
			<output>
				<port id="1" precision="FP16"/>
			</output>
		</layer>
		<layer id="298" name="18581862_const" type="Const" version="opset1">
			<data element_type="f16" offset="523618" shape="" size="2"/>
			<output>
				<port id="1" precision="FP16"/>
			</output>
		</layer>
		<layer id="299" name="18591863_const" type="Const" version="opset1">
			<data element_type="f16" offset="523616" shape="" size="2"/>
			<output>
				<port id="1" precision="FP16"/>
			</output>
		</layer>
		<layer id="300" name="18601864_const" type="Const" version="opset1">
			<data element_type="f16" offset="523618" shape="" size="2"/>
			<output>
				<port id="1" precision="FP16"/>
			</output>
		</layer>
		<layer id="301" name="icnet_features/conv3_1_3x3_1/Conv2D/fq_input_0" type="FakeQuantize" version="opset1">
			<data levels="256"/>
			<input>
				<port id="0">
					<dim>1</dim>
					<dim>128</dim>
					<dim>45</dim>
					<dim>60</dim>
				</port>
				<port id="1"/>
				<port id="2"/>
				<port id="3"/>
				<port id="4"/>
			</input>
			<output>
				<port id="5" precision="FP16">
					<dim>1</dim>
					<dim>128</dim>
					<dim>45</dim>
					<dim>60</dim>
				</port>
			</output>
		</layer>
		<layer id="302" name="icnet_features/conv3_1_3x3_1/Conv2D/fq_weights_1/Convert_to_float/Cast_07779_const" type="Const" version="opset1">
			<data element_type="u8" offset="523620" shape="128,128,3,3" size="147456"/>
			<output>
				<port id="1" precision="U8">
					<dim>128</dim>
					<dim>128</dim>
					<dim>3</dim>
					<dim>3</dim>
				</port>
			</output>
		</layer>
		<layer id="303" name="icnet_features/conv3_1_3x3_1/Conv2D/fq_weights_1/Convert_to_float" type="Convert" version="opset1">
			<data destination_type="f16"/>
			<input>
				<port id="0">
					<dim>128</dim>
					<dim>128</dim>
					<dim>3</dim>
					<dim>3</dim>
				</port>
			</input>
			<output>
				<port id="1" precision="FP16">
					<dim>128</dim>
					<dim>128</dim>
					<dim>3</dim>
					<dim>3</dim>
				</port>
			</output>
		</layer>
		<layer id="304" name="icnet_features/conv3_1_3x3_1/Conv2D/fq_weights_1/Copy/out_low6593_const" type="Const" version="opset1">
			<data element_type="f16" offset="671076" shape="1" size="2"/>
			<output>
				<port id="1" precision="FP16">
					<dim>1</dim>
				</port>
			</output>
		</layer>
		<layer id="305" name="icnet_features/conv3_1_3x3_1/Conv2D/fq_weights_1/Copy/out_high6594_const" type="Const" version="opset1">
			<data element_type="f16" offset="1762" shape="1" size="2"/>
			<output>
				<port id="1" precision="FP16">
					<dim>1</dim>
				</port>
			</output>
		</layer>
		<layer id="306" name="18691873_const" type="Const" version="opset1">
			<data element_type="f16" offset="671078" shape="128,1,1,1" size="256"/>
			<output>
				<port id="1" precision="FP16">
					<dim>128</dim>
					<dim>1</dim>
					<dim>1</dim>
					<dim>1</dim>
				</port>
			</output>
		</layer>
		<layer id="307" name="18701874_const" type="Const" version="opset1">
			<data element_type="f16" offset="671334" shape="128,1,1,1" size="256"/>
			<output>
				<port id="1" precision="FP16">
					<dim>128</dim>
					<dim>1</dim>
					<dim>1</dim>
					<dim>1</dim>
				</port>
			</output>
		</layer>
		<layer id="308" name="icnet_features/conv3_1_3x3_1/Conv2D/fq_weights_1" type="FakeQuantize" version="opset1">
			<data levels="255"/>
			<input>
				<port id="0">
					<dim>128</dim>
					<dim>128</dim>
					<dim>3</dim>
					<dim>3</dim>
				</port>
				<port id="1">
					<dim>1</dim>
				</port>
				<port id="2">
					<dim>1</dim>
				</port>
				<port id="3">
					<dim>128</dim>
					<dim>1</dim>
					<dim>1</dim>
					<dim>1</dim>
				</port>
				<port id="4">
					<dim>128</dim>
					<dim>1</dim>
					<dim>1</dim>
					<dim>1</dim>
				</port>
			</input>
			<output>
				<port id="5" precision="FP16">
					<dim>128</dim>
					<dim>128</dim>
					<dim>3</dim>
					<dim>3</dim>
				</port>
			</output>
		</layer>
		<layer id="309" name="icnet_features/conv3_1_3x3_1/Conv2D" type="Convolution" version="opset1">
			<data dilations="1,1" output_padding="0,0" pads_begin="1,1" pads_end="1,1" strides="1,1"/>
			<input>
				<port id="0">
					<dim>1</dim>
					<dim>128</dim>
					<dim>45</dim>
					<dim>60</dim>
				</port>
				<port id="1">
					<dim>128</dim>
					<dim>128</dim>
					<dim>3</dim>
					<dim>3</dim>
				</port>
			</input>
			<output>
				<port id="2" precision="FP16">
					<dim>1</dim>
					<dim>128</dim>
					<dim>45</dim>
					<dim>60</dim>
				</port>
			</output>
		</layer>
		<layer id="310" name="data_add_1525215257/copy_const505_const" type="Const" version="opset1">
			<data element_type="f16" offset="671590" shape="1,128,1,1" size="256"/>
			<output>
				<port id="1" precision="FP16">
					<dim>1</dim>
					<dim>128</dim>
					<dim>1</dim>
					<dim>1</dim>
				</port>
			</output>
		</layer>
		<layer id="311" name="icnet_features/conv3_1_3x3_bn_2/FusedBatchNorm/variance/Fused_Add_" type="Add" version="opset1">
			<input>
				<port id="0">
					<dim>1</dim>
					<dim>128</dim>
					<dim>45</dim>
					<dim>60</dim>
				</port>
				<port id="1">
					<dim>1</dim>
					<dim>128</dim>
					<dim>1</dim>
					<dim>1</dim>
				</port>
			</input>
			<output>
				<port id="2" precision="FP16">
					<dim>1</dim>
					<dim>128</dim>
					<dim>45</dim>
					<dim>60</dim>
				</port>
			</output>
		</layer>
		<layer id="312" name="icnet_features/conv3_1_3x3_bn_3/conv3_1_3x3_bn" type="ReLU" version="opset1">
			<input>
				<port id="0">
					<dim>1</dim>
					<dim>128</dim>
					<dim>45</dim>
					<dim>60</dim>
				</port>
			</input>
			<output>
				<port id="1" precision="FP16">
					<dim>1</dim>
					<dim>128</dim>
					<dim>45</dim>
					<dim>60</dim>
				</port>
			</output>
		</layer>
		<layer id="313" name="32473251_const" type="Const" version="opset1">
			<data element_type="f16" offset="671846" shape="" size="2"/>
			<output>
				<port id="1" precision="FP16"/>
			</output>
		</layer>
		<layer id="314" name="32483252_const" type="Const" version="opset1">
			<data element_type="f16" offset="671848" shape="" size="2"/>
			<output>
				<port id="1" precision="FP16"/>
			</output>
		</layer>
		<layer id="315" name="32493253_const" type="Const" version="opset1">
			<data element_type="f16" offset="671846" shape="" size="2"/>
			<output>
				<port id="1" precision="FP16"/>
			</output>
		</layer>
		<layer id="316" name="32503254_const" type="Const" version="opset1">
			<data element_type="f16" offset="671848" shape="" size="2"/>
			<output>
				<port id="1" precision="FP16"/>
			</output>
		</layer>
		<layer id="317" name="icnet_features/conv3_1_1x1_increase_1/Conv2D/fq_input_0" type="FakeQuantize" version="opset1">
			<data levels="256"/>
			<input>
				<port id="0">
					<dim>1</dim>
					<dim>128</dim>
					<dim>45</dim>
					<dim>60</dim>
				</port>
				<port id="1"/>
				<port id="2"/>
				<port id="3"/>
				<port id="4"/>
			</input>
			<output>
				<port id="5" precision="FP16">
					<dim>1</dim>
					<dim>128</dim>
					<dim>45</dim>
					<dim>60</dim>
				</port>
			</output>
		</layer>
		<layer id="318" name="icnet_features/conv3_1_1x1_increase_1/Conv2D/fq_weights_1/Convert_to_float/Cast_07749_const" type="Const" version="opset1">
			<data element_type="u8" offset="671850" shape="512,128,1,1" size="65536"/>
			<output>
				<port id="1" precision="U8">
					<dim>512</dim>
					<dim>128</dim>
					<dim>1</dim>
					<dim>1</dim>
				</port>
			</output>
		</layer>
		<layer id="319" name="icnet_features/conv3_1_1x1_increase_1/Conv2D/fq_weights_1/Convert_to_float" type="Convert" version="opset1">
			<data destination_type="f16"/>
			<input>
				<port id="0">
					<dim>512</dim>
					<dim>128</dim>
					<dim>1</dim>
					<dim>1</dim>
				</port>
			</input>
			<output>
				<port id="1" precision="FP16">
					<dim>512</dim>
					<dim>128</dim>
					<dim>1</dim>
					<dim>1</dim>
				</port>
			</output>
		</layer>
		<layer id="320" name="icnet_features/conv3_1_1x1_increase_1/Conv2D/fq_weights_1/Copy/out_low6473_const" type="Const" version="opset1">
			<data element_type="f16" offset="737386" shape="1" size="2"/>
			<output>
				<port id="1" precision="FP16">
					<dim>1</dim>
				</port>
			</output>
		</layer>
		<layer id="321" name="icnet_features/conv3_1_1x1_increase_1/Conv2D/fq_weights_1/Copy/out_high6474_const" type="Const" version="opset1">
			<data element_type="f16" offset="1762" shape="1" size="2"/>
			<output>
				<port id="1" precision="FP16">
					<dim>1</dim>
				</port>
			</output>
		</layer>
		<layer id="322" name="32593263_const" type="Const" version="opset1">
			<data element_type="f16" offset="737388" shape="512,1,1,1" size="1024"/>
			<output>
				<port id="1" precision="FP16">
					<dim>512</dim>
					<dim>1</dim>
					<dim>1</dim>
					<dim>1</dim>
				</port>
			</output>
		</layer>
		<layer id="323" name="32603264_const" type="Const" version="opset1">
			<data element_type="f16" offset="738412" shape="512,1,1,1" size="1024"/>
			<output>
				<port id="1" precision="FP16">
					<dim>512</dim>
					<dim>1</dim>
					<dim>1</dim>
					<dim>1</dim>
				</port>
			</output>
		</layer>
		<layer id="324" name="icnet_features/conv3_1_1x1_increase_1/Conv2D/fq_weights_1" type="FakeQuantize" version="opset1">
			<data levels="255"/>
			<input>
				<port id="0">
					<dim>512</dim>
					<dim>128</dim>
					<dim>1</dim>
					<dim>1</dim>
				</port>
				<port id="1">
					<dim>1</dim>
				</port>
				<port id="2">
					<dim>1</dim>
				</port>
				<port id="3">
					<dim>512</dim>
					<dim>1</dim>
					<dim>1</dim>
					<dim>1</dim>
				</port>
				<port id="4">
					<dim>512</dim>
					<dim>1</dim>
					<dim>1</dim>
					<dim>1</dim>
				</port>
			</input>
			<output>
				<port id="5" precision="FP16">
					<dim>512</dim>
					<dim>128</dim>
					<dim>1</dim>
					<dim>1</dim>
				</port>
			</output>
		</layer>
		<layer id="325" name="icnet_features/conv3_1_1x1_increase_1/Conv2D" type="Convolution" version="opset1">
			<data auto_pad="valid" dilations="1,1" output_padding="0,0" pads_begin="0,0" pads_end="0,0" strides="1,1"/>
			<input>
				<port id="0">
					<dim>1</dim>
					<dim>128</dim>
					<dim>45</dim>
					<dim>60</dim>
				</port>
				<port id="1">
					<dim>512</dim>
					<dim>128</dim>
					<dim>1</dim>
					<dim>1</dim>
				</port>
			</input>
			<output>
				<port id="2" precision="FP16">
					<dim>1</dim>
					<dim>512</dim>
					<dim>45</dim>
					<dim>60</dim>
				</port>
			</output>
		</layer>
		<layer id="326" name="data_add_1526015265/copy_const510_const" type="Const" version="opset1">
			<data element_type="f16" offset="739436" shape="1,512,1,1" size="1024"/>
			<output>
				<port id="1" precision="FP16">
					<dim>1</dim>
					<dim>512</dim>
					<dim>1</dim>
					<dim>1</dim>
				</port>
			</output>
		</layer>
		<layer id="327" name="icnet_features/conv3_1_1x1_increase_bn_1/FusedBatchNorm/variance/Fused_Add_" type="Add" version="opset1">
			<input>
				<port id="0">
					<dim>1</dim>
					<dim>512</dim>
					<dim>45</dim>
					<dim>60</dim>
				</port>
				<port id="1">
					<dim>1</dim>
					<dim>512</dim>
					<dim>1</dim>
					<dim>1</dim>
				</port>
			</input>
			<output>
				<port id="2" precision="FP16">
					<dim>1</dim>
					<dim>512</dim>
					<dim>45</dim>
					<dim>60</dim>
				</port>
			</output>
		</layer>
		<layer id="328" name="17071711_const" type="Const" version="opset1">
			<data element_type="f16" offset="740460" shape="" size="2"/>
			<output>
				<port id="1" precision="FP16"/>
			</output>
		</layer>
		<layer id="329" name="17081712_const" type="Const" version="opset1">
			<data element_type="f16" offset="740462" shape="" size="2"/>
			<output>
				<port id="1" precision="FP16"/>
			</output>
		</layer>
		<layer id="330" name="17091713_const" type="Const" version="opset1">
			<data element_type="f16" offset="740460" shape="" size="2"/>
			<output>
				<port id="1" precision="FP16"/>
			</output>
		</layer>
		<layer id="331" name="17101714_const" type="Const" version="opset1">
			<data element_type="f16" offset="740462" shape="" size="2"/>
			<output>
				<port id="1" precision="FP16"/>
			</output>
		</layer>
		<layer id="332" name="icnet_features/conv3_1_1/sum_1/fq_input_1" type="FakeQuantize" version="opset1">
			<data levels="256"/>
			<input>
				<port id="0">
					<dim>1</dim>
					<dim>512</dim>
					<dim>45</dim>
					<dim>60</dim>
				</port>
				<port id="1"/>
				<port id="2"/>
				<port id="3"/>
				<port id="4"/>
			</input>
			<output>
				<port id="5" precision="FP16">
					<dim>1</dim>
					<dim>512</dim>
					<dim>45</dim>
					<dim>60</dim>
				</port>
			</output>
		</layer>
		<layer id="333" name="icnet_features/conv3_1_1/sum_1" type="Add" version="opset1">
			<input>
				<port id="0">
					<dim>1</dim>
					<dim>512</dim>
					<dim>45</dim>
					<dim>60</dim>
				</port>
				<port id="1">
					<dim>1</dim>
					<dim>512</dim>
					<dim>45</dim>
					<dim>60</dim>
				</port>
			</input>
			<output>
				<port id="2" precision="FP16">
					<dim>1</dim>
					<dim>512</dim>
					<dim>45</dim>
					<dim>60</dim>
				</port>
			</output>
		</layer>
		<layer id="334" name="icnet_features/conv3_1/relu_1" type="ReLU" version="opset1">
			<input>
				<port id="0">
					<dim>1</dim>
					<dim>512</dim>
					<dim>45</dim>
					<dim>60</dim>
				</port>
			</input>
			<output>
				<port id="1" precision="FP16">
					<dim>1</dim>
					<dim>512</dim>
					<dim>45</dim>
					<dim>60</dim>
				</port>
			</output>
		</layer>
		<layer id="335" name="21672171_const" type="Const" version="opset1">
			<data element_type="f16" offset="740464" shape="" size="2"/>
			<output>
				<port id="1" precision="FP16"/>
			</output>
		</layer>
		<layer id="336" name="21682172_const" type="Const" version="opset1">
			<data element_type="f16" offset="740466" shape="" size="2"/>
			<output>
				<port id="1" precision="FP16"/>
			</output>
		</layer>
		<layer id="337" name="21692173_const" type="Const" version="opset1">
			<data element_type="f16" offset="740464" shape="" size="2"/>
			<output>
				<port id="1" precision="FP16"/>
			</output>
		</layer>
		<layer id="338" name="21702174_const" type="Const" version="opset1">
			<data element_type="f16" offset="740466" shape="" size="2"/>
			<output>
				<port id="1" precision="FP16"/>
			</output>
		</layer>
		<layer id="339" name="icnet_features/conv3_1_sub2_proj_1/Conv2D/fq_input_0" type="FakeQuantize" version="opset1">
			<data levels="256"/>
			<input>
				<port id="0">
					<dim>1</dim>
					<dim>512</dim>
					<dim>45</dim>
					<dim>60</dim>
				</port>
				<port id="1"/>
				<port id="2"/>
				<port id="3"/>
				<port id="4"/>
			</input>
			<output>
				<port id="5" precision="FP16">
					<dim>1</dim>
					<dim>512</dim>
					<dim>45</dim>
					<dim>60</dim>
				</port>
			</output>
		</layer>
		<layer id="340" name="icnet_features/conv3_1_sub4_1/Cast_17801_const" type="Const" version="opset1">
			<data element_type="i64" offset="740468" shape="2" size="16"/>
			<output>
				<port id="1" precision="I64">
					<dim>2</dim>
				</port>
			</output>
		</layer>
		<layer id="341" name="icnet_features/conv3_1_sub4_1" type="Interpolate" version="opset1">
			<data align_corners="1" antialias="0" axes="2,3" mode="linear" pads_begin="0" pads_end="0"/>
			<input>
				<port id="0">
					<dim>1</dim>
					<dim>512</dim>
					<dim>45</dim>
					<dim>60</dim>
				</port>
				<port id="1">
					<dim>2</dim>
				</port>
			</input>
			<output>
				<port id="2" precision="FP16">
					<dim>1</dim>
					<dim>512</dim>
					<dim>23</dim>
					<dim>30</dim>
				</port>
			</output>
		</layer>
		<layer id="342" name="20272031_const" type="Const" version="opset1">
			<data element_type="f16" offset="740464" shape="" size="2"/>
			<output>
				<port id="1" precision="FP16"/>
			</output>
		</layer>
		<layer id="343" name="20282032_const" type="Const" version="opset1">
			<data element_type="f16" offset="740484" shape="" size="2"/>
			<output>
				<port id="1" precision="FP16"/>
			</output>
		</layer>
		<layer id="344" name="20292033_const" type="Const" version="opset1">
			<data element_type="f16" offset="740464" shape="" size="2"/>
			<output>
				<port id="1" precision="FP16"/>
			</output>
		</layer>
		<layer id="345" name="20302034_const" type="Const" version="opset1">
			<data element_type="f16" offset="740484" shape="" size="2"/>
			<output>
				<port id="1" precision="FP16"/>
			</output>
		</layer>
		<layer id="346" name="icnet_features/ResizeBilinear_23/fq_input_0" type="FakeQuantize" version="opset1">
			<data levels="256"/>
			<input>
				<port id="0">
					<dim>1</dim>
					<dim>512</dim>
					<dim>23</dim>
					<dim>30</dim>
				</port>
				<port id="1"/>
				<port id="2"/>
				<port id="3"/>
				<port id="4"/>
			</input>
			<output>
				<port id="5" precision="FP16">
					<dim>1</dim>
					<dim>512</dim>
					<dim>23</dim>
					<dim>30</dim>
				</port>
			</output>
		</layer>
		<layer id="347" name="icnet_features/ResizeBilinear_23/Cast_17721_const" type="Const" version="opset1">
			<data element_type="i64" offset="740468" shape="2" size="16"/>
			<output>
				<port id="1" precision="I64">
					<dim>2</dim>
				</port>
			</output>
		</layer>
		<layer id="348" name="icnet_features/ResizeBilinear_23" type="Interpolate" version="opset1">
			<data align_corners="0" antialias="0" axes="2,3" mode="linear" pads_begin="0" pads_end="0"/>
			<input>
				<port id="0">
					<dim>1</dim>
					<dim>512</dim>
					<dim>23</dim>
					<dim>30</dim>
				</port>
				<port id="1">
					<dim>2</dim>
				</port>
			</input>
			<output>
				<port id="2" precision="FP16">
					<dim>1</dim>
					<dim>512</dim>
					<dim>23</dim>
					<dim>30</dim>
				</port>
			</output>
		</layer>
		<layer id="349" name="24172421_const" type="Const" version="opset1">
			<data element_type="f16" offset="740464" shape="" size="2"/>
			<output>
				<port id="1" precision="FP16"/>
			</output>
		</layer>
		<layer id="350" name="24182422_const" type="Const" version="opset1">
			<data element_type="f16" offset="740484" shape="" size="2"/>
			<output>
				<port id="1" precision="FP16"/>
			</output>
		</layer>
		<layer id="351" name="24192423_const" type="Const" version="opset1">
			<data element_type="f16" offset="740464" shape="" size="2"/>
			<output>
				<port id="1" precision="FP16"/>
			</output>
		</layer>
		<layer id="352" name="24202424_const" type="Const" version="opset1">
			<data element_type="f16" offset="740484" shape="" size="2"/>
			<output>
				<port id="1" precision="FP16"/>
			</output>
		</layer>
		<layer id="353" name="icnet_features/conv3_2_1/sum_1/fq_input_0" type="FakeQuantize" version="opset1">
			<data levels="256"/>
			<input>
				<port id="0">
					<dim>1</dim>
					<dim>512</dim>
					<dim>23</dim>
					<dim>30</dim>
				</port>
				<port id="1"/>
				<port id="2"/>
				<port id="3"/>
				<port id="4"/>
			</input>
			<output>
				<port id="5" precision="FP16">
					<dim>1</dim>
					<dim>512</dim>
					<dim>23</dim>
					<dim>30</dim>
				</port>
			</output>
		</layer>
		<layer id="354" name="icnet_features/conv3_2_1x1_reduce_1/Conv2D/fq_weights_1/Convert_to_float/Cast_07791_const" type="Const" version="opset1">
			<data element_type="u8" offset="740486" shape="128,512,1,1" size="65536"/>
			<output>
				<port id="1" precision="U8">
					<dim>128</dim>
					<dim>512</dim>
					<dim>1</dim>
					<dim>1</dim>
				</port>
			</output>
		</layer>
		<layer id="355" name="icnet_features/conv3_2_1x1_reduce_1/Conv2D/fq_weights_1/Convert_to_float" type="Convert" version="opset1">
			<data destination_type="f16"/>
			<input>
				<port id="0">
					<dim>128</dim>
					<dim>512</dim>
					<dim>1</dim>
					<dim>1</dim>
				</port>
			</input>
			<output>
				<port id="1" precision="FP16">
					<dim>128</dim>
					<dim>512</dim>
					<dim>1</dim>
					<dim>1</dim>
				</port>
			</output>
		</layer>
		<layer id="356" name="icnet_features/conv3_2_1x1_reduce_1/Conv2D/fq_weights_1/Copy/out_low6385_const" type="Const" version="opset1">
			<data element_type="f16" offset="806022" shape="1" size="2"/>
			<output>
				<port id="1" precision="FP16">
					<dim>1</dim>
				</port>
			</output>
		</layer>
		<layer id="357" name="icnet_features/conv3_2_1x1_reduce_1/Conv2D/fq_weights_1/Copy/out_high6386_const" type="Const" version="opset1">
			<data element_type="f16" offset="1762" shape="1" size="2"/>
			<output>
				<port id="1" precision="FP16">
					<dim>1</dim>
				</port>
			</output>
		</layer>
		<layer id="358" name="25392543_const" type="Const" version="opset1">
			<data element_type="f16" offset="806024" shape="128,1,1,1" size="256"/>
			<output>
				<port id="1" precision="FP16">
					<dim>128</dim>
					<dim>1</dim>
					<dim>1</dim>
					<dim>1</dim>
				</port>
			</output>
		</layer>
		<layer id="359" name="25402544_const" type="Const" version="opset1">
			<data element_type="f16" offset="806280" shape="128,1,1,1" size="256"/>
			<output>
				<port id="1" precision="FP16">
					<dim>128</dim>
					<dim>1</dim>
					<dim>1</dim>
					<dim>1</dim>
				</port>
			</output>
		</layer>
		<layer id="360" name="icnet_features/conv3_2_1x1_reduce_1/Conv2D/fq_weights_1" type="FakeQuantize" version="opset1">
			<data levels="255"/>
			<input>
				<port id="0">
					<dim>128</dim>
					<dim>512</dim>
					<dim>1</dim>
					<dim>1</dim>
				</port>
				<port id="1">
					<dim>1</dim>
				</port>
				<port id="2">
					<dim>1</dim>
				</port>
				<port id="3">
					<dim>128</dim>
					<dim>1</dim>
					<dim>1</dim>
					<dim>1</dim>
				</port>
				<port id="4">
					<dim>128</dim>
					<dim>1</dim>
					<dim>1</dim>
					<dim>1</dim>
				</port>
			</input>
			<output>
				<port id="5" precision="FP16">
					<dim>128</dim>
					<dim>512</dim>
					<dim>1</dim>
					<dim>1</dim>
				</port>
			</output>
		</layer>
		<layer id="361" name="icnet_features/conv3_2_1x1_reduce_1/Conv2D" type="Convolution" version="opset1">
			<data auto_pad="valid" dilations="1,1" output_padding="0,0" pads_begin="0,0" pads_end="0,0" strides="1,1"/>
			<input>
				<port id="0">
					<dim>1</dim>
					<dim>512</dim>
					<dim>23</dim>
					<dim>30</dim>
				</port>
				<port id="1">
					<dim>128</dim>
					<dim>512</dim>
					<dim>1</dim>
					<dim>1</dim>
				</port>
			</input>
			<output>
				<port id="2" precision="FP16">
					<dim>1</dim>
					<dim>128</dim>
					<dim>23</dim>
					<dim>30</dim>
				</port>
			</output>
		</layer>
		<layer id="362" name="data_add_1528415289/copy_const520_const" type="Const" version="opset1">
			<data element_type="f16" offset="806536" shape="1,128,1,1" size="256"/>
			<output>
				<port id="1" precision="FP16">
					<dim>1</dim>
					<dim>128</dim>
					<dim>1</dim>
					<dim>1</dim>
				</port>
			</output>
		</layer>
		<layer id="363" name="icnet_features/conv3_2_1x1_reduce_bn_2/FusedBatchNorm/variance/Fused_Add_" type="Add" version="opset1">
			<input>
				<port id="0">
					<dim>1</dim>
					<dim>128</dim>
					<dim>23</dim>
					<dim>30</dim>
				</port>
				<port id="1">
					<dim>1</dim>
					<dim>128</dim>
					<dim>1</dim>
					<dim>1</dim>
				</port>
			</input>
			<output>
				<port id="2" precision="FP16">
					<dim>1</dim>
					<dim>128</dim>
					<dim>23</dim>
					<dim>30</dim>
				</port>
			</output>
		</layer>
		<layer id="364" name="icnet_features/conv3_2_1x1_reduce_bn_3/conv3_2_1x1_reduce_bn" type="ReLU" version="opset1">
			<input>
				<port id="0">
					<dim>1</dim>
					<dim>128</dim>
					<dim>23</dim>
					<dim>30</dim>
				</port>
			</input>
			<output>
				<port id="1" precision="FP16">
					<dim>1</dim>
					<dim>128</dim>
					<dim>23</dim>
					<dim>30</dim>
				</port>
			</output>
		</layer>
		<layer id="365" name="25472551_const" type="Const" version="opset1">
			<data element_type="f16" offset="806792" shape="" size="2"/>
			<output>
				<port id="1" precision="FP16"/>
			</output>
		</layer>
		<layer id="366" name="25482552_const" type="Const" version="opset1">
			<data element_type="f16" offset="806794" shape="" size="2"/>
			<output>
				<port id="1" precision="FP16"/>
			</output>
		</layer>
		<layer id="367" name="25492553_const" type="Const" version="opset1">
			<data element_type="f16" offset="806792" shape="" size="2"/>
			<output>
				<port id="1" precision="FP16"/>
			</output>
		</layer>
		<layer id="368" name="25502554_const" type="Const" version="opset1">
			<data element_type="f16" offset="806794" shape="" size="2"/>
			<output>
				<port id="1" precision="FP16"/>
			</output>
		</layer>
		<layer id="369" name="icnet_features/conv3_2_3x3_1/Conv2D/fq_input_0" type="FakeQuantize" version="opset1">
			<data levels="256"/>
			<input>
				<port id="0">
					<dim>1</dim>
					<dim>128</dim>
					<dim>23</dim>
					<dim>30</dim>
				</port>
				<port id="1"/>
				<port id="2"/>
				<port id="3"/>
				<port id="4"/>
			</input>
			<output>
				<port id="5" precision="FP16">
					<dim>1</dim>
					<dim>128</dim>
					<dim>23</dim>
					<dim>30</dim>
				</port>
			</output>
		</layer>
		<layer id="370" name="icnet_features/conv3_2_3x3_1/Conv2D/fq_weights_1/Convert_to_float/Cast_07759_const" type="Const" version="opset1">
			<data element_type="u8" offset="806796" shape="128,128,3,3" size="147456"/>
			<output>
				<port id="1" precision="U8">
					<dim>128</dim>
					<dim>128</dim>
					<dim>3</dim>
					<dim>3</dim>
				</port>
			</output>
		</layer>
		<layer id="371" name="icnet_features/conv3_2_3x3_1/Conv2D/fq_weights_1/Convert_to_float" type="Convert" version="opset1">
			<data destination_type="f16"/>
			<input>
				<port id="0">
					<dim>128</dim>
					<dim>128</dim>
					<dim>3</dim>
					<dim>3</dim>
				</port>
			</input>
			<output>
				<port id="1" precision="FP16">
					<dim>128</dim>
					<dim>128</dim>
					<dim>3</dim>
					<dim>3</dim>
				</port>
			</output>
		</layer>
		<layer id="372" name="icnet_features/conv3_2_3x3_1/Conv2D/fq_weights_1/Copy/out_low6281_const" type="Const" version="opset1">
			<data element_type="f16" offset="954252" shape="1" size="2"/>
			<output>
				<port id="1" precision="FP16">
					<dim>1</dim>
				</port>
			</output>
		</layer>
		<layer id="373" name="icnet_features/conv3_2_3x3_1/Conv2D/fq_weights_1/Copy/out_high6282_const" type="Const" version="opset1">
			<data element_type="f16" offset="1762" shape="1" size="2"/>
			<output>
				<port id="1" precision="FP16">
					<dim>1</dim>
				</port>
			</output>
		</layer>
		<layer id="374" name="25592563_const" type="Const" version="opset1">
			<data element_type="f16" offset="954254" shape="128,1,1,1" size="256"/>
			<output>
				<port id="1" precision="FP16">
					<dim>128</dim>
					<dim>1</dim>
					<dim>1</dim>
					<dim>1</dim>
				</port>
			</output>
		</layer>
		<layer id="375" name="25602564_const" type="Const" version="opset1">
			<data element_type="f16" offset="954510" shape="128,1,1,1" size="256"/>
			<output>
				<port id="1" precision="FP16">
					<dim>128</dim>
					<dim>1</dim>
					<dim>1</dim>
					<dim>1</dim>
				</port>
			</output>
		</layer>
		<layer id="376" name="icnet_features/conv3_2_3x3_1/Conv2D/fq_weights_1" type="FakeQuantize" version="opset1">
			<data levels="255"/>
			<input>
				<port id="0">
					<dim>128</dim>
					<dim>128</dim>
					<dim>3</dim>
					<dim>3</dim>
				</port>
				<port id="1">
					<dim>1</dim>
				</port>
				<port id="2">
					<dim>1</dim>
				</port>
				<port id="3">
					<dim>128</dim>
					<dim>1</dim>
					<dim>1</dim>
					<dim>1</dim>
				</port>
				<port id="4">
					<dim>128</dim>
					<dim>1</dim>
					<dim>1</dim>
					<dim>1</dim>
				</port>
			</input>
			<output>
				<port id="5" precision="FP16">
					<dim>128</dim>
					<dim>128</dim>
					<dim>3</dim>
					<dim>3</dim>
				</port>
			</output>
		</layer>
		<layer id="377" name="icnet_features/conv3_2_3x3_1/Conv2D" type="Convolution" version="opset1">
			<data dilations="1,1" output_padding="0,0" pads_begin="1,1" pads_end="1,1" strides="1,1"/>
			<input>
				<port id="0">
					<dim>1</dim>
					<dim>128</dim>
					<dim>23</dim>
					<dim>30</dim>
				</port>
				<port id="1">
					<dim>128</dim>
					<dim>128</dim>
					<dim>3</dim>
					<dim>3</dim>
				</port>
			</input>
			<output>
				<port id="2" precision="FP16">
					<dim>1</dim>
					<dim>128</dim>
					<dim>23</dim>
					<dim>30</dim>
				</port>
			</output>
		</layer>
		<layer id="378" name="data_add_1529215297/copy_const525_const" type="Const" version="opset1">
			<data element_type="f16" offset="954766" shape="1,128,1,1" size="256"/>
			<output>
				<port id="1" precision="FP16">
					<dim>1</dim>
					<dim>128</dim>
					<dim>1</dim>
					<dim>1</dim>
				</port>
			</output>
		</layer>
		<layer id="379" name="icnet_features/conv3_2_3x3_bn_2/FusedBatchNorm/variance/Fused_Add_" type="Add" version="opset1">
			<input>
				<port id="0">
					<dim>1</dim>
					<dim>128</dim>
					<dim>23</dim>
					<dim>30</dim>
				</port>
				<port id="1">
					<dim>1</dim>
					<dim>128</dim>
					<dim>1</dim>
					<dim>1</dim>
				</port>
			</input>
			<output>
				<port id="2" precision="FP16">
					<dim>1</dim>
					<dim>128</dim>
					<dim>23</dim>
					<dim>30</dim>
				</port>
			</output>
		</layer>
		<layer id="380" name="icnet_features/conv3_2_3x3_bn_3/conv3_2_3x3_bn" type="ReLU" version="opset1">
			<input>
				<port id="0">
					<dim>1</dim>
					<dim>128</dim>
					<dim>23</dim>
					<dim>30</dim>
				</port>
			</input>
			<output>
				<port id="1" precision="FP16">
					<dim>1</dim>
					<dim>128</dim>
					<dim>23</dim>
					<dim>30</dim>
				</port>
			</output>
		</layer>
		<layer id="381" name="27372741_const" type="Const" version="opset1">
			<data element_type="f16" offset="955022" shape="" size="2"/>
			<output>
				<port id="1" precision="FP16"/>
			</output>
		</layer>
		<layer id="382" name="27382742_const" type="Const" version="opset1">
			<data element_type="f16" offset="955024" shape="" size="2"/>
			<output>
				<port id="1" precision="FP16"/>
			</output>
		</layer>
		<layer id="383" name="27392743_const" type="Const" version="opset1">
			<data element_type="f16" offset="955022" shape="" size="2"/>
			<output>
				<port id="1" precision="FP16"/>
			</output>
		</layer>
		<layer id="384" name="27402744_const" type="Const" version="opset1">
			<data element_type="f16" offset="955024" shape="" size="2"/>
			<output>
				<port id="1" precision="FP16"/>
			</output>
		</layer>
		<layer id="385" name="icnet_features/conv3_2_1x1_increase_1/Conv2D/fq_input_0" type="FakeQuantize" version="opset1">
			<data levels="256"/>
			<input>
				<port id="0">
					<dim>1</dim>
					<dim>128</dim>
					<dim>23</dim>
					<dim>30</dim>
				</port>
				<port id="1"/>
				<port id="2"/>
				<port id="3"/>
				<port id="4"/>
			</input>
			<output>
				<port id="5" precision="FP16">
					<dim>1</dim>
					<dim>128</dim>
					<dim>23</dim>
					<dim>30</dim>
				</port>
			</output>
		</layer>
		<layer id="386" name="icnet_features/conv3_2_1x1_increase_1/Conv2D/fq_weights_1/Convert_to_float/Cast_07705_const" type="Const" version="opset1">
			<data element_type="u8" offset="955026" shape="512,128,1,1" size="65536"/>
			<output>
				<port id="1" precision="U8">
					<dim>512</dim>
					<dim>128</dim>
					<dim>1</dim>
					<dim>1</dim>
				</port>
			</output>
		</layer>
		<layer id="387" name="icnet_features/conv3_2_1x1_increase_1/Conv2D/fq_weights_1/Convert_to_float" type="Convert" version="opset1">
			<data destination_type="f16"/>
			<input>
				<port id="0">
					<dim>512</dim>
					<dim>128</dim>
					<dim>1</dim>
					<dim>1</dim>
				</port>
			</input>
			<output>
				<port id="1" precision="FP16">
					<dim>512</dim>
					<dim>128</dim>
					<dim>1</dim>
					<dim>1</dim>
				</port>
			</output>
		</layer>
		<layer id="388" name="icnet_features/conv3_2_1x1_increase_1/Conv2D/fq_weights_1/Copy/out_low6433_const" type="Const" version="opset1">
			<data element_type="f16" offset="1020562" shape="1" size="2"/>
			<output>
				<port id="1" precision="FP16">
					<dim>1</dim>
				</port>
			</output>
		</layer>
		<layer id="389" name="icnet_features/conv3_2_1x1_increase_1/Conv2D/fq_weights_1/Copy/out_high6434_const" type="Const" version="opset1">
			<data element_type="f16" offset="1762" shape="1" size="2"/>
			<output>
				<port id="1" precision="FP16">
					<dim>1</dim>
				</port>
			</output>
		</layer>
		<layer id="390" name="27492753_const" type="Const" version="opset1">
			<data element_type="f16" offset="1020564" shape="512,1,1,1" size="1024"/>
			<output>
				<port id="1" precision="FP16">
					<dim>512</dim>
					<dim>1</dim>
					<dim>1</dim>
					<dim>1</dim>
				</port>
			</output>
		</layer>
		<layer id="391" name="27502754_const" type="Const" version="opset1">
			<data element_type="f16" offset="1021588" shape="512,1,1,1" size="1024"/>
			<output>
				<port id="1" precision="FP16">
					<dim>512</dim>
					<dim>1</dim>
					<dim>1</dim>
					<dim>1</dim>
				</port>
			</output>
		</layer>
		<layer id="392" name="icnet_features/conv3_2_1x1_increase_1/Conv2D/fq_weights_1" type="FakeQuantize" version="opset1">
			<data levels="255"/>
			<input>
				<port id="0">
					<dim>512</dim>
					<dim>128</dim>
					<dim>1</dim>
					<dim>1</dim>
				</port>
				<port id="1">
					<dim>1</dim>
				</port>
				<port id="2">
					<dim>1</dim>
				</port>
				<port id="3">
					<dim>512</dim>
					<dim>1</dim>
					<dim>1</dim>
					<dim>1</dim>
				</port>
				<port id="4">
					<dim>512</dim>
					<dim>1</dim>
					<dim>1</dim>
					<dim>1</dim>
				</port>
			</input>
			<output>
				<port id="5" precision="FP16">
					<dim>512</dim>
					<dim>128</dim>
					<dim>1</dim>
					<dim>1</dim>
				</port>
			</output>
		</layer>
		<layer id="393" name="icnet_features/conv3_2_1x1_increase_1/Conv2D" type="Convolution" version="opset1">
			<data auto_pad="valid" dilations="1,1" output_padding="0,0" pads_begin="0,0" pads_end="0,0" strides="1,1"/>
			<input>
				<port id="0">
					<dim>1</dim>
					<dim>128</dim>
					<dim>23</dim>
					<dim>30</dim>
				</port>
				<port id="1">
					<dim>512</dim>
					<dim>128</dim>
					<dim>1</dim>
					<dim>1</dim>
				</port>
			</input>
			<output>
				<port id="2" precision="FP16">
					<dim>1</dim>
					<dim>512</dim>
					<dim>23</dim>
					<dim>30</dim>
				</port>
			</output>
		</layer>
		<layer id="394" name="data_add_1530015305/copy_const530_const" type="Const" version="opset1">
			<data element_type="f16" offset="1022612" shape="1,512,1,1" size="1024"/>
			<output>
				<port id="1" precision="FP16">
					<dim>1</dim>
					<dim>512</dim>
					<dim>1</dim>
					<dim>1</dim>
				</port>
			</output>
		</layer>
		<layer id="395" name="icnet_features/conv3_2_1x1_increase_bn_1/FusedBatchNorm/variance/Fused_Add_" type="Add" version="opset1">
			<input>
				<port id="0">
					<dim>1</dim>
					<dim>512</dim>
					<dim>23</dim>
					<dim>30</dim>
				</port>
				<port id="1">
					<dim>1</dim>
					<dim>512</dim>
					<dim>1</dim>
					<dim>1</dim>
				</port>
			</input>
			<output>
				<port id="2" precision="FP16">
					<dim>1</dim>
					<dim>512</dim>
					<dim>23</dim>
					<dim>30</dim>
				</port>
			</output>
		</layer>
		<layer id="396" name="24272431_const" type="Const" version="opset1">
			<data element_type="f16" offset="1023636" shape="" size="2"/>
			<output>
				<port id="1" precision="FP16"/>
			</output>
		</layer>
		<layer id="397" name="24282432_const" type="Const" version="opset1">
			<data element_type="f16" offset="1023638" shape="" size="2"/>
			<output>
				<port id="1" precision="FP16"/>
			</output>
		</layer>
		<layer id="398" name="24292433_const" type="Const" version="opset1">
			<data element_type="f16" offset="1023636" shape="" size="2"/>
			<output>
				<port id="1" precision="FP16"/>
			</output>
		</layer>
		<layer id="399" name="24302434_const" type="Const" version="opset1">
			<data element_type="f16" offset="1023638" shape="" size="2"/>
			<output>
				<port id="1" precision="FP16"/>
			</output>
		</layer>
		<layer id="400" name="icnet_features/conv3_2_1/sum_1/fq_input_1" type="FakeQuantize" version="opset1">
			<data levels="256"/>
			<input>
				<port id="0">
					<dim>1</dim>
					<dim>512</dim>
					<dim>23</dim>
					<dim>30</dim>
				</port>
				<port id="1"/>
				<port id="2"/>
				<port id="3"/>
				<port id="4"/>
			</input>
			<output>
				<port id="5" precision="FP16">
					<dim>1</dim>
					<dim>512</dim>
					<dim>23</dim>
					<dim>30</dim>
				</port>
			</output>
		</layer>
		<layer id="401" name="icnet_features/conv3_2_1/sum_1" type="Add" version="opset1">
			<input>
				<port id="0">
					<dim>1</dim>
					<dim>512</dim>
					<dim>23</dim>
					<dim>30</dim>
				</port>
				<port id="1">
					<dim>1</dim>
					<dim>512</dim>
					<dim>23</dim>
					<dim>30</dim>
				</port>
			</input>
			<output>
				<port id="2" precision="FP16">
					<dim>1</dim>
					<dim>512</dim>
					<dim>23</dim>
					<dim>30</dim>
				</port>
			</output>
		</layer>
		<layer id="402" name="icnet_features/conv3_2/relu_1" type="ReLU" version="opset1">
			<input>
				<port id="0">
					<dim>1</dim>
					<dim>512</dim>
					<dim>23</dim>
					<dim>30</dim>
				</port>
			</input>
			<output>
				<port id="1" precision="FP16">
					<dim>1</dim>
					<dim>512</dim>
					<dim>23</dim>
					<dim>30</dim>
				</port>
			</output>
		</layer>
		<layer id="403" name="22172221_const" type="Const" version="opset1">
			<data element_type="f16" offset="1023640" shape="" size="2"/>
			<output>
				<port id="1" precision="FP16"/>
			</output>
		</layer>
		<layer id="404" name="22182222_const" type="Const" version="opset1">
			<data element_type="f16" offset="1023642" shape="" size="2"/>
			<output>
				<port id="1" precision="FP16"/>
			</output>
		</layer>
		<layer id="405" name="22192223_const" type="Const" version="opset1">
			<data element_type="f16" offset="1023640" shape="" size="2"/>
			<output>
				<port id="1" precision="FP16"/>
			</output>
		</layer>
		<layer id="406" name="22202224_const" type="Const" version="opset1">
			<data element_type="f16" offset="1023642" shape="" size="2"/>
			<output>
				<port id="1" precision="FP16"/>
			</output>
		</layer>
		<layer id="407" name="icnet_features/ResizeBilinear_24/fq_input_0" type="FakeQuantize" version="opset1">
			<data levels="256"/>
			<input>
				<port id="0">
					<dim>1</dim>
					<dim>512</dim>
					<dim>23</dim>
					<dim>30</dim>
				</port>
				<port id="1"/>
				<port id="2"/>
				<port id="3"/>
				<port id="4"/>
			</input>
			<output>
				<port id="5" precision="FP16">
					<dim>1</dim>
					<dim>512</dim>
					<dim>23</dim>
					<dim>30</dim>
				</port>
			</output>
		</layer>
		<layer id="408" name="icnet_features/ResizeBilinear_24/Cast_17773_const" type="Const" version="opset1">
			<data element_type="i64" offset="740468" shape="2" size="16"/>
			<output>
				<port id="1" precision="I64">
					<dim>2</dim>
				</port>
			</output>
		</layer>
		<layer id="409" name="icnet_features/ResizeBilinear_24" type="Interpolate" version="opset1">
			<data align_corners="0" antialias="0" axes="2,3" mode="linear" pads_begin="0" pads_end="0"/>
			<input>
				<port id="0">
					<dim>1</dim>
					<dim>512</dim>
					<dim>23</dim>
					<dim>30</dim>
				</port>
				<port id="1">
					<dim>2</dim>
				</port>
			</input>
			<output>
				<port id="2" precision="FP16">
					<dim>1</dim>
					<dim>512</dim>
					<dim>23</dim>
					<dim>30</dim>
				</port>
			</output>
		</layer>
		<layer id="410" name="17371741_const" type="Const" version="opset1">
			<data element_type="f16" offset="1023640" shape="" size="2"/>
			<output>
				<port id="1" precision="FP16"/>
			</output>
		</layer>
		<layer id="411" name="17381742_const" type="Const" version="opset1">
			<data element_type="f16" offset="1023642" shape="" size="2"/>
			<output>
				<port id="1" precision="FP16"/>
			</output>
		</layer>
		<layer id="412" name="17391743_const" type="Const" version="opset1">
			<data element_type="f16" offset="1023640" shape="" size="2"/>
			<output>
				<port id="1" precision="FP16"/>
			</output>
		</layer>
		<layer id="413" name="17401744_const" type="Const" version="opset1">
			<data element_type="f16" offset="1023642" shape="" size="2"/>
			<output>
				<port id="1" precision="FP16"/>
			</output>
		</layer>
		<layer id="414" name="icnet_features/conv3_3_1/sum_1/fq_input_0" type="FakeQuantize" version="opset1">
			<data levels="256"/>
			<input>
				<port id="0">
					<dim>1</dim>
					<dim>512</dim>
					<dim>23</dim>
					<dim>30</dim>
				</port>
				<port id="1"/>
				<port id="2"/>
				<port id="3"/>
				<port id="4"/>
			</input>
			<output>
				<port id="5" precision="FP16">
					<dim>1</dim>
					<dim>512</dim>
					<dim>23</dim>
					<dim>30</dim>
				</port>
			</output>
		</layer>
		<layer id="415" name="icnet_features/conv3_3_1x1_reduce_1/Conv2D/fq_weights_1/Convert_to_float/Cast_07821_const" type="Const" version="opset1">
			<data element_type="u8" offset="1023644" shape="128,512,1,1" size="65536"/>
			<output>
				<port id="1" precision="U8">
					<dim>128</dim>
					<dim>512</dim>
					<dim>1</dim>
					<dim>1</dim>
				</port>
			</output>
		</layer>
		<layer id="416" name="icnet_features/conv3_3_1x1_reduce_1/Conv2D/fq_weights_1/Convert_to_float" type="Convert" version="opset1">
			<data destination_type="f16"/>
			<input>
				<port id="0">
					<dim>128</dim>
					<dim>512</dim>
					<dim>1</dim>
					<dim>1</dim>
				</port>
			</input>
			<output>
				<port id="1" precision="FP16">
					<dim>128</dim>
					<dim>512</dim>
					<dim>1</dim>
					<dim>1</dim>
				</port>
			</output>
		</layer>
		<layer id="417" name="icnet_features/conv3_3_1x1_reduce_1/Conv2D/fq_weights_1/Copy/out_low6537_const" type="Const" version="opset1">
			<data element_type="f16" offset="1089180" shape="1" size="2"/>
			<output>
				<port id="1" precision="FP16">
					<dim>1</dim>
				</port>
			</output>
		</layer>
		<layer id="418" name="icnet_features/conv3_3_1x1_reduce_1/Conv2D/fq_weights_1/Copy/out_high6538_const" type="Const" version="opset1">
			<data element_type="f16" offset="1762" shape="1" size="2"/>
			<output>
				<port id="1" precision="FP16">
					<dim>1</dim>
				</port>
			</output>
		</layer>
		<layer id="419" name="29092913_const" type="Const" version="opset1">
			<data element_type="f16" offset="1089182" shape="128,1,1,1" size="256"/>
			<output>
				<port id="1" precision="FP16">
					<dim>128</dim>
					<dim>1</dim>
					<dim>1</dim>
					<dim>1</dim>
				</port>
			</output>
		</layer>
		<layer id="420" name="29102914_const" type="Const" version="opset1">
			<data element_type="f16" offset="1089438" shape="128,1,1,1" size="256"/>
			<output>
				<port id="1" precision="FP16">
					<dim>128</dim>
					<dim>1</dim>
					<dim>1</dim>
					<dim>1</dim>
				</port>
			</output>
		</layer>
		<layer id="421" name="icnet_features/conv3_3_1x1_reduce_1/Conv2D/fq_weights_1" type="FakeQuantize" version="opset1">
			<data levels="255"/>
			<input>
				<port id="0">
					<dim>128</dim>
					<dim>512</dim>
					<dim>1</dim>
					<dim>1</dim>
				</port>
				<port id="1">
					<dim>1</dim>
				</port>
				<port id="2">
					<dim>1</dim>
				</port>
				<port id="3">
					<dim>128</dim>
					<dim>1</dim>
					<dim>1</dim>
					<dim>1</dim>
				</port>
				<port id="4">
					<dim>128</dim>
					<dim>1</dim>
					<dim>1</dim>
					<dim>1</dim>
				</port>
			</input>
			<output>
				<port id="5" precision="FP16">
					<dim>128</dim>
					<dim>512</dim>
…
		<edge from-layer="764" from-port="1" to-layer="766" to-port="3"/>
		<edge from-layer="765" from-port="1" to-layer="766" to-port="4"/>
		<edge from-layer="767" from-port="1" to-layer="768" to-port="0"/>
		<edge from-layer="768" from-port="1" to-layer="773" to-port="0"/>
		<edge from-layer="769" from-port="1" to-layer="773" to-port="1"/>
		<edge from-layer="770" from-port="1" to-layer="773" to-port="2"/>
		<edge from-layer="771" from-port="1" to-layer="773" to-port="3"/>
		<edge from-layer="772" from-port="1" to-layer="773" to-port="4"/>
		<edge from-layer="766" from-port="5" to-layer="774" to-port="0"/>
		<edge from-layer="773" from-port="5" to-layer="774" to-port="1"/>
		<edge from-layer="774" from-port="2" to-layer="776" to-port="0"/>
		<edge from-layer="775" from-port="1" to-layer="776" to-port="1"/>
		<edge from-layer="776" from-port="2" to-layer="781" to-port="0"/>
		<edge from-layer="777" from-port="1" to-layer="781" to-port="1"/>
		<edge from-layer="778" from-port="1" to-layer="781" to-port="2"/>
		<edge from-layer="779" from-port="1" to-layer="781" to-port="3"/>
		<edge from-layer="780" from-port="1" to-layer="781" to-port="4"/>
		<edge from-layer="734" from-port="5" to-layer="782" to-port="0"/>
		<edge from-layer="781" from-port="5" to-layer="782" to-port="1"/>
		<edge from-layer="782" from-port="2" to-layer="783" to-port="0"/>
		<edge from-layer="783" from-port="1" to-layer="788" to-port="0"/>
		<edge from-layer="784" from-port="1" to-layer="788" to-port="1"/>
		<edge from-layer="785" from-port="1" to-layer="788" to-port="2"/>
		<edge from-layer="786" from-port="1" to-layer="788" to-port="3"/>
		<edge from-layer="787" from-port="1" to-layer="788" to-port="4"/>
		<edge from-layer="788" from-port="5" to-layer="790" to-port="0"/>
		<edge from-layer="789" from-port="1" to-layer="790" to-port="1"/>
		<edge from-layer="790" from-port="2" to-layer="795" to-port="0"/>
		<edge from-layer="791" from-port="1" to-layer="795" to-port="1"/>
		<edge from-layer="792" from-port="1" to-layer="795" to-port="2"/>
		<edge from-layer="793" from-port="1" to-layer="795" to-port="3"/>
		<edge from-layer="794" from-port="1" to-layer="795" to-port="4"/>
		<edge from-layer="796" from-port="1" to-layer="797" to-port="0"/>
		<edge from-layer="797" from-port="1" to-layer="802" to-port="0"/>
		<edge from-layer="798" from-port="1" to-layer="802" to-port="1"/>
		<edge from-layer="799" from-port="1" to-layer="802" to-port="2"/>
		<edge from-layer="800" from-port="1" to-layer="802" to-port="3"/>
		<edge from-layer="801" from-port="1" to-layer="802" to-port="4"/>
		<edge from-layer="788" from-port="5" to-layer="803" to-port="0"/>
		<edge from-layer="802" from-port="5" to-layer="803" to-port="1"/>
		<edge from-layer="803" from-port="2" to-layer="805" to-port="0"/>
		<edge from-layer="804" from-port="1" to-layer="805" to-port="1"/>
		<edge from-layer="805" from-port="2" to-layer="806" to-port="0"/>
		<edge from-layer="806" from-port="1" to-layer="811" to-port="0"/>
		<edge from-layer="807" from-port="1" to-layer="811" to-port="1"/>
		<edge from-layer="808" from-port="1" to-layer="811" to-port="2"/>
		<edge from-layer="809" from-port="1" to-layer="811" to-port="3"/>
		<edge from-layer="810" from-port="1" to-layer="811" to-port="4"/>
		<edge from-layer="812" from-port="1" to-layer="813" to-port="0"/>
		<edge from-layer="813" from-port="1" to-layer="818" to-port="0"/>
		<edge from-layer="814" from-port="1" to-layer="818" to-port="1"/>
		<edge from-layer="815" from-port="1" to-layer="818" to-port="2"/>
		<edge from-layer="816" from-port="1" to-layer="818" to-port="3"/>
		<edge from-layer="817" from-port="1" to-layer="818" to-port="4"/>
		<edge from-layer="811" from-port="5" to-layer="819" to-port="0"/>
		<edge from-layer="818" from-port="5" to-layer="819" to-port="1"/>
		<edge from-layer="819" from-port="2" to-layer="821" to-port="0"/>
		<edge from-layer="820" from-port="1" to-layer="821" to-port="1"/>
		<edge from-layer="821" from-port="2" to-layer="822" to-port="0"/>
		<edge from-layer="822" from-port="1" to-layer="827" to-port="0"/>
		<edge from-layer="823" from-port="1" to-layer="827" to-port="1"/>
		<edge from-layer="824" from-port="1" to-layer="827" to-port="2"/>
		<edge from-layer="825" from-port="1" to-layer="827" to-port="3"/>
		<edge from-layer="826" from-port="1" to-layer="827" to-port="4"/>
		<edge from-layer="828" from-port="1" to-layer="829" to-port="0"/>
		<edge from-layer="829" from-port="1" to-layer="834" to-port="0"/>
		<edge from-layer="830" from-port="1" to-layer="834" to-port="1"/>
		<edge from-layer="831" from-port="1" to-layer="834" to-port="2"/>
		<edge from-layer="832" from-port="1" to-layer="834" to-port="3"/>
		<edge from-layer="833" from-port="1" to-layer="834" to-port="4"/>
		<edge from-layer="827" from-port="5" to-layer="835" to-port="0"/>
		<edge from-layer="834" from-port="5" to-layer="835" to-port="1"/>
		<edge from-layer="835" from-port="2" to-layer="837" to-port="0"/>
		<edge from-layer="836" from-port="1" to-layer="837" to-port="1"/>
		<edge from-layer="837" from-port="2" to-layer="842" to-port="0"/>
		<edge from-layer="838" from-port="1" to-layer="842" to-port="1"/>
		<edge from-layer="839" from-port="1" to-layer="842" to-port="2"/>
		<edge from-layer="840" from-port="1" to-layer="842" to-port="3"/>
		<edge from-layer="841" from-port="1" to-layer="842" to-port="4"/>
		<edge from-layer="795" from-port="5" to-layer="843" to-port="0"/>
		<edge from-layer="842" from-port="5" to-layer="843" to-port="1"/>
		<edge from-layer="843" from-port="2" to-layer="844" to-port="0"/>
		<edge from-layer="844" from-port="1" to-layer="849" to-port="0"/>
		<edge from-layer="845" from-port="1" to-layer="849" to-port="1"/>
		<edge from-layer="846" from-port="1" to-layer="849" to-port="2"/>
		<edge from-layer="847" from-port="1" to-layer="849" to-port="3"/>
		<edge from-layer="848" from-port="1" to-layer="849" to-port="4"/>
		<edge from-layer="849" from-port="5" to-layer="851" to-port="0"/>
		<edge from-layer="850" from-port="1" to-layer="851" to-port="1"/>
		<edge from-layer="851" from-port="2" to-layer="856" to-port="0"/>
		<edge from-layer="852" from-port="1" to-layer="856" to-port="1"/>
		<edge from-layer="853" from-port="1" to-layer="856" to-port="2"/>
		<edge from-layer="854" from-port="1" to-layer="856" to-port="3"/>
		<edge from-layer="855" from-port="1" to-layer="856" to-port="4"/>
		<edge from-layer="857" from-port="1" to-layer="858" to-port="0"/>
		<edge from-layer="858" from-port="1" to-layer="863" to-port="0"/>
		<edge from-layer="859" from-port="1" to-layer="863" to-port="1"/>
		<edge from-layer="860" from-port="1" to-layer="863" to-port="2"/>
		<edge from-layer="861" from-port="1" to-layer="863" to-port="3"/>
		<edge from-layer="862" from-port="1" to-layer="863" to-port="4"/>
		<edge from-layer="849" from-port="5" to-layer="864" to-port="0"/>
		<edge from-layer="863" from-port="5" to-layer="864" to-port="1"/>
		<edge from-layer="864" from-port="2" to-layer="866" to-port="0"/>
		<edge from-layer="865" from-port="1" to-layer="866" to-port="1"/>
		<edge from-layer="866" from-port="2" to-layer="867" to-port="0"/>
		<edge from-layer="867" from-port="1" to-layer="872" to-port="0"/>
		<edge from-layer="868" from-port="1" to-layer="872" to-port="1"/>
		<edge from-layer="869" from-port="1" to-layer="872" to-port="2"/>
		<edge from-layer="870" from-port="1" to-layer="872" to-port="3"/>
		<edge from-layer="871" from-port="1" to-layer="872" to-port="4"/>
		<edge from-layer="873" from-port="1" to-layer="874" to-port="0"/>
		<edge from-layer="874" from-port="1" to-layer="879" to-port="0"/>
		<edge from-layer="875" from-port="1" to-layer="879" to-port="1"/>
		<edge from-layer="876" from-port="1" to-layer="879" to-port="2"/>
		<edge from-layer="877" from-port="1" to-layer="879" to-port="3"/>
		<edge from-layer="878" from-port="1" to-layer="879" to-port="4"/>
		<edge from-layer="872" from-port="5" to-layer="880" to-port="0"/>
		<edge from-layer="879" from-port="5" to-layer="880" to-port="1"/>
		<edge from-layer="880" from-port="2" to-layer="882" to-port="0"/>
		<edge from-layer="881" from-port="1" to-layer="882" to-port="1"/>
		<edge from-layer="882" from-port="2" to-layer="883" to-port="0"/>
		<edge from-layer="883" from-port="1" to-layer="888" to-port="0"/>
		<edge from-layer="884" from-port="1" to-layer="888" to-port="1"/>
		<edge from-layer="885" from-port="1" to-layer="888" to-port="2"/>
		<edge from-layer="886" from-port="1" to-layer="888" to-port="3"/>
		<edge from-layer="887" from-port="1" to-layer="888" to-port="4"/>
		<edge from-layer="889" from-port="1" to-layer="890" to-port="0"/>
		<edge from-layer="890" from-port="1" to-layer="895" to-port="0"/>
		<edge from-layer="891" from-port="1" to-layer="895" to-port="1"/>
		<edge from-layer="892" from-port="1" to-layer="895" to-port="2"/>
		<edge from-layer="893" from-port="1" to-layer="895" to-port="3"/>
		<edge from-layer="894" from-port="1" to-layer="895" to-port="4"/>
		<edge from-layer="888" from-port="5" to-layer="896" to-port="0"/>
		<edge from-layer="895" from-port="5" to-layer="896" to-port="1"/>
		<edge from-layer="896" from-port="2" to-layer="898" to-port="0"/>
		<edge from-layer="897" from-port="1" to-layer="898" to-port="1"/>
		<edge from-layer="898" from-port="2" to-layer="903" to-port="0"/>
		<edge from-layer="899" from-port="1" to-layer="903" to-port="1"/>
		<edge from-layer="900" from-port="1" to-layer="903" to-port="2"/>
		<edge from-layer="901" from-port="1" to-layer="903" to-port="3"/>
		<edge from-layer="902" from-port="1" to-layer="903" to-port="4"/>
		<edge from-layer="856" from-port="5" to-layer="904" to-port="0"/>
		<edge from-layer="903" from-port="5" to-layer="904" to-port="1"/>
		<edge from-layer="904" from-port="2" to-layer="905" to-port="0"/>
		<edge from-layer="905" from-port="1" to-layer="910" to-port="0"/>
		<edge from-layer="906" from-port="1" to-layer="910" to-port="1"/>
		<edge from-layer="907" from-port="1" to-layer="910" to-port="2"/>
		<edge from-layer="908" from-port="1" to-layer="910" to-port="3"/>
		<edge from-layer="909" from-port="1" to-layer="910" to-port="4"/>
		<edge from-layer="911" from-port="1" to-layer="912" to-port="0"/>
		<edge from-layer="912" from-port="1" to-layer="917" to-port="0"/>
		<edge from-layer="913" from-port="1" to-layer="917" to-port="1"/>
		<edge from-layer="914" from-port="1" to-layer="917" to-port="2"/>
		<edge from-layer="915" from-port="1" to-layer="917" to-port="3"/>
		<edge from-layer="916" from-port="1" to-layer="917" to-port="4"/>
		<edge from-layer="910" from-port="5" to-layer="918" to-port="0"/>
		<edge from-layer="917" from-port="5" to-layer="918" to-port="1"/>
		<edge from-layer="918" from-port="2" to-layer="920" to-port="0"/>
		<edge from-layer="919" from-port="1" to-layer="920" to-port="1"/>
		<edge from-layer="920" from-port="2" to-layer="925" to-port="0"/>
		<edge from-layer="921" from-port="1" to-layer="925" to-port="1"/>
		<edge from-layer="922" from-port="1" to-layer="925" to-port="2"/>
		<edge from-layer="923" from-port="1" to-layer="925" to-port="3"/>
		<edge from-layer="924" from-port="1" to-layer="925" to-port="4"/>
		<edge from-layer="925" from-port="5" to-layer="927" to-port="0"/>
		<edge from-layer="926" from-port="1" to-layer="927" to-port="1"/>
		<edge from-layer="927" from-port="2" to-layer="932" to-port="0"/>
		<edge from-layer="928" from-port="1" to-layer="932" to-port="1"/>
		<edge from-layer="929" from-port="1" to-layer="932" to-port="2"/>
		<edge from-layer="930" from-port="1" to-layer="932" to-port="3"/>
		<edge from-layer="931" from-port="1" to-layer="932" to-port="4"/>
		<edge from-layer="933" from-port="1" to-layer="934" to-port="0"/>
		<edge from-layer="934" from-port="1" to-layer="939" to-port="0"/>
		<edge from-layer="935" from-port="1" to-layer="939" to-port="1"/>
		<edge from-layer="936" from-port="1" to-layer="939" to-port="2"/>
		<edge from-layer="937" from-port="1" to-layer="939" to-port="3"/>
		<edge from-layer="938" from-port="1" to-layer="939" to-port="4"/>
		<edge from-layer="910" from-port="5" to-layer="940" to-port="0"/>
		<edge from-layer="939" from-port="5" to-layer="940" to-port="1"/>
		<edge from-layer="940" from-port="2" to-layer="942" to-port="0"/>
		<edge from-layer="941" from-port="1" to-layer="942" to-port="1"/>
		<edge from-layer="942" from-port="2" to-layer="943" to-port="0"/>
		<edge from-layer="943" from-port="1" to-layer="948" to-port="0"/>
		<edge from-layer="944" from-port="1" to-layer="948" to-port="1"/>
		<edge from-layer="945" from-port="1" to-layer="948" to-port="2"/>
		<edge from-layer="946" from-port="1" to-layer="948" to-port="3"/>
		<edge from-layer="947" from-port="1" to-layer="948" to-port="4"/>
		<edge from-layer="949" from-port="1" to-layer="950" to-port="0"/>
		<edge from-layer="950" from-port="1" to-layer="955" to-port="0"/>
		<edge from-layer="951" from-port="1" to-layer="955" to-port="1"/>
		<edge from-layer="952" from-port="1" to-layer="955" to-port="2"/>
		<edge from-layer="953" from-port="1" to-layer="955" to-port="3"/>
		<edge from-layer="954" from-port="1" to-layer="955" to-port="4"/>
		<edge from-layer="948" from-port="5" to-layer="956" to-port="0"/>
		<edge from-layer="955" from-port="5" to-layer="956" to-port="1"/>
		<edge from-layer="956" from-port="2" to-layer="958" to-port="0"/>
		<edge from-layer="957" from-port="1" to-layer="958" to-port="1"/>
		<edge from-layer="958" from-port="2" to-layer="959" to-port="0"/>
		<edge from-layer="959" from-port="1" to-layer="964" to-port="0"/>
		<edge from-layer="960" from-port="1" to-layer="964" to-port="1"/>
		<edge from-layer="961" from-port="1" to-layer="964" to-port="2"/>
		<edge from-layer="962" from-port="1" to-layer="964" to-port="3"/>
		<edge from-layer="963" from-port="1" to-layer="964" to-port="4"/>
		<edge from-layer="965" from-port="1" to-layer="966" to-port="0"/>
		<edge from-layer="966" from-port="1" to-layer="971" to-port="0"/>
		<edge from-layer="967" from-port="1" to-layer="971" to-port="1"/>
		<edge from-layer="968" from-port="1" to-layer="971" to-port="2"/>
		<edge from-layer="969" from-port="1" to-layer="971" to-port="3"/>
		<edge from-layer="970" from-port="1" to-layer="971" to-port="4"/>
		<edge from-layer="964" from-port="5" to-layer="972" to-port="0"/>
		<edge from-layer="971" from-port="5" to-layer="972" to-port="1"/>
		<edge from-layer="972" from-port="2" to-layer="974" to-port="0"/>
		<edge from-layer="973" from-port="1" to-layer="974" to-port="1"/>
		<edge from-layer="974" from-port="2" to-layer="979" to-port="0"/>
		<edge from-layer="975" from-port="1" to-layer="979" to-port="1"/>
		<edge from-layer="976" from-port="1" to-layer="979" to-port="2"/>
		<edge from-layer="977" from-port="1" to-layer="979" to-port="3"/>
		<edge from-layer="978" from-port="1" to-layer="979" to-port="4"/>
		<edge from-layer="932" from-port="5" to-layer="980" to-port="0"/>
		<edge from-layer="979" from-port="5" to-layer="980" to-port="1"/>
		<edge from-layer="980" from-port="2" to-layer="981" to-port="0"/>
		<edge from-layer="981" from-port="1" to-layer="986" to-port="0"/>
		<edge from-layer="982" from-port="1" to-layer="986" to-port="1"/>
		<edge from-layer="983" from-port="1" to-layer="986" to-port="2"/>
		<edge from-layer="984" from-port="1" to-layer="986" to-port="3"/>
		<edge from-layer="985" from-port="1" to-layer="986" to-port="4"/>
		<edge from-layer="986" from-port="5" to-layer="988" to-port="0"/>
		<edge from-layer="987" from-port="1" to-layer="988" to-port="1"/>
		<edge from-layer="988" from-port="2" to-layer="993" to-port="0"/>
		<edge from-layer="989" from-port="1" to-layer="993" to-port="1"/>
		<edge from-layer="990" from-port="1" to-layer="993" to-port="2"/>
		<edge from-layer="991" from-port="1" to-layer="993" to-port="3"/>
		<edge from-layer="992" from-port="1" to-layer="993" to-port="4"/>
		<edge from-layer="994" from-port="1" to-layer="995" to-port="0"/>
		<edge from-layer="995" from-port="1" to-layer="1000" to-port="0"/>
		<edge from-layer="996" from-port="1" to-layer="1000" to-port="1"/>
		<edge from-layer="997" from-port="1" to-layer="1000" to-port="2"/>
		<edge from-layer="998" from-port="1" to-layer="1000" to-port="3"/>
		<edge from-layer="999" from-port="1" to-layer="1000" to-port="4"/>
		<edge from-layer="986" from-port="5" to-layer="1001" to-port="0"/>
		<edge from-layer="1000" from-port="5" to-layer="1001" to-port="1"/>
		<edge from-layer="1001" from-port="2" to-layer="1003" to-port="0"/>
		<edge from-layer="1002" from-port="1" to-layer="1003" to-port="1"/>
		<edge from-layer="1003" from-port="2" to-layer="1004" to-port="0"/>
		<edge from-layer="1004" from-port="1" to-layer="1009" to-port="0"/>
		<edge from-layer="1005" from-port="1" to-layer="1009" to-port="1"/>
		<edge from-layer="1006" from-port="1" to-layer="1009" to-port="2"/>
		<edge from-layer="1007" from-port="1" to-layer="1009" to-port="3"/>
		<edge from-layer="1008" from-port="1" to-layer="1009" to-port="4"/>
		<edge from-layer="1010" from-port="1" to-layer="1011" to-port="0"/>
		<edge from-layer="1011" from-port="1" to-layer="1016" to-port="0"/>
		<edge from-layer="1012" from-port="1" to-layer="1016" to-port="1"/>
		<edge from-layer="1013" from-port="1" to-layer="1016" to-port="2"/>
		<edge from-layer="1014" from-port="1" to-layer="1016" to-port="3"/>
		<edge from-layer="1015" from-port="1" to-layer="1016" to-port="4"/>
		<edge from-layer="1009" from-port="5" to-layer="1017" to-port="0"/>
		<edge from-layer="1016" from-port="5" to-layer="1017" to-port="1"/>
		<edge from-layer="1017" from-port="2" to-layer="1019" to-port="0"/>
		<edge from-layer="1018" from-port="1" to-layer="1019" to-port="1"/>
		<edge from-layer="1019" from-port="2" to-layer="1020" to-port="0"/>
		<edge from-layer="1020" from-port="1" to-layer="1025" to-port="0"/>
		<edge from-layer="1021" from-port="1" to-layer="1025" to-port="1"/>
		<edge from-layer="1022" from-port="1" to-layer="1025" to-port="2"/>
		<edge from-layer="1023" from-port="1" to-layer="1025" to-port="3"/>
		<edge from-layer="1024" from-port="1" to-layer="1025" to-port="4"/>
		<edge from-layer="1026" from-port="1" to-layer="1027" to-port="0"/>
		<edge from-layer="1027" from-port="1" to-layer="1032" to-port="0"/>
		<edge from-layer="1028" from-port="1" to-layer="1032" to-port="1"/>
		<edge from-layer="1029" from-port="1" to-layer="1032" to-port="2"/>
		<edge from-layer="1030" from-port="1" to-layer="1032" to-port="3"/>
		<edge from-layer="1031" from-port="1" to-layer="1032" to-port="4"/>
		<edge from-layer="1025" from-port="5" to-layer="1033" to-port="0"/>
		<edge from-layer="1032" from-port="5" to-layer="1033" to-port="1"/>
		<edge from-layer="1033" from-port="2" to-layer="1035" to-port="0"/>
		<edge from-layer="1034" from-port="1" to-layer="1035" to-port="1"/>
		<edge from-layer="1035" from-port="2" to-layer="1040" to-port="0"/>
		<edge from-layer="1036" from-port="1" to-layer="1040" to-port="1"/>
		<edge from-layer="1037" from-port="1" to-layer="1040" to-port="2"/>
		<edge from-layer="1038" from-port="1" to-layer="1040" to-port="3"/>
		<edge from-layer="1039" from-port="1" to-layer="1040" to-port="4"/>
		<edge from-layer="993" from-port="5" to-layer="1041" to-port="0"/>
		<edge from-layer="1040" from-port="5" to-layer="1041" to-port="1"/>
		<edge from-layer="1041" from-port="2" to-layer="1042" to-port="0"/>
		<edge from-layer="1042" from-port="1" to-layer="1047" to-port="0"/>
		<edge from-layer="1043" from-port="1" to-layer="1047" to-port="1"/>
		<edge from-layer="1044" from-port="1" to-layer="1047" to-port="2"/>
		<edge from-layer="1045" from-port="1" to-layer="1047" to-port="3"/>
		<edge from-layer="1046" from-port="1" to-layer="1047" to-port="4"/>
		<edge from-layer="1047" from-port="5" to-layer="1049" to-port="0"/>
		<edge from-layer="1048" from-port="1" to-layer="1049" to-port="1"/>
		<edge from-layer="1049" from-port="2" to-layer="1054" to-port="0"/>
		<edge from-layer="1050" from-port="1" to-layer="1054" to-port="1"/>
		<edge from-layer="1051" from-port="1" to-layer="1054" to-port="2"/>
		<edge from-layer="1052" from-port="1" to-layer="1054" to-port="3"/>
		<edge from-layer="1053" from-port="1" to-layer="1054" to-port="4"/>
		<edge from-layer="1055" from-port="1" to-layer="1056" to-port="0"/>
		<edge from-layer="1056" from-port="1" to-layer="1061" to-port="0"/>
		<edge from-layer="1057" from-port="1" to-layer="1061" to-port="1"/>
		<edge from-layer="1058" from-port="1" to-layer="1061" to-port="2"/>
		<edge from-layer="1059" from-port="1" to-layer="1061" to-port="3"/>
		<edge from-layer="1060" from-port="1" to-layer="1061" to-port="4"/>
		<edge from-layer="1047" from-port="5" to-layer="1062" to-port="0"/>
		<edge from-layer="1061" from-port="5" to-layer="1062" to-port="1"/>
		<edge from-layer="1062" from-port="2" to-layer="1064" to-port="0"/>
		<edge from-layer="1063" from-port="1" to-layer="1064" to-port="1"/>
		<edge from-layer="1064" from-port="2" to-layer="1065" to-port="0"/>
		<edge from-layer="1065" from-port="1" to-layer="1070" to-port="0"/>
		<edge from-layer="1066" from-port="1" to-layer="1070" to-port="1"/>
		<edge from-layer="1067" from-port="1" to-layer="1070" to-port="2"/>
		<edge from-layer="1068" from-port="1" to-layer="1070" to-port="3"/>
		<edge from-layer="1069" from-port="1" to-layer="1070" to-port="4"/>
		<edge from-layer="1071" from-port="1" to-layer="1072" to-port="0"/>
		<edge from-layer="1072" from-port="1" to-layer="1077" to-port="0"/>
		<edge from-layer="1073" from-port="1" to-layer="1077" to-port="1"/>
		<edge from-layer="1074" from-port="1" to-layer="1077" to-port="2"/>
		<edge from-layer="1075" from-port="1" to-layer="1077" to-port="3"/>
		<edge from-layer="1076" from-port="1" to-layer="1077" to-port="4"/>
		<edge from-layer="1070" from-port="5" to-layer="1078" to-port="0"/>
		<edge from-layer="1077" from-port="5" to-layer="1078" to-port="1"/>
		<edge from-layer="1078" from-port="2" to-layer="1080" to-port="0"/>
		<edge from-layer="1079" from-port="1" to-layer="1080" to-port="1"/>
		<edge from-layer="1080" from-port="2" to-layer="1081" to-port="0"/>
		<edge from-layer="1081" from-port="1" to-layer="1086" to-port="0"/>
		<edge from-layer="1082" from-port="1" to-layer="1086" to-port="1"/>
		<edge from-layer="1083" from-port="1" to-layer="1086" to-port="2"/>
		<edge from-layer="1084" from-port="1" to-layer="1086" to-port="3"/>
		<edge from-layer="1085" from-port="1" to-layer="1086" to-port="4"/>
		<edge from-layer="1087" from-port="1" to-layer="1088" to-port="0"/>
		<edge from-layer="1088" from-port="1" to-layer="1093" to-port="0"/>
		<edge from-layer="1089" from-port="1" to-layer="1093" to-port="1"/>
		<edge from-layer="1090" from-port="1" to-layer="1093" to-port="2"/>
		<edge from-layer="1091" from-port="1" to-layer="1093" to-port="3"/>
		<edge from-layer="1092" from-port="1" to-layer="1093" to-port="4"/>
		<edge from-layer="1086" from-port="5" to-layer="1094" to-port="0"/>
		<edge from-layer="1093" from-port="5" to-layer="1094" to-port="1"/>
		<edge from-layer="1094" from-port="2" to-layer="1096" to-port="0"/>
		<edge from-layer="1095" from-port="1" to-layer="1096" to-port="1"/>
		<edge from-layer="1096" from-port="2" to-layer="1101" to-port="0"/>
		<edge from-layer="1097" from-port="1" to-layer="1101" to-port="1"/>
		<edge from-layer="1098" from-port="1" to-layer="1101" to-port="2"/>
		<edge from-layer="1099" from-port="1" to-layer="1101" to-port="3"/>
		<edge from-layer="1100" from-port="1" to-layer="1101" to-port="4"/>
		<edge from-layer="1054" from-port="5" to-layer="1102" to-port="0"/>
		<edge from-layer="1101" from-port="5" to-layer="1102" to-port="1"/>
		<edge from-layer="1102" from-port="2" to-layer="1103" to-port="0"/>
		<edge from-layer="1103" from-port="1" to-layer="1108" to-port="0"/>
		<edge from-layer="1104" from-port="1" to-layer="1108" to-port="1"/>
		<edge from-layer="1105" from-port="1" to-layer="1108" to-port="2"/>
		<edge from-layer="1106" from-port="1" to-layer="1108" to-port="3"/>
		<edge from-layer="1107" from-port="1" to-layer="1108" to-port="4"/>
		<edge from-layer="1108" from-port="5" to-layer="1110" to-port="0"/>
		<edge from-layer="1109" from-port="1" to-layer="1110" to-port="1"/>
		<edge from-layer="1110" from-port="2" to-layer="1115" to-port="0"/>
		<edge from-layer="1111" from-port="1" to-layer="1115" to-port="1"/>
		<edge from-layer="1112" from-port="1" to-layer="1115" to-port="2"/>
		<edge from-layer="1113" from-port="1" to-layer="1115" to-port="3"/>
		<edge from-layer="1114" from-port="1" to-layer="1115" to-port="4"/>
		<edge from-layer="1108" from-port="5" to-layer="1116" to-port="0"/>
		<edge from-layer="1116" from-port="1" to-layer="1121" to-port="0"/>
		<edge from-layer="1117" from-port="1" to-layer="1121" to-port="1"/>
		<edge from-layer="1118" from-port="1" to-layer="1121" to-port="2"/>
		<edge from-layer="1119" from-port="1" to-layer="1121" to-port="3"/>
		<edge from-layer="1120" from-port="1" to-layer="1121" to-port="4"/>
		<edge from-layer="1121" from-port="5" to-layer="1123" to-port="0"/>
		<edge from-layer="1122" from-port="1" to-layer="1123" to-port="1"/>
		<edge from-layer="1123" from-port="2" to-layer="1128" to-port="0"/>
		<edge from-layer="1124" from-port="1" to-layer="1128" to-port="1"/>
		<edge from-layer="1125" from-port="1" to-layer="1128" to-port="2"/>
		<edge from-layer="1126" from-port="1" to-layer="1128" to-port="3"/>
		<edge from-layer="1127" from-port="1" to-layer="1128" to-port="4"/>
		<edge from-layer="1115" from-port="5" to-layer="1129" to-port="0"/>
		<edge from-layer="1128" from-port="5" to-layer="1129" to-port="1"/>
		<edge from-layer="1129" from-port="2" to-layer="1134" to-port="0"/>
		<edge from-layer="1130" from-port="1" to-layer="1134" to-port="1"/>
		<edge from-layer="1131" from-port="1" to-layer="1134" to-port="2"/>
		<edge from-layer="1132" from-port="1" to-layer="1134" to-port="3"/>
		<edge from-layer="1133" from-port="1" to-layer="1134" to-port="4"/>
		<edge from-layer="1108" from-port="5" to-layer="1135" to-port="0"/>
		<edge from-layer="1135" from-port="1" to-layer="1140" to-port="0"/>
		<edge from-layer="1136" from-port="1" to-layer="1140" to-port="1"/>
		<edge from-layer="1137" from-port="1" to-layer="1140" to-port="2"/>
		<edge from-layer="1138" from-port="1" to-layer="1140" to-port="3"/>
		<edge from-layer="1139" from-port="1" to-layer="1140" to-port="4"/>
		<edge from-layer="1140" from-port="5" to-layer="1142" to-port="0"/>
		<edge from-layer="1141" from-port="1" to-layer="1142" to-port="1"/>
		<edge from-layer="1142" from-port="2" to-layer="1147" to-port="0"/>
		<edge from-layer="1143" from-port="1" to-layer="1147" to-port="1"/>
		<edge from-layer="1144" from-port="1" to-layer="1147" to-port="2"/>
		<edge from-layer="1145" from-port="1" to-layer="1147" to-port="3"/>
		<edge from-layer="1146" from-port="1" to-layer="1147" to-port="4"/>
		<edge from-layer="1134" from-port="5" to-layer="1148" to-port="0"/>
		<edge from-layer="1147" from-port="5" to-layer="1148" to-port="1"/>
		<edge from-layer="1148" from-port="2" to-layer="1153" to-port="0"/>
		<edge from-layer="1149" from-port="1" to-layer="1153" to-port="1"/>
		<edge from-layer="1150" from-port="1" to-layer="1153" to-port="2"/>
		<edge from-layer="1151" from-port="1" to-layer="1153" to-port="3"/>
		<edge from-layer="1152" from-port="1" to-layer="1153" to-port="4"/>
		<edge from-layer="1108" from-port="5" to-layer="1154" to-port="0"/>
		<edge from-layer="1154" from-port="1" to-layer="1159" to-port="0"/>
		<edge from-layer="1155" from-port="1" to-layer="1159" to-port="1"/>
		<edge from-layer="1156" from-port="1" to-layer="1159" to-port="2"/>
		<edge from-layer="1157" from-port="1" to-layer="1159" to-port="3"/>
		<edge from-layer="1158" from-port="1" to-layer="1159" to-port="4"/>
		<edge from-layer="1159" from-port="5" to-layer="1161" to-port="0"/>
		<edge from-layer="1160" from-port="1" to-layer="1161" to-port="1"/>
		<edge from-layer="1161" from-port="2" to-layer="1166" to-port="0"/>
		<edge from-layer="1162" from-port="1" to-layer="1166" to-port="1"/>
		<edge from-layer="1163" from-port="1" to-layer="1166" to-port="2"/>
		<edge from-layer="1164" from-port="1" to-layer="1166" to-port="3"/>
		<edge from-layer="1165" from-port="1" to-layer="1166" to-port="4"/>
		<edge from-layer="1153" from-port="5" to-layer="1167" to-port="0"/>
		<edge from-layer="1166" from-port="5" to-layer="1167" to-port="1"/>
		<edge from-layer="1167" from-port="2" to-layer="1172" to-port="0"/>
		<edge from-layer="1168" from-port="1" to-layer="1172" to-port="1"/>
		<edge from-layer="1169" from-port="1" to-layer="1172" to-port="2"/>
		<edge from-layer="1170" from-port="1" to-layer="1172" to-port="3"/>
		<edge from-layer="1171" from-port="1" to-layer="1172" to-port="4"/>
		<edge from-layer="1108" from-port="5" to-layer="1173" to-port="0"/>
		<edge from-layer="1173" from-port="1" to-layer="1178" to-port="0"/>
		<edge from-layer="1174" from-port="1" to-layer="1178" to-port="1"/>
		<edge from-layer="1175" from-port="1" to-layer="1178" to-port="2"/>
		<edge from-layer="1176" from-port="1" to-layer="1178" to-port="3"/>
		<edge from-layer="1177" from-port="1" to-layer="1178" to-port="4"/>
		<edge from-layer="1178" from-port="5" to-layer="1180" to-port="0"/>
		<edge from-layer="1179" from-port="1" to-layer="1180" to-port="1"/>
		<edge from-layer="1180" from-port="2" to-layer="1185" to-port="0"/>
		<edge from-layer="1181" from-port="1" to-layer="1185" to-port="1"/>
		<edge from-layer="1182" from-port="1" to-layer="1185" to-port="2"/>
		<edge from-layer="1183" from-port="1" to-layer="1185" to-port="3"/>
		<edge from-layer="1184" from-port="1" to-layer="1185" to-port="4"/>
		<edge from-layer="1172" from-port="5" to-layer="1186" to-port="0"/>
		<edge from-layer="1185" from-port="5" to-layer="1186" to-port="1"/>
		<edge from-layer="1186" from-port="2" to-layer="1191" to-port="0"/>
		<edge from-layer="1187" from-port="1" to-layer="1191" to-port="1"/>
		<edge from-layer="1188" from-port="1" to-layer="1191" to-port="2"/>
		<edge from-layer="1189" from-port="1" to-layer="1191" to-port="3"/>
		<edge from-layer="1190" from-port="1" to-layer="1191" to-port="4"/>
		<edge from-layer="1192" from-port="1" to-layer="1193" to-port="0"/>
		<edge from-layer="1193" from-port="1" to-layer="1198" to-port="0"/>
		<edge from-layer="1194" from-port="1" to-layer="1198" to-port="1"/>
		<edge from-layer="1195" from-port="1" to-layer="1198" to-port="2"/>
		<edge from-layer="1196" from-port="1" to-layer="1198" to-port="3"/>
		<edge from-layer="1197" from-port="1" to-layer="1198" to-port="4"/>
		<edge from-layer="1191" from-port="5" to-layer="1199" to-port="0"/>
		<edge from-layer="1198" from-port="5" to-layer="1199" to-port="1"/>
		<edge from-layer="1199" from-port="2" to-layer="1201" to-port="0"/>
		<edge from-layer="1200" from-port="1" to-layer="1201" to-port="1"/>
		<edge from-layer="1201" from-port="2" to-layer="1202" to-port="0"/>
		<edge from-layer="1202" from-port="1" to-layer="1207" to-port="0"/>
		<edge from-layer="1203" from-port="1" to-layer="1207" to-port="1"/>
		<edge from-layer="1204" from-port="1" to-layer="1207" to-port="2"/>
		<edge from-layer="1205" from-port="1" to-layer="1207" to-port="3"/>
		<edge from-layer="1206" from-port="1" to-layer="1207" to-port="4"/>
		<edge from-layer="1207" from-port="5" to-layer="1209" to-port="0"/>
		<edge from-layer="1208" from-port="1" to-layer="1209" to-port="1"/>
		<edge from-layer="1209" from-port="2" to-layer="1214" to-port="0"/>
		<edge from-layer="1210" from-port="1" to-layer="1214" to-port="1"/>
		<edge from-layer="1211" from-port="1" to-layer="1214" to-port="2"/>
		<edge from-layer="1212" from-port="1" to-layer="1214" to-port="3"/>
		<edge from-layer="1213" from-port="1" to-layer="1214" to-port="4"/>
		<edge from-layer="1215" from-port="1" to-layer="1216" to-port="0"/>
		<edge from-layer="1216" from-port="1" to-layer="1221" to-port="0"/>
		<edge from-layer="1217" from-port="1" to-layer="1221" to-port="1"/>
		<edge from-layer="1218" from-port="1" to-layer="1221" to-port="2"/>
		<edge from-layer="1219" from-port="1" to-layer="1221" to-port="3"/>
		<edge from-layer="1220" from-port="1" to-layer="1221" to-port="4"/>
		<edge from-layer="1214" from-port="5" to-layer="1222" to-port="0"/>
		<edge from-layer="1221" from-port="5" to-layer="1222" to-port="1"/>
		<edge from-layer="1222" from-port="2" to-layer="1224" to-port="0"/>
		<edge from-layer="1223" from-port="1" to-layer="1224" to-port="1"/>
		<edge from-layer="1224" from-port="2" to-layer="1229" to-port="0"/>
		<edge from-layer="1225" from-port="1" to-layer="1229" to-port="1"/>
		<edge from-layer="1226" from-port="1" to-layer="1229" to-port="2"/>
		<edge from-layer="1227" from-port="1" to-layer="1229" to-port="3"/>
		<edge from-layer="1228" from-port="1" to-layer="1229" to-port="4"/>
		<edge from-layer="1229" from-port="5" to-layer="1231" to-port="0"/>
		<edge from-layer="1230" from-port="1" to-layer="1231" to-port="1"/>
		<edge from-layer="1231" from-port="2" to-layer="1236" to-port="0"/>
		<edge from-layer="1232" from-port="1" to-layer="1236" to-port="1"/>
		<edge from-layer="1233" from-port="1" to-layer="1236" to-port="2"/>
		<edge from-layer="1234" from-port="1" to-layer="1236" to-port="3"/>
		<edge from-layer="1235" from-port="1" to-layer="1236" to-port="4"/>
		<edge from-layer="1237" from-port="1" to-layer="1238" to-port="0"/>
		<edge from-layer="1238" from-port="1" to-layer="1243" to-port="0"/>
		<edge from-layer="1239" from-port="1" to-layer="1243" to-port="1"/>
		<edge from-layer="1240" from-port="1" to-layer="1243" to-port="2"/>
		<edge from-layer="1241" from-port="1" to-layer="1243" to-port="3"/>
		<edge from-layer="1242" from-port="1" to-layer="1243" to-port="4"/>
		<edge from-layer="339" from-port="5" to-layer="1244" to-port="0"/>
		<edge from-layer="1243" from-port="5" to-layer="1244" to-port="1"/>
		<edge from-layer="1244" from-port="2" to-layer="1246" to-port="0"/>
		<edge from-layer="1245" from-port="1" to-layer="1246" to-port="1"/>
		<edge from-layer="1246" from-port="2" to-layer="1251" to-port="0"/>
		<edge from-layer="1247" from-port="1" to-layer="1251" to-port="1"/>
		<edge from-layer="1248" from-port="1" to-layer="1251" to-port="2"/>
		<edge from-layer="1249" from-port="1" to-layer="1251" to-port="3"/>
		<edge from-layer="1250" from-port="1" to-layer="1251" to-port="4"/>
		<edge from-layer="1236" from-port="5" to-layer="1252" to-port="0"/>
		<edge from-layer="1251" from-port="5" to-layer="1252" to-port="1"/>
		<edge from-layer="1252" from-port="2" to-layer="1253" to-port="0"/>
		<edge from-layer="1253" from-port="1" to-layer="1258" to-port="0"/>
		<edge from-layer="1254" from-port="1" to-layer="1258" to-port="1"/>
		<edge from-layer="1255" from-port="1" to-layer="1258" to-port="2"/>
		<edge from-layer="1256" from-port="1" to-layer="1258" to-port="3"/>
		<edge from-layer="1257" from-port="1" to-layer="1258" to-port="4"/>
		<edge from-layer="1258" from-port="5" to-layer="1260" to-port="0"/>
		<edge from-layer="1259" from-port="1" to-layer="1260" to-port="1"/>
		<edge from-layer="1260" from-port="2" to-layer="1265" to-port="0"/>
		<edge from-layer="1261" from-port="1" to-layer="1265" to-port="1"/>
		<edge from-layer="1262" from-port="1" to-layer="1265" to-port="2"/>
		<edge from-layer="1263" from-port="1" to-layer="1265" to-port="3"/>
		<edge from-layer="1264" from-port="1" to-layer="1265" to-port="4"/>
		<edge from-layer="1266" from-port="1" to-layer="1267" to-port="0"/>
		<edge from-layer="1267" from-port="1" to-layer="1272" to-port="0"/>
		<edge from-layer="1268" from-port="1" to-layer="1272" to-port="1"/>
		<edge from-layer="1269" from-port="1" to-layer="1272" to-port="2"/>
		<edge from-layer="1270" from-port="1" to-layer="1272" to-port="3"/>
		<edge from-layer="1271" from-port="1" to-layer="1272" to-port="4"/>
		<edge from-layer="1265" from-port="5" to-layer="1273" to-port="0"/>
		<edge from-layer="1272" from-port="5" to-layer="1273" to-port="1"/>
		<edge from-layer="1273" from-port="2" to-layer="1275" to-port="0"/>
		<edge from-layer="1274" from-port="1" to-layer="1275" to-port="1"/>
		<edge from-layer="1275" from-port="2" to-layer="1280" to-port="0"/>
		<edge from-layer="1276" from-port="1" to-layer="1280" to-port="1"/>
		<edge from-layer="1277" from-port="1" to-layer="1280" to-port="2"/>
		<edge from-layer="1278" from-port="1" to-layer="1280" to-port="3"/>
		<edge from-layer="1279" from-port="1" to-layer="1280" to-port="4"/>
		<edge from-layer="1280" from-port="5" to-layer="1282" to-port="0"/>
		<edge from-layer="1281" from-port="1" to-layer="1282" to-port="1"/>
		<edge from-layer="1282" from-port="2" to-layer="1287" to-port="0"/>
		<edge from-layer="1283" from-port="1" to-layer="1287" to-port="1"/>
		<edge from-layer="1284" from-port="1" to-layer="1287" to-port="2"/>
		<edge from-layer="1285" from-port="1" to-layer="1287" to-port="3"/>
		<edge from-layer="1286" from-port="1" to-layer="1287" to-port="4"/>
		<edge from-layer="1288" from-port="1" to-layer="1289" to-port="0"/>
		<edge from-layer="1289" from-port="1" to-layer="1294" to-port="0"/>
		<edge from-layer="1290" from-port="1" to-layer="1294" to-port="1"/>
		<edge from-layer="1291" from-port="1" to-layer="1294" to-port="2"/>
		<edge from-layer="1292" from-port="1" to-layer="1294" to-port="3"/>
		<edge from-layer="1293" from-port="1" to-layer="1294" to-port="4"/>
		<edge from-layer="9" from-port="5" to-layer="1295" to-port="0"/>
		<edge from-layer="1294" from-port="5" to-layer="1295" to-port="1"/>
		<edge from-layer="1295" from-port="2" to-layer="1297" to-port="0"/>
		<edge from-layer="1296" from-port="1" to-layer="1297" to-port="1"/>
		<edge from-layer="1297" from-port="2" to-layer="1298" to-port="0"/>
		<edge from-layer="1298" from-port="1" to-layer="1303" to-port="0"/>
		<edge from-layer="1299" from-port="1" to-layer="1303" to-port="1"/>
		<edge from-layer="1300" from-port="1" to-layer="1303" to-port="2"/>
		<edge from-layer="1301" from-port="1" to-layer="1303" to-port="3"/>
		<edge from-layer="1302" from-port="1" to-layer="1303" to-port="4"/>
		<edge from-layer="1304" from-port="1" to-layer="1305" to-port="0"/>
		<edge from-layer="1305" from-port="1" to-layer="1310" to-port="0"/>
		<edge from-layer="1306" from-port="1" to-layer="1310" to-port="1"/>
		<edge from-layer="1307" from-port="1" to-layer="1310" to-port="2"/>
		<edge from-layer="1308" from-port="1" to-layer="1310" to-port="3"/>
		<edge from-layer="1309" from-port="1" to-layer="1310" to-port="4"/>
		<edge from-layer="1303" from-port="5" to-layer="1311" to-port="0"/>
		<edge from-layer="1310" from-port="5" to-layer="1311" to-port="1"/>
		<edge from-layer="1311" from-port="2" to-layer="1313" to-port="0"/>
		<edge from-layer="1312" from-port="1" to-layer="1313" to-port="1"/>
		<edge from-layer="1313" from-port="2" to-layer="1314" to-port="0"/>
		<edge from-layer="1314" from-port="1" to-layer="1319" to-port="0"/>
		<edge from-layer="1315" from-port="1" to-layer="1319" to-port="1"/>
		<edge from-layer="1316" from-port="1" to-layer="1319" to-port="2"/>
		<edge from-layer="1317" from-port="1" to-layer="1319" to-port="3"/>
		<edge from-layer="1318" from-port="1" to-layer="1319" to-port="4"/>
		<edge from-layer="1320" from-port="1" to-layer="1321" to-port="0"/>
		<edge from-layer="1321" from-port="1" to-layer="1326" to-port="0"/>
		<edge from-layer="1322" from-port="1" to-layer="1326" to-port="1"/>
		<edge from-layer="1323" from-port="1" to-layer="1326" to-port="2"/>
		<edge from-layer="1324" from-port="1" to-layer="1326" to-port="3"/>
		<edge from-layer="1325" from-port="1" to-layer="1326" to-port="4"/>
		<edge from-layer="1319" from-port="5" to-layer="1327" to-port="0"/>
		<edge from-layer="1326" from-port="5" to-layer="1327" to-port="1"/>
		<edge from-layer="1327" from-port="2" to-layer="1329" to-port="0"/>
		<edge from-layer="1328" from-port="1" to-layer="1329" to-port="1"/>
		<edge from-layer="1329" from-port="2" to-layer="1330" to-port="0"/>
		<edge from-layer="1330" from-port="1" to-layer="1335" to-port="0"/>
		<edge from-layer="1331" from-port="1" to-layer="1335" to-port="1"/>
		<edge from-layer="1332" from-port="1" to-layer="1335" to-port="2"/>
		<edge from-layer="1333" from-port="1" to-layer="1335" to-port="3"/>
		<edge from-layer="1334" from-port="1" to-layer="1335" to-port="4"/>
		<edge from-layer="1336" from-port="1" to-layer="1337" to-port="0"/>
		<edge from-layer="1337" from-port="1" to-layer="1342" to-port="0"/>
		<edge from-layer="1338" from-port="1" to-layer="1342" to-port="1"/>
		<edge from-layer="1339" from-port="1" to-layer="1342" to-port="2"/>
		<edge from-layer="1340" from-port="1" to-layer="1342" to-port="3"/>
		<edge from-layer="1341" from-port="1" to-layer="1342" to-port="4"/>
		<edge from-layer="1335" from-port="5" to-layer="1343" to-port="0"/>
		<edge from-layer="1342" from-port="5" to-layer="1343" to-port="1"/>
		<edge from-layer="1343" from-port="2" to-layer="1345" to-port="0"/>
		<edge from-layer="1344" from-port="1" to-layer="1345" to-port="1"/>
		<edge from-layer="1345" from-port="2" to-layer="1350" to-port="0"/>
		<edge from-layer="1346" from-port="1" to-layer="1350" to-port="1"/>
		<edge from-layer="1347" from-port="1" to-layer="1350" to-port="2"/>
		<edge from-layer="1348" from-port="1" to-layer="1350" to-port="3"/>
		<edge from-layer="1349" from-port="1" to-layer="1350" to-port="4"/>
		<edge from-layer="1287" from-port="5" to-layer="1351" to-port="0"/>
		<edge from-layer="1350" from-port="5" to-layer="1351" to-port="1"/>
		<edge from-layer="1351" from-port="2" to-layer="1352" to-port="0"/>
		<edge from-layer="1352" from-port="1" to-layer="1357" to-port="0"/>
		<edge from-layer="1353" from-port="1" to-layer="1357" to-port="1"/>
		<edge from-layer="1354" from-port="1" to-layer="1357" to-port="2"/>
		<edge from-layer="1355" from-port="1" to-layer="1357" to-port="3"/>
		<edge from-layer="1356" from-port="1" to-layer="1357" to-port="4"/>
		<edge from-layer="1357" from-port="5" to-layer="1359" to-port="0"/>
		<edge from-layer="1358" from-port="1" to-layer="1359" to-port="1"/>
		<edge from-layer="1359" from-port="2" to-layer="1364" to-port="0"/>
		<edge from-layer="1360" from-port="1" to-layer="1364" to-port="1"/>
		<edge from-layer="1361" from-port="1" to-layer="1364" to-port="2"/>
		<edge from-layer="1362" from-port="1" to-layer="1364" to-port="3"/>
		<edge from-layer="1363" from-port="1" to-layer="1364" to-port="4"/>
		<edge from-layer="1365" from-port="1" to-layer="1366" to-port="0"/>
		<edge from-layer="1366" from-port="1" to-layer="1371" to-port="0"/>
		<edge from-layer="1367" from-port="1" to-layer="1371" to-port="1"/>
		<edge from-layer="1368" from-port="1" to-layer="1371" to-port="2"/>
		<edge from-layer="1369" from-port="1" to-layer="1371" to-port="3"/>
		<edge from-layer="1370" from-port="1" to-layer="1371" to-port="4"/>
		<edge from-layer="1364" from-port="5" to-layer="1372" to-port="0"/>
		<edge from-layer="1371" from-port="5" to-layer="1372" to-port="1"/>
		<edge from-layer="1372" from-port="2" to-layer="1374" to-port="0"/>
		<edge from-layer="1373" from-port="1" to-layer="1374" to-port="1"/>
		<edge from-layer="1374" from-port="2" to-layer="1379" to-port="0"/>
		<edge from-layer="1375" from-port="1" to-layer="1379" to-port="1"/>
		<edge from-layer="1376" from-port="1" to-layer="1379" to-port="2"/>
		<edge from-layer="1377" from-port="1" to-layer="1379" to-port="3"/>
		<edge from-layer="1378" from-port="1" to-layer="1379" to-port="4"/>
		<edge from-layer="1379" from-port="5" to-layer="1381" to-port="0"/>
		<edge from-layer="1380" from-port="1" to-layer="1381" to-port="1"/>
		<edge from-layer="1381" from-port="2" to-layer="1383" to-port="0"/>
		<edge from-layer="1382" from-port="1" to-layer="1383" to-port="1"/>
		<edge from-layer="1383" from-port="3" to-layer="1385" to-port="0"/>
		<edge from-layer="1384" from-port="1" to-layer="1385" to-port="1"/>
		<edge from-layer="1385" from-port="2" to-layer="1387" to-port="0"/>
		<edge from-layer="1386" from-port="1" to-layer="1387" to-port="1"/>
		<edge from-layer="1387" from-port="2" to-layer="1388" to-port="0"/>
	</edges>
	<meta_data>
		<MO_version value="unknown version"/>
		<cli_parameters>
			<blobs_as_inputs value="True"/>
			<caffe_parser_path value="DIR"/>
			<data_type value="FP16"/>
			<disable_nhwc_to_nchw value="False"/>
			<disable_omitting_optional value="False"/>
			<disable_resnet_optimization value="False"/>
			<disable_weights_compression value="False"/>
			<enable_concat_optimization value="False"/>
			<enable_flattening_nested_params value="False"/>
			<enable_ssd_gluoncv value="False"/>
			<extensions value="DIR"/>
			<framework value="tf"/>
			<freeze_placeholder_with_value value="{}"/>
			<generate_deprecated_IR_V2 value="False"/>
			<generate_deprecated_IR_V7 value="False"/>
			<generate_experimental_IR_V10 value="True"/>
			<input value="data"/>
			<input_model value="DIR/frozen_graph.pb"/>
			<input_model_is_text value="False"/>
			<input_shape value="[1,720,960,3]"/>
			<k value="DIR/CustomLayersMapping.xml"/>
			<keep_quantize_ops_in_IR value="True"/>
			<keep_shape_ops value="False"/>
			<legacy_mxnet_model value="False"/>
			<log_level value="ERROR"/>
			<mean_scale_values value="{}"/>
			<mean_values value="()"/>
			<model_name value="icnet-camvid-ava-0001"/>
			<move_to_preprocess value="False"/>
			<output value="['segmentation_output']"/>
			<output_dir value="DIR"/>
			<placeholder_data_types value="{}"/>
			<placeholder_shapes value="{'data': array([  1, 720, 960,   3])}"/>
			<progress value="False"/>
			<remove_memory value="False"/>
			<remove_output_softmax value="False"/>
			<reverse_input_channels value="False"/>
			<save_params_from_nd value="False"/>
			<scale_values value="()"/>
			<silent value="False"/>
			<stream_output value="False"/>
			<unset unset_cli_parameters="batch, counts, disable_fusing, disable_gfusing, finegrain_fusing, input_checkpoint, input_meta_graph, input_proto, input_symbol, mean_file, mean_file_offsets, nd_prefix_name, pretrained_model_name, saved_model_dir, saved_model_tags, scale, tensorboard_logdir, tensorflow_custom_layer_libraries, tensorflow_custom_operations_config_update, tensorflow_object_detection_api_pipeline_config, tensorflow_use_custom_operations_config, transformations_config"/>
		</cli_parameters>
	</meta_data>
	<quantization_parameters>
		<config>{
		'compression': {
			'algorithms': [
				{
					'name': 'DefaultQuantization',
					'params': {
						'preset': 'performance',
						'stat_subset_size': 300
					}
				}
			],
			'target_device': 'CPU'
		},
		'engine': {
			'models': [
				{
					'name': 'icnet-camvid-ava-0001',
					'launchers': [
						{
							'framework': 'dlsdk',
							'tags': [
								'FP32'
							],
							'model': 'PATH',
							'weights': 'PATH',
							'adapter': 'segmentation',
							'device': 'CPU'
						}
					],
					'datasets': [
						{
							'name': 'CamVid',
							'data_source': 'PATH',
							'annotation_conversion': {
								'converter': 'camvid',
								'annotation_file': 'PATH'
							},
							'annotation': 'camvid.pickle',
							'dataset_meta': 'camvid.json',
							'preprocessing': [
								{
									'type': 'resize',
									'dst_width': 960,
									'dst_height': 720,
									'interpolation': 'LINEAR'
								}
							],
							'postprocessing': [
								{
									'type': 'resize_segmentation_mask',
									'apply_to': 'annotation',
									'dst_width': 960,
									'dst_height': 720
								}
							],
							'metrics': [
								{
									'type': 'mean_iou',
									'use_argmax': false
								}
							]
						}
					]
				},
				{
					'name': 'icnet-camvid-ava-0001',
					'launchers': [
						{
							'framework': 'dlsdk',
							'tags': [
								'FP16'
							],
							'model': 'PATH',
							'weights': 'PATH',
							'adapter': 'segmentation',
							'device': 'CPU'
						}
					],
					'datasets': [
						{
							'name': 'CamVid',
							'data_source': 'PATH',
							'annotation_conversion': {
								'converter': 'camvid',
								'annotation_file': 'PATH'
							},
							'annotation': 'camvid.pickle',
							'dataset_meta': 'camvid.json',
							'preprocessing': [
								{
									'type': 'resize',
									'dst_width': 960,
									'dst_height': 720,
									'interpolation': 'LINEAR'
								}
							],
							'postprocessing': [
								{
									'type': 'resize_segmentation_mask',
									'apply_to': 'annotation',
									'dst_width': 960,
									'dst_height': 720
								}
							],
							'metrics': [
								{
									'type': 'mean_iou',
									'use_argmax': false
								}
							]
						}
					]
				},
				{
					'name': 'icnet-camvid-ava-0001',
					'launchers': [
						{
							'framework': 'dlsdk',
							'tags': [
								'FP16-INT8'
							],
							'model': 'PATH',
							'weights': 'PATH',
							'adapter': 'segmentation',
							'device': 'CPU'
						}
					],
					'datasets': [
						{
							'name': 'CamVid',
							'data_source': 'PATH',
							'annotation_conversion': {
								'converter': 'camvid',
								'annotation_file': 'PATH'
							},
							'annotation': 'camvid.pickle',
							'dataset_meta': 'camvid.json',
							'preprocessing': [
								{
									'type': 'resize',
									'dst_width': 960,
									'dst_height': 720,
									'interpolation': 'LINEAR'
								}
							],
							'postprocessing': [
								{
									'type': 'resize_segmentation_mask',
									'apply_to': 'annotation',
									'dst_width': 960,
									'dst_height': 720
								}
							],
							'metrics': [
								{
									'type': 'mean_iou',
									'use_argmax': false
								}
							]
						}
					]
				}
			],
			'global_definitions': '../dataset_definitions.yml',
			'stat_requests_number': null,
			'eval_requests_number': null,
			'type': 'accuracy_checker'
		}
	}</config>
		<version value="1.0"/>
		<cli_params value="{'evaluate': False, 'output_dir': 'PATH', 'direct_dump': True, 'log_level': 'INFO', 'pbar': False, 'keep_uncompressed_weights': False}"/>
	</quantization_parameters>
</net>
