<?xml version="1.0" ?>
<net name="handwritten-score-recognition-0003" version="10">
	<layers>
		<layer id="0" name="Placeholder" type="Parameter" version="opset1">
			<data element_type="f16" shape="1,1,32,64"/>
			<output>
				<port id="0" precision="FP16">
					<dim>1</dim>
					<dim>1</dim>
					<dim>32</dim>
					<dim>64</dim>
				</port>
			</output>
		</layer>
		<layer id="1" name="data_mul_4033/copy_const82_const" type="Const" version="opset1">
			<data element_type="f16" offset="0" shape="1,1,1,1" size="2"/>
			<output>
				<port id="1" precision="FP16">
					<dim>1</dim>
					<dim>1</dim>
					<dim>1</dim>
					<dim>1</dim>
				</port>
			</output>
		</layer>
		<layer id="2" name="shadow/BatchNorm/FusedBatchNorm/mean/Fused_Mul_" type="Multiply" version="opset1">
			<input>
				<port id="0">
					<dim>1</dim>
					<dim>1</dim>
					<dim>32</dim>
					<dim>64</dim>
				</port>
				<port id="1">
					<dim>1</dim>
					<dim>1</dim>
					<dim>1</dim>
					<dim>1</dim>
				</port>
			</input>
			<output>
				<port id="2" precision="FP16">
					<dim>1</dim>
					<dim>1</dim>
					<dim>32</dim>
					<dim>64</dim>
				</port>
			</output>
		</layer>
		<layer id="3" name="data_add_4035/copy_const84_const" type="Const" version="opset1">
			<data element_type="f16" offset="2" shape="1,1,1,1" size="2"/>
			<output>
				<port id="1" precision="FP16">
					<dim>1</dim>
					<dim>1</dim>
					<dim>1</dim>
					<dim>1</dim>
				</port>
			</output>
		</layer>
		<layer id="4" name="shadow/BatchNorm/FusedBatchNorm/variance/Fused_Add_" type="Add" version="opset1">
			<input>
				<port id="0">
					<dim>1</dim>
					<dim>1</dim>
					<dim>32</dim>
					<dim>64</dim>
				</port>
				<port id="1">
					<dim>1</dim>
					<dim>1</dim>
					<dim>1</dim>
					<dim>1</dim>
				</port>
			</input>
			<output>
				<port id="2" precision="FP16">
					<dim>1</dim>
					<dim>1</dim>
					<dim>32</dim>
					<dim>64</dim>
				</port>
			</output>
		</layer>
		<layer id="5" name="386390_const" type="Const" version="opset1">
			<data element_type="f16" offset="4" shape="" size="2"/>
			<output>
				<port id="1" precision="FP16"/>
			</output>
		</layer>
		<layer id="6" name="387391_const" type="Const" version="opset1">
			<data element_type="f16" offset="6" shape="" size="2"/>
			<output>
				<port id="1" precision="FP16"/>
			</output>
		</layer>
		<layer id="7" name="388392_const" type="Const" version="opset1">
			<data element_type="f16" offset="4" shape="" size="2"/>
			<output>
				<port id="1" precision="FP16"/>
			</output>
		</layer>
		<layer id="8" name="389393_const" type="Const" version="opset1">
			<data element_type="f16" offset="6" shape="" size="2"/>
			<output>
				<port id="1" precision="FP16"/>
			</output>
		</layer>
		<layer id="9" name="shadow/Conv/Conv2D/fq_input_0" type="FakeQuantize" version="opset1">
			<data levels="256"/>
			<input>
				<port id="0">
					<dim>1</dim>
					<dim>1</dim>
					<dim>32</dim>
					<dim>64</dim>
				</port>
				<port id="1"/>
				<port id="2"/>
				<port id="3"/>
				<port id="4"/>
			</input>
			<output>
				<port id="5" precision="FP16">
					<dim>1</dim>
					<dim>1</dim>
					<dim>32</dim>
					<dim>64</dim>
				</port>
			</output>
		</layer>
		<layer id="10" name="shadow/Conv/Conv2D/fq_weights_1/Convert_to_float/Cast_0968_const" type="Const" version="opset1">
			<data element_type="u8" offset="8" shape="64,1,3,3" size="576"/>
			<output>
				<port id="1" precision="U8">
					<dim>64</dim>
					<dim>1</dim>
					<dim>3</dim>
					<dim>3</dim>
				</port>
			</output>
		</layer>
		<layer id="11" name="shadow/Conv/Conv2D/fq_weights_1/Convert_to_float" type="Convert" version="opset1">
			<data destination_type="f16"/>
			<input>
				<port id="0">
					<dim>64</dim>
					<dim>1</dim>
					<dim>3</dim>
					<dim>3</dim>
				</port>
			</input>
			<output>
				<port id="1" precision="FP16">
					<dim>64</dim>
					<dim>1</dim>
					<dim>3</dim>
					<dim>3</dim>
				</port>
			</output>
		</layer>
		<layer id="12" name="shadow/Conv/Conv2D/fq_weights_1/Copy/out_low835_const" type="Const" version="opset1">
			<data element_type="f16" offset="584" shape="1" size="2"/>
			<output>
				<port id="1" precision="FP16">
					<dim>1</dim>
				</port>
			</output>
		</layer>
		<layer id="13" name="shadow/Conv/Conv2D/fq_weights_1/Copy/out_high836_const" type="Const" version="opset1">
			<data element_type="f16" offset="586" shape="1" size="2"/>
			<output>
				<port id="1" precision="FP16">
					<dim>1</dim>
				</port>
			</output>
		</layer>
		<layer id="14" name="398402_const" type="Const" version="opset1">
			<data element_type="f16" offset="588" shape="64,1,1,1" size="128"/>
			<output>
				<port id="1" precision="FP16">
					<dim>64</dim>
					<dim>1</dim>
					<dim>1</dim>
					<dim>1</dim>
				</port>
			</output>
		</layer>
		<layer id="15" name="399403_const" type="Const" version="opset1">
			<data element_type="f16" offset="716" shape="64,1,1,1" size="128"/>
			<output>
				<port id="1" precision="FP16">
					<dim>64</dim>
					<dim>1</dim>
					<dim>1</dim>
					<dim>1</dim>
				</port>
			</output>
		</layer>
		<layer id="16" name="shadow/Conv/Conv2D/fq_weights_1" type="FakeQuantize" version="opset1">
			<data levels="255"/>
			<input>
				<port id="0">
					<dim>64</dim>
					<dim>1</dim>
					<dim>3</dim>
					<dim>3</dim>
				</port>
				<port id="1">
					<dim>1</dim>
				</port>
				<port id="2">
					<dim>1</dim>
				</port>
				<port id="3">
					<dim>64</dim>
					<dim>1</dim>
					<dim>1</dim>
					<dim>1</dim>
				</port>
				<port id="4">
					<dim>64</dim>
					<dim>1</dim>
					<dim>1</dim>
					<dim>1</dim>
				</port>
			</input>
			<output>
				<port id="5" precision="FP16">
					<dim>64</dim>
					<dim>1</dim>
					<dim>3</dim>
					<dim>3</dim>
				</port>
			</output>
		</layer>
		<layer id="17" name="shadow/Conv/Conv2D" type="Convolution" version="opset1">
			<data auto_pad="same_upper" dilations="1,1" output_padding="0,0" pads_begin="1,1" pads_end="1,1" strides="1,1"/>
			<input>
				<port id="0">
					<dim>1</dim>
					<dim>1</dim>
					<dim>32</dim>
					<dim>64</dim>
				</port>
				<port id="1">
					<dim>64</dim>
					<dim>1</dim>
					<dim>3</dim>
					<dim>3</dim>
				</port>
			</input>
			<output>
				<port id="2" precision="FP16">
					<dim>1</dim>
					<dim>64</dim>
					<dim>32</dim>
					<dim>64</dim>
				</port>
			</output>
		</layer>
		<layer id="18" name="data_add_40384043/copy_const88_const" type="Const" version="opset1">
			<data element_type="f16" offset="844" shape="1,64,1,1" size="128"/>
			<output>
				<port id="1" precision="FP16">
					<dim>1</dim>
					<dim>64</dim>
					<dim>1</dim>
					<dim>1</dim>
				</port>
			</output>
		</layer>
		<layer id="19" name="shadow/BatchNorm_1/FusedBatchNorm/variance/Fused_Add_" type="Add" version="opset1">
			<input>
				<port id="0">
					<dim>1</dim>
					<dim>64</dim>
					<dim>32</dim>
					<dim>64</dim>
				</port>
				<port id="1">
					<dim>1</dim>
					<dim>64</dim>
					<dim>1</dim>
					<dim>1</dim>
				</port>
			</input>
			<output>
				<port id="2" precision="FP16">
					<dim>1</dim>
					<dim>64</dim>
					<dim>32</dim>
					<dim>64</dim>
				</port>
			</output>
		</layer>
		<layer id="20" name="shadow/BatchNorm_1/Relu" type="ReLU" version="opset1">
			<input>
				<port id="0">
					<dim>1</dim>
					<dim>64</dim>
					<dim>32</dim>
					<dim>64</dim>
				</port>
			</input>
			<output>
				<port id="1" precision="FP16">
					<dim>1</dim>
					<dim>64</dim>
					<dim>32</dim>
					<dim>64</dim>
				</port>
			</output>
		</layer>
		<layer id="21" name="525529_const" type="Const" version="opset1">
			<data element_type="f16" offset="972" shape="" size="2"/>
			<output>
				<port id="1" precision="FP16"/>
			</output>
		</layer>
		<layer id="22" name="526530_const" type="Const" version="opset1">
			<data element_type="f16" offset="974" shape="" size="2"/>
			<output>
				<port id="1" precision="FP16"/>
			</output>
		</layer>
		<layer id="23" name="527531_const" type="Const" version="opset1">
			<data element_type="f16" offset="972" shape="" size="2"/>
			<output>
				<port id="1" precision="FP16"/>
			</output>
		</layer>
		<layer id="24" name="528532_const" type="Const" version="opset1">
			<data element_type="f16" offset="974" shape="" size="2"/>
			<output>
				<port id="1" precision="FP16"/>
			</output>
		</layer>
		<layer id="25" name="shadow/MaxPool2D/MaxPool/fq_input_0" type="FakeQuantize" version="opset1">
			<data levels="256"/>
			<input>
				<port id="0">
					<dim>1</dim>
					<dim>64</dim>
					<dim>32</dim>
					<dim>64</dim>
				</port>
				<port id="1"/>
				<port id="2"/>
				<port id="3"/>
				<port id="4"/>
			</input>
			<output>
				<port id="5" precision="FP16">
					<dim>1</dim>
					<dim>64</dim>
					<dim>32</dim>
					<dim>64</dim>
				</port>
			</output>
		</layer>
		<layer id="26" name="shadow/MaxPool2D/MaxPool" type="MaxPool" version="opset1">
			<data auto_pad="valid" kernel="2,2" pads_begin="0,0" pads_end="0,0" strides="2,2"/>
			<input>
				<port id="0">
					<dim>1</dim>
					<dim>64</dim>
					<dim>32</dim>
					<dim>64</dim>
				</port>
			</input>
			<output>
				<port id="1" precision="FP16">
					<dim>1</dim>
					<dim>64</dim>
					<dim>16</dim>
					<dim>32</dim>
				</port>
			</output>
		</layer>
		<layer id="27" name="shadow/Conv_1/Conv2D/fq_weights_1/Convert_to_float/Cast_0986_const" type="Const" version="opset1">
			<data element_type="u8" offset="976" shape="128,64,3,3" size="73728"/>
			<output>
				<port id="1" precision="U8">
					<dim>128</dim>
					<dim>64</dim>
					<dim>3</dim>
					<dim>3</dim>
				</port>
			</output>
		</layer>
		<layer id="28" name="shadow/Conv_1/Conv2D/fq_weights_1/Convert_to_float" type="Convert" version="opset1">
			<data destination_type="f16"/>
			<input>
				<port id="0">
					<dim>128</dim>
					<dim>64</dim>
					<dim>3</dim>
					<dim>3</dim>
				</port>
			</input>
			<output>
				<port id="1" precision="FP16">
					<dim>128</dim>
					<dim>64</dim>
					<dim>3</dim>
					<dim>3</dim>
				</port>
			</output>
		</layer>
		<layer id="29" name="shadow/Conv_1/Conv2D/fq_weights_1/Copy/out_low843_const" type="Const" version="opset1">
			<data element_type="f16" offset="74704" shape="1" size="2"/>
			<output>
				<port id="1" precision="FP16">
					<dim>1</dim>
				</port>
			</output>
		</layer>
		<layer id="30" name="shadow/Conv_1/Conv2D/fq_weights_1/Copy/out_high844_const" type="Const" version="opset1">
			<data element_type="f16" offset="586" shape="1" size="2"/>
			<output>
				<port id="1" precision="FP16">
					<dim>1</dim>
				</port>
			</output>
		</layer>
		<layer id="31" name="418422_const" type="Const" version="opset1">
			<data element_type="f16" offset="74706" shape="128,1,1,1" size="256"/>
			<output>
				<port id="1" precision="FP16">
					<dim>128</dim>
					<dim>1</dim>
					<dim>1</dim>
					<dim>1</dim>
				</port>
			</output>
		</layer>
		<layer id="32" name="419423_const" type="Const" version="opset1">
			<data element_type="f16" offset="74962" shape="128,1,1,1" size="256"/>
			<output>
				<port id="1" precision="FP16">
					<dim>128</dim>
					<dim>1</dim>
					<dim>1</dim>
					<dim>1</dim>
				</port>
			</output>
		</layer>
		<layer id="33" name="shadow/Conv_1/Conv2D/fq_weights_1" type="FakeQuantize" version="opset1">
			<data levels="255"/>
			<input>
				<port id="0">
					<dim>128</dim>
					<dim>64</dim>
					<dim>3</dim>
					<dim>3</dim>
				</port>
				<port id="1">
					<dim>1</dim>
				</port>
				<port id="2">
					<dim>1</dim>
				</port>
				<port id="3">
					<dim>128</dim>
					<dim>1</dim>
					<dim>1</dim>
					<dim>1</dim>
				</port>
				<port id="4">
					<dim>128</dim>
					<dim>1</dim>
					<dim>1</dim>
					<dim>1</dim>
				</port>
			</input>
			<output>
				<port id="5" precision="FP16">
					<dim>128</dim>
					<dim>64</dim>
					<dim>3</dim>
					<dim>3</dim>
				</port>
			</output>
		</layer>
		<layer id="34" name="shadow/Conv_1/Conv2D" type="Convolution" version="opset1">
			<data auto_pad="same_upper" dilations="1,1" output_padding="0,0" pads_begin="1,1" pads_end="1,1" strides="1,1"/>
			<input>
				<port id="0">
					<dim>1</dim>
					<dim>64</dim>
					<dim>16</dim>
					<dim>32</dim>
				</port>
				<port id="1">
					<dim>128</dim>
					<dim>64</dim>
					<dim>3</dim>
					<dim>3</dim>
				</port>
			</input>
			<output>
				<port id="2" precision="FP16">
					<dim>1</dim>
					<dim>128</dim>
					<dim>16</dim>
					<dim>32</dim>
				</port>
			</output>
		</layer>
		<layer id="35" name="data_add_40464051/copy_const94_const" type="Const" version="opset1">
			<data element_type="f16" offset="75218" shape="1,128,1,1" size="256"/>
			<output>
				<port id="1" precision="FP16">
					<dim>1</dim>
					<dim>128</dim>
					<dim>1</dim>
					<dim>1</dim>
				</port>
			</output>
		</layer>
		<layer id="36" name="shadow/BatchNorm_2/FusedBatchNorm/variance/Fused_Add_" type="Add" version="opset1">
			<input>
				<port id="0">
					<dim>1</dim>
					<dim>128</dim>
					<dim>16</dim>
					<dim>32</dim>
				</port>
				<port id="1">
					<dim>1</dim>
					<dim>128</dim>
					<dim>1</dim>
					<dim>1</dim>
				</port>
			</input>
			<output>
				<port id="2" precision="FP16">
					<dim>1</dim>
					<dim>128</dim>
					<dim>16</dim>
					<dim>32</dim>
				</port>
			</output>
		</layer>
		<layer id="37" name="shadow/BatchNorm_2/Relu" type="ReLU" version="opset1">
			<input>
				<port id="0">
					<dim>1</dim>
					<dim>128</dim>
					<dim>16</dim>
					<dim>32</dim>
				</port>
			</input>
			<output>
				<port id="1" precision="FP16">
					<dim>1</dim>
					<dim>128</dim>
					<dim>16</dim>
					<dim>32</dim>
				</port>
			</output>
		</layer>
		<layer id="38" name="535539_const" type="Const" version="opset1">
			<data element_type="f16" offset="75474" shape="" size="2"/>
			<output>
				<port id="1" precision="FP16"/>
			</output>
		</layer>
		<layer id="39" name="536540_const" type="Const" version="opset1">
			<data element_type="f16" offset="75476" shape="" size="2"/>
			<output>
				<port id="1" precision="FP16"/>
			</output>
		</layer>
		<layer id="40" name="537541_const" type="Const" version="opset1">
			<data element_type="f16" offset="75474" shape="" size="2"/>
			<output>
				<port id="1" precision="FP16"/>
			</output>
		</layer>
		<layer id="41" name="538542_const" type="Const" version="opset1">
			<data element_type="f16" offset="75476" shape="" size="2"/>
			<output>
				<port id="1" precision="FP16"/>
			</output>
		</layer>
		<layer id="42" name="shadow/MaxPool2D_1/MaxPool/fq_input_0" type="FakeQuantize" version="opset1">
			<data levels="256"/>
			<input>
				<port id="0">
					<dim>1</dim>
					<dim>128</dim>
					<dim>16</dim>
					<dim>32</dim>
				</port>
				<port id="1"/>
				<port id="2"/>
				<port id="3"/>
				<port id="4"/>
			</input>
			<output>
				<port id="5" precision="FP16">
					<dim>1</dim>
					<dim>128</dim>
					<dim>16</dim>
					<dim>32</dim>
				</port>
			</output>
		</layer>
		<layer id="43" name="shadow/MaxPool2D_1/MaxPool" type="MaxPool" version="opset1">
			<data auto_pad="valid" kernel="2,2" pads_begin="0,0" pads_end="0,0" strides="2,2"/>
			<input>
				<port id="0">
					<dim>1</dim>
					<dim>128</dim>
					<dim>16</dim>
					<dim>32</dim>
				</port>
			</input>
			<output>
				<port id="1" precision="FP16">
					<dim>1</dim>
					<dim>128</dim>
					<dim>8</dim>
					<dim>16</dim>
				</port>
			</output>
		</layer>
		<layer id="44" name="shadow/Conv_2/Conv2D/fq_weights_1/Convert_to_float/Cast_0980_const" type="Const" version="opset1">
			<data element_type="u8" offset="75478" shape="256,128,3,3" size="294912"/>
			<output>
				<port id="1" precision="U8">
					<dim>256</dim>
					<dim>128</dim>
					<dim>3</dim>
					<dim>3</dim>
				</port>
			</output>
		</layer>
		<layer id="45" name="shadow/Conv_2/Conv2D/fq_weights_1/Convert_to_float" type="Convert" version="opset1">
			<data destination_type="f16"/>
			<input>
				<port id="0">
					<dim>256</dim>
					<dim>128</dim>
					<dim>3</dim>
					<dim>3</dim>
				</port>
			</input>
			<output>
				<port id="1" precision="FP16">
					<dim>256</dim>
					<dim>128</dim>
					<dim>3</dim>
					<dim>3</dim>
				</port>
			</output>
		</layer>
		<layer id="46" name="shadow/Conv_2/Conv2D/fq_weights_1/Copy/out_low803_const" type="Const" version="opset1">
			<data element_type="f16" offset="370390" shape="1" size="2"/>
			<output>
				<port id="1" precision="FP16">
					<dim>1</dim>
				</port>
			</output>
		</layer>
		<layer id="47" name="shadow/Conv_2/Conv2D/fq_weights_1/Copy/out_high804_const" type="Const" version="opset1">
			<data element_type="f16" offset="586" shape="1" size="2"/>
			<output>
				<port id="1" precision="FP16">
					<dim>1</dim>
				</port>
			</output>
		</layer>
		<layer id="48" name="278282_const" type="Const" version="opset1">
			<data element_type="f16" offset="370392" shape="256,1,1,1" size="512"/>
			<output>
				<port id="1" precision="FP16">
					<dim>256</dim>
					<dim>1</dim>
					<dim>1</dim>
					<dim>1</dim>
				</port>
			</output>
		</layer>
		<layer id="49" name="279283_const" type="Const" version="opset1">
			<data element_type="f16" offset="370904" shape="256,1,1,1" size="512"/>
			<output>
				<port id="1" precision="FP16">
					<dim>256</dim>
					<dim>1</dim>
					<dim>1</dim>
					<dim>1</dim>
				</port>
			</output>
		</layer>
		<layer id="50" name="shadow/Conv_2/Conv2D/fq_weights_1" type="FakeQuantize" version="opset1">
			<data levels="255"/>
			<input>
				<port id="0">
					<dim>256</dim>
					<dim>128</dim>
					<dim>3</dim>
					<dim>3</dim>
				</port>
				<port id="1">
					<dim>1</dim>
				</port>
				<port id="2">
					<dim>1</dim>
				</port>
				<port id="3">
					<dim>256</dim>
					<dim>1</dim>
					<dim>1</dim>
					<dim>1</dim>
				</port>
				<port id="4">
					<dim>256</dim>
					<dim>1</dim>
					<dim>1</dim>
					<dim>1</dim>
				</port>
			</input>
			<output>
				<port id="5" precision="FP16">
					<dim>256</dim>
					<dim>128</dim>
					<dim>3</dim>
					<dim>3</dim>
				</port>
			</output>
		</layer>
		<layer id="51" name="shadow/Conv_2/Conv2D" type="Convolution" version="opset1">
			<data auto_pad="same_upper" dilations="1,1" output_padding="0,0" pads_begin="1,1" pads_end="1,1" strides="1,1"/>
			<input>
				<port id="0">
					<dim>1</dim>
					<dim>128</dim>
					<dim>8</dim>
					<dim>16</dim>
				</port>
				<port id="1">
					<dim>256</dim>
					<dim>128</dim>
					<dim>3</dim>
					<dim>3</dim>
				</port>
			</input>
			<output>
				<port id="2" precision="FP16">
					<dim>1</dim>
					<dim>256</dim>
					<dim>8</dim>
					<dim>16</dim>
				</port>
			</output>
		</layer>
		<layer id="52" name="data_add_40544059/copy_const100_const" type="Const" version="opset1">
			<data element_type="f16" offset="371416" shape="1,256,1,1" size="512"/>
			<output>
				<port id="1" precision="FP16">
					<dim>1</dim>
					<dim>256</dim>
					<dim>1</dim>
					<dim>1</dim>
				</port>
			</output>
		</layer>
		<layer id="53" name="shadow/BatchNorm_3/FusedBatchNorm/variance/Fused_Add_" type="Add" version="opset1">
			<input>
				<port id="0">
					<dim>1</dim>
					<dim>256</dim>
					<dim>8</dim>
					<dim>16</dim>
				</port>
				<port id="1">
					<dim>1</dim>
					<dim>256</dim>
					<dim>1</dim>
					<dim>1</dim>
				</port>
			</input>
			<output>
				<port id="2" precision="FP16">
					<dim>1</dim>
					<dim>256</dim>
					<dim>8</dim>
					<dim>16</dim>
				</port>
			</output>
		</layer>
		<layer id="54" name="shadow/BatchNorm_3/Relu" type="ReLU" version="opset1">
			<input>
				<port id="0">
					<dim>1</dim>
					<dim>256</dim>
					<dim>8</dim>
					<dim>16</dim>
				</port>
			</input>
			<output>
				<port id="1" precision="FP16">
					<dim>1</dim>
					<dim>256</dim>
					<dim>8</dim>
					<dim>16</dim>
				</port>
			</output>
		</layer>
		<layer id="55" name="286290_const" type="Const" version="opset1">
			<data element_type="f16" offset="371928" shape="" size="2"/>
			<output>
				<port id="1" precision="FP16"/>
			</output>
		</layer>
		<layer id="56" name="287291_const" type="Const" version="opset1">
			<data element_type="f16" offset="371930" shape="" size="2"/>
			<output>
				<port id="1" precision="FP16"/>
			</output>
		</layer>
		<layer id="57" name="288292_const" type="Const" version="opset1">
			<data element_type="f16" offset="371928" shape="" size="2"/>
			<output>
				<port id="1" precision="FP16"/>
			</output>
		</layer>
		<layer id="58" name="289293_const" type="Const" version="opset1">
			<data element_type="f16" offset="371930" shape="" size="2"/>
			<output>
				<port id="1" precision="FP16"/>
			</output>
		</layer>
		<layer id="59" name="shadow/Conv_3/Conv2D/fq_input_0" type="FakeQuantize" version="opset1">
			<data levels="256"/>
			<input>
				<port id="0">
					<dim>1</dim>
					<dim>256</dim>
					<dim>8</dim>
					<dim>16</dim>
				</port>
				<port id="1"/>
				<port id="2"/>
				<port id="3"/>
				<port id="4"/>
			</input>
			<output>
				<port id="5" precision="FP16">
					<dim>1</dim>
					<dim>256</dim>
					<dim>8</dim>
					<dim>16</dim>
				</port>
			</output>
		</layer>
		<layer id="60" name="shadow/Conv_3/Conv2D/fq_weights_1/Convert_to_float/Cast_0978_const" type="Const" version="opset1">
			<data element_type="u8" offset="371932" shape="256,256,3,3" size="589824"/>
			<output>
				<port id="1" precision="U8">
					<dim>256</dim>
					<dim>256</dim>
					<dim>3</dim>
					<dim>3</dim>
				</port>
			</output>
		</layer>
		<layer id="61" name="shadow/Conv_3/Conv2D/fq_weights_1/Convert_to_float" type="Convert" version="opset1">
			<data destination_type="f16"/>
			<input>
				<port id="0">
					<dim>256</dim>
					<dim>256</dim>
					<dim>3</dim>
					<dim>3</dim>
				</port>
			</input>
			<output>
				<port id="1" precision="FP16">
					<dim>256</dim>
					<dim>256</dim>
					<dim>3</dim>
					<dim>3</dim>
				</port>
			</output>
		</layer>
		<layer id="62" name="shadow/Conv_3/Conv2D/fq_weights_1/Copy/out_low811_const" type="Const" version="opset1">
			<data element_type="f16" offset="961756" shape="1" size="2"/>
			<output>
				<port id="1" precision="FP16">
					<dim>1</dim>
				</port>
			</output>
		</layer>
		<layer id="63" name="shadow/Conv_3/Conv2D/fq_weights_1/Copy/out_high812_const" type="Const" version="opset1">
			<data element_type="f16" offset="586" shape="1" size="2"/>
			<output>
				<port id="1" precision="FP16">
					<dim>1</dim>
				</port>
			</output>
		</layer>
		<layer id="64" name="298302_const" type="Const" version="opset1">
			<data element_type="f16" offset="961758" shape="256,1,1,1" size="512"/>
			<output>
				<port id="1" precision="FP16">
					<dim>256</dim>
					<dim>1</dim>
					<dim>1</dim>
					<dim>1</dim>
				</port>
			</output>
		</layer>
		<layer id="65" name="299303_const" type="Const" version="opset1">
			<data element_type="f16" offset="962270" shape="256,1,1,1" size="512"/>
			<output>
				<port id="1" precision="FP16">
					<dim>256</dim>
					<dim>1</dim>
					<dim>1</dim>
					<dim>1</dim>
				</port>
			</output>
		</layer>
		<layer id="66" name="shadow/Conv_3/Conv2D/fq_weights_1" type="FakeQuantize" version="opset1">
			<data levels="255"/>
			<input>
				<port id="0">
					<dim>256</dim>
					<dim>256</dim>
					<dim>3</dim>
					<dim>3</dim>
				</port>
				<port id="1">
					<dim>1</dim>
				</port>
				<port id="2">
					<dim>1</dim>
				</port>
				<port id="3">
					<dim>256</dim>
					<dim>1</dim>
					<dim>1</dim>
					<dim>1</dim>
				</port>
				<port id="4">
					<dim>256</dim>
					<dim>1</dim>
					<dim>1</dim>
					<dim>1</dim>
				</port>
			</input>
			<output>
				<port id="5" precision="FP16">
					<dim>256</dim>
					<dim>256</dim>
					<dim>3</dim>
					<dim>3</dim>
				</port>
			</output>
		</layer>
		<layer id="67" name="shadow/Conv_3/Conv2D" type="Convolution" version="opset1">
			<data auto_pad="same_upper" dilations="1,1" output_padding="0,0" pads_begin="1,1" pads_end="1,1" strides="1,1"/>
			<input>
				<port id="0">
					<dim>1</dim>
					<dim>256</dim>
					<dim>8</dim>
					<dim>16</dim>
				</port>
				<port id="1">
					<dim>256</dim>
					<dim>256</dim>
					<dim>3</dim>
					<dim>3</dim>
				</port>
			</input>
			<output>
				<port id="2" precision="FP16">
					<dim>1</dim>
					<dim>256</dim>
					<dim>8</dim>
					<dim>16</dim>
				</port>
			</output>
		</layer>
		<layer id="68" name="data_add_40624067/copy_const105_const" type="Const" version="opset1">
			<data element_type="f16" offset="962782" shape="1,256,1,1" size="512"/>
			<output>
				<port id="1" precision="FP16">
					<dim>1</dim>
					<dim>256</dim>
					<dim>1</dim>
					<dim>1</dim>
				</port>
			</output>
		</layer>
		<layer id="69" name="shadow/BatchNorm_4/FusedBatchNorm/variance/Fused_Add_" type="Add" version="opset1">
			<input>
				<port id="0">
					<dim>1</dim>
					<dim>256</dim>
					<dim>8</dim>
					<dim>16</dim>
				</port>
				<port id="1">
					<dim>1</dim>
					<dim>256</dim>
					<dim>1</dim>
					<dim>1</dim>
				</port>
			</input>
			<output>
				<port id="2" precision="FP16">
					<dim>1</dim>
					<dim>256</dim>
					<dim>8</dim>
					<dim>16</dim>
				</port>
			</output>
		</layer>
		<layer id="70" name="shadow/BatchNorm_4/Relu" type="ReLU" version="opset1">
			<input>
				<port id="0">
					<dim>1</dim>
					<dim>256</dim>
					<dim>8</dim>
					<dim>16</dim>
				</port>
			</input>
			<output>
				<port id="1" precision="FP16">
					<dim>1</dim>
					<dim>256</dim>
					<dim>8</dim>
					<dim>16</dim>
				</port>
			</output>
		</layer>
		<layer id="71" name="545549_const" type="Const" version="opset1">
			<data element_type="f16" offset="963294" shape="" size="2"/>
			<output>
				<port id="1" precision="FP16"/>
			</output>
		</layer>
		<layer id="72" name="546550_const" type="Const" version="opset1">
			<data element_type="f16" offset="963296" shape="" size="2"/>
			<output>
				<port id="1" precision="FP16"/>
			</output>
		</layer>
		<layer id="73" name="547551_const" type="Const" version="opset1">
			<data element_type="f16" offset="963294" shape="" size="2"/>
			<output>
				<port id="1" precision="FP16"/>
			</output>
		</layer>
		<layer id="74" name="548552_const" type="Const" version="opset1">
			<data element_type="f16" offset="963296" shape="" size="2"/>
			<output>
				<port id="1" precision="FP16"/>
			</output>
		</layer>
		<layer id="75" name="shadow/MaxPool2D_2/MaxPool/fq_input_0" type="FakeQuantize" version="opset1">
			<data levels="256"/>
			<input>
				<port id="0">
					<dim>1</dim>
					<dim>256</dim>
					<dim>8</dim>
					<dim>16</dim>
				</port>
				<port id="1"/>
				<port id="2"/>
				<port id="3"/>
				<port id="4"/>
			</input>
			<output>
				<port id="5" precision="FP16">
					<dim>1</dim>
					<dim>256</dim>
					<dim>8</dim>
					<dim>16</dim>
				</port>
			</output>
		</layer>
		<layer id="76" name="shadow/MaxPool2D_2/MaxPool" type="MaxPool" version="opset1">
			<data auto_pad="valid" kernel="2,1" pads_begin="0,0" pads_end="0,0" strides="2,1"/>
			<input>
				<port id="0">
					<dim>1</dim>
					<dim>256</dim>
					<dim>8</dim>
					<dim>16</dim>
				</port>
			</input>
			<output>
				<port id="1" precision="FP16">
					<dim>1</dim>
					<dim>256</dim>
					<dim>4</dim>
					<dim>16</dim>
				</port>
			</output>
		</layer>
		<layer id="77" name="shadow/Conv_4/Conv2D/fq_weights_1/Convert_to_float/Cast_0970_const" type="Const" version="opset1">
			<data element_type="u8" offset="963298" shape="512,256,3,3" size="1179648"/>
			<output>
				<port id="1" precision="U8">
					<dim>512</dim>
					<dim>256</dim>
					<dim>3</dim>
					<dim>3</dim>
				</port>
			</output>
		</layer>
		<layer id="78" name="shadow/Conv_4/Conv2D/fq_weights_1/Convert_to_float" type="Convert" version="opset1">
			<data destination_type="f16"/>
			<input>
				<port id="0">
					<dim>512</dim>
					<dim>256</dim>
					<dim>3</dim>
					<dim>3</dim>
				</port>
			</input>
			<output>
				<port id="1" precision="FP16">
					<dim>512</dim>
					<dim>256</dim>
					<dim>3</dim>
					<dim>3</dim>
				</port>
			</output>
		</layer>
		<layer id="79" name="shadow/Conv_4/Conv2D/fq_weights_1/Copy/out_low851_const" type="Const" version="opset1">
			<data element_type="f16" offset="2142946" shape="1" size="2"/>
			<output>
				<port id="1" precision="FP16">
					<dim>1</dim>
				</port>
			</output>
		</layer>
		<layer id="80" name="shadow/Conv_4/Conv2D/fq_weights_1/Copy/out_high852_const" type="Const" version="opset1">
			<data element_type="f16" offset="586" shape="1" size="2"/>
			<output>
				<port id="1" precision="FP16">
					<dim>1</dim>
				</port>
			</output>
		</layer>
		<layer id="81" name="338342_const" type="Const" version="opset1">
			<data element_type="f16" offset="2142948" shape="512,1,1,1" size="1024"/>
			<output>
				<port id="1" precision="FP16">
					<dim>512</dim>
					<dim>1</dim>
					<dim>1</dim>
					<dim>1</dim>
				</port>
			</output>
		</layer>
		<layer id="82" name="339343_const" type="Const" version="opset1">
			<data element_type="f16" offset="2143972" shape="512,1,1,1" size="1024"/>
			<output>
				<port id="1" precision="FP16">
					<dim>512</dim>
					<dim>1</dim>
					<dim>1</dim>
					<dim>1</dim>
				</port>
			</output>
		</layer>
		<layer id="83" name="shadow/Conv_4/Conv2D/fq_weights_1" type="FakeQuantize" version="opset1">
			<data levels="255"/>
			<input>
				<port id="0">
					<dim>512</dim>
					<dim>256</dim>
					<dim>3</dim>
					<dim>3</dim>
				</port>
				<port id="1">
					<dim>1</dim>
				</port>
				<port id="2">
					<dim>1</dim>
				</port>
				<port id="3">
					<dim>512</dim>
					<dim>1</dim>
					<dim>1</dim>
					<dim>1</dim>
				</port>
				<port id="4">
					<dim>512</dim>
					<dim>1</dim>
					<dim>1</dim>
					<dim>1</dim>
				</port>
			</input>
			<output>
				<port id="5" precision="FP16">
					<dim>512</dim>
					<dim>256</dim>
					<dim>3</dim>
					<dim>3</dim>
				</port>
			</output>
		</layer>
		<layer id="84" name="shadow/Conv_4/Conv2D" type="Convolution" version="opset1">
			<data auto_pad="same_upper" dilations="1,1" output_padding="0,0" pads_begin="1,1" pads_end="1,1" strides="1,1"/>
			<input>
				<port id="0">
					<dim>1</dim>
					<dim>256</dim>
					<dim>4</dim>
					<dim>16</dim>
				</port>
				<port id="1">
					<dim>512</dim>
					<dim>256</dim>
					<dim>3</dim>
					<dim>3</dim>
				</port>
			</input>
			<output>
				<port id="2" precision="FP16">
					<dim>1</dim>
					<dim>512</dim>
					<dim>4</dim>
					<dim>16</dim>
				</port>
			</output>
		</layer>
		<layer id="85" name="data_add_40704075/copy_const111_const" type="Const" version="opset1">
			<data element_type="f16" offset="2144996" shape="1,512,1,1" size="1024"/>
			<output>
				<port id="1" precision="FP16">
					<dim>1</dim>
					<dim>512</dim>
					<dim>1</dim>
					<dim>1</dim>
				</port>
			</output>
		</layer>
		<layer id="86" name="shadow/BatchNorm_5/FusedBatchNorm/variance/Fused_Add_" type="Add" version="opset1">
			<input>
				<port id="0">
					<dim>1</dim>
					<dim>512</dim>
					<dim>4</dim>
					<dim>16</dim>
				</port>
				<port id="1">
					<dim>1</dim>
					<dim>512</dim>
					<dim>1</dim>
					<dim>1</dim>
				</port>
			</input>
			<output>
				<port id="2" precision="FP16">
					<dim>1</dim>
					<dim>512</dim>
					<dim>4</dim>
					<dim>16</dim>
				</port>
			</output>
		</layer>
		<layer id="87" name="shadow/BatchNorm_5/Relu" type="ReLU" version="opset1">
			<input>
				<port id="0">
					<dim>1</dim>
					<dim>512</dim>
					<dim>4</dim>
					<dim>16</dim>
				</port>
			</input>
			<output>
				<port id="1" precision="FP16">
					<dim>1</dim>
					<dim>512</dim>
					<dim>4</dim>
					<dim>16</dim>
				</port>
			</output>
		</layer>
		<layer id="88" name="366370_const" type="Const" version="opset1">
			<data element_type="f16" offset="2146020" shape="" size="2"/>
			<output>
				<port id="1" precision="FP16"/>
			</output>
		</layer>
		<layer id="89" name="367371_const" type="Const" version="opset1">
			<data element_type="f16" offset="2146022" shape="" size="2"/>
			<output>
				<port id="1" precision="FP16"/>
			</output>
		</layer>
		<layer id="90" name="368372_const" type="Const" version="opset1">
			<data element_type="f16" offset="2146020" shape="" size="2"/>
			<output>
				<port id="1" precision="FP16"/>
			</output>
		</layer>
		<layer id="91" name="369373_const" type="Const" version="opset1">
			<data element_type="f16" offset="2146022" shape="" size="2"/>
			<output>
				<port id="1" precision="FP16"/>
			</output>
		</layer>
		<layer id="92" name="shadow/Conv_5/Conv2D/fq_input_0" type="FakeQuantize" version="opset1">
			<data levels="256"/>
			<input>
				<port id="0">
					<dim>1</dim>
					<dim>512</dim>
					<dim>4</dim>
					<dim>16</dim>
				</port>
				<port id="1"/>
				<port id="2"/>
				<port id="3"/>
				<port id="4"/>
			</input>
			<output>
				<port id="5" precision="FP16">
					<dim>1</dim>
					<dim>512</dim>
					<dim>4</dim>
					<dim>16</dim>
				</port>
			</output>
		</layer>
		<layer id="93" name="shadow/Conv_5/Conv2D/fq_weights_1/Convert_to_float/Cast_0976_const" type="Const" version="opset1">
			<data element_type="u8" offset="2146024" shape="512,512,3,3" size="2359296"/>
			<output>
				<port id="1" precision="U8">
					<dim>512</dim>
					<dim>512</dim>
					<dim>3</dim>
					<dim>3</dim>
				</port>
			</output>
		</layer>
		<layer id="94" name="shadow/Conv_5/Conv2D/fq_weights_1/Convert_to_float" type="Convert" version="opset1">
			<data destination_type="f16"/>
			<input>
				<port id="0">
					<dim>512</dim>
					<dim>512</dim>
					<dim>3</dim>
					<dim>3</dim>
				</port>
			</input>
			<output>
				<port id="1" precision="FP16">
					<dim>512</dim>
					<dim>512</dim>
					<dim>3</dim>
					<dim>3</dim>
				</port>
			</output>
		</layer>
		<layer id="95" name="shadow/Conv_5/Conv2D/fq_weights_1/Copy/out_low827_const" type="Const" version="opset1">
			<data element_type="f16" offset="4505320" shape="1" size="2"/>
			<output>
				<port id="1" precision="FP16">
					<dim>1</dim>
				</port>
			</output>
		</layer>
		<layer id="96" name="shadow/Conv_5/Conv2D/fq_weights_1/Copy/out_high828_const" type="Const" version="opset1">
			<data element_type="f16" offset="586" shape="1" size="2"/>
			<output>
				<port id="1" precision="FP16">
					<dim>1</dim>
				</port>
			</output>
		</layer>
		<layer id="97" name="378382_const" type="Const" version="opset1">
			<data element_type="f16" offset="4505322" shape="512,1,1,1" size="1024"/>
			<output>
				<port id="1" precision="FP16">
					<dim>512</dim>
					<dim>1</dim>
					<dim>1</dim>
					<dim>1</dim>
				</port>
			</output>
		</layer>
		<layer id="98" name="379383_const" type="Const" version="opset1">
			<data element_type="f16" offset="4506346" shape="512,1,1,1" size="1024"/>
			<output>
				<port id="1" precision="FP16">
					<dim>512</dim>
					<dim>1</dim>
					<dim>1</dim>
					<dim>1</dim>
				</port>
			</output>
		</layer>
		<layer id="99" name="shadow/Conv_5/Conv2D/fq_weights_1" type="FakeQuantize" version="opset1">
			<data levels="255"/>
			<input>
				<port id="0">
					<dim>512</dim>
					<dim>512</dim>
					<dim>3</dim>
					<dim>3</dim>
				</port>
				<port id="1">
					<dim>1</dim>
				</port>
				<port id="2">
					<dim>1</dim>
				</port>
				<port id="3">
					<dim>512</dim>
					<dim>1</dim>
					<dim>1</dim>
					<dim>1</dim>
				</port>
				<port id="4">
					<dim>512</dim>
					<dim>1</dim>
					<dim>1</dim>
					<dim>1</dim>
				</port>
			</input>
			<output>
				<port id="5" precision="FP16">
					<dim>512</dim>
					<dim>512</dim>
					<dim>3</dim>
					<dim>3</dim>
				</port>
			</output>
		</layer>
		<layer id="100" name="shadow/Conv_5/Conv2D" type="Convolution" version="opset1">
			<data auto_pad="same_upper" dilations="1,1" output_padding="0,0" pads_begin="1,1" pads_end="1,1" strides="1,1"/>
			<input>
				<port id="0">
					<dim>1</dim>
					<dim>512</dim>
					<dim>4</dim>
					<dim>16</dim>
				</port>
				<port id="1">
					<dim>512</dim>
					<dim>512</dim>
					<dim>3</dim>
					<dim>3</dim>
				</port>
			</input>
			<output>
				<port id="2" precision="FP16">
					<dim>1</dim>
					<dim>512</dim>
					<dim>4</dim>
					<dim>16</dim>
				</port>
			</output>
		</layer>
		<layer id="101" name="data_add_40784083/copy_const116_const" type="Const" version="opset1">
			<data element_type="f16" offset="4507370" shape="1,512,1,1" size="1024"/>
			<output>
				<port id="1" precision="FP16">
					<dim>1</dim>
					<dim>512</dim>
					<dim>1</dim>
					<dim>1</dim>
				</port>
			</output>
		</layer>
		<layer id="102" name="shadow/BatchNorm_6/FusedBatchNorm/variance/Fused_Add_" type="Add" version="opset1">
			<input>
				<port id="0">
					<dim>1</dim>
					<dim>512</dim>
					<dim>4</dim>
					<dim>16</dim>
				</port>
				<port id="1">
					<dim>1</dim>
					<dim>512</dim>
					<dim>1</dim>
					<dim>1</dim>
				</port>
			</input>
			<output>
				<port id="2" precision="FP16">
					<dim>1</dim>
					<dim>512</dim>
					<dim>4</dim>
					<dim>16</dim>
				</port>
			</output>
		</layer>
		<layer id="103" name="shadow/BatchNorm_6/Relu" type="ReLU" version="opset1">
			<input>
				<port id="0">
					<dim>1</dim>
					<dim>512</dim>
					<dim>4</dim>
					<dim>16</dim>
				</port>
			</input>
			<output>
				<port id="1" precision="FP16">
					<dim>1</dim>
					<dim>512</dim>
					<dim>4</dim>
					<dim>16</dim>
				</port>
			</output>
		</layer>
		<layer id="104" name="555559_const" type="Const" version="opset1">
			<data element_type="f16" offset="4508394" shape="" size="2"/>
			<output>
				<port id="1" precision="FP16"/>
			</output>
		</layer>
		<layer id="105" name="556560_const" type="Const" version="opset1">
			<data element_type="f16" offset="4508396" shape="" size="2"/>
			<output>
				<port id="1" precision="FP16"/>
			</output>
		</layer>
		<layer id="106" name="557561_const" type="Const" version="opset1">
			<data element_type="f16" offset="4508394" shape="" size="2"/>
			<output>
				<port id="1" precision="FP16"/>
			</output>
		</layer>
		<layer id="107" name="558562_const" type="Const" version="opset1">
			<data element_type="f16" offset="4508396" shape="" size="2"/>
			<output>
				<port id="1" precision="FP16"/>
			</output>
		</layer>
		<layer id="108" name="shadow/MaxPool2D_3/MaxPool/fq_input_0" type="FakeQuantize" version="opset1">
			<data levels="256"/>
			<input>
				<port id="0">
					<dim>1</dim>
					<dim>512</dim>
					<dim>4</dim>
					<dim>16</dim>
				</port>
				<port id="1"/>
				<port id="2"/>
				<port id="3"/>
				<port id="4"/>
			</input>
			<output>
				<port id="5" precision="FP16">
					<dim>1</dim>
					<dim>512</dim>
					<dim>4</dim>
					<dim>16</dim>
				</port>
			</output>
		</layer>
		<layer id="109" name="shadow/MaxPool2D_3/MaxPool" type="MaxPool" version="opset1">
			<data auto_pad="valid" kernel="2,1" pads_begin="0,0" pads_end="0,0" strides="2,1"/>
			<input>
				<port id="0">
					<dim>1</dim>
					<dim>512</dim>
					<dim>4</dim>
					<dim>16</dim>
				</port>
			</input>
			<output>
				<port id="1" precision="FP16">
					<dim>1</dim>
					<dim>512</dim>
					<dim>2</dim>
					<dim>16</dim>
				</port>
			</output>
		</layer>
		<layer id="110" name="shadow/Conv_6/Conv2D/fq_weights_1/Convert_to_float/Cast_0984_const" type="Const" version="opset1">
			<data element_type="u8" offset="4508398" shape="512,512,2,2" size="1048576"/>
			<output>
				<port id="1" precision="U8">
					<dim>512</dim>
					<dim>512</dim>
					<dim>2</dim>
					<dim>2</dim>
				</port>
			</output>
		</layer>
		<layer id="111" name="shadow/Conv_6/Conv2D/fq_weights_1/Convert_to_float" type="Convert" version="opset1">
			<data destination_type="f16"/>
			<input>
				<port id="0">
					<dim>512</dim>
					<dim>512</dim>
					<dim>2</dim>
					<dim>2</dim>
				</port>
			</input>
			<output>
				<port id="1" precision="FP16">
					<dim>512</dim>
					<dim>512</dim>
					<dim>2</dim>
					<dim>2</dim>
				</port>
			</output>
		</layer>
		<layer id="112" name="shadow/Conv_6/Conv2D/fq_weights_1/Copy/out_low859_const" type="Const" version="opset1">
			<data element_type="f16" offset="5556974" shape="1" size="2"/>
			<output>
				<port id="1" precision="FP16">
					<dim>1</dim>
				</port>
			</output>
		</layer>
		<layer id="113" name="shadow/Conv_6/Conv2D/fq_weights_1/Copy/out_high860_const" type="Const" version="opset1">
			<data element_type="f16" offset="586" shape="1" size="2"/>
			<output>
				<port id="1" precision="FP16">
					<dim>1</dim>
				</port>
			</output>
		</layer>
		<layer id="114" name="358362_const" type="Const" version="opset1">
			<data element_type="f16" offset="5556976" shape="512,1,1,1" size="1024"/>
			<output>
				<port id="1" precision="FP16">
					<dim>512</dim>
					<dim>1</dim>
					<dim>1</dim>
					<dim>1</dim>
				</port>
			</output>
		</layer>
		<layer id="115" name="359363_const" type="Const" version="opset1">
			<data element_type="f16" offset="5558000" shape="512,1,1,1" size="1024"/>
			<output>
				<port id="1" precision="FP16">
					<dim>512</dim>
					<dim>1</dim>
					<dim>1</dim>
					<dim>1</dim>
				</port>
			</output>
		</layer>
		<layer id="116" name="shadow/Conv_6/Conv2D/fq_weights_1" type="FakeQuantize" version="opset1">
			<data levels="255"/>
			<input>
				<port id="0">
					<dim>512</dim>
					<dim>512</dim>
					<dim>2</dim>
					<dim>2</dim>
				</port>
				<port id="1">
					<dim>1</dim>
				</port>
				<port id="2">
					<dim>1</dim>
				</port>
				<port id="3">
					<dim>512</dim>
					<dim>1</dim>
					<dim>1</dim>
					<dim>1</dim>
				</port>
				<port id="4">
					<dim>512</dim>
					<dim>1</dim>
					<dim>1</dim>
					<dim>1</dim>
				</port>
			</input>
			<output>
				<port id="5" precision="FP16">
					<dim>512</dim>
					<dim>512</dim>
					<dim>2</dim>
					<dim>2</dim>
				</port>
			</output>
		</layer>
		<layer id="117" name="shadow/Conv_6/Conv2D" type="Convolution" version="opset1">
			<data auto_pad="same_upper" dilations="1,1" output_padding="0,0" pads_begin="0,0" pads_end="0,1" strides="2,1"/>
			<input>
				<port id="0">
					<dim>1</dim>
					<dim>512</dim>
					<dim>2</dim>
					<dim>16</dim>
				</port>
				<port id="1">
					<dim>512</dim>
					<dim>512</dim>
					<dim>2</dim>
					<dim>2</dim>
				</port>
			</input>
			<output>
				<port id="2" precision="FP16">
					<dim>1</dim>
					<dim>512</dim>
					<dim>1</dim>
					<dim>16</dim>
				</port>
			</output>
		</layer>
		<layer id="118" name="data_add_40864091/copy_const122_const" type="Const" version="opset1">
			<data element_type="f16" offset="5559024" shape="1,512,1,1" size="1024"/>
			<output>
				<port id="1" precision="FP16">
					<dim>1</dim>
					<dim>512</dim>
					<dim>1</dim>
					<dim>1</dim>
				</port>
			</output>
		</layer>
		<layer id="119" name="shadow/BatchNorm_7/FusedBatchNorm/variance/Fused_Add_" type="Add" version="opset1">
			<input>
				<port id="0">
					<dim>1</dim>
					<dim>512</dim>
					<dim>1</dim>
					<dim>16</dim>
				</port>
				<port id="1">
					<dim>1</dim>
					<dim>512</dim>
					<dim>1</dim>
					<dim>1</dim>
				</port>
			</input>
			<output>
				<port id="2" precision="FP16">
					<dim>1</dim>
					<dim>512</dim>
					<dim>1</dim>
					<dim>16</dim>
				</port>
			</output>
		</layer>
		<layer id="120" name="shadow/BatchNorm_7/Relu" type="ReLU" version="opset1">
			<input>
				<port id="0">
					<dim>1</dim>
					<dim>512</dim>
					<dim>1</dim>
					<dim>16</dim>
				</port>
			</input>
			<output>
				<port id="1" precision="FP16">
					<dim>1</dim>
					<dim>512</dim>
					<dim>1</dim>
					<dim>16</dim>
				</port>
			</output>
		</layer>
		<layer id="121" name="shadow/BatchNorm_7/Relu/Transpose/Cast_1982_const" type="Const" version="opset1">
			<data element_type="i64" offset="5560048" shape="4" size="32"/>
			<output>
				<port id="1" precision="I64">
					<dim>4</dim>
				</port>
			</output>
		</layer>
		<layer id="122" name="shadow/BatchNorm_7/Relu/Transpose" type="Transpose" version="opset1">
			<input>
				<port id="0">
					<dim>1</dim>
					<dim>512</dim>
					<dim>1</dim>
					<dim>16</dim>
				</port>
				<port id="1">
					<dim>4</dim>
				</port>
			</input>
			<output>
				<port id="2" precision="FP16">
					<dim>1</dim>
					<dim>1</dim>
					<dim>16</dim>
					<dim>512</dim>
				</port>
			</output>
		</layer>
		<layer id="123" name="shadow/Squeeze/Dims/Output_0/Data__const127_const" type="Const" version="opset1">
			<data element_type="i64" offset="5560080" shape="1" size="8"/>
			<output>
				<port id="1" precision="I64">
					<dim>1</dim>
				</port>
			</output>
		</layer>
		<layer id="124" name="shadow/Squeeze" type="Squeeze" version="opset1">
			<input>
				<port id="0">
					<dim>1</dim>
					<dim>1</dim>
					<dim>16</dim>
					<dim>512</dim>
				</port>
				<port id="1">
					<dim>1</dim>
				</port>
			</input>
			<output>
				<port id="2" precision="FP16">
					<dim>1</dim>
					<dim>16</dim>
					<dim>512</dim>
				</port>
			</output>
		</layer>
		<layer id="125" name="shadow/LSTMLayers/encoder/stack_bidirectional_rnn/cell_0/bidirectional_rnn/fw/fw/while/Enter_4/Output_0/Data__const129_const" type="Const" version="opset1">
			<data element_type="f16" offset="5560088" shape="1,256" size="512"/>
			<output>
				<port id="1" precision="FP16">
					<dim>1</dim>
					<dim>256</dim>
				</port>
			</output>
		</layer>
		<layer id="126" name="shadow/LSTMLayers/encoder/stack_bidirectional_rnn/cell_0/bidirectional_rnn/fw/fw/while/Enter_3/Output_0/Data__const130_const" type="Const" version="opset1">
			<data element_type="f16" offset="5560088" shape="1,256" size="512"/>
			<output>
				<port id="1" precision="FP16">
					<dim>1</dim>
					<dim>256</dim>
				</port>
			</output>
		</layer>
		<layer id="127" name="shadow/LSTMLayers/encoder/stack_bidirectional_rnn/cell_0/bidirectional_rnn/fw/fw/while/LoopCond/TensorIteratorCondition_/TensorIterator" type="TensorIterator" version="opset1">
			<input>
				<port id="0">
					<dim>1</dim>
					<dim>16</dim>
					<dim>512</dim>
				</port>
				<port id="1">
					<dim>1</dim>
					<dim>256</dim>
				</port>
				<port id="2">
					<dim>1</dim>
					<dim>256</dim>
				</port>
			</input>
			<output>
				<port id="3" precision="FP16">
					<dim>1</dim>
					<dim>16</dim>
					<dim>256</dim>
				</port>
			</output>
			<port_map>
				<input axis="1" external_port_id="0" internal_layer_id="0" start="0"/>
				<input external_port_id="2" internal_layer_id="4"/>
				<input external_port_id="1" internal_layer_id="3"/>
				<output axis="1" external_port_id="3" internal_layer_id="13"/>
			</port_map>
			<back_edges>
				<edge from-layer="9" to-layer="4"/>
				<edge from-layer="10" to-layer="3"/>
			</back_edges>
			<body>
				<layers>
					<layer id="0" name="32" type="Parameter" version="opset1">
						<data element_type="f16" shape="1,1,512"/>
						<output>
							<port id="0" precision="FP16">
								<dim>1</dim>
								<dim>1</dim>
								<dim>512</dim>
							</port>
						</output>
					</layer>
					<layer id="1" name="25_const16_const" type="Const" version="opset1">
						<data element_type="i64" offset="5560080" shape="1" size="8"/>
						<output>
							<port id="1" precision="I64">
								<dim>1</dim>
							</port>
						</output>
					</layer>
					<layer id="2" name="shadow/LSTMLayers/encoder/stack_bidirectional_rnn/cell_0/bidirectional_rnn/fw/fw/while/TensorArrayReadV3/Output_0/Data_/InputSqueeze" type="Squeeze" version="opset1">
						<input>
							<port id="0">
								<dim>1</dim>
								<dim>1</dim>
								<dim>512</dim>
							</port>
							<port id="1">
								<dim>1</dim>
							</port>
						</input>
						<output>
							<port id="2" precision="FP16">
								<dim>1</dim>
								<dim>512</dim>
							</port>
						</output>
					</layer>
					<layer id="3" name="34" type="Parameter" version="opset1">
						<data element_type="f16" shape="1,256"/>
						<output>
							<port id="0" precision="FP16">
								<dim>1</dim>
								<dim>256</dim>
							</port>
						</output>
					</layer>
					<layer id="4" name="36" type="Parameter" version="opset1">
						<data element_type="f16" shape="1,256"/>
						<output>
							<port id="0" precision="FP16">
								<dim>1</dim>
								<dim>256</dim>
							</port>
						</output>
					</layer>
					<layer id="5" name="shadow/LSTMLayers/encoder/stack_bidirectional_rnn/cell_0/bidirectional_rnn/fw/fw/while/lstm_cell/concat/LSTMCell/Split274_const20_const" type="Const" version="opset1">
						<data element_type="f16" offset="5567406" shape="1024,512" size="1048576"/>
						<output>
							<port id="1" precision="FP16">
								<dim>1024</dim>
								<dim>512</dim>
							</port>
						</output>
					</layer>
					<layer id="6" name="shadow/LSTMLayers/encoder/stack_bidirectional_rnn/cell_0/bidirectional_rnn/fw/fw/while/lstm_cell/concat/LSTMCell/Split275_const21_const" type="Const" version="opset1">
						<data element_type="f16" offset="6615982" shape="1024,256" size="524288"/>
						<output>
							<port id="1" precision="FP16">
								<dim>1024</dim>
								<dim>256</dim>
							</port>
						</output>
					</layer>
					<layer id="7" name="shadow/LSTMLayers/encoder/stack_bidirectional_rnn/cell_0/bidirectional_rnn/fw/fw/while/lstm_cell/BiasAdd/Enter/Output_0/Data__const22_const" type="Const" version="opset1">
						<data element_type="f16" offset="7140270" shape="1024" size="2048"/>
						<output>
							<port id="1" precision="FP16">
								<dim>1024</dim>
							</port>
						</output>
					</layer>
					<layer id="8" name="shadow/LSTMLayers/encoder/stack_bidirectional_rnn/cell_0/bidirectional_rnn/fw/fw/while/lstm_cell/concat/LSTMCell" type="LSTMCell" version="opset1">
						<data hidden_size="256"/>
						<input>
							<port id="0">
								<dim>1</dim>
								<dim>512</dim>
							</port>
							<port id="1">
								<dim>1</dim>
								<dim>256</dim>
							</port>
							<port id="2">
								<dim>1</dim>
								<dim>256</dim>
							</port>
							<port id="3">
								<dim>1024</dim>
								<dim>512</dim>
							</port>
							<port id="4">
								<dim>1024</dim>
								<dim>256</dim>
							</port>
							<port id="5">
								<dim>1024</dim>
							</port>
						</input>
						<output>
							<port id="6" precision="FP16">
								<dim>1</dim>
								<dim>256</dim>
							</port>
							<port id="7" precision="FP16">
								<dim>1</dim>
								<dim>256</dim>
							</port>
						</output>
					</layer>
					<layer id="9" name="shadow/LSTMLayers/encoder/stack_bidirectional_rnn/cell_0/bidirectional_rnn/fw/fw/while/lstm_cell/concat/LSTMCell/Output_1/Data_/sink_port_0" type="Result" version="opset1">
						<input>
							<port id="0">
								<dim>1</dim>
								<dim>256</dim>
							</port>
						</input>
					</layer>
					<layer id="10" name="shadow/LSTMLayers/encoder/stack_bidirectional_rnn/cell_0/bidirectional_rnn/fw/fw/while/lstm_cell/concat/LSTMCell/Output_0/Data_/sink_port_0" type="Result" version="opset1">
						<input>
							<port id="0">
								<dim>1</dim>
								<dim>256</dim>
							</port>
						</input>
					</layer>
					<layer id="11" name="28_const25_const" type="Const" version="opset1">
						<data element_type="i64" offset="5560080" shape="1" size="8"/>
						<output>
							<port id="1" precision="I64">
								<dim>1</dim>
							</port>
						</output>
					</layer>
					<layer id="12" name="shadow/LSTMLayers/encoder/stack_bidirectional_rnn/cell_0/bidirectional_rnn/fw/fw/while/lstm_cell/concat/LSTMCell/Output_0/Data_/OutputUnsqueeze" type="Unsqueeze" version="opset1">
						<input>
							<port id="0">
								<dim>1</dim>
								<dim>256</dim>
							</port>
							<port id="1">
								<dim>1</dim>
							</port>
						</input>
						<output>
							<port id="2" precision="FP16">
								<dim>1</dim>
								<dim>1</dim>
								<dim>256</dim>
							</port>
						</output>
					</layer>
					<layer id="13" name="30/sink_port_0" type="Result" version="opset1">
						<input>
							<port id="0">
								<dim>1</dim>
								<dim>1</dim>
								<dim>256</dim>
							</port>
						</input>
					</layer>
				</layers>
				<edges>
					<edge from-layer="0" from-port="0" to-layer="2" to-port="0"/>
					<edge from-layer="1" from-port="1" to-layer="2" to-port="1"/>
					<edge from-layer="2" from-port="2" to-layer="8" to-port="0"/>
					<edge from-layer="3" from-port="0" to-layer="8" to-port="1"/>
					<edge from-layer="4" from-port="0" to-layer="8" to-port="2"/>
					<edge from-layer="5" from-port="1" to-layer="8" to-port="3"/>
					<edge from-layer="6" from-port="1" to-layer="8" to-port="4"/>
					<edge from-layer="7" from-port="1" to-layer="8" to-port="5"/>
					<edge from-layer="8" from-port="7" to-layer="9" to-port="0"/>
					<edge from-layer="8" from-port="6" to-layer="10" to-port="0"/>
					<edge from-layer="8" from-port="6" to-layer="12" to-port="0"/>
					<edge from-layer="11" from-port="1" to-layer="12" to-port="1"/>
					<edge from-layer="12" from-port="2" to-layer="13" to-port="0"/>
				</edges>
			</body>
		</layer>
		<layer id="128" name="shadow/LSTMLayers/encoder/stack_bidirectional_rnn/cell_0/bidirectional_rnn/bw/bw/while/Enter_4/Output_0/Data__const132_const" type="Const" version="opset1">
			<data element_type="f16" offset="5560088" shape="1,256" size="512"/>
			<output>
				<port id="1" precision="FP16">
					<dim>1</dim>
					<dim>256</dim>
				</port>
			</output>
		</layer>
		<layer id="129" name="shadow/LSTMLayers/encoder/stack_bidirectional_rnn/cell_0/bidirectional_rnn/bw/bw/while/Enter_3/Output_0/Data__const133_const" type="Const" version="opset1">
			<data element_type="f16" offset="5560088" shape="1,256" size="512"/>
			<output>
				<port id="1" precision="FP16">
					<dim>1</dim>
					<dim>256</dim>
				</port>
			</output>
		</layer>
		<layer id="130" name="shadow/LSTMLayers/encoder/stack_bidirectional_rnn/cell_0/bidirectional_rnn/bw/bw/while/LoopCond/TensorIteratorCondition_/TensorIterator" type="TensorIterator" version="opset1">
			<input>
				<port id="0">
					<dim>1</dim>
					<dim>16</dim>
					<dim>512</dim>
				</port>
				<port id="1">
					<dim>1</dim>
					<dim>256</dim>
				</port>
				<port id="2">
					<dim>1</dim>
					<dim>256</dim>
				</port>
			</input>
			<output>
				<port id="3" precision="FP16">
					<dim>1</dim>
					<dim>16</dim>
					<dim>256</dim>
				</port>
			</output>
			<port_map>
				<input axis="1" end="0" external_port_id="0" internal_layer_id="0" start="-1" stride="-1"/>
				<input external_port_id="2" internal_layer_id="4"/>
				<input external_port_id="1" internal_layer_id="3"/>
				<output axis="1" end="0" external_port_id="3" internal_layer_id="13" start="-1" stride="-1"/>
			</port_map>
			<back_edges>
				<edge from-layer="9" to-layer="4"/>
				<edge from-layer="10" to-layer="3"/>
			</back_edges>
			<body>
				<layers>
					<layer id="0" name="32" type="Parameter" version="opset1">
						<data element_type="f16" shape="1,1,512"/>
						<output>
							<port id="0" precision="FP16">
								<dim>1</dim>
								<dim>1</dim>
								<dim>512</dim>
							</port>
						</output>
					</layer>
					<layer id="1" name="25_const16_const" type="Const" version="opset1">
						<data element_type="i64" offset="5560080" shape="1" size="8"/>
						<output>
							<port id="1" precision="I64">
								<dim>1</dim>
							</port>
						</output>
					</layer>
					<layer id="2" name="shadow/LSTMLayers/encoder/stack_bidirectional_rnn/cell_0/bidirectional_rnn/bw/bw/while/TensorArrayReadV3/Output_0/Data_/InputSqueeze" type="Squeeze" version="opset1">
						<input>
							<port id="0">
								<dim>1</dim>
								<dim>1</dim>
								<dim>512</dim>
							</port>
							<port id="1">
								<dim>1</dim>
							</port>
						</input>
						<output>
							<port id="2" precision="FP16">
								<dim>1</dim>
								<dim>512</dim>
							</port>
						</output>
					</layer>
					<layer id="3" name="34" type="Parameter" version="opset1">
						<data element_type="f16" shape="1,256"/>
						<output>
							<port id="0" precision="FP16">
								<dim>1</dim>
								<dim>256</dim>
							</port>
						</output>
					</layer>
					<layer id="4" name="36" type="Parameter" version="opset1">
						<data element_type="f16" shape="1,256"/>
						<output>
							<port id="0" precision="FP16">
								<dim>1</dim>
								<dim>256</dim>
							</port>
						</output>
					</layer>
					<layer id="5" name="shadow/LSTMLayers/encoder/stack_bidirectional_rnn/cell_0/bidirectional_rnn/bw/bw/while/lstm_cell/concat/LSTMCell/Split274_const20_const" type="Const" version="opset1">
						<data element_type="f16" offset="7142318" shape="1024,512" size="1048576"/>
						<output>
							<port id="1" precision="FP16">
								<dim>1024</dim>
								<dim>512</dim>
							</port>
						</output>
					</layer>
					<layer id="6" name="shadow/LSTMLayers/encoder/stack_bidirectional_rnn/cell_0/bidirectional_rnn/bw/bw/while/lstm_cell/concat/LSTMCell/Split275_const21_const" type="Const" version="opset1">
						<data element_type="f16" offset="8190894" shape="1024,256" size="524288"/>
						<output>
							<port id="1" precision="FP16">
								<dim>1024</dim>
								<dim>256</dim>
							</port>
						</output>
					</layer>
					<layer id="7" name="shadow/LSTMLayers/encoder/stack_bidirectional_rnn/cell_0/bidirectional_rnn/bw/bw/while/lstm_cell/BiasAdd/Enter/Output_0/Data__const22_const" type="Const" version="opset1">
						<data element_type="f16" offset="8715182" shape="1024" size="2048"/>
						<output>
							<port id="1" precision="FP16">
								<dim>1024</dim>
							</port>
						</output>
					</layer>
					<layer id="8" name="shadow/LSTMLayers/encoder/stack_bidirectional_rnn/cell_0/bidirectional_rnn/bw/bw/while/lstm_cell/concat/LSTMCell" type="LSTMCell" version="opset1">
						<data hidden_size="256"/>
						<input>
							<port id="0">
								<dim>1</dim>
								<dim>512</dim>
							</port>
							<port id="1">
								<dim>1</dim>
								<dim>256</dim>
							</port>
							<port id="2">
								<dim>1</dim>
								<dim>256</dim>
							</port>
							<port id="3">
								<dim>1024</dim>
								<dim>512</dim>
							</port>
							<port id="4">
								<dim>1024</dim>
								<dim>256</dim>
							</port>
							<port id="5">
								<dim>1024</dim>
							</port>
						</input>
						<output>
							<port id="6" precision="FP16">
								<dim>1</dim>
								<dim>256</dim>
							</port>
							<port id="7" precision="FP16">
								<dim>1</dim>
								<dim>256</dim>
							</port>
						</output>
					</layer>
					<layer id="9" name="shadow/LSTMLayers/encoder/stack_bidirectional_rnn/cell_0/bidirectional_rnn/bw/bw/while/lstm_cell/concat/LSTMCell/Output_1/Data_/sink_port_0" type="Result" version="opset1">
						<input>
							<port id="0">
								<dim>1</dim>
								<dim>256</dim>
							</port>
						</input>
					</layer>
					<layer id="10" name="shadow/LSTMLayers/encoder/stack_bidirectional_rnn/cell_0/bidirectional_rnn/bw/bw/while/lstm_cell/concat/LSTMCell/Output_0/Data_/sink_port_0" type="Result" version="opset1">
						<input>
							<port id="0">
								<dim>1</dim>
								<dim>256</dim>
							</port>
						</input>
					</layer>
					<layer id="11" name="28_const25_const" type="Const" version="opset1">
						<data element_type="i64" offset="5560080" shape="1" size="8"/>
						<output>
							<port id="1" precision="I64">
								<dim>1</dim>
							</port>
						</output>
					</layer>
					<layer id="12" name="shadow/LSTMLayers/encoder/stack_bidirectional_rnn/cell_0/bidirectional_rnn/bw/bw/while/lstm_cell/concat/LSTMCell/Output_0/Data_/OutputUnsqueeze" type="Unsqueeze" version="opset1">
						<input>
							<port id="0">
								<dim>1</dim>
								<dim>256</dim>
							</port>
							<port id="1">
								<dim>1</dim>
							</port>
						</input>
						<output>
							<port id="2" precision="FP16">
								<dim>1</dim>
								<dim>1</dim>
								<dim>256</dim>
							</port>
						</output>
					</layer>
					<layer id="13" name="30/sink_port_0" type="Result" version="opset1">
						<input>
							<port id="0">
								<dim>1</dim>
								<dim>1</dim>
								<dim>256</dim>
							</port>
						</input>
					</layer>
				</layers>
				<edges>
					<edge from-layer="0" from-port="0" to-layer="2" to-port="0"/>
					<edge from-layer="1" from-port="1" to-layer="2" to-port="1"/>
					<edge from-layer="2" from-port="2" to-layer="8" to-port="0"/>
					<edge from-layer="3" from-port="0" to-layer="8" to-port="1"/>
					<edge from-layer="4" from-port="0" to-layer="8" to-port="2"/>
					<edge from-layer="5" from-port="1" to-layer="8" to-port="3"/>
					<edge from-layer="6" from-port="1" to-layer="8" to-port="4"/>
					<edge from-layer="7" from-port="1" to-layer="8" to-port="5"/>
					<edge from-layer="8" from-port="7" to-layer="9" to-port="0"/>
					<edge from-layer="8" from-port="6" to-layer="10" to-port="0"/>
					<edge from-layer="8" from-port="6" to-layer="12" to-port="0"/>
					<edge from-layer="11" from-port="1" to-layer="12" to-port="1"/>
					<edge from-layer="12" from-port="2" to-layer="13" to-port="0"/>
				</edges>
			</body>
		</layer>
		<layer id="131" name="shadow/LSTMLayers/encoder/stack_bidirectional_rnn/cell_0/concat" type="Concat" version="opset1">
			<data axis="2"/>
			<input>
				<port id="0">
					<dim>1</dim>
					<dim>16</dim>
					<dim>256</dim>
				</port>
				<port id="1">
					<dim>1</dim>
					<dim>16</dim>
					<dim>256</dim>
				</port>
			</input>
			<output>
				<port id="2" precision="FP16">
					<dim>1</dim>
					<dim>16</dim>
					<dim>512</dim>
				</port>
			</output>
		</layer>
		<layer id="132" name="shadow/LSTMLayers/encoder/stack_bidirectional_rnn/cell_1/bidirectional_rnn/fw/fw/while/Enter_4/Output_0/Data__const136_const" type="Const" version="opset1">
			<data element_type="f16" offset="5560088" shape="1,256" size="512"/>
			<output>
				<port id="1" precision="FP16">
					<dim>1</dim>
					<dim>256</dim>
				</port>
			</output>
		</layer>
		<layer id="133" name="shadow/LSTMLayers/encoder/stack_bidirectional_rnn/cell_1/bidirectional_rnn/fw/fw/while/Enter_3/Output_0/Data__const137_const" type="Const" version="opset1">
			<data element_type="f16" offset="5560088" shape="1,256" size="512"/>
			<output>
				<port id="1" precision="FP16">
					<dim>1</dim>
					<dim>256</dim>
				</port>
			</output>
		</layer>
		<layer id="134" name="shadow/LSTMLayers/encoder/stack_bidirectional_rnn/cell_1/bidirectional_rnn/fw/fw/while/LoopCond/TensorIteratorCondition_/TensorIterator" type="TensorIterator" version="opset1">
			<input>
				<port id="0">
					<dim>1</dim>
					<dim>16</dim>
					<dim>512</dim>
				</port>
				<port id="1">
					<dim>1</dim>
					<dim>256</dim>
				</port>
				<port id="2">
					<dim>1</dim>
					<dim>256</dim>
				</port>
			</input>
			<output>
				<port id="3" precision="FP16">
					<dim>1</dim>
					<dim>16</dim>
					<dim>256</dim>
				</port>
			</output>
			<port_map>
				<input axis="1" external_port_id="0" internal_layer_id="0" start="0"/>
				<input external_port_id="2" internal_layer_id="4"/>
				<input external_port_id="1" internal_layer_id="3"/>
				<output axis="1" external_port_id="3" internal_layer_id="13"/>
			</port_map>
			<back_edges>
				<edge from-layer="9" to-layer="4"/>
				<edge from-layer="10" to-layer="3"/>
			</back_edges>
			<body>
				<layers>
					<layer id="0" name="32" type="Parameter" version="opset1">
						<data element_type="f16" shape="1,1,512"/>
						<output>
							<port id="0" precision="FP16">
								<dim>1</dim>
								<dim>1</dim>
								<dim>512</dim>
							</port>
						</output>
					</layer>
					<layer id="1" name="25_const16_const" type="Const" version="opset1">
						<data element_type="i64" offset="5560080" shape="1" size="8"/>
						<output>
							<port id="1" precision="I64">
								<dim>1</dim>
							</port>
						</output>
					</layer>
					<layer id="2" name="shadow/LSTMLayers/encoder/stack_bidirectional_rnn/cell_1/bidirectional_rnn/fw/fw/while/TensorArrayReadV3/Output_0/Data_/InputSqueeze" type="Squeeze" version="opset1">
						<input>
							<port id="0">
								<dim>1</dim>
								<dim>1</dim>
								<dim>512</dim>
							</port>
							<port id="1">
								<dim>1</dim>
							</port>
						</input>
						<output>
							<port id="2" precision="FP16">
								<dim>1</dim>
								<dim>512</dim>
							</port>
						</output>
					</layer>
					<layer id="3" name="34" type="Parameter" version="opset1">
						<data element_type="f16" shape="1,256"/>
						<output>
							<port id="0" precision="FP16">
								<dim>1</dim>
								<dim>256</dim>
							</port>
						</output>
					</layer>
					<layer id="4" name="36" type="Parameter" version="opset1">
						<data element_type="f16" shape="1,256"/>
						<output>
							<port id="0" precision="FP16">
								<dim>1</dim>
								<dim>256</dim>
							</port>
						</output>
					</layer>
					<layer id="5" name="shadow/LSTMLayers/encoder/stack_bidirectional_rnn/cell_1/bidirectional_rnn/fw/fw/while/lstm_cell/concat/LSTMCell/Split274_const20_const" type="Const" version="opset1">
						<data element_type="f16" offset="8717230" shape="1024,512" size="1048576"/>
						<output>
							<port id="1" precision="FP16">
								<dim>1024</dim>
								<dim>512</dim>
							</port>
						</output>
					</layer>
					<layer id="6" name="shadow/LSTMLayers/encoder/stack_bidirectional_rnn/cell_1/bidirectional_rnn/fw/fw/while/lstm_cell/concat/LSTMCell/Split275_const21_const" type="Const" version="opset1">
						<data element_type="f16" offset="9765806" shape="1024,256" size="524288"/>
						<output>
							<port id="1" precision="FP16">
								<dim>1024</dim>
								<dim>256</dim>
							</port>
						</output>
					</layer>
					<layer id="7" name="shadow/LSTMLayers/encoder/stack_bidirectional_rnn/cell_1/bidirectional_rnn/fw/fw/while/lstm_cell/BiasAdd/Enter/Output_0/Data__const22_const" type="Const" version="opset1">
						<data element_type="f16" offset="10290094" shape="1024" size="2048"/>
						<output>
							<port id="1" precision="FP16">
								<dim>1024</dim>
							</port>
						</output>
					</layer>
					<layer id="8" name="shadow/LSTMLayers/encoder/stack_bidirectional_rnn/cell_1/bidirectional_rnn/fw/fw/while/lstm_cell/concat/LSTMCell" type="LSTMCell" version="opset1">
						<data hidden_size="256"/>
						<input>
							<port id="0">
								<dim>1</dim>
								<dim>512</dim>
							</port>
							<port id="1">
								<dim>1</dim>
								<dim>256</dim>
							</port>
							<port id="2">
								<dim>1</dim>
								<dim>256</dim>
							</port>
							<port id="3">
								<dim>1024</dim>
								<dim>512</dim>
							</port>
							<port id="4">
								<dim>1024</dim>
								<dim>256</dim>
							</port>
							<port id="5">
								<dim>1024</dim>
							</port>
						</input>
						<output>
							<port id="6" precision="FP16">
								<dim>1</dim>
								<dim>256</dim>
							</port>
							<port id="7" precision="FP16">
								<dim>1</dim>
								<dim>256</dim>
							</port>
						</output>
					</layer>
					<layer id="9" name="shadow/LSTMLayers/encoder/stack_bidirectional_rnn/cell_1/bidirectional_rnn/fw/fw/while/lstm_cell/concat/LSTMCell/Output_1/Data_/sink_port_0" type="Result" version="opset1">
						<input>
							<port id="0">
								<dim>1</dim>
								<dim>256</dim>
							</port>
						</input>
					</layer>
					<layer id="10" name="shadow/LSTMLayers/encoder/stack_bidirectional_rnn/cell_1/bidirectional_rnn/fw/fw/while/lstm_cell/concat/LSTMCell/Output_0/Data_/sink_port_0" type="Result" version="opset1">
						<input>
							<port id="0">
								<dim>1</dim>
								<dim>256</dim>
							</port>
						</input>
					</layer>
					<layer id="11" name="28_const25_const" type="Const" version="opset1">
						<data element_type="i64" offset="5560080" shape="1" size="8"/>
						<output>
							<port id="1" precision="I64">
								<dim>1</dim>
							</port>
						</output>
					</layer>
					<layer id="12" name="shadow/LSTMLayers/encoder/stack_bidirectional_rnn/cell_1/bidirectional_rnn/fw/fw/while/lstm_cell/concat/LSTMCell/Output_0/Data_/OutputUnsqueeze" type="Unsqueeze" version="opset1">
						<input>
							<port id="0">
								<dim>1</dim>
								<dim>256</dim>
							</port>
							<port id="1">
								<dim>1</dim>
							</port>
						</input>
						<output>
							<port id="2" precision="FP16">
								<dim>1</dim>
								<dim>1</dim>
								<dim>256</dim>
							</port>
						</output>
					</layer>
					<layer id="13" name="30/sink_port_0" type="Result" version="opset1">
						<input>
							<port id="0">
								<dim>1</dim>
								<dim>1</dim>
								<dim>256</dim>
							</port>
						</input>
					</layer>
				</layers>
				<edges>
					<edge from-layer="0" from-port="0" to-layer="2" to-port="0"/>
					<edge from-layer="1" from-port="1" to-layer="2" to-port="1"/>
					<edge from-layer="2" from-port="2" to-layer="8" to-port="0"/>
					<edge from-layer="3" from-port="0" to-layer="8" to-port="1"/>
					<edge from-layer="4" from-port="0" to-layer="8" to-port="2"/>
					<edge from-layer="5" from-port="1" to-layer="8" to-port="3"/>
					<edge from-layer="6" from-port="1" to-layer="8" to-port="4"/>
					<edge from-layer="7" from-port="1" to-layer="8" to-port="5"/>
					<edge from-layer="8" from-port="7" to-layer="9" to-port="0"/>
					<edge from-layer="8" from-port="6" to-layer="10" to-port="0"/>
					<edge from-layer="8" from-port="6" to-layer="12" to-port="0"/>
					<edge from-layer="11" from-port="1" to-layer="12" to-port="1"/>
					<edge from-layer="12" from-port="2" to-layer="13" to-port="0"/>
				</edges>
			</body>
		</layer>
		<layer id="135" name="shadow/LSTMLayers/encoder/stack_bidirectional_rnn/cell_1/bidirectional_rnn/bw/bw/while/Enter_4/Output_0/Data__const139_const" type="Const" version="opset1">
			<data element_type="f16" offset="5560088" shape="1,256" size="512"/>
			<output>
				<port id="1" precision="FP16">
					<dim>1</dim>
					<dim>256</dim>
				</port>
			</output>
		</layer>
		<layer id="136" name="shadow/LSTMLayers/encoder/stack_bidirectional_rnn/cell_1/bidirectional_rnn/bw/bw/while/Enter_3/Output_0/Data__const140_const" type="Const" version="opset1">
			<data element_type="f16" offset="5560088" shape="1,256" size="512"/>
			<output>
				<port id="1" precision="FP16">
					<dim>1</dim>
					<dim>256</dim>
				</port>
			</output>
		</layer>
		<layer id="137" name="shadow/LSTMLayers/encoder/stack_bidirectional_rnn/cell_1/bidirectional_rnn/bw/bw/while/LoopCond/TensorIteratorCondition_/TensorIterator" type="TensorIterator" version="opset1">
			<input>
				<port id="0">
					<dim>1</dim>
					<dim>16</dim>
					<dim>512</dim>
				</port>
				<port id="1">
					<dim>1</dim>
					<dim>256</dim>
				</port>
				<port id="2">
					<dim>1</dim>
					<dim>256</dim>
				</port>
			</input>
			<output>
				<port id="3" precision="FP16">
					<dim>1</dim>
					<dim>16</dim>
					<dim>256</dim>
				</port>
			</output>
			<port_map>
				<input axis="1" end="0" external_port_id="0" internal_layer_id="0" start="-1" stride="-1"/>
				<input external_port_id="2" internal_layer_id="4"/>
				<input external_port_id="1" internal_layer_id="3"/>
				<output axis="1" end="0" external_port_id="3" internal_layer_id="13" start="-1" stride="-1"/>
			</port_map>
			<back_edges>
				<edge from-layer="9" to-layer="4"/>
				<edge from-layer="10" to-layer="3"/>
			</back_edges>
			<body>
				<layers>
					<layer id="0" name="32" type="Parameter" version="opset1">
						<data element_type="f16" shape="1,1,512"/>
						<output>
							<port id="0" precision="FP16">
								<dim>1</dim>
								<dim>1</dim>
								<dim>512</dim>
							</port>
						</output>
					</layer>
					<layer id="1" name="25_const16_const" type="Const" version="opset1">
						<data element_type="i64" offset="5560080" shape="1" size="8"/>
						<output>
							<port id="1" precision="I64">
								<dim>1</dim>
							</port>
						</output>
					</layer>
					<layer id="2" name="shadow/LSTMLayers/encoder/stack_bidirectional_rnn/cell_1/bidirectional_rnn/bw/bw/while/TensorArrayReadV3/Output_0/Data_/InputSqueeze" type="Squeeze" version="opset1">
						<input>
							<port id="0">
								<dim>1</dim>
								<dim>1</dim>
								<dim>512</dim>
							</port>
							<port id="1">
								<dim>1</dim>
							</port>
						</input>
						<output>
							<port id="2" precision="FP16">
								<dim>1</dim>
								<dim>512</dim>
							</port>
						</output>
					</layer>
					<layer id="3" name="34" type="Parameter" version="opset1">
						<data element_type="f16" shape="1,256"/>
						<output>
							<port id="0" precision="FP16">
								<dim>1</dim>
								<dim>256</dim>
							</port>
						</output>
					</layer>
					<layer id="4" name="36" type="Parameter" version="opset1">
						<data element_type="f16" shape="1,256"/>
						<output>
							<port id="0" precision="FP16">
								<dim>1</dim>
								<dim>256</dim>
							</port>
						</output>
					</layer>
					<layer id="5" name="shadow/LSTMLayers/encoder/stack_bidirectional_rnn/cell_1/bidirectional_rnn/bw/bw/while/lstm_cell/concat/LSTMCell/Split274_const20_const" type="Const" version="opset1">
						<data element_type="f16" offset="10292142" shape="1024,512" size="1048576"/>
						<output>
							<port id="1" precision="FP16">
								<dim>1024</dim>
								<dim>512</dim>
							</port>
						</output>
					</layer>
					<layer id="6" name="shadow/LSTMLayers/encoder/stack_bidirectional_rnn/cell_1/bidirectional_rnn/bw/bw/while/lstm_cell/concat/LSTMCell/Split275_const21_const" type="Const" version="opset1">
						<data element_type="f16" offset="11340718" shape="1024,256" size="524288"/>
						<output>
							<port id="1" precision="FP16">
								<dim>1024</dim>
								<dim>256</dim>
							</port>
						</output>
					</layer>
					<layer id="7" name="shadow/LSTMLayers/encoder/stack_bidirectional_rnn/cell_1/bidirectional_rnn/bw/bw/while/lstm_cell/BiasAdd/Enter/Output_0/Data__const22_const" type="Const" version="opset1">
						<data element_type="f16" offset="11865006" shape="1024" size="2048"/>
						<output>
							<port id="1" precision="FP16">
								<dim>1024</dim>
							</port>
						</output>
					</layer>
					<layer id="8" name="shadow/LSTMLayers/encoder/stack_bidirectional_rnn/cell_1/bidirectional_rnn/bw/bw/while/lstm_cell/concat/LSTMCell" type="LSTMCell" version="opset1">
						<data hidden_size="256"/>
						<input>
							<port id="0">
								<dim>1</dim>
								<dim>512</dim>
							</port>
							<port id="1">
								<dim>1</dim>
								<dim>256</dim>
							</port>
							<port id="2">
								<dim>1</dim>
								<dim>256</dim>
							</port>
							<port id="3">
								<dim>1024</dim>
								<dim>512</dim>
							</port>
							<port id="4">
								<dim>1024</dim>
								<dim>256</dim>
							</port>
							<port id="5">
								<dim>1024</dim>
							</port>
						</input>
						<output>
							<port id="6" precision="FP16">
								<dim>1</dim>
								<dim>256</dim>
							</port>
							<port id="7" precision="FP16">
								<dim>1</dim>
								<dim>256</dim>
							</port>
						</output>
					</layer>
					<layer id="9" name="shadow/LSTMLayers/encoder/stack_bidirectional_rnn/cell_1/bidirectional_rnn/bw/bw/while/lstm_cell/concat/LSTMCell/Output_1/Data_/sink_port_0" type="Result" version="opset1">
						<input>
							<port id="0">
								<dim>1</dim>
								<dim>256</dim>
							</port>
						</input>
					</layer>
					<layer id="10" name="shadow/LSTMLayers/encoder/stack_bidirectional_rnn/cell_1/bidirectional_rnn/bw/bw/while/lstm_cell/concat/LSTMCell/Output_0/Data_/sink_port_0" type="Result" version="opset1">
						<input>
							<port id="0">
								<dim>1</dim>
								<dim>256</dim>
							</port>
						</input>
					</layer>
					<layer id="11" name="28_const25_const" type="Const" version="opset1">
						<data element_type="i64" offset="5560080" shape="1" size="8"/>
						<output>
							<port id="1" precision="I64">
								<dim>1</dim>
							</port>
						</output>
					</layer>
					<layer id="12" name="shadow/LSTMLayers/encoder/stack_bidirectional_rnn/cell_1/bidirectional_rnn/bw/bw/while/lstm_cell/concat/LSTMCell/Output_0/Data_/OutputUnsqueeze" type="Unsqueeze" version="opset1">
						<input>
							<port id="0">
								<dim>1</dim>
								<dim>256</dim>
							</port>
							<port id="1">
								<dim>1</dim>
							</port>
						</input>
						<output>
							<port id="2" precision="FP16">
								<dim>1</dim>
								<dim>1</dim>
								<dim>256</dim>
							</port>
						</output>
					</layer>
					<layer id="13" name="30/sink_port_0" type="Result" version="opset1">
						<input>
							<port id="0">
								<dim>1</dim>
								<dim>1</dim>
								<dim>256</dim>
							</port>
						</input>
					</layer>
				</layers>
				<edges>
					<edge from-layer="0" from-port="0" to-layer="2" to-port="0"/>
					<edge from-layer="1" from-port="1" to-layer="2" to-port="1"/>
					<edge from-layer="2" from-port="2" to-layer="8" to-port="0"/>
					<edge from-layer="3" from-port="0" to-layer="8" to-port="1"/>
					<edge from-layer="4" from-port="0" to-layer="8" to-port="2"/>
					<edge from-layer="5" from-port="1" to-layer="8" to-port="3"/>
					<edge from-layer="6" from-port="1" to-layer="8" to-port="4"/>
					<edge from-layer="7" from-port="1" to-layer="8" to-port="5"/>
					<edge from-layer="8" from-port="7" to-layer="9" to-port="0"/>
					<edge from-layer="8" from-port="6" to-layer="10" to-port="0"/>
					<edge from-layer="8" from-port="6" to-layer="12" to-port="0"/>
					<edge from-layer="11" from-port="1" to-layer="12" to-port="1"/>
					<edge from-layer="12" from-port="2" to-layer="13" to-port="0"/>
				</edges>
			</body>
		</layer>
		<layer id="138" name="shadow/LSTMLayers/encoder/stack_bidirectional_rnn/cell_1/concat" type="Concat" version="opset1">
			<data axis="2"/>
			<input>
				<port id="0">
					<dim>1</dim>
					<dim>16</dim>
					<dim>256</dim>
				</port>
				<port id="1">
					<dim>1</dim>
					<dim>16</dim>
					<dim>256</dim>
				</port>
			</input>
			<output>
				<port id="2" precision="FP16">
					<dim>1</dim>
					<dim>16</dim>
					<dim>512</dim>
				</port>
			</output>
		</layer>
		<layer id="139" name="shadow/LSTMLayers/decoder/stack_bidirectional_rnn/cell_0/bidirectional_rnn/fw/fw/while/Enter_4/Output_0/Data__const143_const" type="Const" version="opset1">
			<data element_type="f16" offset="5560088" shape="1,256" size="512"/>
			<output>
				<port id="1" precision="FP16">
					<dim>1</dim>
					<dim>256</dim>
				</port>
			</output>
		</layer>
		<layer id="140" name="shadow/LSTMLayers/decoder/stack_bidirectional_rnn/cell_0/bidirectional_rnn/fw/fw/while/Enter_3/Output_0/Data__const144_const" type="Const" version="opset1">
			<data element_type="f16" offset="5560088" shape="1,256" size="512"/>
			<output>
				<port id="1" precision="FP16">
					<dim>1</dim>
					<dim>256</dim>
				</port>
			</output>
		</layer>
		<layer id="141" name="shadow/LSTMLayers/decoder/stack_bidirectional_rnn/cell_0/bidirectional_rnn/fw/fw/while/LoopCond/TensorIteratorCondition_/TensorIterator" type="TensorIterator" version="opset1">
			<input>
				<port id="0">
					<dim>1</dim>
					<dim>16</dim>
					<dim>512</dim>
				</port>
				<port id="1">
					<dim>1</dim>
					<dim>256</dim>
				</port>
				<port id="2">
					<dim>1</dim>
					<dim>256</dim>
				</port>
			</input>
			<output>
				<port id="3" precision="FP16">
					<dim>1</dim>
					<dim>16</dim>
					<dim>256</dim>
				</port>
			</output>
			<port_map>
				<input axis="1" external_port_id="0" internal_layer_id="0" start="0"/>
				<input external_port_id="2" internal_layer_id="4"/>
				<input external_port_id="1" internal_layer_id="3"/>
				<output axis="1" external_port_id="3" internal_layer_id="13"/>
			</port_map>
			<back_edges>
				<edge from-layer="9" to-layer="4"/>
				<edge from-layer="10" to-layer="3"/>
			</back_edges>
			<body>
				<layers>
					<layer id="0" name="32" type="Parameter" version="opset1">
						<data element_type="f16" shape="1,1,512"/>
						<output>
							<port id="0" precision="FP16">
								<dim>1</dim>
								<dim>1</dim>
								<dim>512</dim>
							</port>
						</output>
					</layer>
					<layer id="1" name="25_const16_const" type="Const" version="opset1">
						<data element_type="i64" offset="5560080" shape="1" size="8"/>
						<output>
							<port id="1" precision="I64">
								<dim>1</dim>
							</port>
						</output>
					</layer>
					<layer id="2" name="shadow/LSTMLayers/decoder/stack_bidirectional_rnn/cell_0/bidirectional_rnn/fw/fw/while/TensorArrayReadV3/Output_0/Data_/InputSqueeze" type="Squeeze" version="opset1">
						<input>
							<port id="0">
								<dim>1</dim>
								<dim>1</dim>
								<dim>512</dim>
							</port>
							<port id="1">
								<dim>1</dim>
							</port>
						</input>
						<output>
							<port id="2" precision="FP16">
								<dim>1</dim>
								<dim>512</dim>
							</port>
						</output>
					</layer>
					<layer id="3" name="34" type="Parameter" version="opset1">
						<data element_type="f16" shape="1,256"/>
						<output>
							<port id="0" precision="FP16">
								<dim>1</dim>
								<dim>256</dim>
							</port>
						</output>
					</layer>
					<layer id="4" name="36" type="Parameter" version="opset1">
						<data element_type="f16" shape="1,256"/>
						<output>
							<port id="0" precision="FP16">
								<dim>1</dim>
								<dim>256</dim>
							</port>
						</output>
					</layer>
					<layer id="5" name="shadow/LSTMLayers/decoder/stack_bidirectional_rnn/cell_0/bidirectional_rnn/fw/fw/while/lstm_cell/concat/LSTMCell/Split274_const20_const" type="Const" version="opset1">
						<data element_type="f16" offset="11867054" shape="1024,512" size="1048576"/>
						<output>
							<port id="1" precision="FP16">
								<dim>1024</dim>
								<dim>512</dim>
							</port>
						</output>
					</layer>
					<layer id="6" name="shadow/LSTMLayers/decoder/stack_bidirectional_rnn/cell_0/bidirectional_rnn/fw/fw/while/lstm_cell/concat/LSTMCell/Split275_const21_const" type="Const" version="opset1">
						<data element_type="f16" offset="12915630" shape="1024,256" size="524288"/>
						<output>
							<port id="1" precision="FP16">
								<dim>1024</dim>
								<dim>256</dim>
							</port>
						</output>
					</layer>
					<layer id="7" name="shadow/LSTMLayers/decoder/stack_bidirectional_rnn/cell_0/bidirectional_rnn/fw/fw/while/lstm_cell/BiasAdd/Enter/Output_0/Data__const22_const" type="Const" version="opset1">
						<data element_type="f16" offset="13439918" shape="1024" size="2048"/>
						<output>
							<port id="1" precision="FP16">
								<dim>1024</dim>
							</port>
						</output>
					</layer>
					<layer id="8" name="shadow/LSTMLayers/decoder/stack_bidirectional_rnn/cell_0/bidirectional_rnn/fw/fw/while/lstm_cell/concat/LSTMCell" type="LSTMCell" version="opset1">
						<data hidden_size="256"/>
						<input>
							<port id="0">
								<dim>1</dim>
								<dim>512</dim>
							</port>
							<port id="1">
								<dim>1</dim>
								<dim>256</dim>
							</port>
							<port id="2">
								<dim>1</dim>
								<dim>256</dim>
							</port>
							<port id="3">
								<dim>1024</dim>
								<dim>512</dim>
							</port>
							<port id="4">
								<dim>1024</dim>
								<dim>256</dim>
							</port>
							<port id="5">
								<dim>1024</dim>
							</port>
						</input>
						<output>
							<port id="6" precision="FP16">
								<dim>1</dim>
								<dim>256</dim>
							</port>
							<port id="7" precision="FP16">
								<dim>1</dim>
								<dim>256</dim>
							</port>
						</output>
					</layer>
					<layer id="9" name="shadow/LSTMLayers/decoder/stack_bidirectional_rnn/cell_0/bidirectional_rnn/fw/fw/while/lstm_cell/concat/LSTMCell/Output_1/Data_/sink_port_0" type="Result" version="opset1">
						<input>
							<port id="0">
								<dim>1</dim>
								<dim>256</dim>
							</port>
						</input>
					</layer>
					<layer id="10" name="shadow/LSTMLayers/decoder/stack_bidirectional_rnn/cell_0/bidirectional_rnn/fw/fw/while/lstm_cell/concat/LSTMCell/Output_0/Data_/sink_port_0" type="Result" version="opset1">
						<input>
							<port id="0">
								<dim>1</dim>
								<dim>256</dim>
							</port>
						</input>
					</layer>
					<layer id="11" name="28_const25_const" type="Const" version="opset1">
						<data element_type="i64" offset="5560080" shape="1" size="8"/>
						<output>
							<port id="1" precision="I64">
								<dim>1</dim>
							</port>
						</output>
					</layer>
					<layer id="12" name="shadow/LSTMLayers/decoder/stack_bidirectional_rnn/cell_0/bidirectional_rnn/fw/fw/while/lstm_cell/concat/LSTMCell/Output_0/Data_/OutputUnsqueeze" type="Unsqueeze" version="opset1">
						<input>
							<port id="0">
								<dim>1</dim>
								<dim>256</dim>
							</port>
							<port id="1">
								<dim>1</dim>
							</port>
						</input>
						<output>
							<port id="2" precision="FP16">
								<dim>1</dim>
								<dim>1</dim>
								<dim>256</dim>
							</port>
						</output>
					</layer>
					<layer id="13" name="30/sink_port_0" type="Result" version="opset1">
						<input>
							<port id="0">
								<dim>1</dim>
								<dim>1</dim>
								<dim>256</dim>
							</port>
						</input>
					</layer>
				</layers>
				<edges>
					<edge from-layer="0" from-port="0" to-layer="2" to-port="0"/>
					<edge from-layer="1" from-port="1" to-layer="2" to-port="1"/>
					<edge from-layer="2" from-port="2" to-layer="8" to-port="0"/>
					<edge from-layer="3" from-port="0" to-layer="8" to-port="1"/>
					<edge from-layer="4" from-port="0" to-layer="8" to-port="2"/>
					<edge from-layer="5" from-port="1" to-layer="8" to-port="3"/>
					<edge from-layer="6" from-port="1" to-layer="8" to-port="4"/>
					<edge from-layer="7" from-port="1" to-layer="8" to-port="5"/>
					<edge from-layer="8" from-port="7" to-layer="9" to-port="0"/>
					<edge from-layer="8" from-port="6" to-layer="10" to-port="0"/>
					<edge from-layer="8" from-port="6" to-layer="12" to-port="0"/>
					<edge from-layer="11" from-port="1" to-layer="12" to-port="1"/>
					<edge from-layer="12" from-port="2" to-layer="13" to-port="0"/>
				</edges>
			</body>
		</layer>
		<layer id="142" name="575579_const" type="Const" version="opset1">
			<data element_type="f16" offset="5560600" shape="" size="2"/>
			<output>
				<port id="1" precision="FP16"/>
			</output>
		</layer>
		<layer id="143" name="576580_const" type="Const" version="opset1">
			<data element_type="f16" offset="5560602" shape="" size="2"/>
			<output>
				<port id="1" precision="FP16"/>
			</output>
		</layer>
		<layer id="144" name="577581_const" type="Const" version="opset1">
			<data element_type="f16" offset="5560600" shape="" size="2"/>
			<output>
				<port id="1" precision="FP16"/>
			</output>
		</layer>
		<layer id="145" name="578582_const" type="Const" version="opset1">
			<data element_type="f16" offset="5560602" shape="" size="2"/>
			<output>
				<port id="1" precision="FP16"/>
			</output>
		</layer>
		<layer id="146" name="shadow/LSTMLayers/decoder/stack_bidirectional_rnn/cell_0/concat/fq_input_0" type="FakeQuantize" version="opset1">
			<data levels="256"/>
			<input>
				<port id="0">
					<dim>1</dim>
					<dim>16</dim>
					<dim>256</dim>
				</port>
				<port id="1"/>
				<port id="2"/>
				<port id="3"/>
				<port id="4"/>
			</input>
			<output>
				<port id="5" precision="FP16">
					<dim>1</dim>
					<dim>16</dim>
					<dim>256</dim>
				</port>
			</output>
		</layer>
		<layer id="147" name="shadow/LSTMLayers/decoder/stack_bidirectional_rnn/cell_0/bidirectional_rnn/bw/bw/while/Enter_4/Output_0/Data__const146_const" type="Const" version="opset1">
			<data element_type="f16" offset="5560088" shape="1,256" size="512"/>
			<output>
				<port id="1" precision="FP16">
					<dim>1</dim>
					<dim>256</dim>
				</port>
			</output>
		</layer>
		<layer id="148" name="shadow/LSTMLayers/decoder/stack_bidirectional_rnn/cell_0/bidirectional_rnn/bw/bw/while/Enter_3/Output_0/Data__const147_const" type="Const" version="opset1">
			<data element_type="f16" offset="5560088" shape="1,256" size="512"/>
			<output>
				<port id="1" precision="FP16">
					<dim>1</dim>
					<dim>256</dim>
				</port>
			</output>
		</layer>
		<layer id="149" name="shadow/LSTMLayers/decoder/stack_bidirectional_rnn/cell_0/bidirectional_rnn/bw/bw/while/LoopCond/TensorIteratorCondition_/TensorIterator" type="TensorIterator" version="opset1">
			<input>
				<port id="0">
					<dim>1</dim>
					<dim>16</dim>
					<dim>512</dim>
				</port>
				<port id="1">
					<dim>1</dim>
					<dim>256</dim>
				</port>
				<port id="2">
					<dim>1</dim>
					<dim>256</dim>
				</port>
			</input>
			<output>
				<port id="3" precision="FP16">
					<dim>1</dim>
					<dim>16</dim>
					<dim>256</dim>
				</port>
			</output>
			<port_map>
				<input axis="1" end="0" external_port_id="0" internal_layer_id="0" start="-1" stride="-1"/>
				<input external_port_id="2" internal_layer_id="4"/>
				<input external_port_id="1" internal_layer_id="3"/>
				<output axis="1" end="0" external_port_id="3" internal_layer_id="13" start="-1" stride="-1"/>
			</port_map>
			<back_edges>
				<edge from-layer="9" to-layer="4"/>
				<edge from-layer="10" to-layer="3"/>
			</back_edges>
			<body>
				<layers>
					<layer id="0" name="32" type="Parameter" version="opset1">
						<data element_type="f16" shape="1,1,512"/>
						<output>
							<port id="0" precision="FP16">
								<dim>1</dim>
								<dim>1</dim>
								<dim>512</dim>
							</port>
						</output>
					</layer>
					<layer id="1" name="25_const16_const" type="Const" version="opset1">
						<data element_type="i64" offset="5560080" shape="1" size="8"/>
						<output>
							<port id="1" precision="I64">
								<dim>1</dim>
							</port>
						</output>
					</layer>
					<layer id="2" name="shadow/LSTMLayers/decoder/stack_bidirectional_rnn/cell_0/bidirectional_rnn/bw/bw/while/TensorArrayReadV3/Output_0/Data_/InputSqueeze" type="Squeeze" version="opset1">
						<input>
							<port id="0">
								<dim>1</dim>
								<dim>1</dim>
								<dim>512</dim>
							</port>
							<port id="1">
								<dim>1</dim>
							</port>
						</input>
						<output>
							<port id="2" precision="FP16">
								<dim>1</dim>
								<dim>512</dim>
							</port>
						</output>
					</layer>
					<layer id="3" name="34" type="Parameter" version="opset1">
						<data element_type="f16" shape="1,256"/>
						<output>
							<port id="0" precision="FP16">
								<dim>1</dim>
								<dim>256</dim>
							</port>
						</output>
					</layer>
					<layer id="4" name="36" type="Parameter" version="opset1">
						<data element_type="f16" shape="1,256"/>
						<output>
							<port id="0" precision="FP16">
								<dim>1</dim>
								<dim>256</dim>
							</port>
						</output>
					</layer>
					<layer id="5" name="shadow/LSTMLayers/decoder/stack_bidirectional_rnn/cell_0/bidirectional_rnn/bw/bw/while/lstm_cell/concat/LSTMCell/Split274_const20_const" type="Const" version="opset1">
						<data element_type="f16" offset="13441966" shape="1024,512" size="1048576"/>
						<output>
							<port id="1" precision="FP16">
								<dim>1024</dim>
								<dim>512</dim>
							</port>
						</output>
					</layer>
					<layer id="6" name="shadow/LSTMLayers/decoder/stack_bidirectional_rnn/cell_0/bidirectional_rnn/bw/bw/while/lstm_cell/concat/LSTMCell/Split275_const21_const" type="Const" version="opset1">
						<data element_type="f16" offset="14490542" shape="1024,256" size="524288"/>
						<output>
							<port id="1" precision="FP16">
								<dim>1024</dim>
								<dim>256</dim>
							</port>
						</output>
					</layer>
					<layer id="7" name="shadow/LSTMLayers/decoder/stack_bidirectional_rnn/cell_0/bidirectional_rnn/bw/bw/while/lstm_cell/BiasAdd/Enter/Output_0/Data__const22_const" type="Const" version="opset1">
						<data element_type="f16" offset="15014830" shape="1024" size="2048"/>
						<output>
							<port id="1" precision="FP16">
								<dim>1024</dim>
							</port>
						</output>
					</layer>
					<layer id="8" name="shadow/LSTMLayers/decoder/stack_bidirectional_rnn/cell_0/bidirectional_rnn/bw/bw/while/lstm_cell/concat/LSTMCell" type="LSTMCell" version="opset1">
						<data hidden_size="256"/>
						<input>
							<port id="0">
								<dim>1</dim>
								<dim>512</dim>
							</port>
							<port id="1">
								<dim>1</dim>
								<dim>256</dim>
							</port>
							<port id="2">
								<dim>1</dim>
								<dim>256</dim>
							</port>
							<port id="3">
								<dim>1024</dim>
								<dim>512</dim>
							</port>
							<port id="4">
								<dim>1024</dim>
								<dim>256</dim>
							</port>
							<port id="5">
								<dim>1024</dim>
							</port>
						</input>
						<output>
							<port id="6" precision="FP16">
								<dim>1</dim>
								<dim>256</dim>
							</port>
							<port id="7" precision="FP16">
								<dim>1</dim>
								<dim>256</dim>
							</port>
						</output>
					</layer>
					<layer id="9" name="shadow/LSTMLayers/decoder/stack_bidirectional_rnn/cell_0/bidirectional_rnn/bw/bw/while/lstm_cell/concat/LSTMCell/Output_1/Data_/sink_port_0" type="Result" version="opset1">
						<input>
							<port id="0">
								<dim>1</dim>
								<dim>256</dim>
							</port>
						</input>
					</layer>
					<layer id="10" name="shadow/LSTMLayers/decoder/stack_bidirectional_rnn/cell_0/bidirectional_rnn/bw/bw/while/lstm_cell/concat/LSTMCell/Output_0/Data_/sink_port_0" type="Result" version="opset1">
						<input>
							<port id="0">
								<dim>1</dim>
								<dim>256</dim>
							</port>
						</input>
					</layer>
					<layer id="11" name="28_const25_const" type="Const" version="opset1">
						<data element_type="i64" offset="5560080" shape="1" size="8"/>
						<output>
							<port id="1" precision="I64">
								<dim>1</dim>
							</port>
						</output>
					</layer>
					<layer id="12" name="shadow/LSTMLayers/decoder/stack_bidirectional_rnn/cell_0/bidirectional_rnn/bw/bw/while/lstm_cell/concat/LSTMCell/Output_0/Data_/OutputUnsqueeze" type="Unsqueeze" version="opset1">
						<input>
							<port id="0">
								<dim>1</dim>
								<dim>256</dim>
							</port>
							<port id="1">
								<dim>1</dim>
							</port>
						</input>
						<output>
							<port id="2" precision="FP16">
								<dim>1</dim>
								<dim>1</dim>
								<dim>256</dim>
							</port>
						</output>
					</layer>
					<layer id="13" name="30/sink_port_0" type="Result" version="opset1">
						<input>
							<port id="0">
								<dim>1</dim>
								<dim>1</dim>
								<dim>256</dim>
							</port>
						</input>
					</layer>
				</layers>
				<edges>
					<edge from-layer="0" from-port="0" to-layer="2" to-port="0"/>
					<edge from-layer="1" from-port="1" to-layer="2" to-port="1"/>
					<edge from-layer="2" from-port="2" to-layer="8" to-port="0"/>
					<edge from-layer="3" from-port="0" to-layer="8" to-port="1"/>
					<edge from-layer="4" from-port="0" to-layer="8" to-port="2"/>
					<edge from-layer="5" from-port="1" to-layer="8" to-port="3"/>
					<edge from-layer="6" from-port="1" to-layer="8" to-port="4"/>
					<edge from-layer="7" from-port="1" to-layer="8" to-port="5"/>
					<edge from-layer="8" from-port="7" to-layer="9" to-port="0"/>
					<edge from-layer="8" from-port="6" to-layer="10" to-port="0"/>
					<edge from-layer="8" from-port="6" to-layer="12" to-port="0"/>
					<edge from-layer="11" from-port="1" to-layer="12" to-port="1"/>
					<edge from-layer="12" from-port="2" to-layer="13" to-port="0"/>
				</edges>
			</body>
		</layer>
		<layer id="150" name="585589_const" type="Const" version="opset1">
			<data element_type="f16" offset="5560604" shape="" size="2"/>
			<output>
				<port id="1" precision="FP16"/>
			</output>
		</layer>
		<layer id="151" name="586590_const" type="Const" version="opset1">
			<data element_type="f16" offset="5560606" shape="" size="2"/>
			<output>
				<port id="1" precision="FP16"/>
			</output>
		</layer>
		<layer id="152" name="587591_const" type="Const" version="opset1">
			<data element_type="f16" offset="5560604" shape="" size="2"/>
			<output>
				<port id="1" precision="FP16"/>
			</output>
		</layer>
		<layer id="153" name="588592_const" type="Const" version="opset1">
			<data element_type="f16" offset="5560606" shape="" size="2"/>
			<output>
				<port id="1" precision="FP16"/>
			</output>
		</layer>
		<layer id="154" name="shadow/LSTMLayers/decoder/stack_bidirectional_rnn/cell_0/concat/fq_input_1" type="FakeQuantize" version="opset1">
			<data levels="256"/>
			<input>
				<port id="0">
					<dim>1</dim>
					<dim>16</dim>
					<dim>256</dim>
				</port>
				<port id="1"/>
				<port id="2"/>
				<port id="3"/>
				<port id="4"/>
			</input>
			<output>
				<port id="5" precision="FP16">
					<dim>1</dim>
					<dim>16</dim>
					<dim>256</dim>
				</port>
			</output>
		</layer>
		<layer id="155" name="shadow/LSTMLayers/decoder/stack_bidirectional_rnn/cell_0/concat" type="Concat" version="opset1">
			<data axis="2"/>
			<input>
				<port id="0">
					<dim>1</dim>
					<dim>16</dim>
					<dim>256</dim>
				</port>
				<port id="1">
					<dim>1</dim>
					<dim>16</dim>
					<dim>256</dim>
				</port>
			</input>
			<output>
				<port id="2" precision="FP16">
					<dim>1</dim>
					<dim>16</dim>
					<dim>512</dim>
				</port>
			</output>
		</layer>
		<layer id="156" name="shadow/LSTMLayers/Reshape/Cast_15552_const150_const" type="Const" version="opset1">
			<data element_type="i64" offset="5560608" shape="2" size="16"/>
			<output>
				<port id="1" precision="I64">
					<dim>2</dim>
				</port>
			</output>
		</layer>
		<layer id="157" name="shadow/LSTMLayers/Reshape" type="Reshape" version="opset1">
			<data special_zero="False"/>
			<input>
				<port id="0">
					<dim>1</dim>
					<dim>16</dim>
					<dim>512</dim>
				</port>
				<port id="1">
					<dim>2</dim>
				</port>
			</input>
			<output>
				<port id="2" precision="FP16">
					<dim>16</dim>
					<dim>512</dim>
				</port>
			</output>
		</layer>
		<layer id="158" name="shadow/LSTMLayers/fully_connected/MatMul/fq_weights_1/Convert_to_float/Cast_0972_const" type="Const" version="opset1">
			<data element_type="u8" offset="5560624" shape="13,512" size="6656"/>
			<output>
				<port id="1" precision="U8">
					<dim>13</dim>
					<dim>512</dim>
				</port>
			</output>
		</layer>
		<layer id="159" name="shadow/LSTMLayers/fully_connected/MatMul/fq_weights_1/Convert_to_float" type="Convert" version="opset1">
			<data destination_type="f16"/>
			<input>
				<port id="0">
					<dim>13</dim>
					<dim>512</dim>
				</port>
			</input>
			<output>
				<port id="1" precision="FP16">
					<dim>13</dim>
					<dim>512</dim>
				</port>
			</output>
		</layer>
		<layer id="160" name="shadow/LSTMLayers/fully_connected/MatMul/fq_weights_1/Copy/out_low819_const" type="Const" version="opset1">
			<data element_type="f16" offset="5556974" shape="1" size="2"/>
			<output>
				<port id="1" precision="FP16">
					<dim>1</dim>
				</port>
			</output>
		</layer>
		<layer id="161" name="shadow/LSTMLayers/fully_connected/MatMul/fq_weights_1/Copy/out_high820_const" type="Const" version="opset1">
			<data element_type="f16" offset="586" shape="1" size="2"/>
			<output>
				<port id="1" precision="FP16">
					<dim>1</dim>
				</port>
			</output>
		</layer>
		<layer id="162" name="318322_const" type="Const" version="opset1">
			<data element_type="f16" offset="5567280" shape="13,1" size="26"/>
			<output>
				<port id="1" precision="FP16">
					<dim>13</dim>
					<dim>1</dim>
				</port>
			</output>
		</layer>
		<layer id="163" name="319323_const" type="Const" version="opset1">
			<data element_type="f16" offset="5567306" shape="13,1" size="26"/>
			<output>
				<port id="1" precision="FP16">
					<dim>13</dim>
					<dim>1</dim>
				</port>
			</output>
		</layer>
		<layer id="164" name="shadow/LSTMLayers/fully_connected/MatMul/fq_weights_1" type="FakeQuantize" version="opset1">
			<data levels="255"/>
			<input>
				<port id="0">
					<dim>13</dim>
					<dim>512</dim>
				</port>
				<port id="1">
					<dim>1</dim>
				</port>
				<port id="2">
					<dim>1</dim>
				</port>
				<port id="3">
					<dim>13</dim>
					<dim>1</dim>
				</port>
				<port id="4">
					<dim>13</dim>
					<dim>1</dim>
				</port>
			</input>
			<output>
				<port id="5" precision="FP16">
					<dim>13</dim>
					<dim>512</dim>
				</port>
			</output>
		</layer>
		<layer id="165" name="shadow/LSTMLayers/fully_connected/MatMul" type="MatMul" version="opset1">
			<data transpose_a="False" transpose_b="True"/>
			<input>
				<port id="0">
					<dim>16</dim>
					<dim>512</dim>
				</port>
				<port id="1">
					<dim>13</dim>
					<dim>512</dim>
				</port>
			</input>
			<output>
				<port id="2" precision="FP16">
					<dim>16</dim>
					<dim>13</dim>
				</port>
			</output>
		</layer>
		<layer id="166" name="shadow/LSTMLayers/fully_connected/biases/read/Output_0/Data_/copy_const154_const" type="Const" version="opset1">
			<data element_type="f16" offset="5567332" shape="1,13" size="26"/>
			<output>
				<port id="1" precision="FP16">
					<dim>1</dim>
					<dim>13</dim>
				</port>
			</output>
		</layer>
		<layer id="167" name="shadow/LSTMLayers/fully_connected/BiasAdd/Add" type="Add" version="opset1">
			<input>
				<port id="0">
					<dim>16</dim>
					<dim>13</dim>
				</port>
				<port id="1">
					<dim>1</dim>
					<dim>13</dim>
				</port>
			</input>
			<output>
				<port id="2" precision="FP16">
					<dim>16</dim>
					<dim>13</dim>
				</port>
			</output>
		</layer>
		<layer id="168" name="shadow/LSTMLayers/Reshape_1/Cast_15550_const156_const" type="Const" version="opset1">
			<data element_type="i64" offset="5567358" shape="3" size="24"/>
			<output>
				<port id="1" precision="I64">
					<dim>3</dim>
				</port>
			</output>
		</layer>
		<layer id="169" name="shadow/LSTMLayers/Reshape_1" type="Reshape" version="opset1">
			<data special_zero="False"/>
			<input>
				<port id="0">
					<dim>16</dim>
					<dim>13</dim>
				</port>
				<port id="1">
					<dim>3</dim>
				</port>
			</input>
			<output>
				<port id="2" precision="FP16">
					<dim>1</dim>
					<dim>16</dim>
					<dim>13</dim>
				</port>
			</output>
		</layer>
		<layer id="170" name="shadow/LSTMLayers/transpose_time_major/Cast_1974_const" type="Const" version="opset1">
			<data element_type="i64" offset="5567382" shape="3" size="24"/>
			<output>
				<port id="1" precision="I64">
					<dim>3</dim>
				</port>
			</output>
		</layer>
		<layer id="171" name="shadow/LSTMLayers/transpose_time_major" type="Transpose" version="opset1">
			<input>
				<port id="0">
					<dim>1</dim>
					<dim>16</dim>
					<dim>13</dim>
				</port>
				<port id="1">
					<dim>3</dim>
				</port>
			</input>
			<output>
				<port id="2" precision="FP16">
					<dim>16</dim>
					<dim>1</dim>
					<dim>13</dim>
				</port>
			</output>
		</layer>
		<layer id="172" name="shadow/LSTMLayers/transpose_time_major/sink_port_0" type="Result" version="opset1">
			<input>
				<port id="0">
					<dim>16</dim>
					<dim>1</dim>
					<dim>13</dim>
				</port>
			</input>
		</layer>
	</layers>
	<edges>
		<edge from-layer="0" from-port="0" to-layer="2" to-port="0"/>
		<edge from-layer="1" from-port="1" to-layer="2" to-port="1"/>
		<edge from-layer="2" from-port="2" to-layer="4" to-port="0"/>
		<edge from-layer="3" from-port="1" to-layer="4" to-port="1"/>
		<edge from-layer="4" from-port="2" to-layer="9" to-port="0"/>
		<edge from-layer="5" from-port="1" to-layer="9" to-port="1"/>
		<edge from-layer="6" from-port="1" to-layer="9" to-port="2"/>
		<edge from-layer="7" from-port="1" to-layer="9" to-port="3"/>
		<edge from-layer="8" from-port="1" to-layer="9" to-port="4"/>
		<edge from-layer="10" from-port="1" to-layer="11" to-port="0"/>
		<edge from-layer="11" from-port="1" to-layer="16" to-port="0"/>
		<edge from-layer="12" from-port="1" to-layer="16" to-port="1"/>
		<edge from-layer="13" from-port="1" to-layer="16" to-port="2"/>
		<edge from-layer="14" from-port="1" to-layer="16" to-port="3"/>
		<edge from-layer="15" from-port="1" to-layer="16" to-port="4"/>
		<edge from-layer="9" from-port="5" to-layer="17" to-port="0"/>
		<edge from-layer="16" from-port="5" to-layer="17" to-port="1"/>
		<edge from-layer="17" from-port="2" to-layer="19" to-port="0"/>
		<edge from-layer="18" from-port="1" to-layer="19" to-port="1"/>
		<edge from-layer="19" from-port="2" to-layer="20" to-port="0"/>
		<edge from-layer="20" from-port="1" to-layer="25" to-port="0"/>
		<edge from-layer="21" from-port="1" to-layer="25" to-port="1"/>
		<edge from-layer="22" from-port="1" to-layer="25" to-port="2"/>
		<edge from-layer="23" from-port="1" to-layer="25" to-port="3"/>
		<edge from-layer="24" from-port="1" to-layer="25" to-port="4"/>
		<edge from-layer="25" from-port="5" to-layer="26" to-port="0"/>
		<edge from-layer="27" from-port="1" to-layer="28" to-port="0"/>
		<edge from-layer="28" from-port="1" to-layer="33" to-port="0"/>
		<edge from-layer="29" from-port="1" to-layer="33" to-port="1"/>
		<edge from-layer="30" from-port="1" to-layer="33" to-port="2"/>
		<edge from-layer="31" from-port="1" to-layer="33" to-port="3"/>
		<edge from-layer="32" from-port="1" to-layer="33" to-port="4"/>
		<edge from-layer="26" from-port="1" to-layer="34" to-port="0"/>
		<edge from-layer="33" from-port="5" to-layer="34" to-port="1"/>
		<edge from-layer="34" from-port="2" to-layer="36" to-port="0"/>
		<edge from-layer="35" from-port="1" to-layer="36" to-port="1"/>
		<edge from-layer="36" from-port="2" to-layer="37" to-port="0"/>
		<edge from-layer="37" from-port="1" to-layer="42" to-port="0"/>
		<edge from-layer="38" from-port="1" to-layer="42" to-port="1"/>
		<edge from-layer="39" from-port="1" to-layer="42" to-port="2"/>
		<edge from-layer="40" from-port="1" to-layer="42" to-port="3"/>
		<edge from-layer="41" from-port="1" to-layer="42" to-port="4"/>
		<edge from-layer="42" from-port="5" to-layer="43" to-port="0"/>
		<edge from-layer="44" from-port="1" to-layer="45" to-port="0"/>
		<edge from-layer="45" from-port="1" to-layer="50" to-port="0"/>
		<edge from-layer="46" from-port="1" to-layer="50" to-port="1"/>
		<edge from-layer="47" from-port="1" to-layer="50" to-port="2"/>
		<edge from-layer="48" from-port="1" to-layer="50" to-port="3"/>
		<edge from-layer="49" from-port="1" to-layer="50" to-port="4"/>
		<edge from-layer="43" from-port="1" to-layer="51" to-port="0"/>
		<edge from-layer="50" from-port="5" to-layer="51" to-port="1"/>
		<edge from-layer="51" from-port="2" to-layer="53" to-port="0"/>
		<edge from-layer="52" from-port="1" to-layer="53" to-port="1"/>
		<edge from-layer="53" from-port="2" to-layer="54" to-port="0"/>
		<edge from-layer="54" from-port="1" to-layer="59" to-port="0"/>
		<edge from-layer="55" from-port="1" to-layer="59" to-port="1"/>
		<edge from-layer="56" from-port="1" to-layer="59" to-port="2"/>
		<edge from-layer="57" from-port="1" to-layer="59" to-port="3"/>
		<edge from-layer="58" from-port="1" to-layer="59" to-port="4"/>
		<edge from-layer="60" from-port="1" to-layer="61" to-port="0"/>
		<edge from-layer="61" from-port="1" to-layer="66" to-port="0"/>
		<edge from-layer="62" from-port="1" to-layer="66" to-port="1"/>
		<edge from-layer="63" from-port="1" to-layer="66" to-port="2"/>
		<edge from-layer="64" from-port="1" to-layer="66" to-port="3"/>
		<edge from-layer="65" from-port="1" to-layer="66" to-port="4"/>
		<edge from-layer="59" from-port="5" to-layer="67" to-port="0"/>
		<edge from-layer="66" from-port="5" to-layer="67" to-port="1"/>
		<edge from-layer="67" from-port="2" to-layer="69" to-port="0"/>
		<edge from-layer="68" from-port="1" to-layer="69" to-port="1"/>
		<edge from-layer="69" from-port="2" to-layer="70" to-port="0"/>
		<edge from-layer="70" from-port="1" to-layer="75" to-port="0"/>
		<edge from-layer="71" from-port="1" to-layer="75" to-port="1"/>
		<edge from-layer="72" from-port="1" to-layer="75" to-port="2"/>
		<edge from-layer="73" from-port="1" to-layer="75" to-port="3"/>
		<edge from-layer="74" from-port="1" to-layer="75" to-port="4"/>
		<edge from-layer="75" from-port="5" to-layer="76" to-port="0"/>
		<edge from-layer="77" from-port="1" to-layer="78" to-port="0"/>
		<edge from-layer="78" from-port="1" to-layer="83" to-port="0"/>
		<edge from-layer="79" from-port="1" to-layer="83" to-port="1"/>
		<edge from-layer="80" from-port="1" to-layer="83" to-port="2"/>
		<edge from-layer="81" from-port="1" to-layer="83" to-port="3"/>
		<edge from-layer="82" from-port="1" to-layer="83" to-port="4"/>
		<edge from-layer="76" from-port="1" to-layer="84" to-port="0"/>
		<edge from-layer="83" from-port="5" to-layer="84" to-port="1"/>
		<edge from-layer="84" from-port="2" to-layer="86" to-port="0"/>
		<edge from-layer="85" from-port="1" to-layer="86" to-port="1"/>
		<edge from-layer="86" from-port="2" to-layer="87" to-port="0"/>
		<edge from-layer="87" from-port="1" to-layer="92" to-port="0"/>
		<edge from-layer="88" from-port="1" to-layer="92" to-port="1"/>
		<edge from-layer="89" from-port="1" to-layer="92" to-port="2"/>
		<edge from-layer="90" from-port="1" to-layer="92" to-port="3"/>
		<edge from-layer="91" from-port="1" to-layer="92" to-port="4"/>
		<edge from-layer="93" from-port="1" to-layer="94" to-port="0"/>
		<edge from-layer="94" from-port="1" to-layer="99" to-port="0"/>
		<edge from-layer="95" from-port="1" to-layer="99" to-port="1"/>
		<edge from-layer="96" from-port="1" to-layer="99" to-port="2"/>
		<edge from-layer="97" from-port="1" to-layer="99" to-port="3"/>
		<edge from-layer="98" from-port="1" to-layer="99" to-port="4"/>
		<edge from-layer="92" from-port="5" to-layer="100" to-port="0"/>
		<edge from-layer="99" from-port="5" to-layer="100" to-port="1"/>
		<edge from-layer="100" from-port="2" to-layer="102" to-port="0"/>
		<edge from-layer="101" from-port="1" to-layer="102" to-port="1"/>
		<edge from-layer="102" from-port="2" to-layer="103" to-port="0"/>
		<edge from-layer="103" from-port="1" to-layer="108" to-port="0"/>
		<edge from-layer="104" from-port="1" to-layer="108" to-port="1"/>
		<edge from-layer="105" from-port="1" to-layer="108" to-port="2"/>
		<edge from-layer="106" from-port="1" to-layer="108" to-port="3"/>
		<edge from-layer="107" from-port="1" to-layer="108" to-port="4"/>
		<edge from-layer="108" from-port="5" to-layer="109" to-port="0"/>
		<edge from-layer="110" from-port="1" to-layer="111" to-port="0"/>
		<edge from-layer="111" from-port="1" to-layer="116" to-port="0"/>
		<edge from-layer="112" from-port="1" to-layer="116" to-port="1"/>
		<edge from-layer="113" from-port="1" to-layer="116" to-port="2"/>
		<edge from-layer="114" from-port="1" to-layer="116" to-port="3"/>
		<edge from-layer="115" from-port="1" to-layer="116" to-port="4"/>
		<edge from-layer="109" from-port="1" to-layer="117" to-port="0"/>
		<edge from-layer="116" from-port="5" to-layer="117" to-port="1"/>
		<edge from-layer="117" from-port="2" to-layer="119" to-port="0"/>
		<edge from-layer="118" from-port="1" to-layer="119" to-port="1"/>
		<edge from-layer="119" from-port="2" to-layer="120" to-port="0"/>
		<edge from-layer="120" from-port="1" to-layer="122" to-port="0"/>
		<edge from-layer="121" from-port="1" to-layer="122" to-port="1"/>
		<edge from-layer="122" from-port="2" to-layer="124" to-port="0"/>
		<edge from-layer="123" from-port="1" to-layer="124" to-port="1"/>
		<edge from-layer="124" from-port="2" to-layer="127" to-port="0"/>
		<edge from-layer="125" from-port="1" to-layer="127" to-port="1"/>
		<edge from-layer="126" from-port="1" to-layer="127" to-port="2"/>
		<edge from-layer="124" from-port="2" to-layer="130" to-port="0"/>
		<edge from-layer="128" from-port="1" to-layer="130" to-port="1"/>
		<edge from-layer="129" from-port="1" to-layer="130" to-port="2"/>
		<edge from-layer="127" from-port="3" to-layer="131" to-port="0"/>
		<edge from-layer="130" from-port="3" to-layer="131" to-port="1"/>
		<edge from-layer="131" from-port="2" to-layer="134" to-port="0"/>
		<edge from-layer="132" from-port="1" to-layer="134" to-port="1"/>
		<edge from-layer="133" from-port="1" to-layer="134" to-port="2"/>
		<edge from-layer="131" from-port="2" to-layer="137" to-port="0"/>
		<edge from-layer="135" from-port="1" to-layer="137" to-port="1"/>
		<edge from-layer="136" from-port="1" to-layer="137" to-port="2"/>
		<edge from-layer="134" from-port="3" to-layer="138" to-port="0"/>
		<edge from-layer="137" from-port="3" to-layer="138" to-port="1"/>
		<edge from-layer="138" from-port="2" to-layer="141" to-port="0"/>
		<edge from-layer="139" from-port="1" to-layer="141" to-port="1"/>
		<edge from-layer="140" from-port="1" to-layer="141" to-port="2"/>
		<edge from-layer="141" from-port="3" to-layer="146" to-port="0"/>
		<edge from-layer="142" from-port="1" to-layer="146" to-port="1"/>
		<edge from-layer="143" from-port="1" to-layer="146" to-port="2"/>
		<edge from-layer="144" from-port="1" to-layer="146" to-port="3"/>
		<edge from-layer="145" from-port="1" to-layer="146" to-port="4"/>
		<edge from-layer="138" from-port="2" to-layer="149" to-port="0"/>
		<edge from-layer="147" from-port="1" to-layer="149" to-port="1"/>
		<edge from-layer="148" from-port="1" to-layer="149" to-port="2"/>
		<edge from-layer="149" from-port="3" to-layer="154" to-port="0"/>
		<edge from-layer="150" from-port="1" to-layer="154" to-port="1"/>
		<edge from-layer="151" from-port="1" to-layer="154" to-port="2"/>
		<edge from-layer="152" from-port="1" to-layer="154" to-port="3"/>
		<edge from-layer="153" from-port="1" to-layer="154" to-port="4"/>
		<edge from-layer="146" from-port="5" to-layer="155" to-port="0"/>
		<edge from-layer="154" from-port="5" to-layer="155" to-port="1"/>
		<edge from-layer="155" from-port="2" to-layer="157" to-port="0"/>
		<edge from-layer="156" from-port="1" to-layer="157" to-port="1"/>
		<edge from-layer="158" from-port="1" to-layer="159" to-port="0"/>
		<edge from-layer="159" from-port="1" to-layer="164" to-port="0"/>
		<edge from-layer="160" from-port="1" to-layer="164" to-port="1"/>
		<edge from-layer="161" from-port="1" to-layer="164" to-port="2"/>
		<edge from-layer="162" from-port="1" to-layer="164" to-port="3"/>
		<edge from-layer="163" from-port="1" to-layer="164" to-port="4"/>
		<edge from-layer="157" from-port="2" to-layer="165" to-port="0"/>
		<edge from-layer="164" from-port="5" to-layer="165" to-port="1"/>
		<edge from-layer="165" from-port="2" to-layer="167" to-port="0"/>
		<edge from-layer="166" from-port="1" to-layer="167" to-port="1"/>
		<edge from-layer="167" from-port="2" to-layer="169" to-port="0"/>
		<edge from-layer="168" from-port="1" to-layer="169" to-port="1"/>
		<edge from-layer="169" from-port="2" to-layer="171" to-port="0"/>
		<edge from-layer="170" from-port="1" to-layer="171" to-port="1"/>
		<edge from-layer="171" from-port="2" to-layer="172" to-port="0"/>
	</edges>
	<meta_data>
		<MO_version value="unknown version"/>
		<cli_parameters>
			<blobs_as_inputs value="True"/>
			<caffe_parser_path value="DIR"/>
			<data_type value="FP16"/>
			<disable_nhwc_to_nchw value="False"/>
			<disable_omitting_optional value="False"/>
			<disable_resnet_optimization value="False"/>
			<disable_weights_compression value="False"/>
			<enable_concat_optimization value="False"/>
			<enable_flattening_nested_params value="False"/>
			<enable_ssd_gluoncv value="False"/>
			<extensions value="DIR"/>
			<framework value="tf"/>
			<freeze_placeholder_with_value value="{}"/>
			<generate_deprecated_IR_V2 value="False"/>
			<generate_deprecated_IR_V7 value="False"/>
			<generate_experimental_IR_V10 value="True"/>
			<input value="Placeholder"/>
			<input_model value="DIR/graph.pb"/>
			<input_model_is_text value="False"/>
			<input_shape value="[1,32,64,1]"/>
			<k value="DIR/CustomLayersMapping.xml"/>
			<keep_quantize_ops_in_IR value="True"/>
			<keep_shape_ops value="False"/>
			<legacy_mxnet_model value="False"/>
			<log_level value="ERROR"/>
			<mean_scale_values value="{}"/>
			<mean_values value="()"/>
			<model_name value="handwritten-score-recognition-0003"/>
			<move_to_preprocess value="False"/>
			<output value="['shadow/LSTMLayers/transpose_time_major']"/>
			<output_dir value="DIR"/>
			<placeholder_data_types value="{}"/>
			<placeholder_shapes value="{'Placeholder': array([ 1, 32, 64,  1])}"/>
			<progress value="False"/>
			<remove_memory value="False"/>
			<remove_output_softmax value="False"/>
			<reverse_input_channels value="True"/>
			<save_params_from_nd value="False"/>
			<scale_values value="()"/>
			<silent value="False"/>
			<stream_output value="False"/>
			<unset unset_cli_parameters="batch, counts, disable_fusing, disable_gfusing, finegrain_fusing, input_checkpoint, input_meta_graph, input_proto, input_symbol, mean_file, mean_file_offsets, nd_prefix_name, pretrained_model_name, saved_model_dir, saved_model_tags, scale, tensorboard_logdir, tensorflow_custom_layer_libraries, tensorflow_custom_operations_config_update, tensorflow_object_detection_api_pipeline_config, tensorflow_use_custom_operations_config, transformations_config"/>
		</cli_parameters>
	</meta_data>
	<quantization_parameters>
		<config>{
		'compression': {
			'algorithms': [
				{
					'name': 'DefaultQuantization',
					'params': {
						'preset': 'performance',
						'stat_subset_size': 300
					}
				}
			],
			'target_device': 'CPU'
		},
		'engine': {
			'models': [
				{
					'name': 'handwritten-score-recognition-0003',
					'launchers': [
						{
							'framework': 'dlsdk',
							'tags': [
								'FP32'
							],
							'model': 'PATH',
							'weights': 'PATH',
							'adapter': 'beam_search_decoder',
							'device': 'CPU'
						}
					],
					'datasets': [
						{
							'name': 'handwritten_score_recognition',
							'data_source': 'PATH',
							'annotation_conversion': {
								'converter': 'handwritten_score_recognition',
								'annotation_file': 'PATH'
							},
							'annotation': 'handwritten_score_recognition.pickle',
							'dataset_meta': 'handwritten_score_recognition.json',
							'preprocessing': [
								{
									'type': 'bgr_to_gray'
								},
								{
									'type': 'resize',
									'dst_width': 64,
									'dst_height': 32
								}
							],
							'metrics': [
								{
									'type': 'character_recognition_accuracy'
								}
							]
						}
					]
				},
				{
					'name': 'handwritten-score-recognition-0003',
					'launchers': [
						{
							'framework': 'dlsdk',
							'tags': [
								'FP16'
							],
							'model': 'PATH',
							'weights': 'PATH',
							'adapter': 'beam_search_decoder',
							'device': 'CPU'
						}
					],
					'datasets': [
						{
							'name': 'handwritten_score_recognition',
							'data_source': 'PATH',
							'annotation_conversion': {
								'converter': 'handwritten_score_recognition',
								'annotation_file': 'PATH'
							},
							'annotation': 'handwritten_score_recognition.pickle',
							'dataset_meta': 'handwritten_score_recognition.json',
							'preprocessing': [
								{
									'type': 'bgr_to_gray'
								},
								{
									'type': 'resize',
									'dst_width': 64,
									'dst_height': 32
								}
							],
							'metrics': [
								{
									'type': 'character_recognition_accuracy'
								}
							]
						}
					]
				},
				{
					'name': 'handwritten-score-recognition-0003',
					'launchers': [
						{
							'framework': 'dlsdk',
							'tags': [
								'FP16-INT8'
							],
							'model': 'PATH',
							'weights': 'PATH',
							'adapter': 'beam_search_decoder',
							'device': 'CPU'
						}
					],
					'datasets': [
						{
							'name': 'handwritten_score_recognition',
							'data_source': 'PATH',
							'annotation_conversion': {
								'converter': 'handwritten_score_recognition',
								'annotation_file': 'PATH'
							},
							'annotation': 'handwritten_score_recognition.pickle',
							'dataset_meta': 'handwritten_score_recognition.json',
							'preprocessing': [
								{
									'type': 'bgr_to_gray'
								},
								{
									'type': 'resize',
									'dst_width': 64,
									'dst_height': 32
								}
							],
							'metrics': [
								{
									'type': 'character_recognition_accuracy'
								}
							]
						}
					]
				}
			],
			'global_definitions': '../dataset_definitions.yml',
			'stat_requests_number': null,
			'eval_requests_number': null,
			'type': 'accuracy_checker'
		}
	}</config>
		<version value="1.0"/>
		<cli_params value="{'evaluate': False, 'output_dir': 'PATH', 'direct_dump': True, 'log_level': 'INFO', 'pbar': False, 'keep_uncompressed_weights': False}"/>
	</quantization_parameters>
</net>
