<?xml version="1.0" ?>
<net name="face-detection-0106" version="10">
	<layers>
		<layer id="0" name="2276/Output_0/Data__const2564_const" type="Const" version="opset1">
			<data element_type="f16" offset="0" shape="1,4" size="8"/>
			<output>
				<port id="1" precision="FP16">
					<dim>1</dim>
					<dim>4</dim>
				</port>
			</output>
		</layer>
		<layer id="1" name="image" type="Parameter" version="opset1">
			<data element_type="f16" shape="1,3,640,640"/>
			<output>
				<port id="0" precision="FP16">
					<dim>1</dim>
					<dim>3</dim>
					<dim>640</dim>
					<dim>640</dim>
				</port>
			</output>
		</layer>
		<layer id="2" name="image/reverse_input_channels95149/Concat95168_const2566_const" type="Const" version="opset1">
			<data element_type="f16" offset="8" shape="1,3,1,1" size="6"/>
			<output>
				<port id="1" precision="FP16">
					<dim>1</dim>
					<dim>3</dim>
					<dim>1</dim>
					<dim>1</dim>
				</port>
			</output>
		</layer>
		<layer id="3" name="Mul_/Fused_Mul_" type="Multiply" version="opset1">
			<input>
				<port id="0">
					<dim>1</dim>
					<dim>3</dim>
					<dim>640</dim>
					<dim>640</dim>
				</port>
				<port id="1">
					<dim>1</dim>
					<dim>3</dim>
					<dim>1</dim>
					<dim>1</dim>
				</port>
			</input>
			<output>
				<port id="2" precision="FP16">
					<dim>1</dim>
					<dim>3</dim>
					<dim>640</dim>
					<dim>640</dim>
				</port>
			</output>
		</layer>
		<layer id="4" name="image/reverse_input_channels95151/Concat95176_const2568_const" type="Const" version="opset1">
			<data element_type="f16" offset="14" shape="1,3,1,1" size="6"/>
			<output>
				<port id="1" precision="FP16">
					<dim>1</dim>
					<dim>3</dim>
					<dim>1</dim>
					<dim>1</dim>
				</port>
			</output>
		</layer>
		<layer id="5" name="Add_/Fused_Add_" type="Add" version="opset1">
			<input>
				<port id="0">
					<dim>1</dim>
					<dim>3</dim>
					<dim>640</dim>
					<dim>640</dim>
				</port>
				<port id="1">
					<dim>1</dim>
					<dim>3</dim>
					<dim>1</dim>
					<dim>1</dim>
				</port>
			</input>
			<output>
				<port id="2" precision="FP16">
					<dim>1</dim>
					<dim>3</dim>
					<dim>640</dim>
					<dim>640</dim>
				</port>
			</output>
		</layer>
		<layer id="6" name="1487514879_const" type="Const" version="opset1">
			<data element_type="f16" offset="20" shape="" size="2"/>
			<output>
				<port id="1" precision="FP16"/>
			</output>
		</layer>
		<layer id="7" name="1487614880_const" type="Const" version="opset1">
			<data element_type="f16" offset="22" shape="" size="2"/>
			<output>
				<port id="1" precision="FP16"/>
			</output>
		</layer>
		<layer id="8" name="1487714881_const" type="Const" version="opset1">
			<data element_type="f16" offset="20" shape="" size="2"/>
			<output>
				<port id="1" precision="FP16"/>
			</output>
		</layer>
		<layer id="9" name="1487814882_const" type="Const" version="opset1">
			<data element_type="f16" offset="22" shape="" size="2"/>
			<output>
				<port id="1" precision="FP16"/>
			</output>
		</layer>
		<layer id="10" name="1022/fq_input_0" type="FakeQuantize" version="opset1">
			<data levels="256"/>
			<input>
				<port id="0">
					<dim>1</dim>
					<dim>3</dim>
					<dim>640</dim>
					<dim>640</dim>
				</port>
				<port id="1"/>
				<port id="2"/>
				<port id="3"/>
				<port id="4"/>
			</input>
			<output>
				<port id="5" precision="FP16">
					<dim>1</dim>
					<dim>3</dim>
					<dim>640</dim>
					<dim>640</dim>
				</port>
			</output>
		</layer>
		<layer id="11" name="1022/fq_weights_1/Convert_to_float/Cast_034321_const" type="Const" version="opset1">
			<data element_type="u8" offset="24" shape="64,3,7,7" size="9408"/>
			<output>
				<port id="1" precision="U8">
					<dim>64</dim>
					<dim>3</dim>
					<dim>7</dim>
					<dim>7</dim>
				</port>
			</output>
		</layer>
		<layer id="12" name="1022/fq_weights_1/Convert_to_float" type="Convert" version="opset1">
			<data destination_type="f16"/>
			<input>
				<port id="0">
					<dim>64</dim>
					<dim>3</dim>
					<dim>7</dim>
					<dim>7</dim>
				</port>
			</input>
			<output>
				<port id="1" precision="FP16">
					<dim>64</dim>
					<dim>3</dim>
					<dim>7</dim>
					<dim>7</dim>
				</port>
			</output>
		</layer>
		<layer id="13" name="1022/fq_weights_1/Copy/out_low28246_const" type="Const" version="opset1">
			<data element_type="f16" offset="9432" shape="1" size="2"/>
			<output>
				<port id="1" precision="FP16">
					<dim>1</dim>
				</port>
			</output>
		</layer>
		<layer id="14" name="1022/fq_weights_1/Copy/out_high28247_const" type="Const" version="opset1">
			<data element_type="f16" offset="9434" shape="1" size="2"/>
			<output>
				<port id="1" precision="FP16">
					<dim>1</dim>
				</port>
			</output>
		</layer>
		<layer id="15" name="1488714891_const" type="Const" version="opset1">
			<data element_type="f16" offset="9436" shape="64,1,1,1" size="128"/>
			<output>
				<port id="1" precision="FP16">
					<dim>64</dim>
					<dim>1</dim>
					<dim>1</dim>
					<dim>1</dim>
				</port>
			</output>
		</layer>
		<layer id="16" name="1488814892_const" type="Const" version="opset1">
			<data element_type="f16" offset="9564" shape="64,1,1,1" size="128"/>
			<output>
				<port id="1" precision="FP16">
					<dim>64</dim>
					<dim>1</dim>
					<dim>1</dim>
					<dim>1</dim>
				</port>
			</output>
		</layer>
		<layer id="17" name="1022/fq_weights_1" type="FakeQuantize" version="opset1">
			<data levels="255"/>
			<input>
				<port id="0">
					<dim>64</dim>
					<dim>3</dim>
					<dim>7</dim>
					<dim>7</dim>
				</port>
				<port id="1">
					<dim>1</dim>
				</port>
				<port id="2">
					<dim>1</dim>
				</port>
				<port id="3">
					<dim>64</dim>
					<dim>1</dim>
					<dim>1</dim>
					<dim>1</dim>
				</port>
				<port id="4">
					<dim>64</dim>
					<dim>1</dim>
					<dim>1</dim>
					<dim>1</dim>
				</port>
			</input>
			<output>
				<port id="5" precision="FP16">
					<dim>64</dim>
					<dim>3</dim>
					<dim>7</dim>
					<dim>7</dim>
				</port>
			</output>
		</layer>
		<layer id="18" name="1022" type="Convolution" version="opset1">
			<data dilations="1,1" output_padding="0,0" pads_begin="3,3" pads_end="3,3" strides="2,2"/>
			<input>
				<port id="0">
					<dim>1</dim>
					<dim>3</dim>
					<dim>640</dim>
					<dim>640</dim>
				</port>
				<port id="1">
					<dim>64</dim>
					<dim>3</dim>
					<dim>7</dim>
					<dim>7</dim>
				</port>
			</input>
			<output>
				<port id="2" precision="FP16">
					<dim>1</dim>
					<dim>64</dim>
					<dim>320</dim>
					<dim>320</dim>
				</port>
			</output>
		</layer>
		<layer id="19" name="data_add_5495254957/copy_const2572_const" type="Const" version="opset1">
			<data element_type="f16" offset="9692" shape="1,64,1,1" size="128"/>
			<output>
				<port id="1" precision="FP16">
					<dim>1</dim>
					<dim>64</dim>
					<dim>1</dim>
					<dim>1</dim>
				</port>
			</output>
		</layer>
		<layer id="20" name="1023/variance/Fused_Add_" type="Add" version="opset1">
			<input>
				<port id="0">
					<dim>1</dim>
					<dim>64</dim>
					<dim>320</dim>
					<dim>320</dim>
				</port>
				<port id="1">
					<dim>1</dim>
					<dim>64</dim>
					<dim>1</dim>
					<dim>1</dim>
				</port>
			</input>
			<output>
				<port id="2" precision="FP16">
					<dim>1</dim>
					<dim>64</dim>
					<dim>320</dim>
					<dim>320</dim>
				</port>
			</output>
		</layer>
		<layer id="21" name="1024" type="ReLU" version="opset1">
			<input>
				<port id="0">
					<dim>1</dim>
					<dim>64</dim>
					<dim>320</dim>
					<dim>320</dim>
				</port>
			</input>
			<output>
				<port id="1" precision="FP16">
					<dim>1</dim>
					<dim>64</dim>
					<dim>320</dim>
					<dim>320</dim>
				</port>
			</output>
		</layer>
		<layer id="22" name="1908019084_const" type="Const" version="opset1">
			<data element_type="f16" offset="9820" shape="" size="2"/>
			<output>
				<port id="1" precision="FP16"/>
			</output>
		</layer>
		<layer id="23" name="1908119085_const" type="Const" version="opset1">
			<data element_type="f16" offset="9822" shape="" size="2"/>
			<output>
				<port id="1" precision="FP16"/>
			</output>
		</layer>
		<layer id="24" name="1908219086_const" type="Const" version="opset1">
			<data element_type="f16" offset="9820" shape="" size="2"/>
			<output>
				<port id="1" precision="FP16"/>
			</output>
		</layer>
		<layer id="25" name="1908319087_const" type="Const" version="opset1">
			<data element_type="f16" offset="9822" shape="" size="2"/>
			<output>
				<port id="1" precision="FP16"/>
			</output>
		</layer>
		<layer id="26" name="1025/fq_input_0" type="FakeQuantize" version="opset1">
			<data levels="256"/>
			<input>
				<port id="0">
					<dim>1</dim>
					<dim>64</dim>
					<dim>320</dim>
					<dim>320</dim>
				</port>
				<port id="1"/>
				<port id="2"/>
				<port id="3"/>
				<port id="4"/>
			</input>
			<output>
				<port id="5" precision="FP16">
					<dim>1</dim>
					<dim>64</dim>
					<dim>320</dim>
					<dim>320</dim>
				</port>
			</output>
		</layer>
		<layer id="27" name="1025" type="MaxPool" version="opset1">
			<data kernel="3,3" pads_begin="1,1" pads_end="1,1" rounding_type="floor" strides="2,2"/>
			<input>
				<port id="0">
					<dim>1</dim>
					<dim>64</dim>
					<dim>320</dim>
					<dim>320</dim>
				</port>
			</input>
			<output>
				<port id="1" precision="FP16">
					<dim>1</dim>
					<dim>64</dim>
					<dim>160</dim>
					<dim>160</dim>
				</port>
			</output>
		</layer>
		<layer id="28" name="1028/fq_weights_1/Convert_to_float/Cast_033521_const" type="Const" version="opset1">
			<data element_type="u8" offset="9824" shape="64,64,1,1" size="4096"/>
			<output>
				<port id="1" precision="U8">
					<dim>64</dim>
					<dim>64</dim>
					<dim>1</dim>
					<dim>1</dim>
				</port>
			</output>
		</layer>
		<layer id="29" name="1028/fq_weights_1/Convert_to_float" type="Convert" version="opset1">
			<data destination_type="f16"/>
			<input>
				<port id="0">
					<dim>64</dim>
					<dim>64</dim>
					<dim>1</dim>
					<dim>1</dim>
				</port>
			</input>
			<output>
				<port id="1" precision="FP16">
					<dim>64</dim>
					<dim>64</dim>
					<dim>1</dim>
					<dim>1</dim>
				</port>
			</output>
		</layer>
		<layer id="30" name="1028/fq_weights_1/Copy/out_low29382_const" type="Const" version="opset1">
			<data element_type="f16" offset="13920" shape="1" size="2"/>
			<output>
				<port id="1" precision="FP16">
					<dim>1</dim>
				</port>
			</output>
		</layer>
		<layer id="31" name="1028/fq_weights_1/Copy/out_high29383_const" type="Const" version="opset1">
			<data element_type="f16" offset="9434" shape="1" size="2"/>
			<output>
				<port id="1" precision="FP16">
					<dim>1</dim>
				</port>
			</output>
		</layer>
		<layer id="32" name="1239712401_const" type="Const" version="opset1">
			<data element_type="f16" offset="13922" shape="64,1,1,1" size="128"/>
			<output>
				<port id="1" precision="FP16">
					<dim>64</dim>
					<dim>1</dim>
					<dim>1</dim>
					<dim>1</dim>
				</port>
			</output>
		</layer>
		<layer id="33" name="1239812402_const" type="Const" version="opset1">
			<data element_type="f16" offset="14050" shape="64,1,1,1" size="128"/>
			<output>
				<port id="1" precision="FP16">
					<dim>64</dim>
					<dim>1</dim>
					<dim>1</dim>
					<dim>1</dim>
				</port>
			</output>
		</layer>
		<layer id="34" name="1028/fq_weights_1" type="FakeQuantize" version="opset1">
			<data levels="255"/>
			<input>
				<port id="0">
					<dim>64</dim>
					<dim>64</dim>
					<dim>1</dim>
					<dim>1</dim>
				</port>
				<port id="1">
					<dim>1</dim>
				</port>
				<port id="2">
					<dim>1</dim>
				</port>
				<port id="3">
					<dim>64</dim>
					<dim>1</dim>
					<dim>1</dim>
					<dim>1</dim>
				</port>
				<port id="4">
					<dim>64</dim>
					<dim>1</dim>
					<dim>1</dim>
					<dim>1</dim>
				</port>
			</input>
			<output>
				<port id="5" precision="FP16">
					<dim>64</dim>
					<dim>64</dim>
					<dim>1</dim>
					<dim>1</dim>
				</port>
			</output>
		</layer>
		<layer id="35" name="1028" type="Convolution" version="opset1">
			<data dilations="1,1" output_padding="0,0" pads_begin="0,0" pads_end="0,0" strides="1,1"/>
			<input>
				<port id="0">
					<dim>1</dim>
					<dim>64</dim>
					<dim>160</dim>
					<dim>160</dim>
				</port>
				<port id="1">
					<dim>64</dim>
					<dim>64</dim>
					<dim>1</dim>
					<dim>1</dim>
				</port>
			</input>
			<output>
				<port id="2" precision="FP16">
					<dim>1</dim>
					<dim>64</dim>
					<dim>160</dim>
					<dim>160</dim>
				</port>
			</output>
		</layer>
		<layer id="36" name="data_add_5496054965/copy_const2578_const" type="Const" version="opset1">
			<data element_type="f16" offset="14178" shape="1,64,1,1" size="128"/>
			<output>
				<port id="1" precision="FP16">
					<dim>1</dim>
					<dim>64</dim>
					<dim>1</dim>
					<dim>1</dim>
				</port>
			</output>
		</layer>
		<layer id="37" name="1029/variance/Fused_Add_" type="Add" version="opset1">
			<input>
				<port id="0">
					<dim>1</dim>
					<dim>64</dim>
					<dim>160</dim>
					<dim>160</dim>
				</port>
				<port id="1">
					<dim>1</dim>
					<dim>64</dim>
					<dim>1</dim>
					<dim>1</dim>
				</port>
			</input>
			<output>
				<port id="2" precision="FP16">
					<dim>1</dim>
					<dim>64</dim>
					<dim>160</dim>
					<dim>160</dim>
				</port>
			</output>
		</layer>
		<layer id="38" name="1030" type="ReLU" version="opset1">
			<input>
				<port id="0">
					<dim>1</dim>
					<dim>64</dim>
					<dim>160</dim>
					<dim>160</dim>
				</port>
			</input>
			<output>
				<port id="1" precision="FP16">
					<dim>1</dim>
					<dim>64</dim>
					<dim>160</dim>
					<dim>160</dim>
				</port>
			</output>
		</layer>
		<layer id="39" name="1230512309_const" type="Const" version="opset1">
			<data element_type="f16" offset="14306" shape="" size="2"/>
			<output>
				<port id="1" precision="FP16"/>
			</output>
		</layer>
		<layer id="40" name="1230612310_const" type="Const" version="opset1">
			<data element_type="f16" offset="14308" shape="" size="2"/>
			<output>
				<port id="1" precision="FP16"/>
			</output>
		</layer>
		<layer id="41" name="1230712311_const" type="Const" version="opset1">
			<data element_type="f16" offset="14306" shape="" size="2"/>
			<output>
				<port id="1" precision="FP16"/>
			</output>
		</layer>
		<layer id="42" name="1230812312_const" type="Const" version="opset1">
			<data element_type="f16" offset="14308" shape="" size="2"/>
			<output>
				<port id="1" precision="FP16"/>
			</output>
		</layer>
		<layer id="43" name="1031/fq_input_0" type="FakeQuantize" version="opset1">
			<data levels="256"/>
			<input>
				<port id="0">
					<dim>1</dim>
					<dim>64</dim>
					<dim>160</dim>
					<dim>160</dim>
				</port>
				<port id="1"/>
				<port id="2"/>
				<port id="3"/>
				<port id="4"/>
			</input>
			<output>
				<port id="5" precision="FP16">
					<dim>1</dim>
					<dim>64</dim>
					<dim>160</dim>
					<dim>160</dim>
				</port>
			</output>
		</layer>
		<layer id="44" name="1031/fq_weights_1/Convert_to_float/Cast_034043_const" type="Const" version="opset1">
			<data element_type="u8" offset="14310" shape="64,64,3,3" size="36864"/>
			<output>
				<port id="1" precision="U8">
					<dim>64</dim>
					<dim>64</dim>
					<dim>3</dim>
					<dim>3</dim>
				</port>
			</output>
		</layer>
		<layer id="45" name="1031/fq_weights_1/Convert_to_float" type="Convert" version="opset1">
			<data destination_type="f16"/>
			<input>
				<port id="0">
					<dim>64</dim>
					<dim>64</dim>
					<dim>3</dim>
					<dim>3</dim>
				</port>
			</input>
			<output>
				<port id="1" precision="FP16">
					<dim>64</dim>
					<dim>64</dim>
					<dim>3</dim>
					<dim>3</dim>
				</port>
			</output>
		</layer>
		<layer id="46" name="1031/fq_weights_1/Copy/out_low27950_const" type="Const" version="opset1">
			<data element_type="f16" offset="51174" shape="1" size="2"/>
			<output>
				<port id="1" precision="FP16">
					<dim>1</dim>
				</port>
			</output>
		</layer>
		<layer id="47" name="1031/fq_weights_1/Copy/out_high27951_const" type="Const" version="opset1">
			<data element_type="f16" offset="9434" shape="1" size="2"/>
			<output>
				<port id="1" precision="FP16">
					<dim>1</dim>
				</port>
			</output>
		</layer>
		<layer id="48" name="1231712321_const" type="Const" version="opset1">
			<data element_type="f16" offset="51176" shape="64,1,1,1" size="128"/>
			<output>
				<port id="1" precision="FP16">
					<dim>64</dim>
					<dim>1</dim>
					<dim>1</dim>
					<dim>1</dim>
				</port>
			</output>
		</layer>
		<layer id="49" name="1231812322_const" type="Const" version="opset1">
			<data element_type="f16" offset="51304" shape="64,1,1,1" size="128"/>
			<output>
				<port id="1" precision="FP16">
					<dim>64</dim>
					<dim>1</dim>
					<dim>1</dim>
					<dim>1</dim>
				</port>
			</output>
		</layer>
		<layer id="50" name="1031/fq_weights_1" type="FakeQuantize" version="opset1">
			<data levels="255"/>
			<input>
				<port id="0">
					<dim>64</dim>
					<dim>64</dim>
					<dim>3</dim>
					<dim>3</dim>
				</port>
				<port id="1">
					<dim>1</dim>
				</port>
				<port id="2">
					<dim>1</dim>
				</port>
				<port id="3">
					<dim>64</dim>
					<dim>1</dim>
					<dim>1</dim>
					<dim>1</dim>
				</port>
				<port id="4">
					<dim>64</dim>
					<dim>1</dim>
					<dim>1</dim>
					<dim>1</dim>
				</port>
			</input>
			<output>
				<port id="5" precision="FP16">
					<dim>64</dim>
					<dim>64</dim>
					<dim>3</dim>
					<dim>3</dim>
				</port>
			</output>
		</layer>
		<layer id="51" name="1031" type="Convolution" version="opset1">
			<data dilations="1,1" output_padding="0,0" pads_begin="1,1" pads_end="1,1" strides="1,1"/>
			<input>
				<port id="0">
					<dim>1</dim>
					<dim>64</dim>
					<dim>160</dim>
					<dim>160</dim>
				</port>
				<port id="1">
					<dim>64</dim>
					<dim>64</dim>
					<dim>3</dim>
					<dim>3</dim>
				</port>
			</input>
			<output>
				<port id="2" precision="FP16">
					<dim>1</dim>
					<dim>64</dim>
					<dim>160</dim>
					<dim>160</dim>
				</port>
			</output>
		</layer>
		<layer id="52" name="data_add_5496854973/copy_const2583_const" type="Const" version="opset1">
			<data element_type="f16" offset="51432" shape="1,64,1,1" size="128"/>
			<output>
				<port id="1" precision="FP16">
					<dim>1</dim>
					<dim>64</dim>
					<dim>1</dim>
					<dim>1</dim>
				</port>
			</output>
		</layer>
		<layer id="53" name="1032/variance/Fused_Add_" type="Add" version="opset1">
			<input>
				<port id="0">
					<dim>1</dim>
					<dim>64</dim>
					<dim>160</dim>
					<dim>160</dim>
				</port>
				<port id="1">
					<dim>1</dim>
					<dim>64</dim>
					<dim>1</dim>
					<dim>1</dim>
				</port>
			</input>
			<output>
				<port id="2" precision="FP16">
					<dim>1</dim>
					<dim>64</dim>
					<dim>160</dim>
					<dim>160</dim>
				</port>
			</output>
		</layer>
		<layer id="54" name="1033" type="ReLU" version="opset1">
			<input>
				<port id="0">
					<dim>1</dim>
					<dim>64</dim>
					<dim>160</dim>
					<dim>160</dim>
				</port>
			</input>
			<output>
				<port id="1" precision="FP16">
					<dim>1</dim>
					<dim>64</dim>
					<dim>160</dim>
					<dim>160</dim>
				</port>
			</output>
		</layer>
		<layer id="55" name="1279512799_const" type="Const" version="opset1">
			<data element_type="f16" offset="51560" shape="" size="2"/>
			<output>
				<port id="1" precision="FP16"/>
			</output>
		</layer>
		<layer id="56" name="1279612800_const" type="Const" version="opset1">
			<data element_type="f16" offset="51562" shape="" size="2"/>
			<output>
				<port id="1" precision="FP16"/>
			</output>
		</layer>
		<layer id="57" name="1279712801_const" type="Const" version="opset1">
			<data element_type="f16" offset="51560" shape="" size="2"/>
			<output>
				<port id="1" precision="FP16"/>
			</output>
		</layer>
		<layer id="58" name="1279812802_const" type="Const" version="opset1">
			<data element_type="f16" offset="51562" shape="" size="2"/>
			<output>
				<port id="1" precision="FP16"/>
			</output>
		</layer>
		<layer id="59" name="1034/fq_input_0" type="FakeQuantize" version="opset1">
			<data levels="256"/>
			<input>
				<port id="0">
					<dim>1</dim>
					<dim>64</dim>
					<dim>160</dim>
					<dim>160</dim>
				</port>
				<port id="1"/>
				<port id="2"/>
				<port id="3"/>
				<port id="4"/>
			</input>
			<output>
				<port id="5" precision="FP16">
					<dim>1</dim>
					<dim>64</dim>
					<dim>160</dim>
					<dim>160</dim>
				</port>
			</output>
		</layer>
		<layer id="60" name="1034/fq_weights_1/Convert_to_float/Cast_034239_const" type="Const" version="opset1">
			<data element_type="u8" offset="51564" shape="256,64,1,1" size="16384"/>
			<output>
				<port id="1" precision="U8">
					<dim>256</dim>
					<dim>64</dim>
					<dim>1</dim>
					<dim>1</dim>
				</port>
			</output>
		</layer>
		<layer id="61" name="1034/fq_weights_1/Convert_to_float" type="Convert" version="opset1">
			<data destination_type="f16"/>
			<input>
				<port id="0">
					<dim>256</dim>
					<dim>64</dim>
					<dim>1</dim>
					<dim>1</dim>
				</port>
			</input>
			<output>
				<port id="1" precision="FP16">
					<dim>256</dim>
					<dim>64</dim>
					<dim>1</dim>
					<dim>1</dim>
				</port>
			</output>
		</layer>
		<layer id="62" name="1034/fq_weights_1/Copy/out_low29630_const" type="Const" version="opset1">
			<data element_type="f16" offset="67948" shape="1" size="2"/>
			<output>
				<port id="1" precision="FP16">
					<dim>1</dim>
				</port>
			</output>
		</layer>
		<layer id="63" name="1034/fq_weights_1/Copy/out_high29631_const" type="Const" version="opset1">
			<data element_type="f16" offset="9434" shape="1" size="2"/>
			<output>
				<port id="1" precision="FP16">
					<dim>1</dim>
				</port>
			</output>
		</layer>
		<layer id="64" name="1280712811_const" type="Const" version="opset1">
			<data element_type="f16" offset="67950" shape="256,1,1,1" size="512"/>
			<output>
				<port id="1" precision="FP16">
					<dim>256</dim>
					<dim>1</dim>
					<dim>1</dim>
					<dim>1</dim>
				</port>
			</output>
		</layer>
		<layer id="65" name="1280812812_const" type="Const" version="opset1">
			<data element_type="f16" offset="68462" shape="256,1,1,1" size="512"/>
			<output>
				<port id="1" precision="FP16">
					<dim>256</dim>
					<dim>1</dim>
					<dim>1</dim>
					<dim>1</dim>
				</port>
			</output>
		</layer>
		<layer id="66" name="1034/fq_weights_1" type="FakeQuantize" version="opset1">
			<data levels="255"/>
			<input>
				<port id="0">
					<dim>256</dim>
					<dim>64</dim>
					<dim>1</dim>
					<dim>1</dim>
				</port>
				<port id="1">
					<dim>1</dim>
				</port>
				<port id="2">
					<dim>1</dim>
				</port>
				<port id="3">
					<dim>256</dim>
					<dim>1</dim>
					<dim>1</dim>
					<dim>1</dim>
				</port>
				<port id="4">
					<dim>256</dim>
					<dim>1</dim>
					<dim>1</dim>
					<dim>1</dim>
				</port>
			</input>
			<output>
				<port id="5" precision="FP16">
					<dim>256</dim>
					<dim>64</dim>
					<dim>1</dim>
					<dim>1</dim>
				</port>
			</output>
		</layer>
		<layer id="67" name="1034" type="Convolution" version="opset1">
			<data dilations="1,1" output_padding="0,0" pads_begin="0,0" pads_end="0,0" strides="1,1"/>
			<input>
				<port id="0">
					<dim>1</dim>
					<dim>64</dim>
					<dim>160</dim>
					<dim>160</dim>
				</port>
				<port id="1">
					<dim>256</dim>
					<dim>64</dim>
					<dim>1</dim>
					<dim>1</dim>
				</port>
			</input>
			<output>
				<port id="2" precision="FP16">
					<dim>1</dim>
					<dim>256</dim>
					<dim>160</dim>
					<dim>160</dim>
				</port>
			</output>
		</layer>
		<layer id="68" name="data_add_5497654981/copy_const2588_const" type="Const" version="opset1">
			<data element_type="f16" offset="68974" shape="1,256,1,1" size="512"/>
			<output>
				<port id="1" precision="FP16">
					<dim>1</dim>
					<dim>256</dim>
					<dim>1</dim>
					<dim>1</dim>
				</port>
			</output>
		</layer>
		<layer id="69" name="1035/variance/Fused_Add_" type="Add" version="opset1">
			<input>
				<port id="0">
					<dim>1</dim>
					<dim>256</dim>
					<dim>160</dim>
					<dim>160</dim>
				</port>
				<port id="1">
					<dim>1</dim>
					<dim>256</dim>
					<dim>1</dim>
					<dim>1</dim>
				</port>
			</input>
			<output>
				<port id="2" precision="FP16">
					<dim>1</dim>
					<dim>256</dim>
					<dim>160</dim>
					<dim>160</dim>
				</port>
			</output>
		</layer>
		<layer id="70" name="1092510929_const" type="Const" version="opset1">
			<data element_type="f16" offset="69486" shape="" size="2"/>
			<output>
				<port id="1" precision="FP16"/>
			</output>
		</layer>
		<layer id="71" name="1092610930_const" type="Const" version="opset1">
			<data element_type="f16" offset="51562" shape="" size="2"/>
			<output>
				<port id="1" precision="FP16"/>
			</output>
		</layer>
		<layer id="72" name="1092710931_const" type="Const" version="opset1">
			<data element_type="f16" offset="69486" shape="" size="2"/>
			<output>
				<port id="1" precision="FP16"/>
			</output>
		</layer>
		<layer id="73" name="1092810932_const" type="Const" version="opset1">
			<data element_type="f16" offset="51562" shape="" size="2"/>
			<output>
				<port id="1" precision="FP16"/>
			</output>
		</layer>
		<layer id="74" name="1036/fq_input_0" type="FakeQuantize" version="opset1">
			<data levels="256"/>
			<input>
				<port id="0">
					<dim>1</dim>
					<dim>256</dim>
					<dim>160</dim>
					<dim>160</dim>
				</port>
				<port id="1"/>
				<port id="2"/>
				<port id="3"/>
				<port id="4"/>
			</input>
			<output>
				<port id="5" precision="FP16">
					<dim>1</dim>
					<dim>256</dim>
					<dim>160</dim>
					<dim>160</dim>
				</port>
			</output>
		</layer>
		<layer id="75" name="1026/fq_weights_1/Convert_to_float/Cast_033833_const" type="Const" version="opset1">
			<data element_type="u8" offset="69488" shape="256,64,1,1" size="16384"/>
			<output>
				<port id="1" precision="U8">
					<dim>256</dim>
					<dim>64</dim>
					<dim>1</dim>
					<dim>1</dim>
				</port>
			</output>
		</layer>
		<layer id="76" name="1026/fq_weights_1/Convert_to_float" type="Convert" version="opset1">
			<data destination_type="f16"/>
			<input>
				<port id="0">
					<dim>256</dim>
					<dim>64</dim>
					<dim>1</dim>
					<dim>1</dim>
				</port>
			</input>
			<output>
				<port id="1" precision="FP16">
					<dim>256</dim>
					<dim>64</dim>
					<dim>1</dim>
					<dim>1</dim>
				</port>
			</output>
		</layer>
		<layer id="77" name="1026/fq_weights_1/Copy/out_low29398_const" type="Const" version="opset1">
			<data element_type="f16" offset="67948" shape="1" size="2"/>
			<output>
				<port id="1" precision="FP16">
					<dim>1</dim>
				</port>
			</output>
		</layer>
		<layer id="78" name="1026/fq_weights_1/Copy/out_high29399_const" type="Const" version="opset1">
			<data element_type="f16" offset="9434" shape="1" size="2"/>
			<output>
				<port id="1" precision="FP16">
					<dim>1</dim>
				</port>
			</output>
		</layer>
		<layer id="79" name="1371713721_const" type="Const" version="opset1">
			<data element_type="f16" offset="85872" shape="256,1,1,1" size="512"/>
			<output>
				<port id="1" precision="FP16">
					<dim>256</dim>
					<dim>1</dim>
					<dim>1</dim>
					<dim>1</dim>
				</port>
			</output>
		</layer>
		<layer id="80" name="1371813722_const" type="Const" version="opset1">
			<data element_type="f16" offset="86384" shape="256,1,1,1" size="512"/>
			<output>
				<port id="1" precision="FP16">
					<dim>256</dim>
					<dim>1</dim>
					<dim>1</dim>
					<dim>1</dim>
				</port>
			</output>
		</layer>
		<layer id="81" name="1026/fq_weights_1" type="FakeQuantize" version="opset1">
			<data levels="255"/>
			<input>
				<port id="0">
					<dim>256</dim>
					<dim>64</dim>
					<dim>1</dim>
					<dim>1</dim>
				</port>
				<port id="1">
					<dim>1</dim>
				</port>
				<port id="2">
					<dim>1</dim>
				</port>
				<port id="3">
					<dim>256</dim>
					<dim>1</dim>
					<dim>1</dim>
					<dim>1</dim>
				</port>
				<port id="4">
					<dim>256</dim>
					<dim>1</dim>
					<dim>1</dim>
					<dim>1</dim>
				</port>
			</input>
			<output>
				<port id="5" precision="FP16">
					<dim>256</dim>
					<dim>64</dim>
					<dim>1</dim>
					<dim>1</dim>
				</port>
			</output>
		</layer>
		<layer id="82" name="1026" type="Convolution" version="opset1">
			<data dilations="1,1" output_padding="0,0" pads_begin="0,0" pads_end="0,0" strides="1,1"/>
			<input>
				<port id="0">
					<dim>1</dim>
					<dim>64</dim>
					<dim>160</dim>
					<dim>160</dim>
				</port>
				<port id="1">
					<dim>256</dim>
					<dim>64</dim>
					<dim>1</dim>
					<dim>1</dim>
				</port>
			</input>
			<output>
				<port id="2" precision="FP16">
					<dim>1</dim>
					<dim>256</dim>
					<dim>160</dim>
					<dim>160</dim>
				</port>
			</output>
		</layer>
		<layer id="83" name="data_add_5498454989/copy_const2592_const" type="Const" version="opset1">
			<data element_type="f16" offset="86896" shape="1,256,1,1" size="512"/>
			<output>
				<port id="1" precision="FP16">
					<dim>1</dim>
					<dim>256</dim>
					<dim>1</dim>
					<dim>1</dim>
				</port>
			</output>
		</layer>
		<layer id="84" name="1027/variance/Fused_Add_" type="Add" version="opset1">
			<input>
				<port id="0">
					<dim>1</dim>
					<dim>256</dim>
					<dim>160</dim>
					<dim>160</dim>
				</port>
				<port id="1">
					<dim>1</dim>
					<dim>256</dim>
					<dim>1</dim>
					<dim>1</dim>
				</port>
			</input>
			<output>
				<port id="2" precision="FP16">
					<dim>1</dim>
					<dim>256</dim>
					<dim>160</dim>
					<dim>160</dim>
				</port>
			</output>
		</layer>
		<layer id="85" name="1093510939_const" type="Const" version="opset1">
			<data element_type="f16" offset="87408" shape="" size="2"/>
			<output>
				<port id="1" precision="FP16"/>
			</output>
		</layer>
		<layer id="86" name="1093610940_const" type="Const" version="opset1">
			<data element_type="f16" offset="87410" shape="" size="2"/>
			<output>
				<port id="1" precision="FP16"/>
			</output>
		</layer>
		<layer id="87" name="1093710941_const" type="Const" version="opset1">
			<data element_type="f16" offset="87408" shape="" size="2"/>
			<output>
				<port id="1" precision="FP16"/>
			</output>
		</layer>
		<layer id="88" name="1093810942_const" type="Const" version="opset1">
			<data element_type="f16" offset="87410" shape="" size="2"/>
			<output>
				<port id="1" precision="FP16"/>
			</output>
		</layer>
		<layer id="89" name="1036/fq_input_1" type="FakeQuantize" version="opset1">
			<data levels="256"/>
			<input>
				<port id="0">
					<dim>1</dim>
					<dim>256</dim>
					<dim>160</dim>
					<dim>160</dim>
				</port>
				<port id="1"/>
				<port id="2"/>
				<port id="3"/>
				<port id="4"/>
			</input>
			<output>
				<port id="5" precision="FP16">
					<dim>1</dim>
					<dim>256</dim>
					<dim>160</dim>
					<dim>160</dim>
				</port>
			</output>
		</layer>
		<layer id="90" name="1036" type="Add" version="opset1">
			<input>
				<port id="0">
					<dim>1</dim>
					<dim>256</dim>
					<dim>160</dim>
					<dim>160</dim>
				</port>
				<port id="1">
					<dim>1</dim>
					<dim>256</dim>
					<dim>160</dim>
					<dim>160</dim>
				</port>
			</input>
			<output>
				<port id="2" precision="FP16">
					<dim>1</dim>
					<dim>256</dim>
					<dim>160</dim>
					<dim>160</dim>
				</port>
			</output>
		</layer>
		<layer id="91" name="1037" type="ReLU" version="opset1">
			<input>
				<port id="0">
					<dim>1</dim>
					<dim>256</dim>
					<dim>160</dim>
					<dim>160</dim>
				</port>
			</input>
			<output>
				<port id="1" precision="FP16">
					<dim>1</dim>
					<dim>256</dim>
					<dim>160</dim>
					<dim>160</dim>
				</port>
			</output>
		</layer>
		<layer id="92" name="1102511029_const" type="Const" version="opset1">
			<data element_type="f16" offset="87412" shape="" size="2"/>
			<output>
				<port id="1" precision="FP16"/>
			</output>
		</layer>
		<layer id="93" name="1102611030_const" type="Const" version="opset1">
			<data element_type="f16" offset="87414" shape="" size="2"/>
			<output>
				<port id="1" precision="FP16"/>
			</output>
		</layer>
		<layer id="94" name="1102711031_const" type="Const" version="opset1">
			<data element_type="f16" offset="87412" shape="" size="2"/>
			<output>
				<port id="1" precision="FP16"/>
			</output>
		</layer>
		<layer id="95" name="1102811032_const" type="Const" version="opset1">
			<data element_type="f16" offset="87414" shape="" size="2"/>
			<output>
				<port id="1" precision="FP16"/>
			</output>
		</layer>
		<layer id="96" name="1038/fq_input_0" type="FakeQuantize" version="opset1">
			<data levels="256"/>
			<input>
				<port id="0">
					<dim>1</dim>
					<dim>256</dim>
					<dim>160</dim>
					<dim>160</dim>
				</port>
				<port id="1"/>
				<port id="2"/>
				<port id="3"/>
				<port id="4"/>
			</input>
			<output>
				<port id="5" precision="FP16">
					<dim>1</dim>
					<dim>256</dim>
					<dim>160</dim>
					<dim>160</dim>
				</port>
			</output>
		</layer>
		<layer id="97" name="1038/fq_weights_1/Convert_to_float/Cast_033903_const" type="Const" version="opset1">
			<data element_type="u8" offset="87416" shape="64,256,1,1" size="16384"/>
			<output>
				<port id="1" precision="U8">
					<dim>64</dim>
					<dim>256</dim>
					<dim>1</dim>
					<dim>1</dim>
				</port>
			</output>
		</layer>
		<layer id="98" name="1038/fq_weights_1/Convert_to_float" type="Convert" version="opset1">
			<data destination_type="f16"/>
			<input>
				<port id="0">
					<dim>64</dim>
					<dim>256</dim>
					<dim>1</dim>
					<dim>1</dim>
				</port>
			</input>
			<output>
				<port id="1" precision="FP16">
					<dim>64</dim>
					<dim>256</dim>
					<dim>1</dim>
					<dim>1</dim>
				</port>
			</output>
		</layer>
		<layer id="99" name="1038/fq_weights_1/Copy/out_low28150_const" type="Const" version="opset1">
			<data element_type="f16" offset="103800" shape="1" size="2"/>
			<output>
				<port id="1" precision="FP16">
					<dim>1</dim>
				</port>
			</output>
		</layer>
		<layer id="100" name="1038/fq_weights_1/Copy/out_high28151_const" type="Const" version="opset1">
			<data element_type="f16" offset="9434" shape="1" size="2"/>
			<output>
				<port id="1" precision="FP16">
					<dim>1</dim>
				</port>
			</output>
		</layer>
		<layer id="101" name="1103711041_const" type="Const" version="opset1">
			<data element_type="f16" offset="103802" shape="64,1,1,1" size="128"/>
			<output>
				<port id="1" precision="FP16">
					<dim>64</dim>
					<dim>1</dim>
					<dim>1</dim>
					<dim>1</dim>
				</port>
			</output>
		</layer>
		<layer id="102" name="1103811042_const" type="Const" version="opset1">
			<data element_type="f16" offset="103930" shape="64,1,1,1" size="128"/>
			<output>
				<port id="1" precision="FP16">
					<dim>64</dim>
					<dim>1</dim>
					<dim>1</dim>
					<dim>1</dim>
				</port>
			</output>
		</layer>
		<layer id="103" name="1038/fq_weights_1" type="FakeQuantize" version="opset1">
			<data levels="255"/>
			<input>
				<port id="0">
					<dim>64</dim>
					<dim>256</dim>
					<dim>1</dim>
					<dim>1</dim>
				</port>
				<port id="1">
					<dim>1</dim>
				</port>
				<port id="2">
					<dim>1</dim>
				</port>
				<port id="3">
					<dim>64</dim>
					<dim>1</dim>
					<dim>1</dim>
					<dim>1</dim>
				</port>
				<port id="4">
					<dim>64</dim>
					<dim>1</dim>
					<dim>1</dim>
					<dim>1</dim>
				</port>
			</input>
			<output>
				<port id="5" precision="FP16">
					<dim>64</dim>
					<dim>256</dim>
					<dim>1</dim>
					<dim>1</dim>
				</port>
			</output>
		</layer>
		<layer id="104" name="1038" type="Convolution" version="opset1">
			<data dilations="1,1" output_padding="0,0" pads_begin="0,0" pads_end="0,0" strides="1,1"/>
			<input>
				<port id="0">
					<dim>1</dim>
					<dim>256</dim>
					<dim>160</dim>
					<dim>160</dim>
				</port>
				<port id="1">
					<dim>64</dim>
					<dim>256</dim>
					<dim>1</dim>
					<dim>1</dim>
				</port>
			</input>
			<output>
				<port id="2" precision="FP16">
					<dim>1</dim>
					<dim>64</dim>
					<dim>160</dim>
					<dim>160</dim>
				</port>
			</output>
		</layer>
		<layer id="105" name="data_add_5499254997/copy_const2598_const" type="Const" version="opset1">
			<data element_type="f16" offset="104058" shape="1,64,1,1" size="128"/>
			<output>
				<port id="1" precision="FP16">
					<dim>1</dim>
					<dim>64</dim>
					<dim>1</dim>
					<dim>1</dim>
				</port>
			</output>
		</layer>
		<layer id="106" name="1039/variance/Fused_Add_" type="Add" version="opset1">
			<input>
				<port id="0">
					<dim>1</dim>
					<dim>64</dim>
					<dim>160</dim>
					<dim>160</dim>
				</port>
				<port id="1">
					<dim>1</dim>
					<dim>64</dim>
					<dim>1</dim>
					<dim>1</dim>
				</port>
			</input>
			<output>
				<port id="2" precision="FP16">
					<dim>1</dim>
					<dim>64</dim>
					<dim>160</dim>
					<dim>160</dim>
				</port>
			</output>
		</layer>
		<layer id="107" name="1040" type="ReLU" version="opset1">
			<input>
				<port id="0">
					<dim>1</dim>
					<dim>64</dim>
					<dim>160</dim>
					<dim>160</dim>
				</port>
			</input>
			<output>
				<port id="1" precision="FP16">
					<dim>1</dim>
					<dim>64</dim>
					<dim>160</dim>
					<dim>160</dim>
				</port>
			</output>
		</layer>
		<layer id="108" name="1090510909_const" type="Const" version="opset1">
			<data element_type="f16" offset="104186" shape="" size="2"/>
			<output>
				<port id="1" precision="FP16"/>
			</output>
		</layer>
		<layer id="109" name="1090610910_const" type="Const" version="opset1">
			<data element_type="f16" offset="104188" shape="" size="2"/>
			<output>
				<port id="1" precision="FP16"/>
			</output>
		</layer>
		<layer id="110" name="1090710911_const" type="Const" version="opset1">
			<data element_type="f16" offset="104186" shape="" size="2"/>
			<output>
				<port id="1" precision="FP16"/>
			</output>
		</layer>
		<layer id="111" name="1090810912_const" type="Const" version="opset1">
			<data element_type="f16" offset="104188" shape="" size="2"/>
			<output>
				<port id="1" precision="FP16"/>
			</output>
		</layer>
		<layer id="112" name="1041/fq_input_0" type="FakeQuantize" version="opset1">
			<data levels="256"/>
			<input>
				<port id="0">
					<dim>1</dim>
					<dim>64</dim>
					<dim>160</dim>
					<dim>160</dim>
				</port>
				<port id="1"/>
				<port id="2"/>
				<port id="3"/>
				<port id="4"/>
			</input>
			<output>
				<port id="5" precision="FP16">
					<dim>1</dim>
					<dim>64</dim>
					<dim>160</dim>
					<dim>160</dim>
				</port>
			</output>
		</layer>
		<layer id="113" name="1041/fq_weights_1/Convert_to_float/Cast_034025_const" type="Const" version="opset1">
			<data element_type="u8" offset="104190" shape="64,64,3,3" size="36864"/>
			<output>
				<port id="1" precision="U8">
					<dim>64</dim>
					<dim>64</dim>
					<dim>3</dim>
					<dim>3</dim>
				</port>
			</output>
		</layer>
		<layer id="114" name="1041/fq_weights_1/Convert_to_float" type="Convert" version="opset1">
			<data destination_type="f16"/>
			<input>
				<port id="0">
					<dim>64</dim>
					<dim>64</dim>
					<dim>3</dim>
					<dim>3</dim>
				</port>
			</input>
			<output>
				<port id="1" precision="FP16">
					<dim>64</dim>
					<dim>64</dim>
					<dim>3</dim>
					<dim>3</dim>
				</port>
			</output>
		</layer>
		<layer id="115" name="1041/fq_weights_1/Copy/out_low28766_const" type="Const" version="opset1">
			<data element_type="f16" offset="141054" shape="1" size="2"/>
			<output>
				<port id="1" precision="FP16">
					<dim>1</dim>
				</port>
			</output>
		</layer>
		<layer id="116" name="1041/fq_weights_1/Copy/out_high28767_const" type="Const" version="opset1">
			<data element_type="f16" offset="9434" shape="1" size="2"/>
			<output>
				<port id="1" precision="FP16">
					<dim>1</dim>
				</port>
			</output>
		</layer>
		<layer id="117" name="1091710921_const" type="Const" version="opset1">
			<data element_type="f16" offset="141056" shape="64,1,1,1" size="128"/>
			<output>
				<port id="1" precision="FP16">
					<dim>64</dim>
					<dim>1</dim>
					<dim>1</dim>
					<dim>1</dim>
				</port>
			</output>
		</layer>
		<layer id="118" name="1091810922_const" type="Const" version="opset1">
			<data element_type="f16" offset="141184" shape="64,1,1,1" size="128"/>
			<output>
				<port id="1" precision="FP16">
					<dim>64</dim>
					<dim>1</dim>
					<dim>1</dim>
					<dim>1</dim>
				</port>
			</output>
		</layer>
		<layer id="119" name="1041/fq_weights_1" type="FakeQuantize" version="opset1">
			<data levels="255"/>
			<input>
				<port id="0">
					<dim>64</dim>
					<dim>64</dim>
					<dim>3</dim>
					<dim>3</dim>
				</port>
				<port id="1">
					<dim>1</dim>
				</port>
				<port id="2">
					<dim>1</dim>
				</port>
				<port id="3">
					<dim>64</dim>
					<dim>1</dim>
					<dim>1</dim>
					<dim>1</dim>
				</port>
				<port id="4">
					<dim>64</dim>
					<dim>1</dim>
					<dim>1</dim>
					<dim>1</dim>
				</port>
			</input>
			<output>
				<port id="5" precision="FP16">
					<dim>64</dim>
					<dim>64</dim>
					<dim>3</dim>
					<dim>3</dim>
				</port>
			</output>
		</layer>
		<layer id="120" name="1041" type="Convolution" version="opset1">
			<data dilations="1,1" output_padding="0,0" pads_begin="1,1" pads_end="1,1" strides="1,1"/>
			<input>
				<port id="0">
					<dim>1</dim>
					<dim>64</dim>
					<dim>160</dim>
					<dim>160</dim>
				</port>
				<port id="1">
					<dim>64</dim>
					<dim>64</dim>
					<dim>3</dim>
					<dim>3</dim>
				</port>
			</input>
			<output>
				<port id="2" precision="FP16">
					<dim>1</dim>
					<dim>64</dim>
					<dim>160</dim>
					<dim>160</dim>
				</port>
			</output>
		</layer>
		<layer id="121" name="data_add_5500055005/copy_const2603_const" type="Const" version="opset1">
			<data element_type="f16" offset="141312" shape="1,64,1,1" size="128"/>
			<output>
				<port id="1" precision="FP16">
					<dim>1</dim>
					<dim>64</dim>
					<dim>1</dim>
					<dim>1</dim>
				</port>
			</output>
		</layer>
		<layer id="122" name="1042/variance/Fused_Add_" type="Add" version="opset1">
			<input>
				<port id="0">
					<dim>1</dim>
					<dim>64</dim>
					<dim>160</dim>
					<dim>160</dim>
				</port>
				<port id="1">
					<dim>1</dim>
					<dim>64</dim>
					<dim>1</dim>
					<dim>1</dim>
				</port>
			</input>
			<output>
				<port id="2" precision="FP16">
					<dim>1</dim>
					<dim>64</dim>
					<dim>160</dim>
					<dim>160</dim>
				</port>
			</output>
		</layer>
		<layer id="123" name="1043" type="ReLU" version="opset1">
			<input>
				<port id="0">
					<dim>1</dim>
					<dim>64</dim>
					<dim>160</dim>
					<dim>160</dim>
				</port>
			</input>
			<output>
				<port id="1" precision="FP16">
					<dim>1</dim>
					<dim>64</dim>
					<dim>160</dim>
					<dim>160</dim>
				</port>
			</output>
		</layer>
		<layer id="124" name="1261512619_const" type="Const" version="opset1">
			<data element_type="f16" offset="141440" shape="" size="2"/>
			<output>
				<port id="1" precision="FP16"/>
			</output>
		</layer>
		<layer id="125" name="1261612620_const" type="Const" version="opset1">
			<data element_type="f16" offset="141442" shape="" size="2"/>
			<output>
				<port id="1" precision="FP16"/>
			</output>
		</layer>
		<layer id="126" name="1261712621_const" type="Const" version="opset1">
			<data element_type="f16" offset="141440" shape="" size="2"/>
			<output>
				<port id="1" precision="FP16"/>
			</output>
		</layer>
		<layer id="127" name="1261812622_const" type="Const" version="opset1">
			<data element_type="f16" offset="141442" shape="" size="2"/>
			<output>
				<port id="1" precision="FP16"/>
			</output>
		</layer>
		<layer id="128" name="1044/fq_input_0" type="FakeQuantize" version="opset1">
			<data levels="256"/>
			<input>
				<port id="0">
					<dim>1</dim>
					<dim>64</dim>
					<dim>160</dim>
					<dim>160</dim>
				</port>
				<port id="1"/>
				<port id="2"/>
				<port id="3"/>
				<port id="4"/>
			</input>
			<output>
				<port id="5" precision="FP16">
					<dim>1</dim>
					<dim>64</dim>
					<dim>160</dim>
					<dim>160</dim>
				</port>
			</output>
		</layer>
		<layer id="129" name="1044/fq_weights_1/Convert_to_float/Cast_033559_const" type="Const" version="opset1">
			<data element_type="u8" offset="141444" shape="256,64,1,1" size="16384"/>
			<output>
				<port id="1" precision="U8">
					<dim>256</dim>
					<dim>64</dim>
					<dim>1</dim>
					<dim>1</dim>
				</port>
			</output>
		</layer>
		<layer id="130" name="1044/fq_weights_1/Convert_to_float" type="Convert" version="opset1">
			<data destination_type="f16"/>
			<input>
				<port id="0">
					<dim>256</dim>
					<dim>64</dim>
					<dim>1</dim>
					<dim>1</dim>
				</port>
			</input>
			<output>
				<port id="1" precision="FP16">
					<dim>256</dim>
					<dim>64</dim>
					<dim>1</dim>
					<dim>1</dim>
				</port>
			</output>
		</layer>
		<layer id="131" name="1044/fq_weights_1/Copy/out_low29150_const" type="Const" version="opset1">
			<data element_type="f16" offset="157828" shape="1" size="2"/>
			<output>
				<port id="1" precision="FP16">
					<dim>1</dim>
				</port>
			</output>
		</layer>
		<layer id="132" name="1044/fq_weights_1/Copy/out_high29151_const" type="Const" version="opset1">
			<data element_type="f16" offset="9434" shape="1" size="2"/>
			<output>
				<port id="1" precision="FP16">
					<dim>1</dim>
				</port>
			</output>
		</layer>
		<layer id="133" name="1262712631_const" type="Const" version="opset1">
			<data element_type="f16" offset="157830" shape="256,1,1,1" size="512"/>
			<output>
				<port id="1" precision="FP16">
					<dim>256</dim>
					<dim>1</dim>
					<dim>1</dim>
					<dim>1</dim>
				</port>
			</output>
		</layer>
		<layer id="134" name="1262812632_const" type="Const" version="opset1">
			<data element_type="f16" offset="158342" shape="256,1,1,1" size="512"/>
			<output>
				<port id="1" precision="FP16">
					<dim>256</dim>
					<dim>1</dim>
					<dim>1</dim>
					<dim>1</dim>
				</port>
			</output>
		</layer>
		<layer id="135" name="1044/fq_weights_1" type="FakeQuantize" version="opset1">
			<data levels="255"/>
			<input>
				<port id="0">
					<dim>256</dim>
					<dim>64</dim>
					<dim>1</dim>
					<dim>1</dim>
				</port>
				<port id="1">
					<dim>1</dim>
				</port>
				<port id="2">
					<dim>1</dim>
				</port>
				<port id="3">
					<dim>256</dim>
					<dim>1</dim>
					<dim>1</dim>
					<dim>1</dim>
				</port>
				<port id="4">
					<dim>256</dim>
					<dim>1</dim>
					<dim>1</dim>
					<dim>1</dim>
				</port>
			</input>
			<output>
				<port id="5" precision="FP16">
					<dim>256</dim>
					<dim>64</dim>
					<dim>1</dim>
					<dim>1</dim>
				</port>
			</output>
		</layer>
		<layer id="136" name="1044" type="Convolution" version="opset1">
			<data dilations="1,1" output_padding="0,0" pads_begin="0,0" pads_end="0,0" strides="1,1"/>
			<input>
				<port id="0">
					<dim>1</dim>
					<dim>64</dim>
					<dim>160</dim>
					<dim>160</dim>
				</port>
				<port id="1">
					<dim>256</dim>
					<dim>64</dim>
					<dim>1</dim>
					<dim>1</dim>
				</port>
			</input>
			<output>
				<port id="2" precision="FP16">
					<dim>1</dim>
					<dim>256</dim>
					<dim>160</dim>
					<dim>160</dim>
				</port>
			</output>
		</layer>
		<layer id="137" name="data_add_5500855013/copy_const2608_const" type="Const" version="opset1">
			<data element_type="f16" offset="158854" shape="1,256,1,1" size="512"/>
			<output>
				<port id="1" precision="FP16">
					<dim>1</dim>
					<dim>256</dim>
					<dim>1</dim>
					<dim>1</dim>
				</port>
			</output>
		</layer>
		<layer id="138" name="1045/variance/Fused_Add_" type="Add" version="opset1">
			<input>
				<port id="0">
					<dim>1</dim>
					<dim>256</dim>
					<dim>160</dim>
					<dim>160</dim>
				</port>
				<port id="1">
					<dim>1</dim>
					<dim>256</dim>
					<dim>1</dim>
					<dim>1</dim>
				</port>
			</input>
			<output>
				<port id="2" precision="FP16">
					<dim>1</dim>
					<dim>256</dim>
					<dim>160</dim>
					<dim>160</dim>
				</port>
			</output>
		</layer>
		<layer id="139" name="1242512429_const" type="Const" version="opset1">
			<data element_type="f16" offset="159366" shape="" size="2"/>
			<output>
				<port id="1" precision="FP16"/>
			</output>
		</layer>
		<layer id="140" name="1242612430_const" type="Const" version="opset1">
			<data element_type="f16" offset="159368" shape="" size="2"/>
			<output>
				<port id="1" precision="FP16"/>
			</output>
		</layer>
		<layer id="141" name="1242712431_const" type="Const" version="opset1">
			<data element_type="f16" offset="159366" shape="" size="2"/>
			<output>
				<port id="1" precision="FP16"/>
			</output>
		</layer>
		<layer id="142" name="1242812432_const" type="Const" version="opset1">
			<data element_type="f16" offset="159368" shape="" size="2"/>
			<output>
				<port id="1" precision="FP16"/>
			</output>
		</layer>
		<layer id="143" name="1046/fq_input_0" type="FakeQuantize" version="opset1">
			<data levels="256"/>
			<input>
				<port id="0">
					<dim>1</dim>
					<dim>256</dim>
					<dim>160</dim>
					<dim>160</dim>
				</port>
				<port id="1"/>
				<port id="2"/>
				<port id="3"/>
				<port id="4"/>
			</input>
			<output>
				<port id="5" precision="FP16">
					<dim>1</dim>
					<dim>256</dim>
					<dim>160</dim>
					<dim>160</dim>
				</port>
			</output>
		</layer>
		<layer id="144" name="1046" type="Add" version="opset1">
			<input>
				<port id="0">
					<dim>1</dim>
					<dim>256</dim>
					<dim>160</dim>
					<dim>160</dim>
				</port>
				<port id="1">
					<dim>1</dim>
					<dim>256</dim>
					<dim>160</dim>
					<dim>160</dim>
				</port>
			</input>
			<output>
				<port id="2" precision="FP16">
					<dim>1</dim>
					<dim>256</dim>
					<dim>160</dim>
					<dim>160</dim>
				</port>
			</output>
		</layer>
		<layer id="145" name="1047" type="ReLU" version="opset1">
			<input>
				<port id="0">
					<dim>1</dim>
					<dim>256</dim>
					<dim>160</dim>
					<dim>160</dim>
				</port>
			</input>
			<output>
				<port id="1" precision="FP16">
					<dim>1</dim>
					<dim>256</dim>
					<dim>160</dim>
					<dim>160</dim>
				</port>
			</output>
		</layer>
		<layer id="146" name="1003510039_const" type="Const" version="opset1">
			<data element_type="f16" offset="159370" shape="" size="2"/>
			<output>
				<port id="1" precision="FP16"/>
			</output>
		</layer>
		<layer id="147" name="1003610040_const" type="Const" version="opset1">
			<data element_type="f16" offset="159372" shape="" size="2"/>
			<output>
				<port id="1" precision="FP16"/>
			</output>
		</layer>
		<layer id="148" name="1003710041_const" type="Const" version="opset1">
			<data element_type="f16" offset="159370" shape="" size="2"/>
			<output>
				<port id="1" precision="FP16"/>
			</output>
		</layer>
		<layer id="149" name="1003810042_const" type="Const" version="opset1">
			<data element_type="f16" offset="159372" shape="" size="2"/>
			<output>
				<port id="1" precision="FP16"/>
			</output>
		</layer>
		<layer id="150" name="1048/fq_input_0" type="FakeQuantize" version="opset1">
			<data levels="256"/>
			<input>
				<port id="0">
					<dim>1</dim>
					<dim>256</dim>
					<dim>160</dim>
					<dim>160</dim>
				</port>
				<port id="1"/>
				<port id="2"/>
				<port id="3"/>
				<port id="4"/>
			</input>
			<output>
				<port id="5" precision="FP16">
					<dim>1</dim>
					<dim>256</dim>
					<dim>160</dim>
					<dim>160</dim>
				</port>
			</output>
		</layer>
		<layer id="151" name="1048/fq_weights_1/Convert_to_float/Cast_033355_const" type="Const" version="opset1">
			<data element_type="u8" offset="159374" shape="64,256,1,1" size="16384"/>
			<output>
				<port id="1" precision="U8">
					<dim>64</dim>
					<dim>256</dim>
					<dim>1</dim>
					<dim>1</dim>
				</port>
			</output>
		</layer>
		<layer id="152" name="1048/fq_weights_1/Convert_to_float" type="Convert" version="opset1">
			<data destination_type="f16"/>
			<input>
				<port id="0">
					<dim>64</dim>
					<dim>256</dim>
					<dim>1</dim>
					<dim>1</dim>
				</port>
			</input>
			<output>
				<port id="1" precision="FP16">
					<dim>64</dim>
					<dim>256</dim>
					<dim>1</dim>
					<dim>1</dim>
				</port>
			</output>
		</layer>
		<layer id="153" name="1048/fq_weights_1/Copy/out_low28190_const" type="Const" version="opset1">
			<data element_type="f16" offset="175758" shape="1" size="2"/>
			<output>
				<port id="1" precision="FP16">
					<dim>1</dim>
				</port>
			</output>
		</layer>
		<layer id="154" name="1048/fq_weights_1/Copy/out_high28191_const" type="Const" version="opset1">
			<data element_type="f16" offset="9434" shape="1" size="2"/>
			<output>
				<port id="1" precision="FP16">
					<dim>1</dim>
				</port>
			</output>
		</layer>
		<layer id="155" name="1004710051_const" type="Const" version="opset1">
			<data element_type="f16" offset="175760" shape="64,1,1,1" size="128"/>
			<output>
				<port id="1" precision="FP16">
					<dim>64</dim>
					<dim>1</dim>
					<dim>1</dim>
					<dim>1</dim>
				</port>
			</output>
		</layer>
		<layer id="156" name="1004810052_const" type="Const" version="opset1">
			<data element_type="f16" offset="175888" shape="64,1,1,1" size="128"/>
			<output>
				<port id="1" precision="FP16">
					<dim>64</dim>
					<dim>1</dim>
					<dim>1</dim>
					<dim>1</dim>
				</port>
			</output>
		</layer>
		<layer id="157" name="1048/fq_weights_1" type="FakeQuantize" version="opset1">
			<data levels="255"/>
			<input>
				<port id="0">
					<dim>64</dim>
					<dim>256</dim>
					<dim>1</dim>
					<dim>1</dim>
				</port>
				<port id="1">
					<dim>1</dim>
				</port>
				<port id="2">
					<dim>1</dim>
				</port>
				<port id="3">
					<dim>64</dim>
					<dim>1</dim>
					<dim>1</dim>
					<dim>1</dim>
				</port>
				<port id="4">
					<dim>64</dim>
					<dim>1</dim>
					<dim>1</dim>
					<dim>1</dim>
				</port>
			</input>
			<output>
				<port id="5" precision="FP16">
					<dim>64</dim>
					<dim>256</dim>
					<dim>1</dim>
					<dim>1</dim>
				</port>
			</output>
		</layer>
		<layer id="158" name="1048" type="Convolution" version="opset1">
			<data dilations="1,1" output_padding="0,0" pads_begin="0,0" pads_end="0,0" strides="1,1"/>
			<input>
				<port id="0">
					<dim>1</dim>
					<dim>256</dim>
					<dim>160</dim>
					<dim>160</dim>
				</port>
				<port id="1">
					<dim>64</dim>
					<dim>256</dim>
					<dim>1</dim>
					<dim>1</dim>
				</port>
			</input>
			<output>
				<port id="2" precision="FP16">
					<dim>1</dim>
					<dim>64</dim>
					<dim>160</dim>
					<dim>160</dim>
				</port>
			</output>
		</layer>
		<layer id="159" name="data_add_5501655021/copy_const2614_const" type="Const" version="opset1">
			<data element_type="f16" offset="176016" shape="1,64,1,1" size="128"/>
			<output>
				<port id="1" precision="FP16">
					<dim>1</dim>
					<dim>64</dim>
					<dim>1</dim>
					<dim>1</dim>
				</port>
			</output>
		</layer>
		<layer id="160" name="1049/variance/Fused_Add_" type="Add" version="opset1">
			<input>
				<port id="0">
					<dim>1</dim>
					<dim>64</dim>
					<dim>160</dim>
					<dim>160</dim>
				</port>
				<port id="1">
					<dim>1</dim>
					<dim>64</dim>
					<dim>1</dim>
					<dim>1</dim>
				</port>
			</input>
			<output>
				<port id="2" precision="FP16">
					<dim>1</dim>
					<dim>64</dim>
					<dim>160</dim>
					<dim>160</dim>
				</port>
			</output>
		</layer>
		<layer id="161" name="1050" type="ReLU" version="opset1">
			<input>
				<port id="0">
					<dim>1</dim>
					<dim>64</dim>
					<dim>160</dim>
					<dim>160</dim>
				</port>
			</input>
			<output>
				<port id="1" precision="FP16">
					<dim>1</dim>
					<dim>64</dim>
					<dim>160</dim>
					<dim>160</dim>
				</port>
			</output>
		</layer>
		<layer id="162" name="1110511109_const" type="Const" version="opset1">
			<data element_type="f16" offset="176144" shape="" size="2"/>
			<output>
				<port id="1" precision="FP16"/>
			</output>
		</layer>
		<layer id="163" name="1110611110_const" type="Const" version="opset1">
			<data element_type="f16" offset="176146" shape="" size="2"/>
			<output>
				<port id="1" precision="FP16"/>
			</output>
		</layer>
		<layer id="164" name="1110711111_const" type="Const" version="opset1">
			<data element_type="f16" offset="176144" shape="" size="2"/>
			<output>
				<port id="1" precision="FP16"/>
			</output>
		</layer>
		<layer id="165" name="1110811112_const" type="Const" version="opset1">
			<data element_type="f16" offset="176146" shape="" size="2"/>
			<output>
				<port id="1" precision="FP16"/>
			</output>
		</layer>
		<layer id="166" name="1051/fq_input_0" type="FakeQuantize" version="opset1">
			<data levels="256"/>
			<input>
				<port id="0">
					<dim>1</dim>
					<dim>64</dim>
					<dim>160</dim>
					<dim>160</dim>
				</port>
				<port id="1"/>
				<port id="2"/>
				<port id="3"/>
				<port id="4"/>
			</input>
			<output>
				<port id="5" precision="FP16">
					<dim>1</dim>
					<dim>64</dim>
					<dim>160</dim>
					<dim>160</dim>
				</port>
			</output>
		</layer>
		<layer id="167" name="1051/fq_weights_1/Convert_to_float/Cast_034071_const" type="Const" version="opset1">
			<data element_type="u8" offset="176148" shape="64,64,3,3" size="36864"/>
			<output>
				<port id="1" precision="U8">
					<dim>64</dim>
					<dim>64</dim>
					<dim>3</dim>
					<dim>3</dim>
				</port>
			</output>
		</layer>
		<layer id="168" name="1051/fq_weights_1/Convert_to_float" type="Convert" version="opset1">
			<data destination_type="f16"/>
			<input>
				<port id="0">
					<dim>64</dim>
					<dim>64</dim>
					<dim>3</dim>
					<dim>3</dim>
				</port>
			</input>
			<output>
				<port id="1" precision="FP16">
					<dim>64</dim>
					<dim>64</dim>
					<dim>3</dim>
					<dim>3</dim>
				</port>
			</output>
		</layer>
		<layer id="169" name="1051/fq_weights_1/Copy/out_low28934_const" type="Const" version="opset1">
			<data element_type="f16" offset="213012" shape="1" size="2"/>
			<output>
				<port id="1" precision="FP16">
					<dim>1</dim>
				</port>
			</output>
		</layer>
		<layer id="170" name="1051/fq_weights_1/Copy/out_high28935_const" type="Const" version="opset1">
			<data element_type="f16" offset="9434" shape="1" size="2"/>
			<output>
				<port id="1" precision="FP16">
					<dim>1</dim>
				</port>
			</output>
		</layer>
		<layer id="171" name="1111711121_const" type="Const" version="opset1">
			<data element_type="f16" offset="213014" shape="64,1,1,1" size="128"/>
			<output>
				<port id="1" precision="FP16">
					<dim>64</dim>
					<dim>1</dim>
					<dim>1</dim>
					<dim>1</dim>
				</port>
			</output>
		</layer>
		<layer id="172" name="1111811122_const" type="Const" version="opset1">
			<data element_type="f16" offset="213142" shape="64,1,1,1" size="128"/>
			<output>
				<port id="1" precision="FP16">
					<dim>64</dim>
					<dim>1</dim>
					<dim>1</dim>
					<dim>1</dim>
				</port>
			</output>
		</layer>
		<layer id="173" name="1051/fq_weights_1" type="FakeQuantize" version="opset1">
			<data levels="255"/>
			<input>
				<port id="0">
					<dim>64</dim>
					<dim>64</dim>
					<dim>3</dim>
					<dim>3</dim>
				</port>
				<port id="1">
					<dim>1</dim>
				</port>
				<port id="2">
					<dim>1</dim>
				</port>
				<port id="3">
					<dim>64</dim>
					<dim>1</dim>
					<dim>1</dim>
					<dim>1</dim>
				</port>
				<port id="4">
					<dim>64</dim>
					<dim>1</dim>
					<dim>1</dim>
					<dim>1</dim>
				</port>
			</input>
			<output>
				<port id="5" precision="FP16">
					<dim>64</dim>
					<dim>64</dim>
					<dim>3</dim>
					<dim>3</dim>
				</port>
			</output>
		</layer>
		<layer id="174" name="1051" type="Convolution" version="opset1">
			<data dilations="1,1" output_padding="0,0" pads_begin="1,1" pads_end="1,1" strides="1,1"/>
			<input>
				<port id="0">
					<dim>1</dim>
					<dim>64</dim>
					<dim>160</dim>
					<dim>160</dim>
				</port>
				<port id="1">
					<dim>64</dim>
					<dim>64</dim>
					<dim>3</dim>
					<dim>3</dim>
				</port>
			</input>
			<output>
				<port id="2" precision="FP16">
					<dim>1</dim>
					<dim>64</dim>
					<dim>160</dim>
					<dim>160</dim>
				</port>
			</output>
		</layer>
		<layer id="175" name="data_add_5502455029/copy_const2619_const" type="Const" version="opset1">
			<data element_type="f16" offset="213270" shape="1,64,1,1" size="128"/>
			<output>
				<port id="1" precision="FP16">
					<dim>1</dim>
					<dim>64</dim>
					<dim>1</dim>
					<dim>1</dim>
				</port>
			</output>
		</layer>
		<layer id="176" name="1052/variance/Fused_Add_" type="Add" version="opset1">
			<input>
				<port id="0">
					<dim>1</dim>
					<dim>64</dim>
					<dim>160</dim>
					<dim>160</dim>
				</port>
				<port id="1">
					<dim>1</dim>
					<dim>64</dim>
					<dim>1</dim>
					<dim>1</dim>
				</port>
			</input>
			<output>
				<port id="2" precision="FP16">
					<dim>1</dim>
					<dim>64</dim>
					<dim>160</dim>
					<dim>160</dim>
				</port>
			</output>
		</layer>
		<layer id="177" name="1053" type="ReLU" version="opset1">
			<input>
				<port id="0">
					<dim>1</dim>
					<dim>64</dim>
					<dim>160</dim>
					<dim>160</dim>
				</port>
			</input>
			<output>
				<port id="1" precision="FP16">
					<dim>1</dim>
					<dim>64</dim>
					<dim>160</dim>
					<dim>160</dim>
				</port>
			</output>
		</layer>
		<layer id="178" name="1160511609_const" type="Const" version="opset1">
			<data element_type="f16" offset="213398" shape="" size="2"/>
			<output>
				<port id="1" precision="FP16"/>
			</output>
		</layer>
		<layer id="179" name="1160611610_const" type="Const" version="opset1">
			<data element_type="f16" offset="213400" shape="" size="2"/>
			<output>
				<port id="1" precision="FP16"/>
			</output>
		</layer>
		<layer id="180" name="1160711611_const" type="Const" version="opset1">
			<data element_type="f16" offset="213398" shape="" size="2"/>
			<output>
				<port id="1" precision="FP16"/>
			</output>
		</layer>
		<layer id="181" name="1160811612_const" type="Const" version="opset1">
			<data element_type="f16" offset="213400" shape="" size="2"/>
			<output>
				<port id="1" precision="FP16"/>
			</output>
		</layer>
		<layer id="182" name="1054/fq_input_0" type="FakeQuantize" version="opset1">
			<data levels="256"/>
			<input>
				<port id="0">
					<dim>1</dim>
					<dim>64</dim>
					<dim>160</dim>
					<dim>160</dim>
				</port>
				<port id="1"/>
				<port id="2"/>
				<port id="3"/>
				<port id="4"/>
			</input>
			<output>
				<port id="5" precision="FP16">
					<dim>1</dim>
					<dim>64</dim>
					<dim>160</dim>
					<dim>160</dim>
				</port>
			</output>
		</layer>
		<layer id="183" name="1054/fq_weights_1/Convert_to_float/Cast_033971_const" type="Const" version="opset1">
			<data element_type="u8" offset="213402" shape="256,64,1,1" size="16384"/>
			<output>
				<port id="1" precision="U8">
					<dim>256</dim>
					<dim>64</dim>
					<dim>1</dim>
					<dim>1</dim>
				</port>
			</output>
		</layer>
		<layer id="184" name="1054/fq_weights_1/Convert_to_float" type="Convert" version="opset1">
			<data destination_type="f16"/>
			<input>
				<port id="0">
					<dim>256</dim>
					<dim>64</dim>
					<dim>1</dim>
					<dim>1</dim>
				</port>
			</input>
			<output>
				<port id="1" precision="FP16">
					<dim>256</dim>
					<dim>64</dim>
					<dim>1</dim>
					<dim>1</dim>
				</port>
			</output>
		</layer>
		<layer id="185" name="1054/fq_weights_1/Copy/out_low28870_const" type="Const" version="opset1">
			<data element_type="f16" offset="229786" shape="1" size="2"/>
			<output>
				<port id="1" precision="FP16">
					<dim>1</dim>
				</port>
			</output>
		</layer>
		<layer id="186" name="1054/fq_weights_1/Copy/out_high28871_const" type="Const" version="opset1">
			<data element_type="f16" offset="9434" shape="1" size="2"/>
			<output>
				<port id="1" precision="FP16">
					<dim>1</dim>
				</port>
			</output>
		</layer>
		<layer id="187" name="1161711621_const" type="Const" version="opset1">
			<data element_type="f16" offset="229788" shape="256,1,1,1" size="512"/>
			<output>
				<port id="1" precision="FP16">
					<dim>256</dim>
					<dim>1</dim>
					<dim>1</dim>
					<dim>1</dim>
				</port>
			</output>
		</layer>
		<layer id="188" name="1161811622_const" type="Const" version="opset1">
			<data element_type="f16" offset="230300" shape="256,1,1,1" size="512"/>
			<output>
				<port id="1" precision="FP16">
					<dim>256</dim>
					<dim>1</dim>
					<dim>1</dim>
					<dim>1</dim>
				</port>
			</output>
		</layer>
		<layer id="189" name="1054/fq_weights_1" type="FakeQuantize" version="opset1">
			<data levels="255"/>
			<input>
				<port id="0">
					<dim>256</dim>
					<dim>64</dim>
					<dim>1</dim>
					<dim>1</dim>
				</port>
				<port id="1">
					<dim>1</dim>
				</port>
				<port id="2">
					<dim>1</dim>
				</port>
				<port id="3">
					<dim>256</dim>
					<dim>1</dim>
					<dim>1</dim>
					<dim>1</dim>
				</port>
				<port id="4">
					<dim>256</dim>
					<dim>1</dim>
					<dim>1</dim>
					<dim>1</dim>
				</port>
			</input>
			<output>
				<port id="5" precision="FP16">
					<dim>256</dim>
					<dim>64</dim>
					<dim>1</dim>
					<dim>1</dim>
				</port>
			</output>
		</layer>
		<layer id="190" name="1054" type="Convolution" version="opset1">
			<data dilations="1,1" output_padding="0,0" pads_begin="0,0" pads_end="0,0" strides="1,1"/>
			<input>
				<port id="0">
					<dim>1</dim>
					<dim>64</dim>
					<dim>160</dim>
					<dim>160</dim>
				</port>
				<port id="1">
					<dim>256</dim>
					<dim>64</dim>
					<dim>1</dim>
					<dim>1</dim>
				</port>
			</input>
			<output>
				<port id="2" precision="FP16">
					<dim>1</dim>
					<dim>256</dim>
					<dim>160</dim>
					<dim>160</dim>
				</port>
			</output>
		</layer>
		<layer id="191" name="data_add_5503255037/copy_const2624_const" type="Const" version="opset1">
			<data element_type="f16" offset="230812" shape="1,256,1,1" size="512"/>
			<output>
				<port id="1" precision="FP16">
					<dim>1</dim>
					<dim>256</dim>
					<dim>1</dim>
					<dim>1</dim>
				</port>
			</output>
		</layer>
		<layer id="192" name="1055/variance/Fused_Add_" type="Add" version="opset1">
			<input>
				<port id="0">
					<dim>1</dim>
					<dim>256</dim>
					<dim>160</dim>
					<dim>160</dim>
				</port>
				<port id="1">
					<dim>1</dim>
					<dim>256</dim>
					<dim>1</dim>
					<dim>1</dim>
				</port>
			</input>
			<output>
				<port id="2" precision="FP16">
					<dim>1</dim>
					<dim>256</dim>
					<dim>160</dim>
					<dim>160</dim>
				</port>
			</output>
		</layer>
		<layer id="193" name="1401514019_const" type="Const" version="opset1">
			<data element_type="f16" offset="231324" shape="" size="2"/>
			<output>
				<port id="1" precision="FP16"/>
			</output>
		</layer>
		<layer id="194" name="1401614020_const" type="Const" version="opset1">
			<data element_type="f16" offset="231326" shape="" size="2"/>
			<output>
				<port id="1" precision="FP16"/>
			</output>
		</layer>
		<layer id="195" name="1401714021_const" type="Const" version="opset1">
			<data element_type="f16" offset="231324" shape="" size="2"/>
			<output>
				<port id="1" precision="FP16"/>
			</output>
		</layer>
		<layer id="196" name="1401814022_const" type="Const" version="opset1">
			<data element_type="f16" offset="231326" shape="" size="2"/>
			<output>
				<port id="1" precision="FP16"/>
			</output>
		</layer>
		<layer id="197" name="1056/fq_input_0" type="FakeQuantize" version="opset1">
			<data levels="256"/>
			<input>
				<port id="0">
					<dim>1</dim>
					<dim>256</dim>
					<dim>160</dim>
					<dim>160</dim>
				</port>
				<port id="1"/>
				<port id="2"/>
				<port id="3"/>
				<port id="4"/>
			</input>
			<output>
				<port id="5" precision="FP16">
					<dim>1</dim>
					<dim>256</dim>
					<dim>160</dim>
					<dim>160</dim>
				</port>
			</output>
		</layer>
		<layer id="198" name="1056" type="Add" version="opset1">
			<input>
				<port id="0">
					<dim>1</dim>
					<dim>256</dim>
					<dim>160</dim>
					<dim>160</dim>
				</port>
				<port id="1">
					<dim>1</dim>
					<dim>256</dim>
					<dim>160</dim>
					<dim>160</dim>
				</port>
			</input>
			<output>
				<port id="2" precision="FP16">
					<dim>1</dim>
					<dim>256</dim>
					<dim>160</dim>
					<dim>160</dim>
				</port>
			</output>
		</layer>
		<layer id="199" name="1057" type="ReLU" version="opset1">
			<input>
				<port id="0">
					<dim>1</dim>
					<dim>256</dim>
					<dim>160</dim>
					<dim>160</dim>
				</port>
			</input>
			<output>
				<port id="1" precision="FP16">
					<dim>1</dim>
					<dim>256</dim>
					<dim>160</dim>
					<dim>160</dim>
				</port>
			</output>
		</layer>
		<layer id="200" name="1287512879_const" type="Const" version="opset1">
			<data element_type="f16" offset="231328" shape="" size="2"/>
			<output>
				<port id="1" precision="FP16"/>
			</output>
		</layer>
		<layer id="201" name="1287612880_const" type="Const" version="opset1">
			<data element_type="f16" offset="231330" shape="" size="2"/>
			<output>
				<port id="1" precision="FP16"/>
			</output>
		</layer>
		<layer id="202" name="1287712881_const" type="Const" version="opset1">
			<data element_type="f16" offset="231328" shape="" size="2"/>
			<output>
				<port id="1" precision="FP16"/>
			</output>
		</layer>
		<layer id="203" name="1287812882_const" type="Const" version="opset1">
			<data element_type="f16" offset="231330" shape="" size="2"/>
			<output>
				<port id="1" precision="FP16"/>
			</output>
		</layer>
		<layer id="204" name="1058/fq_input_0" type="FakeQuantize" version="opset1">
			<data levels="256"/>
			<input>
				<port id="0">
					<dim>1</dim>
					<dim>256</dim>
					<dim>160</dim>
					<dim>160</dim>
				</port>
				<port id="1"/>
				<port id="2"/>
				<port id="3"/>
				<port id="4"/>
			</input>
			<output>
				<port id="5" precision="FP16">
					<dim>1</dim>
					<dim>256</dim>
					<dim>160</dim>
					<dim>160</dim>
				</port>
			</output>
		</layer>
		<layer id="205" name="1534/WithoutBiases/fq_weights_1/Convert_to_float/Cast_034125_const" type="Const" version="opset1">
			<data element_type="u8" offset="231332" shape="256,256,1,1" size="65536"/>
			<output>
				<port id="1" precision="U8">
					<dim>256</dim>
					<dim>256</dim>
					<dim>1</dim>
					<dim>1</dim>
				</port>
			</output>
		</layer>
		<layer id="206" name="1534/WithoutBiases/fq_weights_1/Convert_to_float" type="Convert" version="opset1">
			<data destination_type="f16"/>
			<input>
				<port id="0">
					<dim>256</dim>
					<dim>256</dim>
					<dim>1</dim>
					<dim>1</dim>
				</port>
			</input>
			<output>
				<port id="1" precision="FP16">
					<dim>256</dim>
					<dim>256</dim>
					<dim>1</dim>
					<dim>1</dim>
				</port>
			</output>
		</layer>
		<layer id="207" name="1534/WithoutBiases/fq_weights_1/Copy/out_low28470_const" type="Const" version="opset1">
			<data element_type="f16" offset="296868" shape="1" size="2"/>
			<output>
				<port id="1" precision="FP16">
					<dim>1</dim>
				</port>
			</output>
		</layer>
		<layer id="208" name="1534/WithoutBiases/fq_weights_1/Copy/out_high28471_const" type="Const" version="opset1">
			<data element_type="f16" offset="9434" shape="1" size="2"/>
			<output>
				<port id="1" precision="FP16">
					<dim>1</dim>
				</port>
			</output>
		</layer>
		<layer id="209" name="97979801_const" type="Const" version="opset1">
			<data element_type="f16" offset="296870" shape="256,1,1,1" size="512"/>
			<output>
				<port id="1" precision="FP16">
					<dim>256</dim>
					<dim>1</dim>
					<dim>1</dim>
					<dim>1</dim>
				</port>
			</output>
		</layer>
		<layer id="210" name="97989802_const" type="Const" version="opset1">
			<data element_type="f16" offset="297382" shape="256,1,1,1" size="512"/>
			<output>
				<port id="1" precision="FP16">
					<dim>256</dim>
					<dim>1</dim>
					<dim>1</dim>
					<dim>1</dim>
				</port>
			</output>
		</layer>
		<layer id="211" name="1534/WithoutBiases/fq_weights_1" type="FakeQuantize" version="opset1">
			<data levels="255"/>
			<input>
				<port id="0">
					<dim>256</dim>
					<dim>256</dim>
					<dim>1</dim>
					<dim>1</dim>
				</port>
				<port id="1">
					<dim>1</dim>
				</port>
				<port id="2">
					<dim>1</dim>
				</port>
				<port id="3">
					<dim>256</dim>
					<dim>1</dim>
					<dim>1</dim>
					<dim>1</dim>
				</port>
				<port id="4">
					<dim>256</dim>
					<dim>1</dim>
					<dim>1</dim>
					<dim>1</dim>
				</port>
			</input>
			<output>
				<port id="5" precision="FP16">
					<dim>256</dim>
					<dim>256</dim>
					<dim>1</dim>
					<dim>1</dim>
				</port>
			</output>
		</layer>
		<layer id="212" name="1534/WithoutBiases" type="Convolution" version="opset1">
			<data dilations="1,1" output_padding="0,0" pads_begin="0,0" pads_end="0,0" strides="1,1"/>
			<input>
				<port id="0">
					<dim>1</dim>
					<dim>256</dim>
					<dim>160</dim>
					<dim>160</dim>
				</port>
				<port id="1">
					<dim>256</dim>
					<dim>256</dim>
					<dim>1</dim>
					<dim>1</dim>
				</port>
			</input>
			<output>
				<port id="2" precision="FP16">
					<dim>1</dim>
					<dim>256</dim>
					<dim>160</dim>
					<dim>160</dim>
				</port>
			</output>
		</layer>
		<layer id="213" name="1534/Dims34888/copy_const2630_const" type="Const" version="opset1">
			<data element_type="f16" offset="297894" shape="1,256,1,1" size="512"/>
			<output>
				<port id="1" precision="FP16">
					<dim>1</dim>
					<dim>256</dim>
					<dim>1</dim>
					<dim>1</dim>
				</port>
			</output>
		</layer>
		<layer id="214" name="1534" type="Add" version="opset1">
			<input>
				<port id="0">
					<dim>1</dim>
					<dim>256</dim>
					<dim>160</dim>
					<dim>160</dim>
				</port>
				<port id="1">
					<dim>1</dim>
					<dim>256</dim>
					<dim>1</dim>
					<dim>1</dim>
				</port>
			</input>
			<output>
				<port id="2" precision="FP16">
					<dim>1</dim>
					<dim>256</dim>
					<dim>160</dim>
					<dim>160</dim>
				</port>
			</output>
		</layer>
		<layer id="215" name="92559259_const" type="Const" version="opset1">
			<data element_type="f16" offset="298406" shape="" size="2"/>
			<output>
				<port id="1" precision="FP16"/>
			</output>
		</layer>
		<layer id="216" name="92569260_const" type="Const" version="opset1">
			<data element_type="f16" offset="298408" shape="" size="2"/>
			<output>
				<port id="1" precision="FP16"/>
			</output>
		</layer>
		<layer id="217" name="92579261_const" type="Const" version="opset1">
			<data element_type="f16" offset="298406" shape="" size="2"/>
			<output>
				<port id="1" precision="FP16"/>
			</output>
		</layer>
		<layer id="218" name="92589262_const" type="Const" version="opset1">
			<data element_type="f16" offset="298408" shape="" size="2"/>
			<output>
				<port id="1" precision="FP16"/>
			</output>
		</layer>
		<layer id="219" name="1624/fq_input_0" type="FakeQuantize" version="opset1">
			<data levels="256"/>
			<input>
				<port id="0">
					<dim>1</dim>
					<dim>256</dim>
					<dim>160</dim>
					<dim>160</dim>
				</port>
				<port id="1"/>
				<port id="2"/>
				<port id="3"/>
				<port id="4"/>
			</input>
			<output>
				<port id="5" precision="FP16">
					<dim>1</dim>
					<dim>256</dim>
					<dim>160</dim>
					<dim>160</dim>
				</port>
			</output>
		</layer>
		<layer id="220" name="1060/fq_weights_1/Convert_to_float/Cast_033491_const" type="Const" version="opset1">
			<data element_type="u8" offset="298410" shape="128,256,1,1" size="32768"/>
			<output>
				<port id="1" precision="U8">
					<dim>128</dim>
					<dim>256</dim>
					<dim>1</dim>
					<dim>1</dim>
				</port>
			</output>
		</layer>
		<layer id="221" name="1060/fq_weights_1/Convert_to_float" type="Convert" version="opset1">
			<data destination_type="f16"/>
			<input>
				<port id="0">
					<dim>128</dim>
					<dim>256</dim>
					<dim>1</dim>
					<dim>1</dim>
				</port>
			</input>
			<output>
				<port id="1" precision="FP16">
					<dim>128</dim>
					<dim>256</dim>
					<dim>1</dim>
					<dim>1</dim>
				</port>
			</output>
		</layer>
		<layer id="222" name="1060/fq_weights_1/Copy/out_low28558_const" type="Const" version="opset1">
			<data element_type="f16" offset="296868" shape="1" size="2"/>
			<output>
				<port id="1" precision="FP16">
					<dim>1</dim>
				</port>
			</output>
		</layer>
		<layer id="223" name="1060/fq_weights_1/Copy/out_high28559_const" type="Const" version="opset1">
			<data element_type="f16" offset="9434" shape="1" size="2"/>
			<output>
				<port id="1" precision="FP16">
					<dim>1</dim>
				</port>
			</output>
		</layer>
		<layer id="224" name="1186711871_const" type="Const" version="opset1">
			<data element_type="f16" offset="331178" shape="128,1,1,1" size="256"/>
			<output>
				<port id="1" precision="FP16">
					<dim>128</dim>
					<dim>1</dim>
					<dim>1</dim>
					<dim>1</dim>
				</port>
			</output>
		</layer>
		<layer id="225" name="1186811872_const" type="Const" version="opset1">
			<data element_type="f16" offset="331434" shape="128,1,1,1" size="256"/>
			<output>
				<port id="1" precision="FP16">
					<dim>128</dim>
					<dim>1</dim>
					<dim>1</dim>
					<dim>1</dim>
				</port>
			</output>
		</layer>
		<layer id="226" name="1060/fq_weights_1" type="FakeQuantize" version="opset1">
			<data levels="255"/>
			<input>
				<port id="0">
					<dim>128</dim>
					<dim>256</dim>
					<dim>1</dim>
					<dim>1</dim>
				</port>
				<port id="1">
					<dim>1</dim>
				</port>
				<port id="2">
					<dim>1</dim>
				</port>
				<port id="3">
					<dim>128</dim>
					<dim>1</dim>
					<dim>1</dim>
					<dim>1</dim>
				</port>
				<port id="4">
					<dim>128</dim>
					<dim>1</dim>
					<dim>1</dim>
					<dim>1</dim>
				</port>
			</input>
			<output>
				<port id="5" precision="FP16">
					<dim>128</dim>
					<dim>256</dim>
					<dim>1</dim>
					<dim>1</dim>
				</port>
			</output>
		</layer>
		<layer id="227" name="1060" type="Convolution" version="opset1">
			<data dilations="1,1" output_padding="0,0" pads_begin="0,0" pads_end="0,0" strides="1,1"/>
			<input>
				<port id="0">
					<dim>1</dim>
					<dim>256</dim>
					<dim>160</dim>
					<dim>160</dim>
				</port>
				<port id="1">
					<dim>128</dim>
					<dim>256</dim>
					<dim>1</dim>
					<dim>1</dim>
				</port>
			</input>
			<output>
				<port id="2" precision="FP16">
					<dim>1</dim>
					<dim>128</dim>
					<dim>160</dim>
					<dim>160</dim>
				</port>
			</output>
		</layer>
		<layer id="228" name="data_add_5504055045/copy_const2634_const" type="Const" version="opset1">
			<data element_type="f16" offset="331690" shape="1,128,1,1" size="256"/>
			<output>
				<port id="1" precision="FP16">
					<dim>1</dim>
					<dim>128</dim>
					<dim>1</dim>
					<dim>1</dim>
				</port>
			</output>
		</layer>
		<layer id="229" name="1061/variance/Fused_Add_" type="Add" version="opset1">
			<input>
				<port id="0">
					<dim>1</dim>
					<dim>128</dim>
					<dim>160</dim>
					<dim>160</dim>
				</port>
				<port id="1">
					<dim>1</dim>
					<dim>128</dim>
					<dim>1</dim>
					<dim>1</dim>
				</port>
			</input>
			<output>
				<port id="2" precision="FP16">
					<dim>1</dim>
					<dim>128</dim>
					<dim>160</dim>
					<dim>160</dim>
				</port>
			</output>
		</layer>
		<layer id="230" name="1062" type="ReLU" version="opset1">
			<input>
				<port id="0">
					<dim>1</dim>
					<dim>128</dim>
					<dim>160</dim>
					<dim>160</dim>
				</port>
			</input>
			<output>
				<port id="1" precision="FP16">
					<dim>1</dim>
					<dim>128</dim>
					<dim>160</dim>
					<dim>160</dim>
				</port>
			</output>
		</layer>
		<layer id="231" name="1215512159_const" type="Const" version="opset1">
			<data element_type="f16" offset="331946" shape="" size="2"/>
			<output>
				<port id="1" precision="FP16"/>
			</output>
		</layer>
		<layer id="232" name="1215612160_const" type="Const" version="opset1">
			<data element_type="f16" offset="331948" shape="" size="2"/>
			<output>
				<port id="1" precision="FP16"/>
			</output>
		</layer>
		<layer id="233" name="1215712161_const" type="Const" version="opset1">
			<data element_type="f16" offset="331946" shape="" size="2"/>
			<output>
				<port id="1" precision="FP16"/>
			</output>
		</layer>
		<layer id="234" name="1215812162_const" type="Const" version="opset1">
			<data element_type="f16" offset="331948" shape="" size="2"/>
			<output>
				<port id="1" precision="FP16"/>
			</output>
		</layer>
		<layer id="235" name="1063/fq_input_0" type="FakeQuantize" version="opset1">
			<data levels="256"/>
			<input>
				<port id="0">
					<dim>1</dim>
					<dim>128</dim>
					<dim>160</dim>
					<dim>160</dim>
				</port>
				<port id="1"/>
				<port id="2"/>
				<port id="3"/>
				<port id="4"/>
			</input>
			<output>
				<port id="5" precision="FP16">
					<dim>1</dim>
					<dim>128</dim>
					<dim>160</dim>
					<dim>160</dim>
				</port>
			</output>
		</layer>
		<layer id="236" name="1063/fq_weights_1/Convert_to_float/Cast_033773_const" type="Const" version="opset1">
			<data element_type="u8" offset="331950" shape="128,128,3,3" size="147456"/>
			<output>
				<port id="1" precision="U8">
					<dim>128</dim>
					<dim>128</dim>
					<dim>3</dim>
					<dim>3</dim>
				</port>
			</output>
		</layer>
		<layer id="237" name="1063/fq_weights_1/Convert_to_float" type="Convert" version="opset1">
			<data destination_type="f16"/>
			<input>
				<port id="0">
					<dim>128</dim>
					<dim>128</dim>
					<dim>3</dim>
					<dim>3</dim>
				</port>
			</input>
			<output>
				<port id="1" precision="FP16">
					<dim>128</dim>
					<dim>128</dim>
					<dim>3</dim>
					<dim>3</dim>
				</port>
			</output>
		</layer>
		<layer id="238" name="1063/fq_weights_1/Copy/out_low29326_const" type="Const" version="opset1">
			<data element_type="f16" offset="479406" shape="1" size="2"/>
			<output>
				<port id="1" precision="FP16">
					<dim>1</dim>
				</port>
			</output>
		</layer>
		<layer id="239" name="1063/fq_weights_1/Copy/out_high29327_const" type="Const" version="opset1">
			<data element_type="f16" offset="9434" shape="1" size="2"/>
			<output>
				<port id="1" precision="FP16">
					<dim>1</dim>
				</port>
			</output>
		</layer>
		<layer id="240" name="1216712171_const" type="Const" version="opset1">
			<data element_type="f16" offset="479408" shape="128,1,1,1" size="256"/>
			<output>
				<port id="1" precision="FP16">
					<dim>128</dim>
					<dim>1</dim>
					<dim>1</dim>
					<dim>1</dim>
				</port>
			</output>
		</layer>
		<layer id="241" name="1216812172_const" type="Const" version="opset1">
			<data element_type="f16" offset="479664" shape="128,1,1,1" size="256"/>
			<output>
				<port id="1" precision="FP16">
					<dim>128</dim>
					<dim>1</dim>
					<dim>1</dim>
					<dim>1</dim>
				</port>
			</output>
		</layer>
		<layer id="242" name="1063/fq_weights_1" type="FakeQuantize" version="opset1">
			<data levels="255"/>
			<input>
				<port id="0">
					<dim>128</dim>
					<dim>128</dim>
					<dim>3</dim>
					<dim>3</dim>
				</port>
				<port id="1">
					<dim>1</dim>
				</port>
				<port id="2">
					<dim>1</dim>
				</port>
				<port id="3">
					<dim>128</dim>
					<dim>1</dim>
					<dim>1</dim>
					<dim>1</dim>
				</port>
				<port id="4">
					<dim>128</dim>
					<dim>1</dim>
					<dim>1</dim>
					<dim>1</dim>
				</port>
			</input>
			<output>
				<port id="5" precision="FP16">
					<dim>128</dim>
					<dim>128</dim>
					<dim>3</dim>
					<dim>3</dim>
				</port>
			</output>
		</layer>
		<layer id="243" name="1063" type="Convolution" version="opset1">
			<data dilations="1,1" output_padding="0,0" pads_begin="1,1" pads_end="1,1" strides="2,2"/>
			<input>
				<port id="0">
					<dim>1</dim>
					<dim>128</dim>
					<dim>160</dim>
					<dim>160</dim>
				</port>
				<port id="1">
					<dim>128</dim>
					<dim>128</dim>
					<dim>3</dim>
					<dim>3</dim>
				</port>
			</input>
			<output>
				<port id="2" precision="FP16">
					<dim>1</dim>
					<dim>128</dim>
					<dim>80</dim>
					<dim>80</dim>
				</port>
			</output>
		</layer>
		<layer id="244" name="data_add_5504855053/copy_const2639_const" type="Const" version="opset1">
			<data element_type="f16" offset="479920" shape="1,128,1,1" size="256"/>
			<output>
				<port id="1" precision="FP16">
					<dim>1</dim>
					<dim>128</dim>
					<dim>1</dim>
					<dim>1</dim>
				</port>
			</output>
		</layer>
		<layer id="245" name="1064/variance/Fused_Add_" type="Add" version="opset1">
			<input>
				<port id="0">
					<dim>1</dim>
					<dim>128</dim>
					<dim>80</dim>
					<dim>80</dim>
				</port>
				<port id="1">
					<dim>1</dim>
					<dim>128</dim>
					<dim>1</dim>
					<dim>1</dim>
				</port>
			</input>
			<output>
				<port id="2" precision="FP16">
					<dim>1</dim>
					<dim>128</dim>
					<dim>80</dim>
					<dim>80</dim>
				</port>
			</output>
		</layer>
		<layer id="246" name="1065" type="ReLU" version="opset1">
			<input>
				<port id="0">
					<dim>1</dim>
					<dim>128</dim>
					<dim>80</dim>
					<dim>80</dim>
				</port>
			</input>
			<output>
				<port id="1" precision="FP16">
					<dim>1</dim>
					<dim>128</dim>
					<dim>80</dim>
					<dim>80</dim>
				</port>
			</output>
		</layer>
		<layer id="247" name="1158511589_const" type="Const" version="opset1">
			<data element_type="f16" offset="480176" shape="" size="2"/>
			<output>
				<port id="1" precision="FP16"/>
			</output>
		</layer>
		<layer id="248" name="1158611590_const" type="Const" version="opset1">
			<data element_type="f16" offset="480178" shape="" size="2"/>
			<output>
				<port id="1" precision="FP16"/>
			</output>
		</layer>
		<layer id="249" name="1158711591_const" type="Const" version="opset1">
			<data element_type="f16" offset="480176" shape="" size="2"/>
			<output>
				<port id="1" precision="FP16"/>
			</output>
		</layer>
		<layer id="250" name="1158811592_const" type="Const" version="opset1">
			<data element_type="f16" offset="480178" shape="" size="2"/>
			<output>
				<port id="1" precision="FP16"/>
			</output>
		</layer>
		<layer id="251" name="1066/fq_input_0" type="FakeQuantize" version="opset1">
			<data levels="256"/>
			<input>
				<port id="0">
					<dim>1</dim>
					<dim>128</dim>
					<dim>80</dim>
					<dim>80</dim>
				</port>
				<port id="1"/>
				<port id="2"/>
				<port id="3"/>
				<port id="4"/>
			</input>
			<output>
				<port id="5" precision="FP16">
					<dim>1</dim>
					<dim>128</dim>
					<dim>80</dim>
					<dim>80</dim>
				</port>
			</output>
		</layer>
		<layer id="252" name="1066/fq_weights_1/Convert_to_float/Cast_033337_const" type="Const" version="opset1">
			<data element_type="u8" offset="480180" shape="512,128,1,1" size="65536"/>
			<output>
				<port id="1" precision="U8">
					<dim>512</dim>
					<dim>128</dim>
					<dim>1</dim>
					<dim>1</dim>
				</port>
			</output>
		</layer>
		<layer id="253" name="1066/fq_weights_1/Convert_to_float" type="Convert" version="opset1">
			<data destination_type="f16"/>
			<input>
				<port id="0">
					<dim>512</dim>
					<dim>128</dim>
					<dim>1</dim>
					<dim>1</dim>
				</port>
			</input>
			<output>
				<port id="1" precision="FP16">
					<dim>512</dim>
					<dim>128</dim>
					<dim>1</dim>
					<dim>1</dim>
				</port>
			</output>
		</layer>
		<layer id="254" name="1066/fq_weights_1/Copy/out_low28582_const" type="Const" version="opset1">
			<data element_type="f16" offset="545716" shape="1" size="2"/>
			<output>
				<port id="1" precision="FP16">
					<dim>1</dim>
				</port>
			</output>
		</layer>
		<layer id="255" name="1066/fq_weights_1/Copy/out_high28583_const" type="Const" version="opset1">
			<data element_type="f16" offset="9434" shape="1" size="2"/>
			<output>
				<port id="1" precision="FP16">
					<dim>1</dim>
				</port>
			</output>
		</layer>
		<layer id="256" name="1159711601_const" type="Const" version="opset1">
			<data element_type="f16" offset="545718" shape="512,1,1,1" size="1024"/>
			<output>
				<port id="1" precision="FP16">
					<dim>512</dim>
					<dim>1</dim>
					<dim>1</dim>
					<dim>1</dim>
				</port>
			</output>
		</layer>
		<layer id="257" name="1159811602_const" type="Const" version="opset1">
			<data element_type="f16" offset="546742" shape="512,1,1,1" size="1024"/>
			<output>
				<port id="1" precision="FP16">
					<dim>512</dim>
					<dim>1</dim>
					<dim>1</dim>
					<dim>1</dim>
				</port>
			</output>
		</layer>
		<layer id="258" name="1066/fq_weights_1" type="FakeQuantize" version="opset1">
			<data levels="255"/>
			<input>
				<port id="0">
					<dim>512</dim>
					<dim>128</dim>
					<dim>1</dim>
					<dim>1</dim>
				</port>
				<port id="1">
					<dim>1</dim>
				</port>
				<port id="2">
					<dim>1</dim>
				</port>
				<port id="3">
					<dim>512</dim>
					<dim>1</dim>
					<dim>1</dim>
					<dim>1</dim>
				</port>
				<port id="4">
					<dim>512</dim>
					<dim>1</dim>
					<dim>1</dim>
					<dim>1</dim>
				</port>
			</input>
			<output>
				<port id="5" precision="FP16">
					<dim>512</dim>
					<dim>128</dim>
					<dim>1</dim>
					<dim>1</dim>
				</port>
			</output>
		</layer>
		<layer id="259" name="1066" type="Convolution" version="opset1">
			<data dilations="1,1" output_padding="0,0" pads_begin="0,0" pads_end="0,0" strides="1,1"/>
			<input>
				<port id="0">
					<dim>1</dim>
					<dim>128</dim>
					<dim>80</dim>
					<dim>80</dim>
				</port>
				<port id="1">
					<dim>512</dim>
					<dim>128</dim>
					<dim>1</dim>
					<dim>1</dim>
				</port>
			</input>
			<output>
				<port id="2" precision="FP16">
					<dim>1</dim>
					<dim>512</dim>
					<dim>80</dim>
					<dim>80</dim>
				</port>
			</output>
		</layer>
		<layer id="260" name="data_add_5505655061/copy_const2644_const" type="Const" version="opset1">
			<data element_type="f16" offset="547766" shape="1,512,1,1" size="1024"/>
			<output>
				<port id="1" precision="FP16">
					<dim>1</dim>
					<dim>512</dim>
					<dim>1</dim>
					<dim>1</dim>
				</port>
			</output>
		</layer>
		<layer id="261" name="1067/variance/Fused_Add_" type="Add" version="opset1">
			<input>
				<port id="0">
					<dim>1</dim>
					<dim>512</dim>
					<dim>80</dim>
					<dim>80</dim>
				</port>
				<port id="1">
					<dim>1</dim>
					<dim>512</dim>
					<dim>1</dim>
					<dim>1</dim>
				</port>
			</input>
			<output>
				<port id="2" precision="FP16">
					<dim>1</dim>
					<dim>512</dim>
					<dim>80</dim>
					<dim>80</dim>
				</port>
			</output>
		</layer>
		<layer id="262" name="90659069_const" type="Const" version="opset1">
			<data element_type="f16" offset="548790" shape="" size="2"/>
			<output>
				<port id="1" precision="FP16"/>
			</output>
		</layer>
		<layer id="263" name="90669070_const" type="Const" version="opset1">
			<data element_type="f16" offset="548792" shape="" size="2"/>
			<output>
				<port id="1" precision="FP16"/>
			</output>
		</layer>
		<layer id="264" name="90679071_const" type="Const" version="opset1">
			<data element_type="f16" offset="548790" shape="" size="2"/>
			<output>
				<port id="1" precision="FP16"/>
			</output>
		</layer>
		<layer id="265" name="90689072_const" type="Const" version="opset1">
			<data element_type="f16" offset="548792" shape="" size="2"/>
			<output>
				<port id="1" precision="FP16"/>
			</output>
		</layer>
		<layer id="266" name="1068/fq_input_0" type="FakeQuantize" version="opset1">
			<data levels="256"/>
			<input>
				<port id="0">
					<dim>1</dim>
					<dim>512</dim>
					<dim>80</dim>
					<dim>80</dim>
				</port>
				<port id="1"/>
				<port id="2"/>
				<port id="3"/>
				<port id="4"/>
			</input>
			<output>
				<port id="5" precision="FP16">
					<dim>1</dim>
					<dim>512</dim>
					<dim>80</dim>
					<dim>80</dim>
				</port>
			</output>
		</layer>
		<layer id="267" name="1058/fq_weights_1/Convert_to_float/Cast_034103_const" type="Const" version="opset1">
			<data element_type="u8" offset="548794" shape="512,256,1,1" size="131072"/>
			<output>
				<port id="1" precision="U8">
					<dim>512</dim>
					<dim>256</dim>
					<dim>1</dim>
					<dim>1</dim>
				</port>
			</output>
		</layer>
		<layer id="268" name="1058/fq_weights_1/Convert_to_float" type="Convert" version="opset1">
			<data destination_type="f16"/>
			<input>
				<port id="0">
					<dim>512</dim>
					<dim>256</dim>
					<dim>1</dim>
					<dim>1</dim>
				</port>
			</input>
			<output>
				<port id="1" precision="FP16">
					<dim>512</dim>
					<dim>256</dim>
					<dim>1</dim>
					<dim>1</dim>
				</port>
			</output>
		</layer>
		<layer id="269" name="1058/fq_weights_1/Copy/out_low28614_const" type="Const" version="opset1">
			<data element_type="f16" offset="545716" shape="1" size="2"/>
			<output>
				<port id="1" precision="FP16">
					<dim>1</dim>
				</port>
			</output>
		</layer>
		<layer id="270" name="1058/fq_weights_1/Copy/out_high28615_const" type="Const" version="opset1">
			<data element_type="f16" offset="9434" shape="1" size="2"/>
			<output>
				<port id="1" precision="FP16">
					<dim>1</dim>
				</port>
			</output>
		</layer>
		<layer id="271" name="1288712891_const" type="Const" version="opset1">
			<data element_type="f16" offset="679866" shape="512,1,1,1" size="1024"/>
			<output>
				<port id="1" precision="FP16">
					<dim>512</dim>
					<dim>1</dim>
					<dim>1</dim>
					<dim>1</dim>
				</port>
			</output>
		</layer>
		<layer id="272" name="1288812892_const" type="Const" version="opset1">
			<data element_type="f16" offset="680890" shape="512,1,1,1" size="1024"/>
			<output>
				<port id="1" precision="FP16">
					<dim>512</dim>
					<dim>1</dim>
					<dim>1</dim>
					<dim>1</dim>
				</port>
			</output>
		</layer>
		<layer id="273" name="1058/fq_weights_1" type="FakeQuantize" version="opset1">
			<data levels="255"/>
			<input>
				<port id="0">
					<dim>512</dim>
					<dim>256</dim>
					<dim>1</dim>
					<dim>1</dim>
				</port>
				<port id="1">
					<dim>1</dim>
				</port>
				<port id="2">
					<dim>1</dim>
				</port>
				<port id="3">
					<dim>512</dim>
					<dim>1</dim>
					<dim>1</dim>
					<dim>1</dim>
				</port>
				<port id="4">
					<dim>512</dim>
					<dim>1</dim>
					<dim>1</dim>
					<dim>1</dim>
				</port>
			</input>
			<output>
				<port id="5" precision="FP16">
					<dim>512</dim>
					<dim>256</dim>
					<dim>1</dim>
					<dim>1</dim>
				</port>
			</output>
		</layer>
		<layer id="274" name="1058" type="Convolution" version="opset1">
			<data dilations="1,1" output_padding="0,0" pads_begin="0,0" pads_end="0,0" strides="2,2"/>
			<input>
				<port id="0">
					<dim>1</dim>
					<dim>256</dim>
					<dim>160</dim>
					<dim>160</dim>
				</port>
				<port id="1">
					<dim>512</dim>
					<dim>256</dim>
					<dim>1</dim>
					<dim>1</dim>
				</port>
			</input>
			<output>
				<port id="2" precision="FP16">
					<dim>1</dim>
					<dim>512</dim>
					<dim>80</dim>
					<dim>80</dim>
				</port>
			</output>
		</layer>
		<layer id="275" name="data_add_5506455069/copy_const2648_const" type="Const" version="opset1">
			<data element_type="f16" offset="681914" shape="1,512,1,1" size="1024"/>
			<output>
				<port id="1" precision="FP16">
					<dim>1</dim>
					<dim>512</dim>
					<dim>1</dim>
					<dim>1</dim>
				</port>
			</output>
		</layer>
		<layer id="276" name="1059/variance/Fused_Add_" type="Add" version="opset1">
			<input>
				<port id="0">
					<dim>1</dim>
					<dim>512</dim>
					<dim>80</dim>
					<dim>80</dim>
				</port>
				<port id="1">
					<dim>1</dim>
					<dim>512</dim>
					<dim>1</dim>
					<dim>1</dim>
				</port>
			</input>
			<output>
				<port id="2" precision="FP16">
					<dim>1</dim>
					<dim>512</dim>
					<dim>80</dim>
					<dim>80</dim>
				</port>
			</output>
		</layer>
		<layer id="277" name="90759079_const" type="Const" version="opset1">
			<data element_type="f16" offset="682938" shape="" size="2"/>
			<output>
				<port id="1" precision="FP16"/>
			</output>
		</layer>
		<layer id="278" name="90769080_const" type="Const" version="opset1">
			<data element_type="f16" offset="682940" shape="" size="2"/>
			<output>
				<port id="1" precision="FP16"/>
			</output>
		</layer>
		<layer id="279" name="90779081_const" type="Const" version="opset1">
			<data element_type="f16" offset="682938" shape="" size="2"/>
			<output>
				<port id="1" precision="FP16"/>
			</output>
		</layer>
		<layer id="280" name="90789082_const" type="Const" version="opset1">
			<data element_type="f16" offset="682940" shape="" size="2"/>
			<output>
				<port id="1" precision="FP16"/>
			</output>
		</layer>
		<layer id="281" name="1068/fq_input_1" type="FakeQuantize" version="opset1">
			<data levels="256"/>
			<input>
				<port id="0">
					<dim>1</dim>
					<dim>512</dim>
					<dim>80</dim>
					<dim>80</dim>
				</port>
				<port id="1"/>
				<port id="2"/>
				<port id="3"/>
				<port id="4"/>
			</input>
			<output>
				<port id="5" precision="FP16">
					<dim>1</dim>
					<dim>512</dim>
					<dim>80</dim>
					<dim>80</dim>
				</port>
			</output>
		</layer>
		<layer id="282" name="1068" type="Add" version="opset1">
			<input>
				<port id="0">
					<dim>1</dim>
					<dim>512</dim>
					<dim>80</dim>
					<dim>80</dim>
				</port>
				<port id="1">
					<dim>1</dim>
					<dim>512</dim>
					<dim>80</dim>
					<dim>80</dim>
				</port>
			</input>
			<output>
				<port id="2" precision="FP16">
					<dim>1</dim>
					<dim>512</dim>
					<dim>80</dim>
					<dim>80</dim>
				</port>
			</output>
		</layer>
		<layer id="283" name="1069" type="ReLU" version="opset1">
			<input>
				<port id="0">
					<dim>1</dim>
					<dim>512</dim>
					<dim>80</dim>
					<dim>80</dim>
				</port>
			</input>
			<output>
				<port id="1" precision="FP16">
					<dim>1</dim>
					<dim>512</dim>
					<dim>80</dim>
					<dim>80</dim>
				</port>
			</output>
		</layer>
		<layer id="284" name="1056510569_const" type="Const" version="opset1">
			<data element_type="f16" offset="682942" shape="" size="2"/>
			<output>
				<port id="1" precision="FP16"/>
			</output>
		</layer>
		<layer id="285" name="1056610570_const" type="Const" version="opset1">
			<data element_type="f16" offset="682944" shape="" size="2"/>
			<output>
				<port id="1" precision="FP16"/>
			</output>
		</layer>
		<layer id="286" name="1056710571_const" type="Const" version="opset1">
			<data element_type="f16" offset="682942" shape="" size="2"/>
			<output>
				<port id="1" precision="FP16"/>
			</output>
		</layer>
		<layer id="287" name="1056810572_const" type="Const" version="opset1">
			<data element_type="f16" offset="682944" shape="" size="2"/>
			<output>
				<port id="1" precision="FP16"/>
			</output>
		</layer>
		<layer id="288" name="1070/fq_input_0" type="FakeQuantize" version="opset1">
			<data levels="256"/>
			<input>
				<port id="0">
					<dim>1</dim>
					<dim>512</dim>
					<dim>80</dim>
					<dim>80</dim>
				</port>
				<port id="1"/>
				<port id="2"/>
				<port id="3"/>
				<port id="4"/>
			</input>
			<output>
				<port id="5" precision="FP16">
					<dim>1</dim>
					<dim>512</dim>
					<dim>80</dim>
					<dim>80</dim>
				</port>
			</output>
		</layer>
		<layer id="289" name="1070/fq_weights_1/Convert_to_float/Cast_034145_const" type="Const" version="opset1">
			<data element_type="u8" offset="682946" shape="128,512,1,1" size="65536"/>
			<output>
				<port id="1" precision="U8">
					<dim>128</dim>
					<dim>512</dim>
					<dim>1</dim>
					<dim>1</dim>
				</port>
			</output>
		</layer>
		<layer id="290" name="1070/fq_weights_1/Convert_to_float" type="Convert" version="opset1">
			<data destination_type="f16"/>
			<input>
				<port id="0">
					<dim>128</dim>
					<dim>512</dim>
					<dim>1</dim>
					<dim>1</dim>
				</port>
			</input>
			<output>
				<port id="1" precision="FP16">
					<dim>128</dim>
					<dim>512</dim>
					<dim>1</dim>
					<dim>1</dim>
				</port>
			</output>
		</layer>
		<layer id="291" name="1070/fq_weights_1/Copy/out_low28030_const" type="Const" version="opset1">
			<data element_type="f16" offset="748482" shape="1" size="2"/>
			<output>
				<port id="1" precision="FP16">
					<dim>1</dim>
				</port>
			</output>
		</layer>
		<layer id="292" name="1070/fq_weights_1/Copy/out_high28031_const" type="Const" version="opset1">
			<data element_type="f16" offset="9434" shape="1" size="2"/>
			<output>
				<port id="1" precision="FP16">
					<dim>1</dim>
				</port>
			</output>
		</layer>
		<layer id="293" name="1057710581_const" type="Const" version="opset1">
			<data element_type="f16" offset="748484" shape="128,1,1,1" size="256"/>
			<output>
				<port id="1" precision="FP16">
					<dim>128</dim>
					<dim>1</dim>
					<dim>1</dim>
					<dim>1</dim>
				</port>
			</output>
		</layer>
		<layer id="294" name="1057810582_const" type="Const" version="opset1">
			<data element_type="f16" offset="748740" shape="128,1,1,1" size="256"/>
			<output>
				<port id="1" precision="FP16">
					<dim>128</dim>
					<dim>1</dim>
					<dim>1</dim>
					<dim>1</dim>
				</port>
			</output>
		</layer>
		<layer id="295" name="1070/fq_weights_1" type="FakeQuantize" version="opset1">
			<data levels="255"/>
			<input>
				<port id="0">
					<dim>128</dim>
					<dim>512</dim>
					<dim>1</dim>
					<dim>1</dim>
				</port>
				<port id="1">
					<dim>1</dim>
				</port>
				<port id="2">
					<dim>1</dim>
				</port>
				<port id="3">
					<dim>128</dim>
					<dim>1</dim>
					<dim>1</dim>
					<dim>1</dim>
				</port>
				<port id="4">
					<dim>128</dim>
					<dim>1</dim>
					<dim>1</dim>
					<dim>1</dim>
				</port>
			</input>
			<output>
				<port id="5" precision="FP16">
					<dim>128</dim>
					<dim>512</dim>
					<dim>1</dim>
					<dim>1</dim>
				</port>
			</output>
		</layer>
		<layer id="296" name="1070" type="Convolution" version="opset1">
			<data dilations="1,1" output_padding="0,0" pads_begin="0,0" pads_end="0,0" strides="1,1"/>
			<input>
				<port id="0">
					<dim>1</dim>
					<dim>512</dim>
					<dim>80</dim>
					<dim>80</dim>
				</port>
				<port id="1">
					<dim>128</dim>
					<dim>512</dim>
					<dim>1</dim>
					<dim>1</dim>
				</port>
			</input>
			<output>
				<port id="2" precision="FP16">
					<dim>1</dim>
					<dim>128</dim>
					<dim>80</dim>
					<dim>80</dim>
				</port>
			</output>
		</layer>
		<layer id="297" name="data_add_5507255077/copy_const2654_const" type="Const" version="opset1">
			<data element_type="f16" offset="748996" shape="1,128,1,1" size="256"/>
			<output>
				<port id="1" precision="FP16">
					<dim>1</dim>
					<dim>128</dim>
					<dim>1</dim>
					<dim>1</dim>
				</port>
			</output>
		</layer>
		<layer id="298" name="1071/variance/Fused_Add_" type="Add" version="opset1">
			<input>
				<port id="0">
					<dim>1</dim>
					<dim>128</dim>
					<dim>80</dim>
					<dim>80</dim>
				</port>
				<port id="1">
					<dim>1</dim>
					<dim>128</dim>
					<dim>1</dim>
					<dim>1</dim>
				</port>
			</input>
			<output>
				<port id="2" precision="FP16">
					<dim>1</dim>
					<dim>128</dim>
					<dim>80</dim>
					<dim>80</dim>
				</port>
			</output>
		</layer>
		<layer id="299" name="1072" type="ReLU" version="opset1">
			<input>
				<port id="0">
					<dim>1</dim>
					<dim>128</dim>
					<dim>80</dim>
					<dim>80</dim>
				</port>
			</input>
			<output>
				<port id="1" precision="FP16">
					<dim>1</dim>
					<dim>128</dim>
					<dim>80</dim>
					<dim>80</dim>
				</port>
			</output>
		</layer>
		<layer id="300" name="1311513119_const" type="Const" version="opset1">
			<data element_type="f16" offset="749252" shape="" size="2"/>
			<output>
				<port id="1" precision="FP16"/>
			</output>
		</layer>
		<layer id="301" name="1311613120_const" type="Const" version="opset1">
			<data element_type="f16" offset="749254" shape="" size="2"/>
			<output>
				<port id="1" precision="FP16"/>
			</output>
		</layer>
		<layer id="302" name="1311713121_const" type="Const" version="opset1">
			<data element_type="f16" offset="749252" shape="" size="2"/>
			<output>
				<port id="1" precision="FP16"/>
			</output>
		</layer>
		<layer id="303" name="1311813122_const" type="Const" version="opset1">
			<data element_type="f16" offset="749254" shape="" size="2"/>
			<output>
				<port id="1" precision="FP16"/>
			</output>
		</layer>
		<layer id="304" name="1073/fq_input_0" type="FakeQuantize" version="opset1">
			<data levels="256"/>
			<input>
				<port id="0">
					<dim>1</dim>
					<dim>128</dim>
					<dim>80</dim>
					<dim>80</dim>
				</port>
				<port id="1"/>
				<port id="2"/>
				<port id="3"/>
				<port id="4"/>
			</input>
			<output>
				<port id="5" precision="FP16">
					<dim>1</dim>
					<dim>128</dim>
					<dim>80</dim>
					<dim>80</dim>
				</port>
			</output>
		</layer>
		<layer id="305" name="1073/fq_weights_1/Convert_to_float/Cast_033901_const" type="Const" version="opset1">
			<data element_type="u8" offset="749256" shape="128,128,3,3" size="147456"/>
			<output>
				<port id="1" precision="U8">
					<dim>128</dim>
					<dim>128</dim>
					<dim>3</dim>
					<dim>3</dim>
				</port>
			</output>
		</layer>
		<layer id="306" name="1073/fq_weights_1/Convert_to_float" type="Convert" version="opset1">
			<data destination_type="f16"/>
			<input>
				<port id="0">
					<dim>128</dim>
					<dim>128</dim>
					<dim>3</dim>
					<dim>3</dim>
				</port>
			</input>
			<output>
				<port id="1" precision="FP16">
					<dim>128</dim>
					<dim>128</dim>
					<dim>3</dim>
					<dim>3</dim>
				</port>
			</output>
		</layer>
		<layer id="307" name="1073/fq_weights_1/Copy/out_low29374_const" type="Const" version="opset1">
			<data element_type="f16" offset="896712" shape="1" size="2"/>
			<output>
				<port id="1" precision="FP16">
					<dim>1</dim>
				</port>
			</output>
		</layer>
		<layer id="308" name="1073/fq_weights_1/Copy/out_high29375_const" type="Const" version="opset1">
			<data element_type="f16" offset="9434" shape="1" size="2"/>
			<output>
				<port id="1" precision="FP16">
					<dim>1</dim>
				</port>
			</output>
		</layer>
		<layer id="309" name="1312713131_const" type="Const" version="opset1">
			<data element_type="f16" offset="896714" shape="128,1,1,1" size="256"/>
			<output>
				<port id="1" precision="FP16">
					<dim>128</dim>
					<dim>1</dim>
					<dim>1</dim>
					<dim>1</dim>
				</port>
			</output>
		</layer>
		<layer id="310" name="1312813132_const" type="Const" version="opset1">
			<data element_type="f16" offset="896970" shape="128,1,1,1" size="256"/>
			<output>
				<port id="1" precision="FP16">
					<dim>128</dim>
					<dim>1</dim>
					<dim>1</dim>
					<dim>1</dim>
				</port>
			</output>
		</layer>
		<layer id="311" name="1073/fq_weights_1" type="FakeQuantize" version="opset1">
			<data levels="255"/>
			<input>
				<port id="0">
					<dim>128</dim>
					<dim>128</dim>
					<dim>3</dim>
					<dim>3</dim>
				</port>
				<port id="1">
					<dim>1</dim>
				</port>
				<port id="2">
					<dim>1</dim>
				</port>
				<port id="3">
					<dim>128</dim>
					<dim>1</dim>
					<dim>1</dim>
					<dim>1</dim>
				</port>
				<port id="4">
					<dim>128</dim>
					<dim>1</dim>
					<dim>1</dim>
					<dim>1</dim>
				</port>
			</input>
			<output>
				<port id="5" precision="FP16">
					<dim>128</dim>
					<dim>128</dim>
					<dim>3</dim>
					<dim>3</dim>
				</port>
			</output>
		</layer>
		<layer id="312" name="1073" type="Convolution" version="opset1">
			<data dilations="1,1" output_padding="0,0" pads_begin="1,1" pads_end="1,1" strides="1,1"/>
			<input>
				<port id="0">
					<dim>1</dim>
					<dim>128</dim>
					<dim>80</dim>
					<dim>80</dim>
				</port>
				<port id="1">
					<dim>128</dim>
					<dim>128</dim>
					<dim>3</dim>
					<dim>3</dim>
				</port>
			</input>
			<output>
				<port id="2" precision="FP16">
					<dim>1</dim>
					<dim>128</dim>
					<dim>80</dim>
					<dim>80</dim>
				</port>
			</output>
		</layer>
		<layer id="313" name="data_add_5508055085/copy_const2659_const" type="Const" version="opset1">
			<data element_type="f16" offset="897226" shape="1,128,1,1" size="256"/>
			<output>
				<port id="1" precision="FP16">
					<dim>1</dim>
					<dim>128</dim>
					<dim>1</dim>
					<dim>1</dim>
				</port>
			</output>
		</layer>
		<layer id="314" name="1074/variance/Fused_Add_" type="Add" version="opset1">
			<input>
				<port id="0">
					<dim>1</dim>
					<dim>128</dim>
					<dim>80</dim>
					<dim>80</dim>
				</port>
				<port id="1">
					<dim>1</dim>
					<dim>128</dim>
					<dim>1</dim>
					<dim>1</dim>
				</port>
			</input>
			<output>
				<port id="2" precision="FP16">
					<dim>1</dim>
					<dim>128</dim>
					<dim>80</dim>
					<dim>80</dim>
				</port>
			</output>
		</layer>
		<layer id="315" name="1075" type="ReLU" version="opset1">
			<input>
				<port id="0">
					<dim>1</dim>
					<dim>128</dim>
					<dim>80</dim>
					<dim>80</dim>
				</port>
			</input>
			<output>
				<port id="1" precision="FP16">
					<dim>1</dim>
					<dim>128</dim>
					<dim>80</dim>
					<dim>80</dim>
				</port>
			</output>
		</layer>
		<layer id="316" name="92959299_const" type="Const" version="opset1">
			<data element_type="f16" offset="897482" shape="" size="2"/>
			<output>
				<port id="1" precision="FP16"/>
			</output>
		</layer>
		<layer id="317" name="92969300_const" type="Const" version="opset1">
			<data element_type="f16" offset="897484" shape="" size="2"/>
			<output>
				<port id="1" precision="FP16"/>
			</output>
		</layer>
		<layer id="318" name="92979301_const" type="Const" version="opset1">
			<data element_type="f16" offset="897482" shape="" size="2"/>
			<output>
				<port id="1" precision="FP16"/>
			</output>
		</layer>
		<layer id="319" name="92989302_const" type="Const" version="opset1">
			<data element_type="f16" offset="897484" shape="" size="2"/>
			<output>
				<port id="1" precision="FP16"/>
			</output>
		</layer>
		<layer id="320" name="1076/fq_input_0" type="FakeQuantize" version="opset1">
			<data levels="256"/>
			<input>
				<port id="0">
					<dim>1</dim>
					<dim>128</dim>
					<dim>80</dim>
					<dim>80</dim>
				</port>
				<port id="1"/>
				<port id="2"/>
				<port id="3"/>
				<port id="4"/>
			</input>
			<output>
				<port id="5" precision="FP16">
					<dim>1</dim>
					<dim>128</dim>
					<dim>80</dim>
					<dim>80</dim>
				</port>
			</output>
		</layer>
		<layer id="321" name="1076/fq_weights_1/Convert_to_float/Cast_033775_const" type="Const" version="opset1">
			<data element_type="u8" offset="897486" shape="512,128,1,1" size="65536"/>
			<output>
				<port id="1" precision="U8">
					<dim>512</dim>
					<dim>128</dim>
					<dim>1</dim>
					<dim>1</dim>
				</port>
			</output>
		</layer>
		<layer id="322" name="1076/fq_weights_1/Convert_to_float" type="Convert" version="opset1">
			<data destination_type="f16"/>
			<input>
				<port id="0">
					<dim>512</dim>
					<dim>128</dim>
					<dim>1</dim>
					<dim>1</dim>
				</port>
			</input>
			<output>
				<port id="1" precision="FP16">
					<dim>512</dim>
					<dim>128</dim>
					<dim>1</dim>
					<dim>1</dim>
				</port>
			</output>
		</layer>
		<layer id="323" name="1076/fq_weights_1/Copy/out_low29358_const" type="Const" version="opset1">
			<data element_type="f16" offset="963022" shape="1" size="2"/>
			<output>
				<port id="1" precision="FP16">
					<dim>1</dim>
				</port>
			</output>
		</layer>
		<layer id="324" name="1076/fq_weights_1/Copy/out_high29359_const" type="Const" version="opset1">
			<data element_type="f16" offset="9434" shape="1" size="2"/>
			<output>
				<port id="1" precision="FP16">
					<dim>1</dim>
				</port>
			</output>
		</layer>
		<layer id="325" name="93079311_const" type="Const" version="opset1">
			<data element_type="f16" offset="963024" shape="512,1,1,1" size="1024"/>
			<output>
				<port id="1" precision="FP16">
					<dim>512</dim>
					<dim>1</dim>
					<dim>1</dim>
					<dim>1</dim>
				</port>
			</output>
		</layer>
		<layer id="326" name="93089312_const" type="Const" version="opset1">
			<data element_type="f16" offset="964048" shape="512,1,1,1" size="1024"/>
			<output>
				<port id="1" precision="FP16">
					<dim>512</dim>
					<dim>1</dim>
					<dim>1</dim>
					<dim>1</dim>
				</port>
			</output>
		</layer>
		<layer id="327" name="1076/fq_weights_1" type="FakeQuantize" version="opset1">
			<data levels="255"/>
			<input>
				<port id="0">
					<dim>512</dim>
					<dim>128</dim>
					<dim>1</dim>
					<dim>1</dim>
				</port>
				<port id="1">
					<dim>1</dim>
				</port>
				<port id="2">
					<dim>1</dim>
				</port>
				<port id="3">
					<dim>512</dim>
					<dim>1</dim>
					<dim>1</dim>
					<dim>1</dim>
				</port>
				<port id="4">
					<dim>512</dim>
					<dim>1</dim>
					<dim>1</dim>
					<dim>1</dim>
				</port>
			</input>
			<output>
				<port id="5" precision="FP16">
					<dim>512</dim>
					<dim>128</dim>
					<dim>1</dim>
					<dim>1</dim>
				</port>
			</output>
		</layer>
		<layer id="328" name="1076" type="Convolution" version="opset1">
			<data dilations="1,1" output_padding="0,0" pads_begin="0,0" pads_end="0,0" strides="1,1"/>
			<input>
				<port id="0">
					<dim>1</dim>
					<dim>128</dim>
					<dim>80</dim>
					<dim>80</dim>
				</port>
				<port id="1">
					<dim>512</dim>
					<dim>128</dim>
					<dim>1</dim>
					<dim>1</dim>
				</port>
			</input>
			<output>
				<port id="2" precision="FP16">
					<dim>1</dim>
					<dim>512</dim>
					<dim>80</dim>
					<dim>80</dim>
				</port>
			</output>
		</layer>
		<layer id="329" name="data_add_5508855093/copy_const2664_const" type="Const" version="opset1">
			<data element_type="f16" offset="965072" shape="1,512,1,1" size="1024"/>
			<output>
				<port id="1" precision="FP16">
					<dim>1</dim>
					<dim>512</dim>
					<dim>1</dim>
					<dim>1</dim>
				</port>
			</output>
		</layer>
		<layer id="330" name="1077/variance/Fused_Add_" type="Add" version="opset1">
			<input>
				<port id="0">
					<dim>1</dim>
					<dim>512</dim>
					<dim>80</dim>
					<dim>80</dim>
				</port>
				<port id="1">
					<dim>1</dim>
					<dim>512</dim>
					<dim>1</dim>
					<dim>1</dim>
				</port>
			</input>
			<output>
				<port id="2" precision="FP16">
					<dim>1</dim>
					<dim>512</dim>
					<dim>80</dim>
					<dim>80</dim>
				</port>
			</output>
		</layer>
		<layer id="331" name="1492514929_const" type="Const" version="opset1">
			<data element_type="f16" offset="966096" shape="" size="2"/>
			<output>
				<port id="1" precision="FP16"/>
			</output>
		</layer>
		<layer id="332" name="1492614930_const" type="Const" version="opset1">
			<data element_type="f16" offset="966098" shape="" size="2"/>
			<output>
				<port id="1" precision="FP16"/>
			</output>
		</layer>
		<layer id="333" name="1492714931_const" type="Const" version="opset1">
			<data element_type="f16" offset="966096" shape="" size="2"/>
			<output>
				<port id="1" precision="FP16"/>
			</output>
		</layer>
		<layer id="334" name="1492814932_const" type="Const" version="opset1">
			<data element_type="f16" offset="966098" shape="" size="2"/>
			<output>
				<port id="1" precision="FP16"/>
			</output>
		</layer>
		<layer id="335" name="1078/fq_input_0" type="FakeQuantize" version="opset1">
			<data levels="256"/>
			<input>
				<port id="0">
					<dim>1</dim>
					<dim>512</dim>
					<dim>80</dim>
					<dim>80</dim>
				</port>
				<port id="1"/>
				<port id="2"/>
				<port id="3"/>
				<port id="4"/>
			</input>
			<output>
				<port id="5" precision="FP16">
					<dim>1</dim>
					<dim>512</dim>
					<dim>80</dim>
					<dim>80</dim>
				</port>
			</output>
		</layer>
		<layer id="336" name="1078" type="Add" version="opset1">
			<input>
				<port id="0">
					<dim>1</dim>
					<dim>512</dim>
					<dim>80</dim>
					<dim>80</dim>
				</port>
				<port id="1">
					<dim>1</dim>
					<dim>512</dim>
					<dim>80</dim>
					<dim>80</dim>
				</port>
			</input>
			<output>
				<port id="2" precision="FP16">
					<dim>1</dim>
					<dim>512</dim>
					<dim>80</dim>
					<dim>80</dim>
				</port>
			</output>
		</layer>
		<layer id="337" name="1079" type="ReLU" version="opset1">
			<input>
				<port id="0">
					<dim>1</dim>
					<dim>512</dim>
					<dim>80</dim>
					<dim>80</dim>
				</port>
			</input>
			<output>
				<port id="1" precision="FP16">
					<dim>1</dim>
					<dim>512</dim>
					<dim>80</dim>
					<dim>80</dim>
				</port>
			</output>
		</layer>
		<layer id="338" name="94359439_const" type="Const" version="opset1">
			<data element_type="f16" offset="966100" shape="" size="2"/>
			<output>
				<port id="1" precision="FP16"/>
			</output>
		</layer>
		<layer id="339" name="94369440_const" type="Const" version="opset1">
			<data element_type="f16" offset="966102" shape="" size="2"/>
			<output>
				<port id="1" precision="FP16"/>
			</output>
		</layer>
		<layer id="340" name="94379441_const" type="Const" version="opset1">
			<data element_type="f16" offset="966100" shape="" size="2"/>
			<output>
				<port id="1" precision="FP16"/>
			</output>
		</layer>
		<layer id="341" name="94389442_const" type="Const" version="opset1">
			<data element_type="f16" offset="966102" shape="" size="2"/>
			<output>
				<port id="1" precision="FP16"/>
			</output>
		</layer>
		<layer id="342" name="1080/fq_input_0" type="FakeQuantize" version="opset1">
			<data levels="256"/>
			<input>
				<port id="0">
					<dim>1</dim>
					<dim>512</dim>
					<dim>80</dim>
					<dim>80</dim>
				</port>
				<port id="1"/>
				<port id="2"/>
				<port id="3"/>
				<port id="4"/>
			</input>
			<output>
				<port id="5" precision="FP16">
					<dim>1</dim>
					<dim>512</dim>
					<dim>80</dim>
					<dim>80</dim>
				</port>
			</output>
		</layer>
		<layer id="343" name="1080/fq_weights_1/Convert_to_float/Cast_033683_const" type="Const" version="opset1">
			<data element_type="u8" offset="966104" shape="128,512,1,1" size="65536"/>
			<output>
				<port id="1" precision="U8">
					<dim>128</dim>
					<dim>512</dim>
					<dim>1</dim>
					<dim>1</dim>
				</port>
			</output>
		</layer>
		<layer id="344" name="1080/fq_weights_1/Convert_to_float" type="Convert" version="opset1">
			<data destination_type="f16"/>
			<input>
				<port id="0">
					<dim>128</dim>
					<dim>512</dim>
					<dim>1</dim>
					<dim>1</dim>
				</port>
			</input>
			<output>
				<port id="1" precision="FP16">
					<dim>128</dim>
					<dim>512</dim>
					<dim>1</dim>
					<dim>1</dim>
				</port>
			</output>
		</layer>
		<layer id="345" name="1080/fq_weights_1/Copy/out_low29046_const" type="Const" version="opset1">
			<data element_type="f16" offset="1031640" shape="1" size="2"/>
			<output>
				<port id="1" precision="FP16">
					<dim>1</dim>
				</port>
			</output>
		</layer>
		<layer id="346" name="1080/fq_weights_1/Copy/out_high29047_const" type="Const" version="opset1">
			<data element_type="f16" offset="9434" shape="1" size="2"/>
			<output>
				<port id="1" precision="FP16">
					<dim>1</dim>
				</port>
			</output>
		</layer>
		<layer id="347" name="94479451_const" type="Const" version="opset1">
			<data element_type="f16" offset="1031642" shape="128,1,1,1" size="256"/>
			<output>
				<port id="1" precision="FP16">
					<dim>128</dim>
					<dim>1</dim>
					<dim>1</dim>
					<dim>1</dim>
				</port>
			</output>
		</layer>
		<layer id="348" name="94489452_const" type="Const" version="opset1">
			<data element_type="f16" offset="1031898" shape="128,1,1,1" size="256"/>
			<output>
				<port id="1" precision="FP16">
					<dim>128</dim>
					<dim>1</dim>
					<dim>1</dim>
					<dim>1</dim>
				</port>
			</output>
		</layer>
		<layer id="349" name="1080/fq_weights_1" type="FakeQuantize" version="opset1">
			<data levels="255"/>
			<input>
				<port id="0">
					<dim>128</dim>
					<dim>512</dim>
					<dim>1</dim>
					<dim>1</dim>
				</port>
				<port id="1">
					<dim>1</dim>
				</port>
				<port id="2">
					<dim>1</dim>
				</port>
				<port id="3">
					<dim>128</dim>
					<dim>1</dim>
					<dim>1</dim>
					<dim>1</dim>
				</port>
				<port id="4">
					<dim>128</dim>
					<dim>1</dim>
					<dim>1</dim>
					<dim>1</dim>
				</port>
			</input>
			<output>
				<port id="5" precision="FP16">
					<dim>128</dim>
					<dim>512</dim>
					<dim>1</dim>
					<dim>1</dim>
				</port>
			</output>
		</layer>
		<layer id="350" name="1080" type="Convolution" version="opset1">
			<data dilations="1,1" output_padding="0,0" pads_begin="0,0" pads_end="0,0" strides="1,1"/>
			<input>
				<port id="0">
					<dim>1</dim>
					<dim>512</dim>
					<dim>80</dim>
					<dim>80</dim>
				</port>
				<port id="1">
					<dim>128</dim>
					<dim>512</dim>
					<dim>1</dim>
					<dim>1</dim>
				</port>
			</input>
			<output>
				<port id="2" precision="FP16">
					<dim>1</dim>
					<dim>128</dim>
					<dim>80</dim>
					<dim>80</dim>
				</port>
			</output>
		</layer>
		<layer id="351" name="data_add_5509655101/copy_const2670_const" type="Const" version="opset1">
			<data element_type="f16" offset="1032154" shape="1,128,1,1" size="256"/>
			<output>
				<port id="1" precision="FP16">
					<dim>1</dim>
					<dim>128</dim>
					<dim>1</dim>
					<dim>1</dim>
				</port>
			</output>
		</layer>
		<layer id="352" name="1081/variance/Fused_Add_" type="Add" version="opset1">
			<input>
				<port id="0">
					<dim>1</dim>
					<dim>128</dim>
					<dim>80</dim>
					<dim>80</dim>
				</port>
				<port id="1">
					<dim>1</dim>
					<dim>128</dim>
					<dim>1</dim>
					<dim>1</dim>
				</port>
			</input>
			<output>
				<port id="2" precision="FP16">
					<dim>1</dim>
					<dim>128</dim>
					<dim>80</dim>
					<dim>80</dim>
				</port>
			</output>
		</layer>
		<layer id="353" name="1082" type="ReLU" version="opset1">
			<input>
				<port id="0">
					<dim>1</dim>
					<dim>128</dim>
					<dim>80</dim>
					<dim>80</dim>
				</port>
			</input>
			<output>
				<port id="1" precision="FP16">
					<dim>1</dim>
					<dim>128</dim>
					<dim>80</dim>
					<dim>80</dim>
				</port>
			</output>
		</layer>
		<layer id="354" name="1479514799_const" type="Const" version="opset1">
			<data element_type="f16" offset="1032410" shape="" size="2"/>
			<output>
				<port id="1" precision="FP16"/>
			</output>
		</layer>
		<layer id="355" name="1479614800_const" type="Const" version="opset1">
			<data element_type="f16" offset="1032412" shape="" size="2"/>
			<output>
				<port id="1" precision="FP16"/>
			</output>
		</layer>
		<layer id="356" name="1479714801_const" type="Const" version="opset1">
			<data element_type="f16" offset="1032410" shape="" size="2"/>
			<output>
				<port id="1" precision="FP16"/>
			</output>
		</layer>
		<layer id="357" name="1479814802_const" type="Const" version="opset1">
			<data element_type="f16" offset="1032412" shape="" size="2"/>
			<output>
				<port id="1" precision="FP16"/>
			</output>
		</layer>
		<layer id="358" name="1083/fq_input_0" type="FakeQuantize" version="opset1">
			<data levels="256"/>
			<input>
				<port id="0">
					<dim>1</dim>
					<dim>128</dim>
					<dim>80</dim>
					<dim>80</dim>
				</port>
				<port id="1"/>
				<port id="2"/>
				<port id="3"/>
				<port id="4"/>
			</input>
			<output>
				<port id="5" precision="FP16">
					<dim>1</dim>
					<dim>128</dim>
					<dim>80</dim>
					<dim>80</dim>
				</port>
			</output>
		</layer>
		<layer id="359" name="1083/fq_weights_1/Convert_to_float/Cast_033835_const" type="Const" version="opset1">
			<data element_type="u8" offset="1032414" shape="128,128,3,3" size="147456"/>
			<output>
				<port id="1" precision="U8">
					<dim>128</dim>
					<dim>128</dim>
					<dim>3</dim>
					<dim>3</dim>
				</port>
			</output>
		</layer>
		<layer id="360" name="1083/fq_weights_1/Convert_to_float" type="Convert" version="opset1">
			<data destination_type="f16"/>
			<input>
				<port id="0">
					<dim>128</dim>
					<dim>128</dim>
					<dim>3</dim>
					<dim>3</dim>
				</port>
			</input>
			<output>
				<port id="1" precision="FP16">
					<dim>128</dim>
					<dim>128</dim>
					<dim>3</dim>
					<dim>3</dim>
				</port>
			</output>
		</layer>
		<layer id="361" name="1083/fq_weights_1/Copy/out_low29086_const" type="Const" version="opset1">
			<data element_type="f16" offset="1179870" shape="1" size="2"/>
			<output>
				<port id="1" precision="FP16">
					<dim>1</dim>
				</port>
			</output>
		</layer>
		<layer id="362" name="1083/fq_weights_1/Copy/out_high29087_const" type="Const" version="opset1">
			<data element_type="f16" offset="9434" shape="1" size="2"/>
			<output>
				<port id="1" precision="FP16">
					<dim>1</dim>
				</port>
			</output>
		</layer>
		<layer id="363" name="1480714811_const" type="Const" version="opset1">
			<data element_type="f16" offset="1179872" shape="128,1,1,1" size="256"/>
			<output>
				<port id="1" precision="FP16">
					<dim>128</dim>
					<dim>1</dim>
					<dim>1</dim>
					<dim>1</dim>
				</port>
			</output>
		</layer>
		<layer id="364" name="1480814812_const" type="Const" version="opset1">
			<data element_type="f16" offset="1180128" shape="128,1,1,1" size="256"/>
			<output>
				<port id="1" precision="FP16">
					<dim>128</dim>
					<dim>1</dim>
					<dim>1</dim>
					<dim>1</dim>
				</port>
			</output>
		</layer>
		<layer id="365" name="1083/fq_weights_1" type="FakeQuantize" version="opset1">
			<data levels="255"/>
			<input>
				<port id="0">
					<dim>128</dim>
					<dim>128</dim>
					<dim>3</dim>
					<dim>3</dim>
				</port>
				<port id="1">
					<dim>1</dim>
				</port>
				<port id="2">
					<dim>1</dim>
				</port>
				<port id="3">
					<dim>128</dim>
					<dim>1</dim>
					<dim>1</dim>
					<dim>1</dim>
				</port>
				<port id="4">
					<dim>128</dim>
					<dim>1</dim>
					<dim>1</dim>
					<dim>1</dim>
				</port>
			</input>
			<output>
				<port id="5" precision="FP16">
					<dim>128</dim>
					<dim>128</dim>
					<dim>3</dim>
					<dim>3</dim>
				</port>
			</output>
		</layer>
		<layer id="366" name="1083" type="Convolution" version="opset1">
			<data dilations="1,1" output_padding="0,0" pads_begin="1,1" pads_end="1,1" strides="1,1"/>
			<input>
				<port id="0">
					<dim>1</dim>
					<dim>128</dim>
					<dim>80</dim>
					<dim>80</dim>
				</port>
				<port id="1">
					<dim>128</dim>
					<dim>128</dim>
					<dim>3</dim>
					<dim>3</dim>
				</port>
			</input>
			<output>
				<port id="2" precision="FP16">
					<dim>1</dim>
					<dim>128</dim>
					<dim>80</dim>
					<dim>80</dim>
				</port>
			</output>
		</layer>
		<layer id="367" name="data_add_5510455109/copy_const2675_const" type="Const" version="opset1">
			<data element_type="f16" offset="1180384" shape="1,128,1,1" size="256"/>
			<output>
				<port id="1" precision="FP16">
					<dim>1</dim>
					<dim>128</dim>
					<dim>1</dim>
					<dim>1</dim>
				</port>
			</output>
		</layer>
		<layer id="368" name="1084/variance/Fused_Add_" type="Add" version="opset1">
			<input>
				<port id="0">
					<dim>1</dim>
					<dim>128</dim>
					<dim>80</dim>
					<dim>80</dim>
				</port>
				<port id="1">
					<dim>1</dim>
					<dim>128</dim>
					<dim>1</dim>
					<dim>1</dim>
				</port>
			</input>
			<output>
				<port id="2" precision="FP16">
					<dim>1</dim>
					<dim>128</dim>
					<dim>80</dim>
					<dim>80</dim>
				</port>
			</output>
		</layer>
		<layer id="369" name="1085" type="ReLU" version="opset1">
			<input>
				<port id="0">
					<dim>1</dim>
					<dim>128</dim>
					<dim>80</dim>
					<dim>80</dim>
				</port>
			</input>
			<output>
				<port id="1" precision="FP16">
					<dim>1</dim>
					<dim>128</dim>
					<dim>80</dim>
					<dim>80</dim>
				</port>
			</output>
		</layer>
		<layer id="370" name="1167511679_const" type="Const" version="opset1">
			<data element_type="f16" offset="1180640" shape="" size="2"/>
			<output>
				<port id="1" precision="FP16"/>
			</output>
		</layer>
		<layer id="371" name="1167611680_const" type="Const" version="opset1">
			<data element_type="f16" offset="1180642" shape="" size="2"/>
			<output>
				<port id="1" precision="FP16"/>
			</output>
		</layer>
		<layer id="372" name="1167711681_const" type="Const" version="opset1">
			<data element_type="f16" offset="1180640" shape="" size="2"/>
			<output>
				<port id="1" precision="FP16"/>
			</output>
		</layer>
		<layer id="373" name="1167811682_const" type="Const" version="opset1">
			<data element_type="f16" offset="1180642" shape="" size="2"/>
			<output>
				<port id="1" precision="FP16"/>
			</output>
		</layer>
		<layer id="374" name="1086/fq_input_0" type="FakeQuantize" version="opset1">
			<data levels="256"/>
			<input>
				<port id="0">
					<dim>1</dim>
					<dim>128</dim>
					<dim>80</dim>
					<dim>80</dim>
				</port>
				<port id="1"/>
				<port id="2"/>
				<port id="3"/>
				<port id="4"/>
			</input>
			<output>
				<port id="5" precision="FP16">
					<dim>1</dim>
					<dim>128</dim>
					<dim>80</dim>
					<dim>80</dim>
				</port>
			</output>
		</layer>
		<layer id="375" name="1086/fq_weights_1/Convert_to_float/Cast_034257_const" type="Const" version="opset1">
			<data element_type="u8" offset="1180644" shape="512,128,1,1" size="65536"/>
			<output>
				<port id="1" precision="U8">
					<dim>512</dim>
					<dim>128</dim>
					<dim>1</dim>
					<dim>1</dim>
				</port>
			</output>
		</layer>
		<layer id="376" name="1086/fq_weights_1/Convert_to_float" type="Convert" version="opset1">
			<data destination_type="f16"/>
			<input>
				<port id="0">
					<dim>512</dim>
					<dim>128</dim>
					<dim>1</dim>
					<dim>1</dim>
				</port>
			</input>
			<output>
				<port id="1" precision="FP16">
					<dim>512</dim>
					<dim>128</dim>
					<dim>1</dim>
					<dim>1</dim>
				</port>
			</output>
		</layer>
		<layer id="377" name="1086/fq_weights_1/Copy/out_low28670_const" type="Const" version="opset1">
			<data element_type="f16" offset="1246180" shape="1" size="2"/>
			<output>
				<port id="1" precision="FP16">
					<dim>1</dim>
				</port>
			</output>
		</layer>
		<layer id="378" name="1086/fq_weights_1/Copy/out_high28671_const" type="Const" version="opset1">
			<data element_type="f16" offset="9434" shape="1" size="2"/>
			<output>
				<port id="1" precision="FP16">
					<dim>1</dim>
				</port>
			</output>
		</layer>
		<layer id="379" name="1168711691_const" type="Const" version="opset1">
			<data element_type="f16" offset="1246182" shape="512,1,1,1" size="1024"/>
			<output>
				<port id="1" precision="FP16">
					<dim>512</dim>
					<dim>1</dim>
					<dim>1</dim>
					<dim>1</dim>
				</port>
			</output>
		</layer>
		<layer id="380" name="1168811692_const" type="Const" version="opset1">
			<data element_type="f16" offset="1247206" shape="512,1,1,1" size="1024"/>
			<output>
				<port id="1" precision="FP16">
					<dim>512</dim>
					<dim>1</dim>
					<dim>1</dim>
					<dim>1</dim>
				</port>
			</output>
		</layer>
		<layer id="381" name="1086/fq_weights_1" type="FakeQuantize" version="opset1">
			<data levels="255"/>
			<input>
				<port id="0">
					<dim>512</dim>
					<dim>128</dim>
					<dim>1</dim>
					<dim>1</dim>
				</port>
				<port id="1">
					<dim>1</dim>
				</port>
				<port id="2">
					<dim>1</dim>
				</port>
				<port id="3">
					<dim>512</dim>
					<dim>1</dim>
					<dim>1</dim>
					<dim>1</dim>
				</port>
				<port id="4">
					<dim>512</dim>
					<dim>1</dim>
					<dim>1</dim>
					<dim>1</dim>
				</port>
			</input>
			<output>
				<port id="5" precision="FP16">
					<dim>512</dim>
					<dim>128</dim>
					<dim>1</dim>
					<dim>1</dim>
				</port>
			</output>
		</layer>
		<layer id="382" name="1086" type="Convolution" version="opset1">
			<data dilations="1,1" output_padding="0,0" pads_begin="0,0" pads_end="0,0" strides="1,1"/>
			<input>
				<port id="0">
					<dim>1</dim>
					<dim>128</dim>
					<dim>80</dim>
					<dim>80</dim>
				</port>
				<port id="1">
					<dim>512</dim>
					<dim>128</dim>
					<dim>1</dim>
					<dim>1</dim>
				</port>
			</input>
			<output>
				<port id="2" precision="FP16">
					<dim>1</dim>
					<dim>512</dim>
					<dim>80</dim>
					<dim>80</dim>
				</port>
			</output>
		</layer>
		<layer id="383" name="data_add_5511255117/copy_const2680_const" type="Const" version="opset1">
			<data element_type="f16" offset="1248230" shape="1,512,1,1" size="1024"/>
			<output>
				<port id="1" precision="FP16">
					<dim>1</dim>
					<dim>512</dim>
					<dim>1</dim>
					<dim>1</dim>
				</port>
			</output>
		</layer>
		<layer id="384" name="1087/variance/Fused_Add_" type="Add" version="opset1">
			<input>
				<port id="0">
					<dim>1</dim>
					<dim>512</dim>
					<dim>80</dim>
					<dim>80</dim>
				</port>
				<port id="1">
					<dim>1</dim>
					<dim>512</dim>
					<dim>1</dim>
					<dim>1</dim>
				</port>
			</input>
			<output>
				<port id="2" precision="FP16">
					<dim>1</dim>
					<dim>512</dim>
					<dim>80</dim>
					<dim>80</dim>
				</port>
			</output>
		</layer>
		<layer id="385" name="1470514709_const" type="Const" version="opset1">
			<data element_type="f16" offset="1249254" shape="" size="2"/>
			<output>
				<port id="1" precision="FP16"/>
			</output>
		</layer>
		<layer id="386" name="1470614710_const" type="Const" version="opset1">
			<data element_type="f16" offset="1249256" shape="" size="2"/>
			<output>
				<port id="1" precision="FP16"/>
			</output>
		</layer>
		<layer id="387" name="1470714711_const" type="Const" version="opset1">
			<data element_type="f16" offset="1249254" shape="" size="2"/>
			<output>
				<port id="1" precision="FP16"/>
			</output>
		</layer>
		<layer id="388" name="1470814712_const" type="Const" version="opset1">
			<data element_type="f16" offset="1249256" shape="" size="2"/>
			<output>
				<port id="1" precision="FP16"/>
			</output>
		</layer>
		<layer id="389" name="1088/fq_input_0" type="FakeQuantize" version="opset1">
			<data levels="256"/>
			<input>
				<port id="0">
					<dim>1</dim>
					<dim>512</dim>
					<dim>80</dim>
					<dim>80</dim>
				</port>
				<port id="1"/>
				<port id="2"/>
				<port id="3"/>
				<port id="4"/>
			</input>
			<output>
				<port id="5" precision="FP16">
					<dim>1</dim>
					<dim>512</dim>
					<dim>80</dim>
					<dim>80</dim>
				</port>
			</output>
		</layer>
		<layer id="390" name="1088" type="Add" version="opset1">
			<input>
				<port id="0">
					<dim>1</dim>
					<dim>512</dim>
					<dim>80</dim>
					<dim>80</dim>
				</port>
				<port id="1">
					<dim>1</dim>
					<dim>512</dim>
					<dim>80</dim>
					<dim>80</dim>
				</port>
			</input>
			<output>
				<port id="2" precision="FP16">
					<dim>1</dim>
					<dim>512</dim>
					<dim>80</dim>
					<dim>80</dim>
				</port>
			</output>
		</layer>
		<layer id="391" name="1089" type="ReLU" version="opset1">
			<input>
				<port id="0">
					<dim>1</dim>
					<dim>512</dim>
					<dim>80</dim>
					<dim>80</dim>
				</port>
			</input>
			<output>
				<port id="1" precision="FP16">
					<dim>1</dim>
					<dim>512</dim>
					<dim>80</dim>
					<dim>80</dim>
				</port>
			</output>
		</layer>
		<layer id="392" name="1275512759_const" type="Const" version="opset1">
			<data element_type="f16" offset="1249258" shape="" size="2"/>
			<output>
				<port id="1" precision="FP16"/>
			</output>
		</layer>
		<layer id="393" name="1275612760_const" type="Const" version="opset1">
			<data element_type="f16" offset="1249260" shape="" size="2"/>
			<output>
				<port id="1" precision="FP16"/>
			</output>
		</layer>
		<layer id="394" name="1275712761_const" type="Const" version="opset1">
			<data element_type="f16" offset="1249258" shape="" size="2"/>
			<output>
				<port id="1" precision="FP16"/>
			</output>
		</layer>
		<layer id="395" name="1275812762_const" type="Const" version="opset1">
			<data element_type="f16" offset="1249260" shape="" size="2"/>
			<output>
				<port id="1" precision="FP16"/>
			</output>
		</layer>
		<layer id="396" name="1090/fq_input_0" type="FakeQuantize" version="opset1">
			<data levels="256"/>
			<input>
				<port id="0">
					<dim>1</dim>
					<dim>512</dim>
					<dim>80</dim>
					<dim>80</dim>
				</port>
				<port id="1"/>
				<port id="2"/>
				<port id="3"/>
				<port id="4"/>
			</input>
			<output>
				<port id="5" precision="FP16">
					<dim>1</dim>
					<dim>512</dim>
					<dim>80</dim>
					<dim>80</dim>
				</port>
			</output>
		</layer>
		<layer id="397" name="1090/fq_weights_1/Convert_to_float/Cast_034009_const" type="Const" version="opset1">
			<data element_type="u8" offset="1249262" shape="128,512,1,1" size="65536"/>
			<output>
				<port id="1" precision="U8">
					<dim>128</dim>
					<dim>512</dim>
					<dim>1</dim>
					<dim>1</dim>
				</port>
			</output>
		</layer>
		<layer id="398" name="1090/fq_weights_1/Convert_to_float" type="Convert" version="opset1">
			<data destination_type="f16"/>
			<input>
				<port id="0">
					<dim>128</dim>
					<dim>512</dim>
					<dim>1</dim>
					<dim>1</dim>
				</port>
			</input>
			<output>
				<port id="1" precision="FP16">
					<dim>128</dim>
					<dim>512</dim>
					<dim>1</dim>
					<dim>1</dim>
				</port>
			</output>
		</layer>
		<layer id="399" name="1090/fq_weights_1/Copy/out_low29710_const" type="Const" version="opset1">
			<data element_type="f16" offset="1314798" shape="1" size="2"/>
			<output>
				<port id="1" precision="FP16">
					<dim>1</dim>
				</port>
			</output>
		</layer>
		<layer id="400" name="1090/fq_weights_1/Copy/out_high29711_const" type="Const" version="opset1">
			<data element_type="f16" offset="9434" shape="1" size="2"/>
			<output>
				<port id="1" precision="FP16">
					<dim>1</dim>
				</port>
			</output>
		</layer>
		<layer id="401" name="1276712771_const" type="Const" version="opset1">
			<data element_type="f16" offset="1314800" shape="128,1,1,1" size="256"/>
			<output>
				<port id="1" precision="FP16">
					<dim>128</dim>
					<dim>1</dim>
					<dim>1</dim>
					<dim>1</dim>
				</port>
			</output>
		</layer>
		<layer id="402" name="1276812772_const" type="Const" version="opset1">
			<data element_type="f16" offset="1315056" shape="128,1,1,1" size="256"/>
			<output>
				<port id="1" precision="FP16">
					<dim>128</dim>
					<dim>1</dim>
					<dim>1</dim>
					<dim>1</dim>
				</port>
			</output>
		</layer>
		<layer id="403" name="1090/fq_weights_1" type="FakeQuantize" version="opset1">
			<data levels="255"/>
			<input>
				<port id="0">
					<dim>128</dim>
					<dim>512</dim>
					<dim>1</dim>
					<dim>1</dim>
				</port>
				<port id="1">
					<dim>1</dim>
				</port>
				<port id="2">
					<dim>1</dim>
				</port>
				<port id="3">
					<dim>128</dim>
					<dim>1</dim>
					<dim>1</dim>
					<dim>1</dim>
				</port>
				<port id="4">
					<dim>128</dim>
					<dim>1</dim>
					<dim>1</dim>
					<dim>1</dim>
				</port>
			</input>
			<output>
				<port id="5" precision="FP16">
					<dim>128</dim>
					<dim>512</dim>
					<dim>1</dim>
					<dim>1</dim>
				</port>
			</output>
		</layer>
		<layer id="404" name="1090" type="Convolution" version="opset1">
			<data dilations="1,1" output_padding="0,0" pads_begin="0,0" pads_end="0,0" strides="1,1"/>
			<input>
				<port id="0">
					<dim>1</dim>
					<dim>512</dim>
					<dim>80</dim>
					<dim>80</dim>
				</port>
				<port id="1">
					<dim>128</dim>
					<dim>512</dim>
					<dim>1</dim>
					<dim>1</dim>
				</port>
			</input>
			<output>
				<port id="2" precision="FP16">
					<dim>1</dim>
					<dim>128</dim>
					<dim>80</dim>
					<dim>80</dim>
				</port>
			</output>
		</layer>
		<layer id="405" name="data_add_5512055125/copy_const2686_const" type="Const" version="opset1">
			<data element_type="f16" offset="1315312" shape="1,128,1,1" size="256"/>
			<output>
				<port id="1" precision="FP16">
					<dim>1</dim>
					<dim>128</dim>
					<dim>1</dim>
					<dim>1</dim>
				</port>
			</output>
		</layer>
		<layer id="406" name="1091/variance/Fused_Add_" type="Add" version="opset1">
			<input>
				<port id="0">
					<dim>1</dim>
					<dim>128</dim>
					<dim>80</dim>
					<dim>80</dim>
				</port>
				<port id="1">
					<dim>1</dim>
					<dim>128</dim>
					<dim>1</dim>
					<dim>1</dim>
				</port>
			</input>
			<output>
				<port id="2" precision="FP16">
					<dim>1</dim>
					<dim>128</dim>
					<dim>80</dim>
					<dim>80</dim>
				</port>
			</output>
		</layer>
		<layer id="407" name="1092" type="ReLU" version="opset1">
			<input>
				<port id="0">
					<dim>1</dim>
					<dim>128</dim>
					<dim>80</dim>
					<dim>80</dim>
				</port>
			</input>
			<output>
				<port id="1" precision="FP16">
					<dim>1</dim>
					<dim>128</dim>
					<dim>80</dim>
					<dim>80</dim>
				</port>
			</output>
		</layer>
		<layer id="408" name="1306513069_const" type="Const" version="opset1">
			<data element_type="f16" offset="1315568" shape="" size="2"/>
			<output>
				<port id="1" precision="FP16"/>
			</output>
		</layer>
		<layer id="409" name="1306613070_const" type="Const" version="opset1">
			<data element_type="f16" offset="1315570" shape="" size="2"/>
			<output>
				<port id="1" precision="FP16"/>
			</output>
		</layer>
		<layer id="410" name="1306713071_const" type="Const" version="opset1">
			<data element_type="f16" offset="1315568" shape="" size="2"/>
			<output>
				<port id="1" precision="FP16"/>
			</output>
		</layer>
		<layer id="411" name="1306813072_const" type="Const" version="opset1">
			<data element_type="f16" offset="1315570" shape="" size="2"/>
			<output>
				<port id="1" precision="FP16"/>
			</output>
		</layer>
		<layer id="412" name="1093/fq_input_0" type="FakeQuantize" version="opset1">
			<data levels="256"/>
			<input>
				<port id="0">
					<dim>1</dim>
					<dim>128</dim>
					<dim>80</dim>
					<dim>80</dim>
				</port>
				<port id="1"/>
				<port id="2"/>
				<port id="3"/>
				<port id="4"/>
			</input>
			<output>
				<port id="5" precision="FP16">
					<dim>1</dim>
					<dim>128</dim>
					<dim>80</dim>
					<dim>80</dim>
				</port>
			</output>
		</layer>
		<layer id="413" name="1093/fq_weights_1/Convert_to_float/Cast_034077_const" type="Const" version="opset1">
			<data element_type="u8" offset="1315572" shape="128,128,3,3" size="147456"/>
			<output>
				<port id="1" precision="U8">
					<dim>128</dim>
					<dim>128</dim>
					<dim>3</dim>
					<dim>3</dim>
				</port>
			</output>
		</layer>
		<layer id="414" name="1093/fq_weights_1/Convert_to_float" type="Convert" version="opset1">
			<data destination_type="f16"/>
			<input>
				<port id="0">
					<dim>128</dim>
					<dim>128</dim>
					<dim>3</dim>
					<dim>3</dim>
				</port>
			</input>
			<output>
				<port id="1" precision="FP16">
					<dim>128</dim>
					<dim>128</dim>
					<dim>3</dim>
					<dim>3</dim>
				</port>
			</output>
		</layer>
		<layer id="415" name="1093/fq_weights_1/Copy/out_low28518_const" type="Const" version="opset1">
			<data element_type="f16" offset="1463028" shape="1" size="2"/>
			<output>
				<port id="1" precision="FP16">
					<dim>1</dim>
				</port>
			</output>
		</layer>
		<layer id="416" name="1093/fq_weights_1/Copy/out_high28519_const" type="Const" version="opset1">
			<data element_type="f16" offset="9434" shape="1" size="2"/>
			<output>
				<port id="1" precision="FP16">
					<dim>1</dim>
				</port>
			</output>
		</layer>
		<layer id="417" name="1307713081_const" type="Const" version="opset1">
			<data element_type="f16" offset="1463030" shape="128,1,1,1" size="256"/>
			<output>
				<port id="1" precision="FP16">
					<dim>128</dim>
					<dim>1</dim>
					<dim>1</dim>
					<dim>1</dim>
				</port>
			</output>
		</layer>
		<layer id="418" name="1307813082_const" type="Const" version="opset1">
			<data element_type="f16" offset="1463286" shape="128,1,1,1" size="256"/>
			<output>
				<port id="1" precision="FP16">
					<dim>128</dim>
					<dim>1</dim>
					<dim>1</dim>
					<dim>1</dim>
				</port>
			</output>
		</layer>
		<layer id="419" name="1093/fq_weights_1" type="FakeQuantize" version="opset1">
			<data levels="255"/>
			<input>
				<port id="0">
					<dim>128</dim>
					<dim>128</dim>
					<dim>3</dim>
					<dim>3</dim>
				</port>
				<port id="1">
					<dim>1</dim>
				</port>
				<port id="2">
					<dim>1</dim>
				</port>
				<port id="3">
					<dim>128</dim>
					<dim>1</dim>
					<dim>1</dim>
					<dim>1</dim>
				</port>
				<port id="4">
					<dim>128</dim>
					<dim>1</dim>
					<dim>1</dim>
					<dim>1</dim>
				</port>
			</input>
			<output>
				<port id="5" precision="FP16">
					<dim>128</dim>
					<dim>128</dim>
					<dim>3</dim>
					<dim>3</dim>
				</port>
			</output>
		</layer>
		<layer id="420" name="1093" type="Convolution" version="opset1">
			<data dilations="1,1" output_padding="0,0" pads_begin="1,1" pads_end="1,1" strides="1,1"/>
			<input>
				<port id="0">
					<dim>1</dim>
					<dim>128</dim>
					<dim>80</dim>
					<dim>80</dim>
				</port>
				<port id="1">
					<dim>128</dim>
					<dim>128</dim>
					<dim>3</dim>
					<dim>3</dim>
				</port>
			</input>
			<output>
				<port id="2" precision="FP16">
					<dim>1</dim>
					<dim>128</dim>
					<dim>80</dim>
					<dim>80</dim>
				</port>
			</output>
		</layer>
		<layer id="421" name="data_add_5512855133/copy_const2691_const" type="Const" version="opset1">
			<data element_type="f16" offset="1463542" shape="1,128,1,1" size="256"/>
			<output>
				<port id="1" precision="FP16">
					<dim>1</dim>
					<dim>128</dim>
					<dim>1</dim>
					<dim>1</dim>
				</port>
			</output>
		</layer>
		<layer id="422" name="1094/variance/Fused_Add_" type="Add" version="opset1">
			<input>
				<port id="0">
					<dim>1</dim>
					<dim>128</dim>
					<dim>80</dim>
					<dim>80</dim>
				</port>
				<port id="1">
					<dim>1</dim>
					<dim>128</dim>
					<dim>1</dim>
					<dim>1</dim>
				</port>
			</input>
			<output>
				<port id="2" precision="FP16">
					<dim>1</dim>
					<dim>128</dim>
					<dim>80</dim>
					<dim>80</dim>
				</port>
			</output>
		</layer>
		<layer id="423" name="1095" type="ReLU" version="opset1">
			<input>
				<port id="0">
					<dim>1</dim>
					<dim>128</dim>
					<dim>80</dim>
					<dim>80</dim>
				</port>
			</input>
			<output>
				<port id="1" precision="FP16">
					<dim>1</dim>
					<dim>128</dim>
					<dim>80</dim>
					<dim>80</dim>
				</port>
			</output>
		</layer>
		<layer id="424" name="1298512989_const" type="Const" version="opset1">
			<data element_type="f16" offset="1463798" shape="" size="2"/>
			<output>
				<port id="1" precision="FP16"/>
			</output>
		</layer>
		<layer id="425" name="1298612990_const" type="Const" version="opset1">
			<data element_type="f16" offset="1463800" shape="" size="2"/>
			<output>
				<port id="1" precision="FP16"/>
			</output>
		</layer>
		<layer id="426" name="1298712991_const" type="Const" version="opset1">
			<data element_type="f16" offset="1463798" shape="" size="2"/>
			<output>
				<port id="1" precision="FP16"/>
			</output>
		</layer>
		<layer id="427" name="1298812992_const" type="Const" version="opset1">
			<data element_type="f16" offset="1463800" shape="" size="2"/>
			<output>
				<port id="1" precision="FP16"/>
			</output>
		</layer>
		<layer id="428" name="1096/fq_input_0" type="FakeQuantize" version="opset1">
			<data levels="256"/>
			<input>
				<port id="0">
					<dim>1</dim>
					<dim>128</dim>
					<dim>80</dim>
					<dim>80</dim>
				</port>
				<port id="1"/>
				<port id="2"/>
				<port id="3"/>
				<port id="4"/>
			</input>
			<output>
				<port id="5" precision="FP16">
					<dim>1</dim>
					<dim>128</dim>
					<dim>80</dim>
					<dim>80</dim>
				</port>
			</output>
		</layer>
		<layer id="429" name="1096/fq_weights_1/Convert_to_float/Cast_033917_const" type="Const" version="opset1">
			<data element_type="u8" offset="1463802" shape="512,128,1,1" size="65536"/>
			<output>
				<port id="1" precision="U8">
					<dim>512</dim>
					<dim>128</dim>
					<dim>1</dim>
					<dim>1</dim>
				</port>
			</output>
		</layer>
		<layer id="430" name="1096/fq_weights_1/Convert_to_float" type="Convert" version="opset1">
			<data destination_type="f16"/>
			<input>
				<port id="0">
					<dim>512</dim>
					<dim>128</dim>
					<dim>1</dim>
					<dim>1</dim>
				</port>
			</input>
			<output>
				<port id="1" precision="FP16">
					<dim>512</dim>
					<dim>128</dim>
					<dim>1</dim>
					<dim>1</dim>
				</port>
			</output>
		</layer>
		<layer id="431" name="1096/fq_weights_1/Copy/out_low29222_const" type="Const" version="opset1">
			<data element_type="f16" offset="1529338" shape="1" size="2"/>
			<output>
				<port id="1" precision="FP16">
					<dim>1</dim>
				</port>
			</output>
		</layer>
		<layer id="432" name="1096/fq_weights_1/Copy/out_high29223_const" type="Const" version="opset1">
			<data element_type="f16" offset="9434" shape="1" size="2"/>
			<output>
				<port id="1" precision="FP16">
					<dim>1</dim>
				</port>
			</output>
		</layer>
		<layer id="433" name="1299713001_const" type="Const" version="opset1">
			<data element_type="f16" offset="1529340" shape="512,1,1,1" size="1024"/>
			<output>
				<port id="1" precision="FP16">
					<dim>512</dim>
					<dim>1</dim>
					<dim>1</dim>
					<dim>1</dim>
				</port>
			</output>
		</layer>
		<layer id="434" name="1299813002_const" type="Const" version="opset1">
			<data element_type="f16" offset="1530364" shape="512,1,1,1" size="1024"/>
			<output>
				<port id="1" precision="FP16">
					<dim>512</dim>
					<dim>1</dim>
					<dim>1</dim>
					<dim>1</dim>
				</port>
			</output>
		</layer>
		<layer id="435" name="1096/fq_weights_1" type="FakeQuantize" version="opset1">
			<data levels="255"/>
			<input>
				<port id="0">
					<dim>512</dim>
					<dim>128</dim>
					<dim>1</dim>
					<dim>1</dim>
				</port>
				<port id="1">
					<dim>1</dim>
				</port>
				<port id="2">
					<dim>1</dim>
				</port>
				<port id="3">
					<dim>512</dim>
					<dim>1</dim>
…
		<edge from-layer="5218" from-port="1" to-layer="5223" to-port="0"/>
		<edge from-layer="5219" from-port="1" to-layer="5223" to-port="1"/>
		<edge from-layer="5220" from-port="1" to-layer="5223" to-port="2"/>
		<edge from-layer="5221" from-port="1" to-layer="5223" to-port="3"/>
		<edge from-layer="5222" from-port="1" to-layer="5223" to-port="4"/>
		<edge from-layer="5223" from-port="5" to-layer="5225" to-port="0"/>
		<edge from-layer="5224" from-port="1" to-layer="5225" to-port="1"/>
		<edge from-layer="5225" from-port="2" to-layer="5227" to-port="0"/>
		<edge from-layer="5226" from-port="1" to-layer="5227" to-port="1"/>
		<edge from-layer="5227" from-port="2" to-layer="5229" to-port="0"/>
		<edge from-layer="5228" from-port="1" to-layer="5229" to-port="1"/>
		<edge from-layer="5229" from-port="2" to-layer="5230" to-port="0"/>
		<edge from-layer="5230" from-port="1" to-layer="5235" to-port="0"/>
		<edge from-layer="5231" from-port="1" to-layer="5235" to-port="1"/>
		<edge from-layer="5232" from-port="1" to-layer="5235" to-port="2"/>
		<edge from-layer="5233" from-port="1" to-layer="5235" to-port="3"/>
		<edge from-layer="5234" from-port="1" to-layer="5235" to-port="4"/>
		<edge from-layer="5236" from-port="1" to-layer="5237" to-port="0"/>
		<edge from-layer="5237" from-port="1" to-layer="5242" to-port="0"/>
		<edge from-layer="5238" from-port="1" to-layer="5242" to-port="1"/>
		<edge from-layer="5239" from-port="1" to-layer="5242" to-port="2"/>
		<edge from-layer="5240" from-port="1" to-layer="5242" to-port="3"/>
		<edge from-layer="5241" from-port="1" to-layer="5242" to-port="4"/>
		<edge from-layer="5235" from-port="5" to-layer="5243" to-port="0"/>
		<edge from-layer="5242" from-port="5" to-layer="5243" to-port="1"/>
		<edge from-layer="5243" from-port="2" to-layer="5245" to-port="0"/>
		<edge from-layer="5244" from-port="1" to-layer="5245" to-port="1"/>
		<edge from-layer="5245" from-port="2" to-layer="5250" to-port="0"/>
		<edge from-layer="5246" from-port="1" to-layer="5250" to-port="1"/>
		<edge from-layer="5247" from-port="1" to-layer="5250" to-port="2"/>
		<edge from-layer="5248" from-port="1" to-layer="5250" to-port="3"/>
		<edge from-layer="5249" from-port="1" to-layer="5250" to-port="4"/>
		<edge from-layer="5250" from-port="5" to-layer="5252" to-port="0"/>
		<edge from-layer="5251" from-port="1" to-layer="5252" to-port="1"/>
		<edge from-layer="5252" from-port="2" to-layer="5254" to-port="0"/>
		<edge from-layer="5253" from-port="1" to-layer="5254" to-port="1"/>
		<edge from-layer="5254" from-port="2" to-layer="5255" to-port="0"/>
		<edge from-layer="5255" from-port="1" to-layer="5260" to-port="0"/>
		<edge from-layer="5256" from-port="1" to-layer="5260" to-port="1"/>
		<edge from-layer="5257" from-port="1" to-layer="5260" to-port="2"/>
		<edge from-layer="5258" from-port="1" to-layer="5260" to-port="3"/>
		<edge from-layer="5259" from-port="1" to-layer="5260" to-port="4"/>
		<edge from-layer="5260" from-port="5" to-layer="5262" to-port="0"/>
		<edge from-layer="5261" from-port="1" to-layer="5262" to-port="1"/>
		<edge from-layer="5262" from-port="2" to-layer="5264" to-port="0"/>
		<edge from-layer="5263" from-port="1" to-layer="5264" to-port="1"/>
		<edge from-layer="5264" from-port="2" to-layer="5266" to-port="0"/>
		<edge from-layer="5265" from-port="1" to-layer="5266" to-port="1"/>
		<edge from-layer="5266" from-port="2" to-layer="5267" to-port="0"/>
		<edge from-layer="5267" from-port="1" to-layer="5272" to-port="0"/>
		<edge from-layer="5268" from-port="1" to-layer="5272" to-port="1"/>
		<edge from-layer="5269" from-port="1" to-layer="5272" to-port="2"/>
		<edge from-layer="5270" from-port="1" to-layer="5272" to-port="3"/>
		<edge from-layer="5271" from-port="1" to-layer="5272" to-port="4"/>
		<edge from-layer="5273" from-port="1" to-layer="5274" to-port="0"/>
		<edge from-layer="5274" from-port="1" to-layer="5279" to-port="0"/>
		<edge from-layer="5275" from-port="1" to-layer="5279" to-port="1"/>
		<edge from-layer="5276" from-port="1" to-layer="5279" to-port="2"/>
		<edge from-layer="5277" from-port="1" to-layer="5279" to-port="3"/>
		<edge from-layer="5278" from-port="1" to-layer="5279" to-port="4"/>
		<edge from-layer="5272" from-port="5" to-layer="5280" to-port="0"/>
		<edge from-layer="5279" from-port="5" to-layer="5280" to-port="1"/>
		<edge from-layer="5280" from-port="2" to-layer="5282" to-port="0"/>
		<edge from-layer="5281" from-port="1" to-layer="5282" to-port="1"/>
		<edge from-layer="5063" from-port="1" to-layer="5284" to-port="0"/>
		<edge from-layer="5282" from-port="2" to-layer="5284" to-port="1"/>
		<edge from-layer="5283" from-port="1" to-layer="5284" to-port="2"/>
		<edge from-layer="5284" from-port="3" to-layer="5287" to-port="0"/>
		<edge from-layer="5285" from-port="1" to-layer="5287" to-port="1"/>
		<edge from-layer="5286" from-port="1" to-layer="5287" to-port="2"/>
		<edge from-layer="5284" from-port="3" to-layer="5290" to-port="0"/>
		<edge from-layer="5288" from-port="1" to-layer="5290" to-port="1"/>
		<edge from-layer="5289" from-port="1" to-layer="5290" to-port="2"/>
		<edge from-layer="5287" from-port="3" to-layer="5291" to-port="0"/>
		<edge from-layer="5290" from-port="3" to-layer="5291" to-port="1"/>
		<edge from-layer="5291" from-port="2" to-layer="5293" to-port="0"/>
		<edge from-layer="5292" from-port="1" to-layer="5293" to-port="1"/>
		<edge from-layer="5293" from-port="2" to-layer="5295" to-port="0"/>
		<edge from-layer="5294" from-port="1" to-layer="5295" to-port="1"/>
		<edge from-layer="5295" from-port="2" to-layer="5297" to-port="0"/>
		<edge from-layer="5296" from-port="1" to-layer="5297" to-port="1"/>
		<edge from-layer="5284" from-port="3" to-layer="5300" to-port="0"/>
		<edge from-layer="5298" from-port="1" to-layer="5300" to-port="1"/>
		<edge from-layer="5299" from-port="1" to-layer="5300" to-port="2"/>
		<edge from-layer="5284" from-port="3" to-layer="5303" to-port="0"/>
		<edge from-layer="5301" from-port="1" to-layer="5303" to-port="1"/>
		<edge from-layer="5302" from-port="1" to-layer="5303" to-port="2"/>
		<edge from-layer="5300" from-port="3" to-layer="5304" to-port="0"/>
		<edge from-layer="5303" from-port="3" to-layer="5304" to-port="1"/>
		<edge from-layer="5304" from-port="2" to-layer="5306" to-port="0"/>
		<edge from-layer="5305" from-port="1" to-layer="5306" to-port="1"/>
		<edge from-layer="5306" from-port="2" to-layer="5308" to-port="0"/>
		<edge from-layer="5307" from-port="1" to-layer="5308" to-port="1"/>
		<edge from-layer="5308" from-port="2" to-layer="5310" to-port="0"/>
		<edge from-layer="5309" from-port="1" to-layer="5310" to-port="1"/>
		<edge from-layer="5311" from-port="1" to-layer="5312" to-port="0"/>
		<edge from-layer="5312" from-port="1" to-layer="5317" to-port="0"/>
		<edge from-layer="5313" from-port="1" to-layer="5317" to-port="1"/>
		<edge from-layer="5314" from-port="1" to-layer="5317" to-port="2"/>
		<edge from-layer="5315" from-port="1" to-layer="5317" to-port="3"/>
		<edge from-layer="5316" from-port="1" to-layer="5317" to-port="4"/>
		<edge from-layer="5124" from-port="3" to-layer="5318" to-port="0"/>
		<edge from-layer="5317" from-port="5" to-layer="5318" to-port="1"/>
		<edge from-layer="5318" from-port="2" to-layer="5320" to-port="0"/>
		<edge from-layer="5319" from-port="1" to-layer="5320" to-port="1"/>
		<edge from-layer="5320" from-port="2" to-layer="5325" to-port="0"/>
		<edge from-layer="5321" from-port="1" to-layer="5325" to-port="1"/>
		<edge from-layer="5322" from-port="1" to-layer="5325" to-port="2"/>
		<edge from-layer="5323" from-port="1" to-layer="5325" to-port="3"/>
		<edge from-layer="5324" from-port="1" to-layer="5325" to-port="4"/>
		<edge from-layer="5325" from-port="5" to-layer="5327" to-port="0"/>
		<edge from-layer="5326" from-port="1" to-layer="5327" to-port="1"/>
		<edge from-layer="5327" from-port="2" to-layer="5329" to-port="0"/>
		<edge from-layer="5328" from-port="1" to-layer="5329" to-port="1"/>
		<edge from-layer="5329" from-port="2" to-layer="5330" to-port="0"/>
		<edge from-layer="5330" from-port="1" to-layer="5335" to-port="0"/>
		<edge from-layer="5331" from-port="1" to-layer="5335" to-port="1"/>
		<edge from-layer="5332" from-port="1" to-layer="5335" to-port="2"/>
		<edge from-layer="5333" from-port="1" to-layer="5335" to-port="3"/>
		<edge from-layer="5334" from-port="1" to-layer="5335" to-port="4"/>
		<edge from-layer="5335" from-port="5" to-layer="5337" to-port="0"/>
		<edge from-layer="5336" from-port="1" to-layer="5337" to-port="1"/>
		<edge from-layer="5337" from-port="2" to-layer="5339" to-port="0"/>
		<edge from-layer="5338" from-port="1" to-layer="5339" to-port="1"/>
		<edge from-layer="5339" from-port="2" to-layer="5341" to-port="0"/>
		<edge from-layer="5340" from-port="1" to-layer="5341" to-port="1"/>
		<edge from-layer="5341" from-port="2" to-layer="5342" to-port="0"/>
		<edge from-layer="5342" from-port="1" to-layer="5347" to-port="0"/>
		<edge from-layer="5343" from-port="1" to-layer="5347" to-port="1"/>
		<edge from-layer="5344" from-port="1" to-layer="5347" to-port="2"/>
		<edge from-layer="5345" from-port="1" to-layer="5347" to-port="3"/>
		<edge from-layer="5346" from-port="1" to-layer="5347" to-port="4"/>
		<edge from-layer="5348" from-port="1" to-layer="5349" to-port="0"/>
		<edge from-layer="5349" from-port="1" to-layer="5354" to-port="0"/>
		<edge from-layer="5350" from-port="1" to-layer="5354" to-port="1"/>
		<edge from-layer="5351" from-port="1" to-layer="5354" to-port="2"/>
		<edge from-layer="5352" from-port="1" to-layer="5354" to-port="3"/>
		<edge from-layer="5353" from-port="1" to-layer="5354" to-port="4"/>
		<edge from-layer="5347" from-port="5" to-layer="5355" to-port="0"/>
		<edge from-layer="5354" from-port="5" to-layer="5355" to-port="1"/>
		<edge from-layer="5355" from-port="2" to-layer="5357" to-port="0"/>
		<edge from-layer="5356" from-port="1" to-layer="5357" to-port="1"/>
		<edge from-layer="5357" from-port="2" to-layer="5362" to-port="0"/>
		<edge from-layer="5358" from-port="1" to-layer="5362" to-port="1"/>
		<edge from-layer="5359" from-port="1" to-layer="5362" to-port="2"/>
		<edge from-layer="5360" from-port="1" to-layer="5362" to-port="3"/>
		<edge from-layer="5361" from-port="1" to-layer="5362" to-port="4"/>
		<edge from-layer="5362" from-port="5" to-layer="5364" to-port="0"/>
		<edge from-layer="5363" from-port="1" to-layer="5364" to-port="1"/>
		<edge from-layer="5364" from-port="2" to-layer="5366" to-port="0"/>
		<edge from-layer="5365" from-port="1" to-layer="5366" to-port="1"/>
		<edge from-layer="5366" from-port="2" to-layer="5367" to-port="0"/>
		<edge from-layer="5367" from-port="1" to-layer="5372" to-port="0"/>
		<edge from-layer="5368" from-port="1" to-layer="5372" to-port="1"/>
		<edge from-layer="5369" from-port="1" to-layer="5372" to-port="2"/>
		<edge from-layer="5370" from-port="1" to-layer="5372" to-port="3"/>
		<edge from-layer="5371" from-port="1" to-layer="5372" to-port="4"/>
		<edge from-layer="5372" from-port="5" to-layer="5374" to-port="0"/>
		<edge from-layer="5373" from-port="1" to-layer="5374" to-port="1"/>
		<edge from-layer="5374" from-port="2" to-layer="5376" to-port="0"/>
		<edge from-layer="5375" from-port="1" to-layer="5376" to-port="1"/>
		<edge from-layer="5376" from-port="2" to-layer="5378" to-port="0"/>
		<edge from-layer="5377" from-port="1" to-layer="5378" to-port="1"/>
		<edge from-layer="5378" from-port="2" to-layer="5379" to-port="0"/>
		<edge from-layer="5379" from-port="1" to-layer="5384" to-port="0"/>
		<edge from-layer="5380" from-port="1" to-layer="5384" to-port="1"/>
		<edge from-layer="5381" from-port="1" to-layer="5384" to-port="2"/>
		<edge from-layer="5382" from-port="1" to-layer="5384" to-port="3"/>
		<edge from-layer="5383" from-port="1" to-layer="5384" to-port="4"/>
		<edge from-layer="5385" from-port="1" to-layer="5386" to-port="0"/>
		<edge from-layer="5386" from-port="1" to-layer="5391" to-port="0"/>
		<edge from-layer="5387" from-port="1" to-layer="5391" to-port="1"/>
		<edge from-layer="5388" from-port="1" to-layer="5391" to-port="2"/>
		<edge from-layer="5389" from-port="1" to-layer="5391" to-port="3"/>
		<edge from-layer="5390" from-port="1" to-layer="5391" to-port="4"/>
		<edge from-layer="5384" from-port="5" to-layer="5392" to-port="0"/>
		<edge from-layer="5391" from-port="5" to-layer="5392" to-port="1"/>
		<edge from-layer="5392" from-port="2" to-layer="5394" to-port="0"/>
		<edge from-layer="5393" from-port="1" to-layer="5394" to-port="1"/>
		<edge from-layer="5394" from-port="2" to-layer="5399" to-port="0"/>
		<edge from-layer="5395" from-port="1" to-layer="5399" to-port="1"/>
		<edge from-layer="5396" from-port="1" to-layer="5399" to-port="2"/>
		<edge from-layer="5397" from-port="1" to-layer="5399" to-port="3"/>
		<edge from-layer="5398" from-port="1" to-layer="5399" to-port="4"/>
		<edge from-layer="5399" from-port="5" to-layer="5401" to-port="0"/>
		<edge from-layer="5400" from-port="1" to-layer="5401" to-port="1"/>
		<edge from-layer="5401" from-port="2" to-layer="5403" to-port="0"/>
		<edge from-layer="5402" from-port="1" to-layer="5403" to-port="1"/>
		<edge from-layer="5403" from-port="2" to-layer="5404" to-port="0"/>
		<edge from-layer="5404" from-port="1" to-layer="5409" to-port="0"/>
		<edge from-layer="5405" from-port="1" to-layer="5409" to-port="1"/>
		<edge from-layer="5406" from-port="1" to-layer="5409" to-port="2"/>
		<edge from-layer="5407" from-port="1" to-layer="5409" to-port="3"/>
		<edge from-layer="5408" from-port="1" to-layer="5409" to-port="4"/>
		<edge from-layer="5409" from-port="5" to-layer="5411" to-port="0"/>
		<edge from-layer="5410" from-port="1" to-layer="5411" to-port="1"/>
		<edge from-layer="5411" from-port="2" to-layer="5413" to-port="0"/>
		<edge from-layer="5412" from-port="1" to-layer="5413" to-port="1"/>
		<edge from-layer="5413" from-port="2" to-layer="5415" to-port="0"/>
		<edge from-layer="5414" from-port="1" to-layer="5415" to-port="1"/>
		<edge from-layer="5415" from-port="2" to-layer="5416" to-port="0"/>
		<edge from-layer="5416" from-port="1" to-layer="5421" to-port="0"/>
		<edge from-layer="5417" from-port="1" to-layer="5421" to-port="1"/>
		<edge from-layer="5418" from-port="1" to-layer="5421" to-port="2"/>
		<edge from-layer="5419" from-port="1" to-layer="5421" to-port="3"/>
		<edge from-layer="5420" from-port="1" to-layer="5421" to-port="4"/>
		<edge from-layer="5422" from-port="1" to-layer="5423" to-port="0"/>
		<edge from-layer="5423" from-port="1" to-layer="5428" to-port="0"/>
		<edge from-layer="5424" from-port="1" to-layer="5428" to-port="1"/>
		<edge from-layer="5425" from-port="1" to-layer="5428" to-port="2"/>
		<edge from-layer="5426" from-port="1" to-layer="5428" to-port="3"/>
		<edge from-layer="5427" from-port="1" to-layer="5428" to-port="4"/>
		<edge from-layer="5421" from-port="5" to-layer="5429" to-port="0"/>
		<edge from-layer="5428" from-port="5" to-layer="5429" to-port="1"/>
		<edge from-layer="5429" from-port="2" to-layer="5431" to-port="0"/>
		<edge from-layer="5430" from-port="1" to-layer="5431" to-port="1"/>
		<edge from-layer="5431" from-port="2" to-layer="5436" to-port="0"/>
		<edge from-layer="5432" from-port="1" to-layer="5436" to-port="1"/>
		<edge from-layer="5433" from-port="1" to-layer="5436" to-port="2"/>
		<edge from-layer="5434" from-port="1" to-layer="5436" to-port="3"/>
		<edge from-layer="5435" from-port="1" to-layer="5436" to-port="4"/>
		<edge from-layer="5436" from-port="5" to-layer="5438" to-port="0"/>
		<edge from-layer="5437" from-port="1" to-layer="5438" to-port="1"/>
		<edge from-layer="5438" from-port="2" to-layer="5440" to-port="0"/>
		<edge from-layer="5439" from-port="1" to-layer="5440" to-port="1"/>
		<edge from-layer="5440" from-port="2" to-layer="5441" to-port="0"/>
		<edge from-layer="5441" from-port="1" to-layer="5446" to-port="0"/>
		<edge from-layer="5442" from-port="1" to-layer="5446" to-port="1"/>
		<edge from-layer="5443" from-port="1" to-layer="5446" to-port="2"/>
		<edge from-layer="5444" from-port="1" to-layer="5446" to-port="3"/>
		<edge from-layer="5445" from-port="1" to-layer="5446" to-port="4"/>
		<edge from-layer="5446" from-port="5" to-layer="5448" to-port="0"/>
		<edge from-layer="5447" from-port="1" to-layer="5448" to-port="1"/>
		<edge from-layer="5448" from-port="2" to-layer="5450" to-port="0"/>
		<edge from-layer="5449" from-port="1" to-layer="5450" to-port="1"/>
		<edge from-layer="5450" from-port="2" to-layer="5452" to-port="0"/>
		<edge from-layer="5451" from-port="1" to-layer="5452" to-port="1"/>
		<edge from-layer="5452" from-port="2" to-layer="5453" to-port="0"/>
		<edge from-layer="5453" from-port="1" to-layer="5458" to-port="0"/>
		<edge from-layer="5454" from-port="1" to-layer="5458" to-port="1"/>
		<edge from-layer="5455" from-port="1" to-layer="5458" to-port="2"/>
		<edge from-layer="5456" from-port="1" to-layer="5458" to-port="3"/>
		<edge from-layer="5457" from-port="1" to-layer="5458" to-port="4"/>
		<edge from-layer="5459" from-port="1" to-layer="5460" to-port="0"/>
		<edge from-layer="5460" from-port="1" to-layer="5465" to-port="0"/>
		<edge from-layer="5461" from-port="1" to-layer="5465" to-port="1"/>
		<edge from-layer="5462" from-port="1" to-layer="5465" to-port="2"/>
		<edge from-layer="5463" from-port="1" to-layer="5465" to-port="3"/>
		<edge from-layer="5464" from-port="1" to-layer="5465" to-port="4"/>
		<edge from-layer="5458" from-port="5" to-layer="5466" to-port="0"/>
		<edge from-layer="5465" from-port="5" to-layer="5466" to-port="1"/>
		<edge from-layer="5466" from-port="2" to-layer="5468" to-port="0"/>
		<edge from-layer="5467" from-port="1" to-layer="5468" to-port="1"/>
		<edge from-layer="5468" from-port="2" to-layer="5471" to-port="0"/>
		<edge from-layer="5469" from-port="1" to-layer="5471" to-port="1"/>
		<edge from-layer="5470" from-port="1" to-layer="5471" to-port="2"/>
		<edge from-layer="5471" from-port="3" to-layer="5473" to-port="0"/>
		<edge from-layer="5472" from-port="1" to-layer="5473" to-port="1"/>
		<edge from-layer="5473" from-port="2" to-layer="5475" to-port="0"/>
		<edge from-layer="5474" from-port="1" to-layer="5475" to-port="1"/>
		<edge from-layer="5475" from-port="2" to-layer="5477" to-port="0"/>
		<edge from-layer="5476" from-port="1" to-layer="5477" to-port="1"/>
		<edge from-layer="5477" from-port="2" to-layer="5479" to-port="0"/>
		<edge from-layer="5478" from-port="1" to-layer="5479" to-port="1"/>
		<edge from-layer="5479" from-port="2" to-layer="5483" to-port="0"/>
		<edge from-layer="5480" from-port="1" to-layer="5483" to-port="1"/>
		<edge from-layer="5481" from-port="1" to-layer="5483" to-port="2"/>
		<edge from-layer="5482" from-port="1" to-layer="5483" to-port="3"/>
		<edge from-layer="5310" from-port="2" to-layer="5484" to-port="0"/>
		<edge from-layer="5483" from-port="4" to-layer="5484" to-port="1"/>
		<edge from-layer="5297" from-port="2" to-layer="5485" to-port="0"/>
		<edge from-layer="5484" from-port="2" to-layer="5485" to-port="1"/>
		<edge from-layer="5479" from-port="2" to-layer="5489" to-port="0"/>
		<edge from-layer="5486" from-port="1" to-layer="5489" to-port="1"/>
		<edge from-layer="5487" from-port="1" to-layer="5489" to-port="2"/>
		<edge from-layer="5488" from-port="1" to-layer="5489" to-port="3"/>
		<edge from-layer="5489" from-port="4" to-layer="5490" to-port="0"/>
		<edge from-layer="5490" from-port="1" to-layer="5491" to-port="0"/>
		<edge from-layer="5310" from-port="2" to-layer="5492" to-port="0"/>
		<edge from-layer="5491" from-port="1" to-layer="5492" to-port="1"/>
		<edge from-layer="5492" from-port="2" to-layer="5494" to-port="0"/>
		<edge from-layer="5493" from-port="1" to-layer="5494" to-port="1"/>
		<edge from-layer="5485" from-port="2" to-layer="5495" to-port="0"/>
		<edge from-layer="5494" from-port="2" to-layer="5495" to-port="1"/>
		<edge from-layer="5495" from-port="2" to-layer="5497" to-port="0"/>
		<edge from-layer="5496" from-port="1" to-layer="5497" to-port="1"/>
		<edge from-layer="5497" from-port="2" to-layer="5499" to-port="0"/>
		<edge from-layer="5498" from-port="1" to-layer="5499" to-port="1"/>
		<edge from-layer="5499" from-port="2" to-layer="5501" to-port="0"/>
		<edge from-layer="5500" from-port="1" to-layer="5501" to-port="1"/>
		<edge from-layer="5501" from-port="2" to-layer="5503" to-port="0"/>
		<edge from-layer="5502" from-port="1" to-layer="5503" to-port="1"/>
		<edge from-layer="5503" from-port="2" to-layer="5505" to-port="0"/>
		<edge from-layer="5504" from-port="1" to-layer="5505" to-port="1"/>
		<edge from-layer="5505" from-port="2" to-layer="5507" to-port="0"/>
		<edge from-layer="5506" from-port="1" to-layer="5507" to-port="1"/>
		<edge from-layer="5507" from-port="2" to-layer="5509" to-port="0"/>
		<edge from-layer="5508" from-port="1" to-layer="5509" to-port="1"/>
		<edge from-layer="5509" from-port="2" to-layer="5511" to-port="0"/>
		<edge from-layer="5510" from-port="1" to-layer="5511" to-port="1"/>
		<edge from-layer="5284" from-port="3" to-layer="5514" to-port="0"/>
		<edge from-layer="5512" from-port="1" to-layer="5514" to-port="1"/>
		<edge from-layer="5513" from-port="1" to-layer="5514" to-port="2"/>
		<edge from-layer="5284" from-port="3" to-layer="5517" to-port="0"/>
		<edge from-layer="5515" from-port="1" to-layer="5517" to-port="1"/>
		<edge from-layer="5516" from-port="1" to-layer="5517" to-port="2"/>
		<edge from-layer="5514" from-port="3" to-layer="5518" to-port="0"/>
		<edge from-layer="5517" from-port="3" to-layer="5518" to-port="1"/>
		<edge from-layer="5518" from-port="2" to-layer="5520" to-port="0"/>
		<edge from-layer="5519" from-port="1" to-layer="5520" to-port="1"/>
		<edge from-layer="5520" from-port="2" to-layer="5522" to-port="0"/>
		<edge from-layer="5521" from-port="1" to-layer="5522" to-port="1"/>
		<edge from-layer="5522" from-port="2" to-layer="5524" to-port="0"/>
		<edge from-layer="5523" from-port="1" to-layer="5524" to-port="1"/>
		<edge from-layer="5284" from-port="3" to-layer="5527" to-port="0"/>
		<edge from-layer="5525" from-port="1" to-layer="5527" to-port="1"/>
		<edge from-layer="5526" from-port="1" to-layer="5527" to-port="2"/>
		<edge from-layer="5284" from-port="3" to-layer="5530" to-port="0"/>
		<edge from-layer="5528" from-port="1" to-layer="5530" to-port="1"/>
		<edge from-layer="5529" from-port="1" to-layer="5530" to-port="2"/>
		<edge from-layer="5527" from-port="3" to-layer="5531" to-port="0"/>
		<edge from-layer="5530" from-port="3" to-layer="5531" to-port="1"/>
		<edge from-layer="5531" from-port="2" to-layer="5533" to-port="0"/>
		<edge from-layer="5532" from-port="1" to-layer="5533" to-port="1"/>
		<edge from-layer="5533" from-port="2" to-layer="5535" to-port="0"/>
		<edge from-layer="5534" from-port="1" to-layer="5535" to-port="1"/>
		<edge from-layer="5535" from-port="2" to-layer="5537" to-port="0"/>
		<edge from-layer="5536" from-port="1" to-layer="5537" to-port="1"/>
		<edge from-layer="5479" from-port="2" to-layer="5541" to-port="0"/>
		<edge from-layer="5538" from-port="1" to-layer="5541" to-port="1"/>
		<edge from-layer="5539" from-port="1" to-layer="5541" to-port="2"/>
		<edge from-layer="5540" from-port="1" to-layer="5541" to-port="3"/>
		<edge from-layer="5537" from-port="2" to-layer="5542" to-port="0"/>
		<edge from-layer="5541" from-port="4" to-layer="5542" to-port="1"/>
		<edge from-layer="5524" from-port="2" to-layer="5543" to-port="0"/>
		<edge from-layer="5542" from-port="2" to-layer="5543" to-port="1"/>
		<edge from-layer="5479" from-port="2" to-layer="5547" to-port="0"/>
		<edge from-layer="5544" from-port="1" to-layer="5547" to-port="1"/>
		<edge from-layer="5545" from-port="1" to-layer="5547" to-port="2"/>
		<edge from-layer="5546" from-port="1" to-layer="5547" to-port="3"/>
		<edge from-layer="5547" from-port="4" to-layer="5548" to-port="0"/>
		<edge from-layer="5548" from-port="1" to-layer="5549" to-port="0"/>
		<edge from-layer="5537" from-port="2" to-layer="5550" to-port="0"/>
		<edge from-layer="5549" from-port="1" to-layer="5550" to-port="1"/>
		<edge from-layer="5550" from-port="2" to-layer="5552" to-port="0"/>
		<edge from-layer="5551" from-port="1" to-layer="5552" to-port="1"/>
		<edge from-layer="5543" from-port="2" to-layer="5553" to-port="0"/>
		<edge from-layer="5552" from-port="2" to-layer="5553" to-port="1"/>
		<edge from-layer="5553" from-port="2" to-layer="5555" to-port="0"/>
		<edge from-layer="5554" from-port="1" to-layer="5555" to-port="1"/>
		<edge from-layer="5555" from-port="2" to-layer="5557" to-port="0"/>
		<edge from-layer="5556" from-port="1" to-layer="5557" to-port="1"/>
		<edge from-layer="5557" from-port="2" to-layer="5559" to-port="0"/>
		<edge from-layer="5558" from-port="1" to-layer="5559" to-port="1"/>
		<edge from-layer="5559" from-port="2" to-layer="5561" to-port="0"/>
		<edge from-layer="5560" from-port="1" to-layer="5561" to-port="1"/>
		<edge from-layer="5561" from-port="2" to-layer="5563" to-port="0"/>
		<edge from-layer="5562" from-port="1" to-layer="5563" to-port="1"/>
		<edge from-layer="5563" from-port="2" to-layer="5565" to-port="0"/>
		<edge from-layer="5564" from-port="1" to-layer="5565" to-port="1"/>
		<edge from-layer="5565" from-port="2" to-layer="5567" to-port="0"/>
		<edge from-layer="5566" from-port="1" to-layer="5567" to-port="1"/>
		<edge from-layer="5567" from-port="2" to-layer="5569" to-port="0"/>
		<edge from-layer="5568" from-port="1" to-layer="5569" to-port="1"/>
		<edge from-layer="5492" from-port="2" to-layer="5571" to-port="0"/>
		<edge from-layer="5570" from-port="1" to-layer="5571" to-port="1"/>
		<edge from-layer="5485" from-port="2" to-layer="5572" to-port="0"/>
		<edge from-layer="5571" from-port="2" to-layer="5572" to-port="1"/>
		<edge from-layer="5572" from-port="2" to-layer="5574" to-port="0"/>
		<edge from-layer="5573" from-port="1" to-layer="5574" to-port="1"/>
		<edge from-layer="5574" from-port="2" to-layer="5576" to-port="0"/>
		<edge from-layer="5575" from-port="1" to-layer="5576" to-port="1"/>
		<edge from-layer="5576" from-port="2" to-layer="5578" to-port="0"/>
		<edge from-layer="5577" from-port="1" to-layer="5578" to-port="1"/>
		<edge from-layer="5578" from-port="2" to-layer="5580" to-port="0"/>
		<edge from-layer="5579" from-port="1" to-layer="5580" to-port="1"/>
		<edge from-layer="5580" from-port="2" to-layer="5582" to-port="0"/>
		<edge from-layer="5581" from-port="1" to-layer="5582" to-port="1"/>
		<edge from-layer="5582" from-port="2" to-layer="5584" to-port="0"/>
		<edge from-layer="5583" from-port="1" to-layer="5584" to-port="1"/>
		<edge from-layer="5584" from-port="2" to-layer="5586" to-port="0"/>
		<edge from-layer="5585" from-port="1" to-layer="5586" to-port="1"/>
		<edge from-layer="5586" from-port="2" to-layer="5588" to-port="0"/>
		<edge from-layer="5587" from-port="1" to-layer="5588" to-port="1"/>
		<edge from-layer="5550" from-port="2" to-layer="5590" to-port="0"/>
		<edge from-layer="5589" from-port="1" to-layer="5590" to-port="1"/>
		<edge from-layer="5543" from-port="2" to-layer="5591" to-port="0"/>
		<edge from-layer="5590" from-port="2" to-layer="5591" to-port="1"/>
		<edge from-layer="5591" from-port="2" to-layer="5593" to-port="0"/>
		<edge from-layer="5592" from-port="1" to-layer="5593" to-port="1"/>
		<edge from-layer="5593" from-port="2" to-layer="5595" to-port="0"/>
		<edge from-layer="5594" from-port="1" to-layer="5595" to-port="1"/>
		<edge from-layer="5595" from-port="2" to-layer="5597" to-port="0"/>
		<edge from-layer="5596" from-port="1" to-layer="5597" to-port="1"/>
		<edge from-layer="5597" from-port="2" to-layer="5599" to-port="0"/>
		<edge from-layer="5598" from-port="1" to-layer="5599" to-port="1"/>
		<edge from-layer="5599" from-port="2" to-layer="5601" to-port="0"/>
		<edge from-layer="5600" from-port="1" to-layer="5601" to-port="1"/>
		<edge from-layer="5601" from-port="2" to-layer="5603" to-port="0"/>
		<edge from-layer="5602" from-port="1" to-layer="5603" to-port="1"/>
		<edge from-layer="5603" from-port="2" to-layer="5605" to-port="0"/>
		<edge from-layer="5604" from-port="1" to-layer="5605" to-port="1"/>
		<edge from-layer="5605" from-port="2" to-layer="5607" to-port="0"/>
		<edge from-layer="5606" from-port="1" to-layer="5607" to-port="1"/>
		<edge from-layer="5511" from-port="2" to-layer="5608" to-port="0"/>
		<edge from-layer="5569" from-port="2" to-layer="5608" to-port="1"/>
		<edge from-layer="5588" from-port="2" to-layer="5608" to-port="2"/>
		<edge from-layer="5607" from-port="2" to-layer="5608" to-port="3"/>
		<edge from-layer="5608" from-port="4" to-layer="5610" to-port="0"/>
		<edge from-layer="5609" from-port="1" to-layer="5610" to-port="1"/>
		<edge from-layer="3418" from-port="2" to-layer="5611" to-port="0"/>
		<edge from-layer="3966" from-port="2" to-layer="5611" to-port="1"/>
		<edge from-layer="4514" from-port="2" to-layer="5611" to-port="2"/>
		<edge from-layer="5062" from-port="2" to-layer="5611" to-port="3"/>
		<edge from-layer="5610" from-port="2" to-layer="5611" to-port="4"/>
		<edge from-layer="5611" from-port="5" to-layer="5613" to-port="0"/>
		<edge from-layer="5612" from-port="1" to-layer="5613" to-port="1"/>
		<edge from-layer="5613" from-port="2" to-layer="5615" to-port="0"/>
		<edge from-layer="5614" from-port="1" to-layer="5615" to-port="1"/>
		<edge from-layer="5615" from-port="2" to-layer="5617" to-port="0"/>
		<edge from-layer="5616" from-port="1" to-layer="5617" to-port="1"/>
		<edge from-layer="3090" from-port="2" to-layer="5620" to-port="0"/>
		<edge from-layer="5618" from-port="1" to-layer="5620" to-port="1"/>
		<edge from-layer="5619" from-port="1" to-layer="5620" to-port="2"/>
		<edge from-layer="5620" from-port="3" to-layer="5622" to-port="0"/>
		<edge from-layer="5621" from-port="1" to-layer="5622" to-port="1"/>
		<edge from-layer="5622" from-port="2" to-layer="5624" to-port="0"/>
		<edge from-layer="5623" from-port="1" to-layer="5624" to-port="1"/>
		<edge from-layer="5624" from-port="2" to-layer="5625" to-port="0"/>
		<edge from-layer="3638" from-port="2" to-layer="5628" to-port="0"/>
		<edge from-layer="5626" from-port="1" to-layer="5628" to-port="1"/>
		<edge from-layer="5627" from-port="1" to-layer="5628" to-port="2"/>
		<edge from-layer="5628" from-port="3" to-layer="5630" to-port="0"/>
		<edge from-layer="5629" from-port="1" to-layer="5630" to-port="1"/>
		<edge from-layer="5630" from-port="2" to-layer="5632" to-port="0"/>
		<edge from-layer="5631" from-port="1" to-layer="5632" to-port="1"/>
		<edge from-layer="5632" from-port="2" to-layer="5633" to-port="0"/>
		<edge from-layer="4186" from-port="2" to-layer="5636" to-port="0"/>
		<edge from-layer="5634" from-port="1" to-layer="5636" to-port="1"/>
		<edge from-layer="5635" from-port="1" to-layer="5636" to-port="2"/>
		<edge from-layer="5636" from-port="3" to-layer="5638" to-port="0"/>
		<edge from-layer="5637" from-port="1" to-layer="5638" to-port="1"/>
		<edge from-layer="5638" from-port="2" to-layer="5640" to-port="0"/>
		<edge from-layer="5639" from-port="1" to-layer="5640" to-port="1"/>
		<edge from-layer="5640" from-port="2" to-layer="5641" to-port="0"/>
		<edge from-layer="4734" from-port="2" to-layer="5644" to-port="0"/>
		<edge from-layer="5642" from-port="1" to-layer="5644" to-port="1"/>
		<edge from-layer="5643" from-port="1" to-layer="5644" to-port="2"/>
		<edge from-layer="5644" from-port="3" to-layer="5646" to-port="0"/>
		<edge from-layer="5645" from-port="1" to-layer="5646" to-port="1"/>
		<edge from-layer="5646" from-port="2" to-layer="5648" to-port="0"/>
		<edge from-layer="5647" from-port="1" to-layer="5648" to-port="1"/>
		<edge from-layer="5648" from-port="2" to-layer="5649" to-port="0"/>
		<edge from-layer="5282" from-port="2" to-layer="5652" to-port="0"/>
		<edge from-layer="5650" from-port="1" to-layer="5652" to-port="1"/>
		<edge from-layer="5651" from-port="1" to-layer="5652" to-port="2"/>
		<edge from-layer="5652" from-port="3" to-layer="5654" to-port="0"/>
		<edge from-layer="5653" from-port="1" to-layer="5654" to-port="1"/>
		<edge from-layer="5654" from-port="2" to-layer="5656" to-port="0"/>
		<edge from-layer="5655" from-port="1" to-layer="5656" to-port="1"/>
		<edge from-layer="5656" from-port="2" to-layer="5657" to-port="0"/>
		<edge from-layer="5625" from-port="1" to-layer="5658" to-port="0"/>
		<edge from-layer="5633" from-port="1" to-layer="5658" to-port="1"/>
		<edge from-layer="5641" from-port="1" to-layer="5658" to-port="2"/>
		<edge from-layer="5649" from-port="1" to-layer="5658" to-port="3"/>
		<edge from-layer="5657" from-port="1" to-layer="5658" to-port="4"/>
		<edge from-layer="5659" from-port="1" to-layer="5660" to-port="0"/>
		<edge from-layer="5660" from-port="1" to-layer="5665" to-port="0"/>
		<edge from-layer="5661" from-port="1" to-layer="5665" to-port="1"/>
		<edge from-layer="5662" from-port="1" to-layer="5665" to-port="2"/>
		<edge from-layer="5663" from-port="1" to-layer="5665" to-port="3"/>
		<edge from-layer="5664" from-port="1" to-layer="5665" to-port="4"/>
		<edge from-layer="3266" from-port="5" to-layer="5666" to-port="0"/>
		<edge from-layer="5665" from-port="5" to-layer="5666" to-port="1"/>
		<edge from-layer="5666" from-port="2" to-layer="5668" to-port="0"/>
		<edge from-layer="5667" from-port="1" to-layer="5668" to-port="1"/>
		<edge from-layer="5668" from-port="2" to-layer="5671" to-port="0"/>
		<edge from-layer="5669" from-port="1" to-layer="5671" to-port="1"/>
		<edge from-layer="5670" from-port="1" to-layer="5671" to-port="2"/>
		<edge from-layer="5671" from-port="3" to-layer="5673" to-port="0"/>
		<edge from-layer="5672" from-port="1" to-layer="5673" to-port="1"/>
		<edge from-layer="5673" from-port="2" to-layer="5675" to-port="0"/>
		<edge from-layer="5674" from-port="1" to-layer="5675" to-port="1"/>
		<edge from-layer="5675" from-port="2" to-layer="5676" to-port="0"/>
		<edge from-layer="5677" from-port="1" to-layer="5678" to-port="0"/>
		<edge from-layer="5678" from-port="1" to-layer="5683" to-port="0"/>
		<edge from-layer="5679" from-port="1" to-layer="5683" to-port="1"/>
		<edge from-layer="5680" from-port="1" to-layer="5683" to-port="2"/>
		<edge from-layer="5681" from-port="1" to-layer="5683" to-port="3"/>
		<edge from-layer="5682" from-port="1" to-layer="5683" to-port="4"/>
		<edge from-layer="3814" from-port="5" to-layer="5684" to-port="0"/>
		<edge from-layer="5683" from-port="5" to-layer="5684" to-port="1"/>
		<edge from-layer="5684" from-port="2" to-layer="5686" to-port="0"/>
		<edge from-layer="5685" from-port="1" to-layer="5686" to-port="1"/>
		<edge from-layer="5686" from-port="2" to-layer="5689" to-port="0"/>
		<edge from-layer="5687" from-port="1" to-layer="5689" to-port="1"/>
		<edge from-layer="5688" from-port="1" to-layer="5689" to-port="2"/>
		<edge from-layer="5689" from-port="3" to-layer="5691" to-port="0"/>
		<edge from-layer="5690" from-port="1" to-layer="5691" to-port="1"/>
		<edge from-layer="5691" from-port="2" to-layer="5693" to-port="0"/>
		<edge from-layer="5692" from-port="1" to-layer="5693" to-port="1"/>
		<edge from-layer="5693" from-port="2" to-layer="5694" to-port="0"/>
		<edge from-layer="5695" from-port="1" to-layer="5696" to-port="0"/>
		<edge from-layer="5696" from-port="1" to-layer="5701" to-port="0"/>
		<edge from-layer="5697" from-port="1" to-layer="5701" to-port="1"/>
		<edge from-layer="5698" from-port="1" to-layer="5701" to-port="2"/>
		<edge from-layer="5699" from-port="1" to-layer="5701" to-port="3"/>
		<edge from-layer="5700" from-port="1" to-layer="5701" to-port="4"/>
		<edge from-layer="4362" from-port="5" to-layer="5702" to-port="0"/>
		<edge from-layer="5701" from-port="5" to-layer="5702" to-port="1"/>
		<edge from-layer="5702" from-port="2" to-layer="5704" to-port="0"/>
		<edge from-layer="5703" from-port="1" to-layer="5704" to-port="1"/>
		<edge from-layer="5704" from-port="2" to-layer="5707" to-port="0"/>
		<edge from-layer="5705" from-port="1" to-layer="5707" to-port="1"/>
		<edge from-layer="5706" from-port="1" to-layer="5707" to-port="2"/>
		<edge from-layer="5707" from-port="3" to-layer="5709" to-port="0"/>
		<edge from-layer="5708" from-port="1" to-layer="5709" to-port="1"/>
		<edge from-layer="5709" from-port="2" to-layer="5711" to-port="0"/>
		<edge from-layer="5710" from-port="1" to-layer="5711" to-port="1"/>
		<edge from-layer="5711" from-port="2" to-layer="5712" to-port="0"/>
		<edge from-layer="5713" from-port="1" to-layer="5714" to-port="0"/>
		<edge from-layer="5714" from-port="1" to-layer="5719" to-port="0"/>
		<edge from-layer="5715" from-port="1" to-layer="5719" to-port="1"/>
		<edge from-layer="5716" from-port="1" to-layer="5719" to-port="2"/>
		<edge from-layer="5717" from-port="1" to-layer="5719" to-port="3"/>
		<edge from-layer="5718" from-port="1" to-layer="5719" to-port="4"/>
		<edge from-layer="4910" from-port="5" to-layer="5720" to-port="0"/>
		<edge from-layer="5719" from-port="5" to-layer="5720" to-port="1"/>
		<edge from-layer="5720" from-port="2" to-layer="5722" to-port="0"/>
		<edge from-layer="5721" from-port="1" to-layer="5722" to-port="1"/>
		<edge from-layer="5722" from-port="2" to-layer="5725" to-port="0"/>
		<edge from-layer="5723" from-port="1" to-layer="5725" to-port="1"/>
		<edge from-layer="5724" from-port="1" to-layer="5725" to-port="2"/>
		<edge from-layer="5725" from-port="3" to-layer="5727" to-port="0"/>
		<edge from-layer="5726" from-port="1" to-layer="5727" to-port="1"/>
		<edge from-layer="5727" from-port="2" to-layer="5729" to-port="0"/>
		<edge from-layer="5728" from-port="1" to-layer="5729" to-port="1"/>
		<edge from-layer="5729" from-port="2" to-layer="5730" to-port="0"/>
		<edge from-layer="5731" from-port="1" to-layer="5732" to-port="0"/>
		<edge from-layer="5732" from-port="1" to-layer="5737" to-port="0"/>
		<edge from-layer="5733" from-port="1" to-layer="5737" to-port="1"/>
		<edge from-layer="5734" from-port="1" to-layer="5737" to-port="2"/>
		<edge from-layer="5735" from-port="1" to-layer="5737" to-port="3"/>
		<edge from-layer="5736" from-port="1" to-layer="5737" to-port="4"/>
		<edge from-layer="5458" from-port="5" to-layer="5738" to-port="0"/>
		<edge from-layer="5737" from-port="5" to-layer="5738" to-port="1"/>
		<edge from-layer="5738" from-port="2" to-layer="5740" to-port="0"/>
		<edge from-layer="5739" from-port="1" to-layer="5740" to-port="1"/>
		<edge from-layer="5740" from-port="2" to-layer="5743" to-port="0"/>
		<edge from-layer="5741" from-port="1" to-layer="5743" to-port="1"/>
		<edge from-layer="5742" from-port="1" to-layer="5743" to-port="2"/>
		<edge from-layer="5743" from-port="3" to-layer="5745" to-port="0"/>
		<edge from-layer="5744" from-port="1" to-layer="5745" to-port="1"/>
		<edge from-layer="5745" from-port="2" to-layer="5747" to-port="0"/>
		<edge from-layer="5746" from-port="1" to-layer="5747" to-port="1"/>
		<edge from-layer="5747" from-port="2" to-layer="5748" to-port="0"/>
		<edge from-layer="5676" from-port="1" to-layer="5749" to-port="0"/>
		<edge from-layer="5694" from-port="1" to-layer="5749" to-port="1"/>
		<edge from-layer="5712" from-port="1" to-layer="5749" to-port="2"/>
		<edge from-layer="5730" from-port="1" to-layer="5749" to-port="3"/>
		<edge from-layer="5748" from-port="1" to-layer="5749" to-port="4"/>
		<edge from-layer="5749" from-port="5" to-layer="5751" to-port="0"/>
		<edge from-layer="5750" from-port="1" to-layer="5751" to-port="1"/>
		<edge from-layer="5751" from-port="2" to-layer="5753" to-port="0"/>
		<edge from-layer="5752" from-port="1" to-layer="5753" to-port="1"/>
		<edge from-layer="5658" from-port="5" to-layer="5754" to-port="0"/>
		<edge from-layer="5753" from-port="2" to-layer="5754" to-port="1"/>
		<edge from-layer="5754" from-port="2" to-layer="5756" to-port="0"/>
		<edge from-layer="5755" from-port="1" to-layer="5756" to-port="1"/>
		<edge from-layer="5756" from-port="2" to-layer="5758" to-port="0"/>
		<edge from-layer="5757" from-port="1" to-layer="5758" to-port="1"/>
		<edge from-layer="5615" from-port="2" to-layer="5762" to-port="0"/>
		<edge from-layer="5758" from-port="2" to-layer="5762" to-port="1"/>
		<edge from-layer="5759" from-port="1" to-layer="5762" to-port="2"/>
		<edge from-layer="5760" from-port="1" to-layer="5762" to-port="3"/>
		<edge from-layer="5761" from-port="1" to-layer="5762" to-port="4"/>
		<edge from-layer="5762" from-port="5" to-layer="5763" to-port="0"/>
		<edge from-layer="5763" from-port="1" to-layer="5766" to-port="0"/>
		<edge from-layer="5764" from-port="1" to-layer="5766" to-port="1"/>
		<edge from-layer="5765" from-port="1" to-layer="5766" to-port="2"/>
		<edge from-layer="5766" from-port="3" to-layer="5768" to-port="0"/>
		<edge from-layer="5767" from-port="1" to-layer="5768" to-port="1"/>
		<edge from-layer="5768" from-port="2" to-layer="5769" to-port="0"/>
		<edge from-layer="5766" from-port="5" to-layer="5769" to-port="1"/>
		<edge from-layer="5617" from-port="2" to-layer="5771" to-port="0"/>
		<edge from-layer="5769" from-port="2" to-layer="5771" to-port="1"/>
		<edge from-layer="5770" from-port="1" to-layer="5771" to-port="2"/>
		<edge from-layer="5771" from-port="3" to-layer="5773" to-port="0"/>
		<edge from-layer="5772" from-port="1" to-layer="5773" to-port="1"/>
		<edge from-layer="5758" from-port="2" to-layer="5775" to-port="0"/>
		<edge from-layer="5774" from-port="1" to-layer="5775" to-port="1"/>
		<edge from-layer="5766" from-port="3" to-layer="5777" to-port="0"/>
		<edge from-layer="5776" from-port="1" to-layer="5777" to-port="1"/>
		<edge from-layer="5777" from-port="2" to-layer="5778" to-port="0"/>
		<edge from-layer="5766" from-port="4" to-layer="5778" to-port="1"/>
		<edge from-layer="5778" from-port="2" to-layer="5780" to-port="0"/>
		<edge from-layer="5779" from-port="1" to-layer="5780" to-port="1"/>
		<edge from-layer="5780" from-port="2" to-layer="5781" to-port="0"/>
		<edge from-layer="5766" from-port="5" to-layer="5781" to-port="1"/>
		<edge from-layer="5775" from-port="2" to-layer="5783" to-port="0"/>
		<edge from-layer="5781" from-port="2" to-layer="5783" to-port="1"/>
		<edge from-layer="5782" from-port="1" to-layer="5783" to-port="2"/>
		<edge from-layer="5783" from-port="3" to-layer="5785" to-port="0"/>
		<edge from-layer="5784" from-port="1" to-layer="5785" to-port="1"/>
		<edge from-layer="5766" from-port="4" to-layer="5786" to-port="0"/>
		<edge from-layer="5786" from-port="1" to-layer="5788" to-port="0"/>
		<edge from-layer="5787" from-port="1" to-layer="5788" to-port="1"/>
		<edge from-layer="5773" from-port="2" to-layer="5789" to-port="0"/>
		<edge from-layer="5785" from-port="2" to-layer="5789" to-port="1"/>
		<edge from-layer="5788" from-port="2" to-layer="5789" to-port="2"/>
		<edge from-layer="5789" from-port="3" to-layer="5792" to-port="0"/>
		<edge from-layer="5790" from-port="1" to-layer="5792" to-port="1"/>
		<edge from-layer="5791" from-port="1" to-layer="5792" to-port="2"/>
		<edge from-layer="5792" from-port="3" to-layer="5794" to-port="0"/>
		<edge from-layer="5793" from-port="1" to-layer="5794" to-port="1"/>
		<edge from-layer="5794" from-port="2" to-layer="5796" to-port="0"/>
		<edge from-layer="5795" from-port="1" to-layer="5796" to-port="1"/>
		<edge from-layer="5796" from-port="2" to-layer="5797" to-port="0"/>
		<edge from-layer="5789" from-port="3" to-layer="5799" to-port="0"/>
		<edge from-layer="5796" from-port="3" to-layer="5799" to-port="1"/>
		<edge from-layer="5798" from-port="1" to-layer="5799" to-port="2"/>
		<edge from-layer="5799" from-port="3" to-layer="5802" to-port="0"/>
		<edge from-layer="5800" from-port="1" to-layer="5802" to-port="1"/>
		<edge from-layer="5801" from-port="1" to-layer="5802" to-port="2"/>
		<edge from-layer="5802" from-port="4" to-layer="5803" to-port="0"/>
		<edge from-layer="5802" from-port="3" to-layer="5804" to-port="0"/>
		<edge from-layer="5799" from-port="3" to-layer="5807" to-port="0"/>
		<edge from-layer="5805" from-port="1" to-layer="5807" to-port="1"/>
		<edge from-layer="5806" from-port="1" to-layer="5807" to-port="2"/>
		<edge from-layer="5807" from-port="3" to-layer="5808" to-port="0"/>
		<edge from-layer="5808" from-port="1" to-layer="5810" to-port="0"/>
		<edge from-layer="5809" from-port="1" to-layer="5810" to-port="1"/>
		<edge from-layer="5810" from-port="2" to-layer="5811" to-port="0"/>
	</edges>
	<meta_data>
		<MO_version value="unknown version"/>
		<cli_parameters>
			<blobs_as_inputs value="True"/>
			<caffe_parser_path value="DIR"/>
			<data_type value="FP16"/>
			<disable_nhwc_to_nchw value="False"/>
			<disable_omitting_optional value="False"/>
			<disable_resnet_optimization value="False"/>
			<disable_weights_compression value="False"/>
			<enable_concat_optimization value="False"/>
			<enable_flattening_nested_params value="False"/>
			<enable_ssd_gluoncv value="False"/>
			<extensions value="DIR"/>
			<framework value="onnx"/>
			<freeze_placeholder_with_value value="{}"/>
			<generate_deprecated_IR_V2 value="False"/>
			<generate_deprecated_IR_V7 value="False"/>
			<generate_experimental_IR_V10 value="True"/>
			<input value="image"/>
			<input_model value="DIR/model.onnx"/>
			<input_model_is_text value="False"/>
			<input_shape value="[1,3,640,640]"/>
			<k value="DIR/CustomLayersMapping.xml"/>
			<keep_quantize_ops_in_IR value="True"/>
			<keep_shape_ops value="False"/>
			<legacy_mxnet_model value="False"/>
			<log_level value="ERROR"/>
			<mean_scale_values value="{'image': {'mean': array([123.675, 116.28 , 103.53 ]), 'scale': array([58.395, 57.12 , 57.375])}}"/>
			<mean_values value="image[123.675,116.28,103.53]"/>
			<model_name value="face-detection-0106"/>
			<move_to_preprocess value="False"/>
			<output value="['boxes', 'labels']"/>
			<output_dir value="DIR"/>
			<placeholder_data_types value="{}"/>
			<placeholder_shapes value="{'image': array([  1,   3, 640, 640])}"/>
			<progress value="False"/>
			<remove_memory value="False"/>
			<remove_output_softmax value="False"/>
			<reverse_input_channels value="True"/>
			<save_params_from_nd value="False"/>
			<scale_values value="image[58.395,57.12,57.375]"/>
			<silent value="False"/>
			<stream_output value="False"/>
			<unset unset_cli_parameters="batch, counts, disable_fusing, disable_gfusing, finegrain_fusing, input_checkpoint, input_meta_graph, input_proto, input_symbol, mean_file, mean_file_offsets, nd_prefix_name, pretrained_model_name, saved_model_dir, saved_model_tags, scale, tensorboard_logdir, tensorflow_custom_layer_libraries, tensorflow_custom_operations_config_update, tensorflow_object_detection_api_pipeline_config, tensorflow_use_custom_operations_config, transformations_config"/>
		</cli_parameters>
	</meta_data>
	<quantization_parameters>
		<config>{
		'compression': {
			'algorithms': [
				{
					'name': 'DefaultQuantization',
					'params': {
						'preset': 'performance',
						'stat_subset_size': 300
					}
				}
			],
			'target_device': 'CPU'
		},
		'engine': {
			'models': [
				{
					'name': 'face-detection-0106',
					'launchers': [
						{
							'framework': 'dlsdk',
							'tags': [
								'FP32'
							],
							'model': 'PATH',
							'weights': 'PATH',
							'adapter': {
								'type': 'class_agnostic_detection',
								'scale': 0.0015625
							},
							'device': 'CPU'
						}
					],
					'datasets': [
						{
							'name': 'wider',
							'data_source': 'PATH',
							'annotation_conversion': {
								'converter': 'wider',
								'annotation_file': 'PATH'
							},
							'annotation': 'wider.pickle',
							'dataset_meta': 'wider.json',
							'preprocessing': [
								{
									'type': 'resize',
									'size': 640
								}
							],
							'postprocessing': [
								{
									'type': 'resize_prediction_boxes'
								},
								{
									'type': 'cast_to_int'
								},
								{
									'type': 'clip_boxes',
									'size': 1024,
									'apply_to': 'annotation'
								},
								{
									'type': 'filter',
									'apply_to': 'annotation',
									'height_range': '64, 1024',
									'is_empty': true
								}
							],
							'metrics': [
								{
									'type': 'map',
									'ignore_difficult': true,
									'include_boundaries': false,
									'allow_multiple_matches_per_ignored': true,
									'distinct_conf': false
								}
							]
						}
					]
				},
				{
					'name': 'face-detection-0106',
					'launchers': [
						{
							'framework': 'dlsdk',
							'tags': [
								'FP16'
							],
							'model': 'PATH',
							'weights': 'PATH',
							'adapter': {
								'type': 'class_agnostic_detection',
								'scale': 0.0015625
							},
							'device': 'CPU'
						}
					],
					'datasets': [
						{
							'name': 'wider',
							'data_source': 'PATH',
							'annotation_conversion': {
								'converter': 'wider',
								'annotation_file': 'PATH'
							},
							'annotation': 'wider.pickle',
							'dataset_meta': 'wider.json',
							'preprocessing': [
								{
									'type': 'resize',
									'size': 640
								}
							],
							'postprocessing': [
								{
									'type': 'resize_prediction_boxes'
								},
								{
									'type': 'cast_to_int'
								},
								{
									'type': 'clip_boxes',
									'size': 1024,
									'apply_to': 'annotation'
								},
								{
									'type': 'filter',
									'apply_to': 'annotation',
									'height_range': '64, 1024',
									'is_empty': true
								}
							],
							'metrics': [
								{
									'type': 'map',
									'ignore_difficult': true,
									'include_boundaries': false,
									'allow_multiple_matches_per_ignored': true,
									'distinct_conf': false
								}
							]
						}
					]
				}
			],
			'global_definitions': '../dataset_definitions.yml',
			'stat_requests_number': null,
			'eval_requests_number': null,
			'type': 'accuracy_checker'
		}
	}</config>
		<version value="1.0"/>
		<cli_params value="{'evaluate': False, 'output_dir': 'PATH', 'direct_dump': True, 'log_level': 'INFO', 'pbar': False, 'keep_uncompressed_weights': False}"/>
	</quantization_parameters>
</net>
