<?xml version="1.0" ?>
<net name="driver_action_recognition_adas_0002_decoder" version="10">
	<layers>
		<layer id="0" name="0" type="Parameter" version="opset1">
			<data element_type="f32" shape="1,16,512"/>
			<output>
				<port id="0" precision="FP32">
					<dim>1</dim>
					<dim>16</dim>
					<dim>512</dim>
				</port>
			</output>
		</layer>
		<layer id="1" name="3631375/Output_0/Data_/copy_const276_const" type="Const" version="opset1">
			<data element_type="f32" offset="0" shape="1,16,512" size="32768"/>
			<output>
				<port id="1" precision="FP32">
					<dim>1</dim>
					<dim>16</dim>
					<dim>512</dim>
				</port>
			</output>
		</layer>
		<layer id="2" name="364" type="Add" version="opset1">
			<input>
				<port id="0">
					<dim>1</dim>
					<dim>16</dim>
					<dim>512</dim>
				</port>
				<port id="1">
					<dim>1</dim>
					<dim>16</dim>
					<dim>512</dim>
				</port>
			</input>
			<output>
				<port id="2" precision="FP32">
					<dim>1</dim>
					<dim>16</dim>
					<dim>512</dim>
				</port>
			</output>
		</layer>
		<layer id="3" name="24112415_const" type="Const" version="opset1">
			<data element_type="f32" offset="32768" shape="" size="4"/>
			<output>
				<port id="1" precision="FP32"/>
			</output>
		</layer>
		<layer id="4" name="24122416_const" type="Const" version="opset1">
			<data element_type="f32" offset="32772" shape="" size="4"/>
			<output>
				<port id="1" precision="FP32"/>
			</output>
		</layer>
		<layer id="5" name="24132417_const" type="Const" version="opset1">
			<data element_type="f32" offset="32768" shape="" size="4"/>
			<output>
				<port id="1" precision="FP32"/>
			</output>
		</layer>
		<layer id="6" name="24142418_const" type="Const" version="opset1">
			<data element_type="f32" offset="32772" shape="" size="4"/>
			<output>
				<port id="1" precision="FP32"/>
			</output>
		</layer>
		<layer id="7" name="378/3D_Tile_Unsqueeze/fq_input_0" type="FakeQuantize" version="opset1">
			<data levels="256"/>
			<input>
				<port id="0">
					<dim>1</dim>
					<dim>16</dim>
					<dim>512</dim>
				</port>
				<port id="1"/>
				<port id="2"/>
				<port id="3"/>
				<port id="4"/>
			</input>
			<output>
				<port id="5" precision="FP32">
					<dim>1</dim>
					<dim>16</dim>
					<dim>512</dim>
				</port>
			</output>
		</layer>
		<layer id="8" name="378/3D_Tile_Unsqueeze_dim6342_const278_const" type="Const" version="opset1">
			<data element_type="i64" offset="32776" shape="1" size="8"/>
			<output>
				<port id="1" precision="I64">
					<dim>1</dim>
				</port>
			</output>
		</layer>
		<layer id="9" name="378/3D_Tile_Unsqueeze" type="Unsqueeze" version="opset1">
			<input>
				<port id="0">
					<dim>1</dim>
					<dim>16</dim>
					<dim>512</dim>
				</port>
				<port id="1">
					<dim>1</dim>
				</port>
			</input>
			<output>
				<port id="2" precision="FP32">
					<dim>1</dim>
					<dim>16</dim>
					<dim>512</dim>
					<dim>1</dim>
				</port>
			</output>
		</layer>
		<layer id="10" name="63446346_const280_const" type="Const" version="opset1">
			<data element_type="i64" offset="32784" shape="4" size="32"/>
			<output>
				<port id="1" precision="I64">
					<dim>4</dim>
				</port>
			</output>
		</layer>
		<layer id="11" name="378" type="Tile" version="opset1">
			<input>
				<port id="0">
					<dim>1</dim>
					<dim>16</dim>
					<dim>512</dim>
					<dim>1</dim>
				</port>
				<port id="1">
					<dim>4</dim>
				</port>
			</input>
			<output>
				<port id="2" precision="FP32">
					<dim>8</dim>
					<dim>16</dim>
					<dim>512</dim>
					<dim>1</dim>
				</port>
			</output>
		</layer>
		<layer id="12" name="378/3D_Tile_Squeeze_dim6349_const282_const" type="Const" version="opset1">
			<data element_type="i64" offset="32776" shape="1" size="8"/>
			<output>
				<port id="1" precision="I64">
					<dim>1</dim>
				</port>
			</output>
		</layer>
		<layer id="13" name="378/3D_Tile_Squeeze" type="Squeeze" version="opset1">
			<input>
				<port id="0">
					<dim>8</dim>
					<dim>16</dim>
					<dim>512</dim>
					<dim>1</dim>
				</port>
				<port id="1">
					<dim>1</dim>
				</port>
			</input>
			<output>
				<port id="2" precision="FP32">
					<dim>8</dim>
					<dim>16</dim>
					<dim>512</dim>
				</port>
			</output>
		</layer>
		<layer id="14" name="385/Cast_18955_const284_const" type="Const" version="opset1">
			<data element_type="i64" offset="32816" shape="3" size="24"/>
			<output>
				<port id="1" precision="I64">
					<dim>3</dim>
				</port>
			</output>
		</layer>
		<layer id="15" name="385" type="Reshape" version="opset1">
			<data special_zero="True"/>
			<input>
				<port id="0">
					<dim>8</dim>
					<dim>16</dim>
					<dim>512</dim>
				</port>
				<port id="1">
					<dim>3</dim>
				</port>
			</input>
			<output>
				<port id="2" precision="FP32">
					<dim>8</dim>
					<dim>16</dim>
					<dim>512</dim>
				</port>
			</output>
		</layer>
		<layer id="16" name="onnx_initializer_node_316/Output_0/Data__const286_const" type="Const" version="opset1">
			<data element_type="f32" offset="32840" shape="8,64,512" size="1048576"/>
			<output>
				<port id="1" precision="FP32">
					<dim>8</dim>
					<dim>64</dim>
					<dim>512</dim>
				</port>
			</output>
		</layer>
		<layer id="17" name="17751779_const" type="Const" version="opset1">
			<data element_type="f32" offset="1081416" shape="8,1,1" size="32"/>
			<output>
				<port id="1" precision="FP32">
					<dim>8</dim>
					<dim>1</dim>
					<dim>1</dim>
				</port>
			</output>
		</layer>
		<layer id="18" name="17761780_const" type="Const" version="opset1">
			<data element_type="f32" offset="1081448" shape="8,1,1" size="32"/>
			<output>
				<port id="1" precision="FP32">
					<dim>8</dim>
					<dim>1</dim>
					<dim>1</dim>
				</port>
			</output>
		</layer>
		<layer id="19" name="17771781_const" type="Const" version="opset1">
			<data element_type="f32" offset="1081416" shape="8,1,1" size="32"/>
			<output>
				<port id="1" precision="FP32">
					<dim>8</dim>
					<dim>1</dim>
					<dim>1</dim>
				</port>
			</output>
		</layer>
		<layer id="20" name="17781782_const" type="Const" version="opset1">
			<data element_type="f32" offset="1081448" shape="8,1,1" size="32"/>
			<output>
				<port id="1" precision="FP32">
					<dim>8</dim>
					<dim>1</dim>
					<dim>1</dim>
				</port>
			</output>
		</layer>
		<layer id="21" name="404/fq_weights_1" type="FakeQuantize" version="opset1">
			<data levels="255"/>
			<input>
				<port id="0">
					<dim>8</dim>
					<dim>64</dim>
					<dim>512</dim>
				</port>
				<port id="1">
					<dim>8</dim>
					<dim>1</dim>
					<dim>1</dim>
				</port>
				<port id="2">
					<dim>8</dim>
					<dim>1</dim>
					<dim>1</dim>
				</port>
				<port id="3">
					<dim>8</dim>
					<dim>1</dim>
					<dim>1</dim>
				</port>
				<port id="4">
					<dim>8</dim>
					<dim>1</dim>
					<dim>1</dim>
				</port>
			</input>
			<output>
				<port id="5" precision="FP32">
					<dim>8</dim>
					<dim>64</dim>
					<dim>512</dim>
				</port>
			</output>
		</layer>
		<layer id="22" name="404" type="MatMul" version="opset1">
			<data transpose_a="False" transpose_b="True"/>
			<input>
				<port id="0">
					<dim>8</dim>
					<dim>16</dim>
					<dim>512</dim>
				</port>
				<port id="1">
					<dim>8</dim>
					<dim>64</dim>
					<dim>512</dim>
				</port>
			</input>
			<output>
				<port id="2" precision="FP32">
					<dim>8</dim>
					<dim>16</dim>
					<dim>64</dim>
				</port>
			</output>
		</layer>
		<layer id="23" name="700702_const" type="Const" version="opset1">
			<data element_type="f32" offset="1081480" shape="1,16,1" size="64"/>
			<output>
				<port id="1" precision="FP32">
					<dim>1</dim>
					<dim>16</dim>
					<dim>1</dim>
				</port>
			</output>
		</layer>
		<layer id="24" name="404/add_" type="Add" version="opset1">
			<input>
				<port id="0">
					<dim>8</dim>
					<dim>16</dim>
					<dim>64</dim>
				</port>
				<port id="1">
					<dim>1</dim>
					<dim>16</dim>
					<dim>1</dim>
				</port>
			</input>
			<output>
				<port id="2" precision="FP32">
					<dim>8</dim>
					<dim>16</dim>
					<dim>64</dim>
				</port>
			</output>
		</layer>
		<layer id="25" name="25012505_const" type="Const" version="opset1">
			<data element_type="f32" offset="1081544" shape="" size="4"/>
			<output>
				<port id="1" precision="FP32"/>
			</output>
		</layer>
		<layer id="26" name="25022506_const" type="Const" version="opset1">
			<data element_type="f32" offset="1081548" shape="" size="4"/>
			<output>
				<port id="1" precision="FP32"/>
			</output>
		</layer>
		<layer id="27" name="25032507_const" type="Const" version="opset1">
			<data element_type="f32" offset="1081544" shape="" size="4"/>
			<output>
				<port id="1" precision="FP32"/>
			</output>
		</layer>
		<layer id="28" name="25042508_const" type="Const" version="opset1">
			<data element_type="f32" offset="1081548" shape="" size="4"/>
			<output>
				<port id="1" precision="FP32"/>
			</output>
		</layer>
		<layer id="29" name="411/fq_input_0" type="FakeQuantize" version="opset1">
			<data levels="256"/>
			<input>
				<port id="0">
					<dim>8</dim>
					<dim>16</dim>
					<dim>64</dim>
				</port>
				<port id="1"/>
				<port id="2"/>
				<port id="3"/>
				<port id="4"/>
			</input>
			<output>
				<port id="5" precision="FP32">
					<dim>8</dim>
					<dim>16</dim>
					<dim>64</dim>
				</port>
			</output>
		</layer>
		<layer id="30" name="411/Cast_18935_const288_const" type="Const" version="opset1">
			<data element_type="i64" offset="1081552" shape="3" size="24"/>
			<output>
				<port id="1" precision="I64">
					<dim>3</dim>
				</port>
			</output>
		</layer>
		<layer id="31" name="411" type="Reshape" version="opset1">
			<data special_zero="True"/>
			<input>
				<port id="0">
					<dim>8</dim>
					<dim>16</dim>
					<dim>64</dim>
				</port>
				<port id="1">
					<dim>3</dim>
				</port>
			</input>
			<output>
				<port id="2" precision="FP32">
					<dim>8</dim>
					<dim>16</dim>
					<dim>64</dim>
				</port>
			</output>
		</layer>
		<layer id="32" name="48484850/copy_const290_const" type="Const" version="opset1">
			<data element_type="f32" offset="1081576" shape="1,64,1" size="256"/>
			<output>
				<port id="1" precision="FP32">
					<dim>1</dim>
					<dim>64</dim>
					<dim>1</dim>
				</port>
			</output>
		</layer>
		<layer id="33" name="13351339_const" type="Const" version="opset1">
			<data element_type="f32" offset="1081832" shape="1,1,1" size="4"/>
			<output>
				<port id="1" precision="FP32">
					<dim>1</dim>
					<dim>1</dim>
					<dim>1</dim>
				</port>
			</output>
		</layer>
		<layer id="34" name="13361340_const" type="Const" version="opset1">
			<data element_type="f32" offset="1081836" shape="1,1,1" size="4"/>
			<output>
				<port id="1" precision="FP32">
					<dim>1</dim>
					<dim>1</dim>
					<dim>1</dim>
				</port>
			</output>
		</layer>
		<layer id="35" name="13371341_const" type="Const" version="opset1">
			<data element_type="f32" offset="1081832" shape="1,1,1" size="4"/>
			<output>
				<port id="1" precision="FP32">
					<dim>1</dim>
					<dim>1</dim>
					<dim>1</dim>
				</port>
			</output>
		</layer>
		<layer id="36" name="13381342_const" type="Const" version="opset1">
			<data element_type="f32" offset="1081836" shape="1,1,1" size="4"/>
			<output>
				<port id="1" precision="FP32">
					<dim>1</dim>
					<dim>1</dim>
					<dim>1</dim>
				</port>
			</output>
		</layer>
		<layer id="37" name="431/mul_4849/fq_input_0" type="FakeQuantize" version="opset1">
			<data levels="255"/>
			<input>
				<port id="0">
					<dim>1</dim>
					<dim>64</dim>
					<dim>1</dim>
				</port>
				<port id="1">
					<dim>1</dim>
					<dim>1</dim>
					<dim>1</dim>
				</port>
				<port id="2">
					<dim>1</dim>
					<dim>1</dim>
					<dim>1</dim>
				</port>
				<port id="3">
					<dim>1</dim>
					<dim>1</dim>
					<dim>1</dim>
				</port>
				<port id="4">
					<dim>1</dim>
					<dim>1</dim>
					<dim>1</dim>
				</port>
			</input>
			<output>
				<port id="5" precision="FP32">
					<dim>1</dim>
					<dim>64</dim>
					<dim>1</dim>
				</port>
			</output>
		</layer>
		<layer id="38" name="387/3D_Tile_Unsqueeze_dim6270_const291_const" type="Const" version="opset1">
			<data element_type="i64" offset="32776" shape="1" size="8"/>
			<output>
				<port id="1" precision="I64">
					<dim>1</dim>
				</port>
			</output>
		</layer>
		<layer id="39" name="387/3D_Tile_Unsqueeze" type="Unsqueeze" version="opset1">
			<input>
				<port id="0">
					<dim>1</dim>
					<dim>16</dim>
					<dim>512</dim>
				</port>
				<port id="1">
					<dim>1</dim>
				</port>
			</input>
			<output>
				<port id="2" precision="FP32">
					<dim>1</dim>
					<dim>16</dim>
					<dim>512</dim>
					<dim>1</dim>
				</port>
			</output>
		</layer>
		<layer id="40" name="62726274_const293_const" type="Const" version="opset1">
			<data element_type="i64" offset="32784" shape="4" size="32"/>
			<output>
				<port id="1" precision="I64">
					<dim>4</dim>
				</port>
			</output>
		</layer>
		<layer id="41" name="387" type="Tile" version="opset1">
			<input>
				<port id="0">
					<dim>1</dim>
					<dim>16</dim>
					<dim>512</dim>
					<dim>1</dim>
				</port>
				<port id="1">
					<dim>4</dim>
				</port>
			</input>
			<output>
				<port id="2" precision="FP32">
					<dim>8</dim>
					<dim>16</dim>
					<dim>512</dim>
					<dim>1</dim>
				</port>
			</output>
		</layer>
		<layer id="42" name="387/3D_Tile_Squeeze_dim6277_const295_const" type="Const" version="opset1">
			<data element_type="i64" offset="32776" shape="1" size="8"/>
			<output>
				<port id="1" precision="I64">
					<dim>1</dim>
				</port>
			</output>
		</layer>
		<layer id="43" name="387/3D_Tile_Squeeze" type="Squeeze" version="opset1">
			<input>
				<port id="0">
					<dim>8</dim>
					<dim>16</dim>
					<dim>512</dim>
					<dim>1</dim>
				</port>
				<port id="1">
					<dim>1</dim>
				</port>
			</input>
			<output>
				<port id="2" precision="FP32">
					<dim>8</dim>
					<dim>16</dim>
					<dim>512</dim>
				</port>
			</output>
		</layer>
		<layer id="44" name="394/Cast_18949_const297_const" type="Const" version="opset1">
			<data element_type="i64" offset="32816" shape="3" size="24"/>
			<output>
				<port id="1" precision="I64">
					<dim>3</dim>
				</port>
			</output>
		</layer>
		<layer id="45" name="394" type="Reshape" version="opset1">
			<data special_zero="True"/>
			<input>
				<port id="0">
					<dim>8</dim>
					<dim>16</dim>
					<dim>512</dim>
				</port>
				<port id="1">
					<dim>3</dim>
				</port>
			</input>
			<output>
				<port id="2" precision="FP32">
					<dim>8</dim>
					<dim>16</dim>
					<dim>512</dim>
				</port>
			</output>
		</layer>
		<layer id="46" name="onnx_initializer_node_317/Output_0/Data__const299_const" type="Const" version="opset1">
			<data element_type="f32" offset="1081840" shape="8,64,512" size="1048576"/>
			<output>
				<port id="1" precision="FP32">
					<dim>8</dim>
					<dim>64</dim>
					<dim>512</dim>
				</port>
			</output>
		</layer>
		<layer id="47" name="16151619_const" type="Const" version="opset1">
			<data element_type="f32" offset="2130416" shape="8,1,1" size="32"/>
			<output>
				<port id="1" precision="FP32">
					<dim>8</dim>
					<dim>1</dim>
					<dim>1</dim>
				</port>
			</output>
		</layer>
		<layer id="48" name="16161620_const" type="Const" version="opset1">
			<data element_type="f32" offset="2130448" shape="8,1,1" size="32"/>
			<output>
				<port id="1" precision="FP32">
					<dim>8</dim>
					<dim>1</dim>
					<dim>1</dim>
				</port>
			</output>
		</layer>
		<layer id="49" name="16171621_const" type="Const" version="opset1">
			<data element_type="f32" offset="2130416" shape="8,1,1" size="32"/>
			<output>
				<port id="1" precision="FP32">
					<dim>8</dim>
					<dim>1</dim>
					<dim>1</dim>
				</port>
			</output>
		</layer>
		<layer id="50" name="16181622_const" type="Const" version="opset1">
			<data element_type="f32" offset="2130448" shape="8,1,1" size="32"/>
			<output>
				<port id="1" precision="FP32">
					<dim>8</dim>
					<dim>1</dim>
					<dim>1</dim>
				</port>
			</output>
		</layer>
		<layer id="51" name="412/fq_weights_1" type="FakeQuantize" version="opset1">
			<data levels="255"/>
			<input>
				<port id="0">
					<dim>8</dim>
					<dim>64</dim>
					<dim>512</dim>
				</port>
				<port id="1">
					<dim>8</dim>
					<dim>1</dim>
					<dim>1</dim>
				</port>
				<port id="2">
					<dim>8</dim>
					<dim>1</dim>
					<dim>1</dim>
				</port>
				<port id="3">
					<dim>8</dim>
					<dim>1</dim>
					<dim>1</dim>
				</port>
				<port id="4">
					<dim>8</dim>
					<dim>1</dim>
					<dim>1</dim>
				</port>
			</input>
			<output>
				<port id="5" precision="FP32">
					<dim>8</dim>
					<dim>64</dim>
					<dim>512</dim>
				</port>
			</output>
		</layer>
		<layer id="52" name="412" type="MatMul" version="opset1">
			<data transpose_a="False" transpose_b="True"/>
			<input>
				<port id="0">
					<dim>8</dim>
					<dim>16</dim>
					<dim>512</dim>
				</port>
				<port id="1">
					<dim>8</dim>
					<dim>64</dim>
					<dim>512</dim>
				</port>
			</input>
			<output>
				<port id="2" precision="FP32">
					<dim>8</dim>
					<dim>16</dim>
					<dim>64</dim>
				</port>
			</output>
		</layer>
		<layer id="53" name="704706_const" type="Const" version="opset1">
			<data element_type="f32" offset="1081480" shape="1,16,1" size="64"/>
			<output>
				<port id="1" precision="FP32">
					<dim>1</dim>
					<dim>16</dim>
					<dim>1</dim>
				</port>
			</output>
		</layer>
		<layer id="54" name="412/add_" type="Add" version="opset1">
			<input>
				<port id="0">
					<dim>8</dim>
					<dim>16</dim>
					<dim>64</dim>
				</port>
				<port id="1">
					<dim>1</dim>
					<dim>16</dim>
					<dim>1</dim>
				</port>
			</input>
			<output>
				<port id="2" precision="FP32">
					<dim>8</dim>
					<dim>16</dim>
					<dim>64</dim>
				</port>
			</output>
		</layer>
		<layer id="55" name="25212525_const" type="Const" version="opset1">
			<data element_type="f32" offset="2130480" shape="" size="4"/>
			<output>
				<port id="1" precision="FP32"/>
			</output>
		</layer>
		<layer id="56" name="25222526_const" type="Const" version="opset1">
			<data element_type="f32" offset="2130484" shape="" size="4"/>
			<output>
				<port id="1" precision="FP32"/>
			</output>
		</layer>
		<layer id="57" name="25232527_const" type="Const" version="opset1">
			<data element_type="f32" offset="2130480" shape="" size="4"/>
			<output>
				<port id="1" precision="FP32"/>
			</output>
		</layer>
		<layer id="58" name="25242528_const" type="Const" version="opset1">
			<data element_type="f32" offset="2130484" shape="" size="4"/>
			<output>
				<port id="1" precision="FP32"/>
			</output>
		</layer>
		<layer id="59" name="419/fq_input_0" type="FakeQuantize" version="opset1">
			<data levels="256"/>
			<input>
				<port id="0">
					<dim>8</dim>
					<dim>16</dim>
					<dim>64</dim>
				</port>
				<port id="1"/>
				<port id="2"/>
				<port id="3"/>
				<port id="4"/>
			</input>
			<output>
				<port id="5" precision="FP32">
					<dim>8</dim>
					<dim>16</dim>
					<dim>64</dim>
				</port>
			</output>
		</layer>
		<layer id="60" name="419/Cast_18975_const301_const" type="Const" version="opset1">
			<data element_type="i64" offset="1081552" shape="3" size="24"/>
			<output>
				<port id="1" precision="I64">
					<dim>3</dim>
				</port>
			</output>
		</layer>
		<layer id="61" name="419" type="Reshape" version="opset1">
			<data special_zero="True"/>
			<input>
				<port id="0">
					<dim>8</dim>
					<dim>16</dim>
					<dim>64</dim>
				</port>
				<port id="1">
					<dim>3</dim>
				</port>
			</input>
			<output>
				<port id="2" precision="FP32">
					<dim>8</dim>
					<dim>16</dim>
					<dim>64</dim>
				</port>
			</output>
		</layer>
		<layer id="62" name="428/Cast_18957_const303_const" type="Const" version="opset1">
			<data element_type="i64" offset="2130488" shape="3" size="24"/>
			<output>
				<port id="1" precision="I64">
					<dim>3</dim>
				</port>
			</output>
		</layer>
		<layer id="63" name="428" type="Transpose" version="opset1">
			<input>
				<port id="0">
					<dim>8</dim>
					<dim>16</dim>
					<dim>64</dim>
				</port>
				<port id="1">
					<dim>3</dim>
				</port>
			</input>
			<output>
				<port id="2" precision="FP32">
					<dim>8</dim>
					<dim>64</dim>
					<dim>16</dim>
				</port>
			</output>
		</layer>
		<layer id="64" name="431/mul_4849" type="Multiply" version="opset1">
			<input>
				<port id="0">
					<dim>1</dim>
					<dim>64</dim>
					<dim>1</dim>
				</port>
				<port id="1">
					<dim>8</dim>
					<dim>64</dim>
					<dim>16</dim>
				</port>
			</input>
			<output>
				<port id="2" precision="FP32">
					<dim>8</dim>
					<dim>64</dim>
					<dim>16</dim>
				</port>
			</output>
		</layer>
		<layer id="65" name="14051409_const" type="Const" version="opset1">
			<data element_type="f32" offset="2130512" shape="" size="4"/>
			<output>
				<port id="1" precision="FP32"/>
			</output>
		</layer>
		<layer id="66" name="14061410_const" type="Const" version="opset1">
			<data element_type="f32" offset="2130516" shape="" size="4"/>
			<output>
				<port id="1" precision="FP32"/>
			</output>
		</layer>
		<layer id="67" name="14071411_const" type="Const" version="opset1">
			<data element_type="f32" offset="2130512" shape="" size="4"/>
			<output>
				<port id="1" precision="FP32"/>
			</output>
		</layer>
		<layer id="68" name="14081412_const" type="Const" version="opset1">
			<data element_type="f32" offset="2130516" shape="" size="4"/>
			<output>
				<port id="1" precision="FP32"/>
			</output>
		</layer>
		<layer id="69" name="429/fq_weights_1" type="FakeQuantize" version="opset1">
			<data levels="256"/>
			<input>
				<port id="0">
					<dim>8</dim>
					<dim>64</dim>
					<dim>16</dim>
				</port>
				<port id="1"/>
				<port id="2"/>
				<port id="3"/>
				<port id="4"/>
			</input>
			<output>
				<port id="5" precision="FP32">
					<dim>8</dim>
					<dim>64</dim>
					<dim>16</dim>
				</port>
			</output>
		</layer>
		<layer id="70" name="429" type="MatMul" version="opset1">
			<data transpose_a="False" transpose_b="False"/>
			<input>
				<port id="0">
					<dim>8</dim>
					<dim>16</dim>
					<dim>64</dim>
				</port>
				<port id="1">
					<dim>8</dim>
					<dim>64</dim>
					<dim>16</dim>
				</port>
			</input>
			<output>
				<port id="2" precision="FP32">
					<dim>8</dim>
					<dim>16</dim>
					<dim>16</dim>
				</port>
			</output>
		</layer>
		<layer id="71" name="708710_const" type="Const" version="opset1">
			<data element_type="f32" offset="1081480" shape="1,16,1" size="64"/>
			<output>
				<port id="1" precision="FP32">
					<dim>1</dim>
					<dim>16</dim>
					<dim>1</dim>
				</port>
			</output>
		</layer>
		<layer id="72" name="429/add_" type="Add" version="opset1">
			<input>
				<port id="0">
					<dim>8</dim>
					<dim>16</dim>
					<dim>16</dim>
				</port>
				<port id="1">
					<dim>1</dim>
					<dim>16</dim>
					<dim>1</dim>
				</port>
			</input>
			<output>
				<port id="2" precision="FP32">
					<dim>8</dim>
					<dim>16</dim>
					<dim>16</dim>
				</port>
			</output>
		</layer>
		<layer id="73" name="443/Cast_18945_const307_const" type="Const" version="opset1">
			<data element_type="i64" offset="2130520" shape="2" size="16"/>
			<output>
				<port id="1" precision="I64">
					<dim>2</dim>
				</port>
			</output>
		</layer>
		<layer id="74" name="443" type="Reshape" version="opset1">
			<data special_zero="True"/>
			<input>
				<port id="0">
					<dim>8</dim>
					<dim>16</dim>
					<dim>16</dim>
				</port>
				<port id="1">
					<dim>2</dim>
				</port>
			</input>
			<output>
				<port id="2" precision="FP32">
					<dim>128</dim>
					<dim>16</dim>
				</port>
			</output>
		</layer>
		<layer id="75" name="444" type="SoftMax" version="opset1">
			<data axis="1"/>
			<input>
				<port id="0">
					<dim>128</dim>
					<dim>16</dim>
				</port>
			</input>
			<output>
				<port id="1" precision="FP32">
					<dim>128</dim>
					<dim>16</dim>
				</port>
			</output>
		</layer>
		<layer id="76" name="25312535_const" type="Const" version="opset1">
			<data element_type="f32" offset="2130536" shape="" size="4"/>
			<output>
				<port id="1" precision="FP32"/>
			</output>
		</layer>
		<layer id="77" name="25322536_const" type="Const" version="opset1">
			<data element_type="f32" offset="2130540" shape="" size="4"/>
			<output>
				<port id="1" precision="FP32"/>
			</output>
		</layer>
		<layer id="78" name="25332537_const" type="Const" version="opset1">
			<data element_type="f32" offset="2130536" shape="" size="4"/>
			<output>
				<port id="1" precision="FP32"/>
			</output>
		</layer>
		<layer id="79" name="25342538_const" type="Const" version="opset1">
			<data element_type="f32" offset="2130540" shape="" size="4"/>
			<output>
				<port id="1" precision="FP32"/>
			</output>
		</layer>
		<layer id="80" name="450/fq_input_0" type="FakeQuantize" version="opset1">
			<data levels="256"/>
			<input>
				<port id="0">
					<dim>128</dim>
					<dim>16</dim>
				</port>
				<port id="1"/>
				<port id="2"/>
				<port id="3"/>
				<port id="4"/>
			</input>
			<output>
				<port id="5" precision="FP32">
					<dim>128</dim>
					<dim>16</dim>
				</port>
			</output>
		</layer>
		<layer id="81" name="450/Cast_18897_const310_const" type="Const" version="opset1">
			<data element_type="i64" offset="2130544" shape="3" size="24"/>
			<output>
				<port id="1" precision="I64">
					<dim>3</dim>
				</port>
			</output>
		</layer>
		<layer id="82" name="450" type="Reshape" version="opset1">
			<data special_zero="True"/>
			<input>
				<port id="0">
					<dim>128</dim>
					<dim>16</dim>
				</port>
				<port id="1">
					<dim>3</dim>
				</port>
			</input>
			<output>
				<port id="2" precision="FP32">
					<dim>8</dim>
					<dim>16</dim>
					<dim>16</dim>
				</port>
			</output>
		</layer>
		<layer id="83" name="396/3D_Tile_Unsqueeze_dim6354_const312_const" type="Const" version="opset1">
			<data element_type="i64" offset="32776" shape="1" size="8"/>
			<output>
				<port id="1" precision="I64">
					<dim>1</dim>
				</port>
			</output>
		</layer>
		<layer id="84" name="396/3D_Tile_Unsqueeze" type="Unsqueeze" version="opset1">
			<input>
				<port id="0">
					<dim>1</dim>
					<dim>16</dim>
					<dim>512</dim>
				</port>
				<port id="1">
					<dim>1</dim>
				</port>
			</input>
			<output>
				<port id="2" precision="FP32">
					<dim>1</dim>
					<dim>16</dim>
					<dim>512</dim>
					<dim>1</dim>
				</port>
			</output>
		</layer>
		<layer id="85" name="63566358_const314_const" type="Const" version="opset1">
			<data element_type="i64" offset="32784" shape="4" size="32"/>
			<output>
				<port id="1" precision="I64">
					<dim>4</dim>
				</port>
			</output>
		</layer>
		<layer id="86" name="396" type="Tile" version="opset1">
			<input>
				<port id="0">
					<dim>1</dim>
					<dim>16</dim>
					<dim>512</dim>
					<dim>1</dim>
				</port>
				<port id="1">
					<dim>4</dim>
				</port>
			</input>
			<output>
				<port id="2" precision="FP32">
					<dim>8</dim>
					<dim>16</dim>
					<dim>512</dim>
					<dim>1</dim>
				</port>
			</output>
		</layer>
		<layer id="87" name="396/3D_Tile_Squeeze_dim6361_const316_const" type="Const" version="opset1">
			<data element_type="i64" offset="32776" shape="1" size="8"/>
			<output>
				<port id="1" precision="I64">
					<dim>1</dim>
				</port>
			</output>
		</layer>
		<layer id="88" name="396/3D_Tile_Squeeze" type="Squeeze" version="opset1">
			<input>
				<port id="0">
					<dim>8</dim>
					<dim>16</dim>
					<dim>512</dim>
					<dim>1</dim>
				</port>
				<port id="1">
					<dim>1</dim>
				</port>
			</input>
			<output>
				<port id="2" precision="FP32">
					<dim>8</dim>
					<dim>16</dim>
					<dim>512</dim>
				</port>
			</output>
		</layer>
		<layer id="89" name="403/Cast_18971_const318_const" type="Const" version="opset1">
			<data element_type="i64" offset="32816" shape="3" size="24"/>
			<output>
				<port id="1" precision="I64">
					<dim>3</dim>
				</port>
			</output>
		</layer>
		<layer id="90" name="403" type="Reshape" version="opset1">
			<data special_zero="True"/>
			<input>
				<port id="0">
					<dim>8</dim>
					<dim>16</dim>
					<dim>512</dim>
				</port>
				<port id="1">
					<dim>3</dim>
				</port>
			</input>
			<output>
				<port id="2" precision="FP32">
					<dim>8</dim>
					<dim>16</dim>
					<dim>512</dim>
				</port>
			</output>
		</layer>
		<layer id="91" name="onnx_initializer_node_318/Output_0/Data__const320_const" type="Const" version="opset1">
			<data element_type="f32" offset="2130568" shape="8,64,512" size="1048576"/>
			<output>
				<port id="1" precision="FP32">
					<dim>8</dim>
					<dim>64</dim>
					<dim>512</dim>
				</port>
			</output>
		</layer>
		<layer id="92" name="11251129_const" type="Const" version="opset1">
			<data element_type="f32" offset="3179144" shape="8,1,1" size="32"/>
			<output>
				<port id="1" precision="FP32">
					<dim>8</dim>
					<dim>1</dim>
					<dim>1</dim>
				</port>
			</output>
		</layer>
		<layer id="93" name="11261130_const" type="Const" version="opset1">
			<data element_type="f32" offset="3179176" shape="8,1,1" size="32"/>
			<output>
				<port id="1" precision="FP32">
					<dim>8</dim>
					<dim>1</dim>
					<dim>1</dim>
				</port>
			</output>
		</layer>
		<layer id="94" name="11271131_const" type="Const" version="opset1">
			<data element_type="f32" offset="3179144" shape="8,1,1" size="32"/>
			<output>
				<port id="1" precision="FP32">
					<dim>8</dim>
					<dim>1</dim>
					<dim>1</dim>
				</port>
			</output>
		</layer>
		<layer id="95" name="11281132_const" type="Const" version="opset1">
			<data element_type="f32" offset="3179176" shape="8,1,1" size="32"/>
			<output>
				<port id="1" precision="FP32">
					<dim>8</dim>
					<dim>1</dim>
					<dim>1</dim>
				</port>
			</output>
		</layer>
		<layer id="96" name="420/fq_weights_1" type="FakeQuantize" version="opset1">
			<data levels="255"/>
			<input>
				<port id="0">
					<dim>8</dim>
					<dim>64</dim>
					<dim>512</dim>
				</port>
				<port id="1">
					<dim>8</dim>
					<dim>1</dim>
					<dim>1</dim>
				</port>
				<port id="2">
					<dim>8</dim>
					<dim>1</dim>
					<dim>1</dim>
				</port>
				<port id="3">
					<dim>8</dim>
					<dim>1</dim>
					<dim>1</dim>
				</port>
				<port id="4">
					<dim>8</dim>
					<dim>1</dim>
					<dim>1</dim>
				</port>
			</input>
			<output>
				<port id="5" precision="FP32">
					<dim>8</dim>
					<dim>64</dim>
					<dim>512</dim>
				</port>
			</output>
		</layer>
		<layer id="97" name="420" type="MatMul" version="opset1">
			<data transpose_a="False" transpose_b="True"/>
			<input>
				<port id="0">
					<dim>8</dim>
					<dim>16</dim>
					<dim>512</dim>
				</port>
				<port id="1">
					<dim>8</dim>
					<dim>64</dim>
					<dim>512</dim>
				</port>
			</input>
			<output>
				<port id="2" precision="FP32">
					<dim>8</dim>
					<dim>16</dim>
					<dim>64</dim>
				</port>
			</output>
		</layer>
		<layer id="98" name="713715_const" type="Const" version="opset1">
			<data element_type="f32" offset="1081480" shape="1,16,1" size="64"/>
			<output>
				<port id="1" precision="FP32">
					<dim>1</dim>
					<dim>16</dim>
					<dim>1</dim>
				</port>
			</output>
		</layer>
		<layer id="99" name="420/add_" type="Add" version="opset1">
			<input>
				<port id="0">
					<dim>8</dim>
					<dim>16</dim>
					<dim>64</dim>
				</port>
				<port id="1">
					<dim>1</dim>
					<dim>16</dim>
					<dim>1</dim>
				</port>
			</input>
			<output>
				<port id="2" precision="FP32">
					<dim>8</dim>
					<dim>16</dim>
					<dim>64</dim>
				</port>
			</output>
		</layer>
		<layer id="100" name="25412545_const" type="Const" version="opset1">
			<data element_type="f32" offset="3179208" shape="" size="4"/>
			<output>
				<port id="1" precision="FP32"/>
			</output>
		</layer>
		<layer id="101" name="25422546_const" type="Const" version="opset1">
			<data element_type="f32" offset="3179212" shape="" size="4"/>
			<output>
				<port id="1" precision="FP32"/>
			</output>
		</layer>
		<layer id="102" name="25432547_const" type="Const" version="opset1">
			<data element_type="f32" offset="3179208" shape="" size="4"/>
			<output>
				<port id="1" precision="FP32"/>
			</output>
		</layer>
		<layer id="103" name="25442548_const" type="Const" version="opset1">
			<data element_type="f32" offset="3179212" shape="" size="4"/>
			<output>
				<port id="1" precision="FP32"/>
			</output>
		</layer>
		<layer id="104" name="427/fq_input_0" type="FakeQuantize" version="opset1">
			<data levels="256"/>
			<input>
				<port id="0">
					<dim>8</dim>
					<dim>16</dim>
					<dim>64</dim>
				</port>
				<port id="1"/>
				<port id="2"/>
				<port id="3"/>
				<port id="4"/>
			</input>
			<output>
				<port id="5" precision="FP32">
					<dim>8</dim>
					<dim>16</dim>
					<dim>64</dim>
				</port>
			</output>
		</layer>
		<layer id="105" name="427/Cast_18901_const322_const" type="Const" version="opset1">
			<data element_type="i64" offset="1081552" shape="3" size="24"/>
			<output>
				<port id="1" precision="I64">
					<dim>3</dim>
				</port>
			</output>
		</layer>
		<layer id="106" name="427" type="Reshape" version="opset1">
			<data special_zero="True"/>
			<input>
				<port id="0">
					<dim>8</dim>
					<dim>16</dim>
					<dim>64</dim>
				</port>
				<port id="1">
					<dim>3</dim>
				</port>
			</input>
			<output>
				<port id="2" precision="FP32">
					<dim>8</dim>
					<dim>16</dim>
					<dim>64</dim>
				</port>
			</output>
		</layer>
		<layer id="107" name="453" type="MatMul" version="opset1">
			<data transpose_a="False" transpose_b="False"/>
			<input>
				<port id="0">
					<dim>8</dim>
					<dim>16</dim>
					<dim>16</dim>
				</port>
				<port id="1">
					<dim>8</dim>
					<dim>16</dim>
					<dim>64</dim>
				</port>
			</input>
			<output>
				<port id="2" precision="FP32">
					<dim>8</dim>
					<dim>16</dim>
					<dim>64</dim>
				</port>
			</output>
		</layer>
		<layer id="108" name="717719_const" type="Const" version="opset1">
			<data element_type="f32" offset="1081480" shape="1,16,1" size="64"/>
			<output>
				<port id="1" precision="FP32">
					<dim>1</dim>
					<dim>16</dim>
					<dim>1</dim>
				</port>
			</output>
		</layer>
		<layer id="109" name="453/add_" type="Add" version="opset1">
			<input>
				<port id="0">
					<dim>8</dim>
					<dim>16</dim>
					<dim>64</dim>
				</port>
				<port id="1">
					<dim>1</dim>
					<dim>16</dim>
					<dim>1</dim>
				</port>
			</input>
			<output>
				<port id="2" precision="FP32">
					<dim>8</dim>
					<dim>16</dim>
					<dim>64</dim>
				</port>
			</output>
		</layer>
		<layer id="110" name="454/VariadicSplit/value/Output_0/Data__const325_const" type="Const" version="opset1">
			<data element_type="i64" offset="3179216" shape="" size="8"/>
			<output>
				<port id="1" precision="I64"/>
			</output>
		</layer>
		<layer id="111" name="454/VariadicSplit/value1364/Output_0/Data__const326_const" type="Const" version="opset1">
			<data element_type="i64" offset="3179224" shape="8" size="64"/>
			<output>
				<port id="1" precision="I64">
					<dim>8</dim>
				</port>
			</output>
		</layer>
		<layer id="112" name="454/VariadicSplit" type="VariadicSplit" version="opset1">
			<input>
				<port id="0">
					<dim>8</dim>
					<dim>16</dim>
					<dim>64</dim>
				</port>
				<port id="1"/>
				<port id="2">
					<dim>8</dim>
				</port>
			</input>
			<output>
				<port id="3" precision="FP32">
					<dim>1</dim>
					<dim>16</dim>
					<dim>64</dim>
				</port>
				<port id="4" precision="FP32">
					<dim>1</dim>
					<dim>16</dim>
					<dim>64</dim>
				</port>
				<port id="5" precision="FP32">
					<dim>1</dim>
					<dim>16</dim>
					<dim>64</dim>
				</port>
				<port id="6" precision="FP32">
					<dim>1</dim>
					<dim>16</dim>
					<dim>64</dim>
				</port>
				<port id="7" precision="FP32">
					<dim>1</dim>
					<dim>16</dim>
					<dim>64</dim>
				</port>
				<port id="8" precision="FP32">
					<dim>1</dim>
					<dim>16</dim>
					<dim>64</dim>
				</port>
				<port id="9" precision="FP32">
					<dim>1</dim>
					<dim>16</dim>
					<dim>64</dim>
				</port>
				<port id="10" precision="FP32">
					<dim>1</dim>
					<dim>16</dim>
					<dim>64</dim>
				</port>
			</output>
		</layer>
		<layer id="113" name="25512555_const" type="Const" version="opset1">
			<data element_type="f32" offset="3179288" shape="" size="4"/>
			<output>
				<port id="1" precision="FP32"/>
			</output>
		</layer>
		<layer id="114" name="25522556_const" type="Const" version="opset1">
			<data element_type="f32" offset="3179292" shape="" size="4"/>
			<output>
				<port id="1" precision="FP32"/>
			</output>
		</layer>
		<layer id="115" name="25532557_const" type="Const" version="opset1">
			<data element_type="f32" offset="3179288" shape="" size="4"/>
			<output>
				<port id="1" precision="FP32"/>
			</output>
		</layer>
		<layer id="116" name="25542558_const" type="Const" version="opset1">
			<data element_type="f32" offset="3179292" shape="" size="4"/>
			<output>
				<port id="1" precision="FP32"/>
			</output>
		</layer>
		<layer id="117" name="462/fq_input_0" type="FakeQuantize" version="opset1">
			<data levels="256"/>
			<input>
				<port id="0">
					<dim>1</dim>
					<dim>16</dim>
					<dim>64</dim>
				</port>
				<port id="1"/>
				<port id="2"/>
				<port id="3"/>
				<port id="4"/>
			</input>
			<output>
				<port id="5" precision="FP32">
					<dim>1</dim>
					<dim>16</dim>
					<dim>64</dim>
				</port>
			</output>
		</layer>
		<layer id="118" name="25612565_const" type="Const" version="opset1">
			<data element_type="f32" offset="3179296" shape="" size="4"/>
			<output>
				<port id="1" precision="FP32"/>
			</output>
		</layer>
		<layer id="119" name="25622566_const" type="Const" version="opset1">
			<data element_type="f32" offset="3179300" shape="" size="4"/>
			<output>
				<port id="1" precision="FP32"/>
			</output>
		</layer>
		<layer id="120" name="25632567_const" type="Const" version="opset1">
			<data element_type="f32" offset="3179296" shape="" size="4"/>
			<output>
				<port id="1" precision="FP32"/>
			</output>
		</layer>
		<layer id="121" name="25642568_const" type="Const" version="opset1">
			<data element_type="f32" offset="3179300" shape="" size="4"/>
			<output>
				<port id="1" precision="FP32"/>
			</output>
		</layer>
		<layer id="122" name="462/fq_input_1" type="FakeQuantize" version="opset1">
			<data levels="256"/>
			<input>
				<port id="0">
					<dim>1</dim>
					<dim>16</dim>
					<dim>64</dim>
				</port>
				<port id="1"/>
				<port id="2"/>
				<port id="3"/>
				<port id="4"/>
			</input>
			<output>
				<port id="5" precision="FP32">
					<dim>1</dim>
					<dim>16</dim>
					<dim>64</dim>
				</port>
			</output>
		</layer>
		<layer id="123" name="25712575_const" type="Const" version="opset1">
			<data element_type="f32" offset="3179304" shape="" size="4"/>
			<output>
				<port id="1" precision="FP32"/>
			</output>
		</layer>
		<layer id="124" name="25722576_const" type="Const" version="opset1">
			<data element_type="f32" offset="3179308" shape="" size="4"/>
			<output>
				<port id="1" precision="FP32"/>
			</output>
		</layer>
		<layer id="125" name="25732577_const" type="Const" version="opset1">
			<data element_type="f32" offset="3179304" shape="" size="4"/>
			<output>
				<port id="1" precision="FP32"/>
			</output>
		</layer>
		<layer id="126" name="25742578_const" type="Const" version="opset1">
			<data element_type="f32" offset="3179308" shape="" size="4"/>
			<output>
				<port id="1" precision="FP32"/>
			</output>
		</layer>
		<layer id="127" name="462/fq_input_2" type="FakeQuantize" version="opset1">
			<data levels="256"/>
			<input>
				<port id="0">
					<dim>1</dim>
					<dim>16</dim>
					<dim>64</dim>
				</port>
				<port id="1"/>
				<port id="2"/>
				<port id="3"/>
				<port id="4"/>
			</input>
			<output>
				<port id="5" precision="FP32">
					<dim>1</dim>
					<dim>16</dim>
					<dim>64</dim>
				</port>
			</output>
		</layer>
		<layer id="128" name="25812585_const" type="Const" version="opset1">
			<data element_type="f32" offset="3179312" shape="" size="4"/>
			<output>
				<port id="1" precision="FP32"/>
			</output>
		</layer>
		<layer id="129" name="25822586_const" type="Const" version="opset1">
			<data element_type="f32" offset="3179316" shape="" size="4"/>
			<output>
				<port id="1" precision="FP32"/>
			</output>
		</layer>
		<layer id="130" name="25832587_const" type="Const" version="opset1">
			<data element_type="f32" offset="3179312" shape="" size="4"/>
			<output>
				<port id="1" precision="FP32"/>
			</output>
		</layer>
		<layer id="131" name="25842588_const" type="Const" version="opset1">
			<data element_type="f32" offset="3179316" shape="" size="4"/>
			<output>
				<port id="1" precision="FP32"/>
			</output>
		</layer>
		<layer id="132" name="462/fq_input_3" type="FakeQuantize" version="opset1">
			<data levels="256"/>
			<input>
				<port id="0">
					<dim>1</dim>
					<dim>16</dim>
					<dim>64</dim>
				</port>
				<port id="1"/>
				<port id="2"/>
				<port id="3"/>
				<port id="4"/>
			</input>
			<output>
				<port id="5" precision="FP32">
					<dim>1</dim>
					<dim>16</dim>
					<dim>64</dim>
				</port>
			</output>
		</layer>
		<layer id="133" name="25912595_const" type="Const" version="opset1">
			<data element_type="f32" offset="3179320" shape="" size="4"/>
			<output>
				<port id="1" precision="FP32"/>
			</output>
		</layer>
		<layer id="134" name="25922596_const" type="Const" version="opset1">
			<data element_type="f32" offset="3179324" shape="" size="4"/>
			<output>
				<port id="1" precision="FP32"/>
			</output>
		</layer>
		<layer id="135" name="25932597_const" type="Const" version="opset1">
			<data element_type="f32" offset="3179320" shape="" size="4"/>
			<output>
				<port id="1" precision="FP32"/>
			</output>
		</layer>
		<layer id="136" name="25942598_const" type="Const" version="opset1">
			<data element_type="f32" offset="3179324" shape="" size="4"/>
			<output>
				<port id="1" precision="FP32"/>
			</output>
		</layer>
		<layer id="137" name="462/fq_input_4" type="FakeQuantize" version="opset1">
			<data levels="256"/>
			<input>
				<port id="0">
					<dim>1</dim>
					<dim>16</dim>
					<dim>64</dim>
				</port>
				<port id="1"/>
				<port id="2"/>
				<port id="3"/>
				<port id="4"/>
			</input>
			<output>
				<port id="5" precision="FP32">
					<dim>1</dim>
					<dim>16</dim>
					<dim>64</dim>
				</port>
			</output>
		</layer>
		<layer id="138" name="26012605_const" type="Const" version="opset1">
			<data element_type="f32" offset="3179328" shape="" size="4"/>
			<output>
				<port id="1" precision="FP32"/>
			</output>
		</layer>
		<layer id="139" name="26022606_const" type="Const" version="opset1">
			<data element_type="f32" offset="3179332" shape="" size="4"/>
			<output>
				<port id="1" precision="FP32"/>
			</output>
		</layer>
		<layer id="140" name="26032607_const" type="Const" version="opset1">
			<data element_type="f32" offset="3179328" shape="" size="4"/>
			<output>
				<port id="1" precision="FP32"/>
			</output>
		</layer>
		<layer id="141" name="26042608_const" type="Const" version="opset1">
			<data element_type="f32" offset="3179332" shape="" size="4"/>
			<output>
				<port id="1" precision="FP32"/>
			</output>
		</layer>
		<layer id="142" name="462/fq_input_5" type="FakeQuantize" version="opset1">
			<data levels="256"/>
			<input>
				<port id="0">
					<dim>1</dim>
					<dim>16</dim>
					<dim>64</dim>
				</port>
				<port id="1"/>
				<port id="2"/>
				<port id="3"/>
				<port id="4"/>
			</input>
			<output>
				<port id="5" precision="FP32">
					<dim>1</dim>
					<dim>16</dim>
					<dim>64</dim>
				</port>
			</output>
		</layer>
		<layer id="143" name="26112615_const" type="Const" version="opset1">
			<data element_type="f32" offset="3179336" shape="" size="4"/>
			<output>
				<port id="1" precision="FP32"/>
			</output>
		</layer>
		<layer id="144" name="26122616_const" type="Const" version="opset1">
			<data element_type="f32" offset="3179340" shape="" size="4"/>
			<output>
				<port id="1" precision="FP32"/>
			</output>
		</layer>
		<layer id="145" name="26132617_const" type="Const" version="opset1">
			<data element_type="f32" offset="3179336" shape="" size="4"/>
			<output>
				<port id="1" precision="FP32"/>
			</output>
		</layer>
		<layer id="146" name="26142618_const" type="Const" version="opset1">
			<data element_type="f32" offset="3179340" shape="" size="4"/>
			<output>
				<port id="1" precision="FP32"/>
			</output>
		</layer>
		<layer id="147" name="462/fq_input_6" type="FakeQuantize" version="opset1">
			<data levels="256"/>
			<input>
				<port id="0">
					<dim>1</dim>
					<dim>16</dim>
					<dim>64</dim>
				</port>
				<port id="1"/>
				<port id="2"/>
				<port id="3"/>
				<port id="4"/>
			</input>
			<output>
				<port id="5" precision="FP32">
					<dim>1</dim>
					<dim>16</dim>
					<dim>64</dim>
				</port>
			</output>
		</layer>
		<layer id="148" name="26212625_const" type="Const" version="opset1">
			<data element_type="f32" offset="3179344" shape="" size="4"/>
			<output>
				<port id="1" precision="FP32"/>
			</output>
		</layer>
		<layer id="149" name="26222626_const" type="Const" version="opset1">
			<data element_type="f32" offset="3179348" shape="" size="4"/>
			<output>
				<port id="1" precision="FP32"/>
			</output>
		</layer>
		<layer id="150" name="26232627_const" type="Const" version="opset1">
			<data element_type="f32" offset="3179344" shape="" size="4"/>
			<output>
				<port id="1" precision="FP32"/>
			</output>
		</layer>
		<layer id="151" name="26242628_const" type="Const" version="opset1">
			<data element_type="f32" offset="3179348" shape="" size="4"/>
			<output>
				<port id="1" precision="FP32"/>
			</output>
		</layer>
		<layer id="152" name="462/fq_input_7" type="FakeQuantize" version="opset1">
			<data levels="256"/>
			<input>
				<port id="0">
					<dim>1</dim>
					<dim>16</dim>
					<dim>64</dim>
				</port>
				<port id="1"/>
				<port id="2"/>
				<port id="3"/>
				<port id="4"/>
			</input>
			<output>
				<port id="5" precision="FP32">
					<dim>1</dim>
					<dim>16</dim>
					<dim>64</dim>
				</port>
			</output>
		</layer>
		<layer id="153" name="462" type="Concat" version="opset1">
			<data axis="2"/>
			<input>
				<port id="0">
					<dim>1</dim>
					<dim>16</dim>
					<dim>64</dim>
				</port>
				<port id="1">
					<dim>1</dim>
					<dim>16</dim>
					<dim>64</dim>
				</port>
				<port id="2">
					<dim>1</dim>
					<dim>16</dim>
					<dim>64</dim>
				</port>
				<port id="3">
					<dim>1</dim>
					<dim>16</dim>
					<dim>64</dim>
				</port>
				<port id="4">
					<dim>1</dim>
					<dim>16</dim>
					<dim>64</dim>
				</port>
				<port id="5">
					<dim>1</dim>
					<dim>16</dim>
					<dim>64</dim>
				</port>
				<port id="6">
					<dim>1</dim>
					<dim>16</dim>
					<dim>64</dim>
				</port>
				<port id="7">
					<dim>1</dim>
					<dim>16</dim>
					<dim>64</dim>
				</port>
			</input>
			<output>
				<port id="8" precision="FP32">
					<dim>1</dim>
					<dim>16</dim>
					<dim>512</dim>
				</port>
			</output>
		</layer>
		<layer id="154" name="465" type="Add" version="opset1">
			<input>
				<port id="0">
					<dim>1</dim>
					<dim>16</dim>
					<dim>512</dim>
				</port>
				<port id="1">
					<dim>1</dim>
					<dim>16</dim>
					<dim>512</dim>
				</port>
			</input>
			<output>
				<port id="2" precision="FP32">
					<dim>1</dim>
					<dim>16</dim>
					<dim>512</dim>
				</port>
			</output>
		</layer>
		<layer id="155" name="26312635_const" type="Const" version="opset1">
			<data element_type="f32" offset="3179352" shape="" size="4"/>
			<output>
				<port id="1" precision="FP32"/>
			</output>
		</layer>
		<layer id="156" name="26322636_const" type="Const" version="opset1">
			<data element_type="f32" offset="3179356" shape="" size="4"/>
			<output>
				<port id="1" precision="FP32"/>
			</output>
		</layer>
		<layer id="157" name="26332637_const" type="Const" version="opset1">
			<data element_type="f32" offset="3179352" shape="" size="4"/>
			<output>
				<port id="1" precision="FP32"/>
			</output>
		</layer>
		<layer id="158" name="26342638_const" type="Const" version="opset1">
			<data element_type="f32" offset="3179356" shape="" size="4"/>
			<output>
				<port id="1" precision="FP32"/>
			</output>
		</layer>
		<layer id="159" name="466/fq_input_0" type="FakeQuantize" version="opset1">
			<data levels="256"/>
			<input>
				<port id="0">
					<dim>1</dim>
					<dim>16</dim>
					<dim>512</dim>
				</port>
				<port id="1"/>
				<port id="2"/>
				<port id="3"/>
				<port id="4"/>
			</input>
			<output>
				<port id="5" precision="FP32">
					<dim>1</dim>
					<dim>16</dim>
					<dim>512</dim>
				</port>
			</output>
		</layer>
		<layer id="160" name="466/Cast_18917_const337_const" type="Const" version="opset1">
			<data element_type="i64" offset="2130488" shape="3" size="24"/>
			<output>
				<port id="1" precision="I64">
					<dim>3</dim>
				</port>
			</output>
		</layer>
		<layer id="161" name="466" type="Transpose" version="opset1">
			<input>
				<port id="0">
					<dim>1</dim>
					<dim>16</dim>
					<dim>512</dim>
				</port>
				<port id="1">
					<dim>3</dim>
				</port>
			</input>
			<output>
				<port id="2" precision="FP32">
					<dim>1</dim>
					<dim>512</dim>
					<dim>16</dim>
				</port>
			</output>
		</layer>
		<layer id="162" name="onnx_initializer_node_321/Output_0/Data__const339_const" type="Const" version="opset1">
			<data element_type="f32" offset="3179360" shape="1024,512,1" size="2097152"/>
			<output>
				<port id="1" precision="FP32">
					<dim>1024</dim>
					<dim>512</dim>
					<dim>1</dim>
				</port>
			</output>
		</layer>
		<layer id="163" name="16551659_const" type="Const" version="opset1">
			<data element_type="f32" offset="5276512" shape="1024,1,1" size="4096"/>
			<output>
				<port id="1" precision="FP32">
					<dim>1024</dim>
					<dim>1</dim>
					<dim>1</dim>
				</port>
			</output>
		</layer>
		<layer id="164" name="16561660_const" type="Const" version="opset1">
			<data element_type="f32" offset="5280608" shape="1024,1,1" size="4096"/>
			<output>
				<port id="1" precision="FP32">
					<dim>1024</dim>
					<dim>1</dim>
					<dim>1</dim>
				</port>
			</output>
		</layer>
		<layer id="165" name="16571661_const" type="Const" version="opset1">
			<data element_type="f32" offset="5284704" shape="1024,1,1" size="4096"/>
			<output>
				<port id="1" precision="FP32">
					<dim>1024</dim>
					<dim>1</dim>
					<dim>1</dim>
				</port>
			</output>
		</layer>
		<layer id="166" name="16581662_const" type="Const" version="opset1">
			<data element_type="f32" offset="5288800" shape="1024,1,1" size="4096"/>
			<output>
				<port id="1" precision="FP32">
					<dim>1024</dim>
					<dim>1</dim>
					<dim>1</dim>
				</port>
			</output>
		</layer>
		<layer id="167" name="467/WithoutBiases/fq_weights_1" type="FakeQuantize" version="opset1">
			<data levels="255"/>
			<input>
				<port id="0">
					<dim>1024</dim>
					<dim>512</dim>
					<dim>1</dim>
				</port>
				<port id="1">
					<dim>1024</dim>
					<dim>1</dim>
					<dim>1</dim>
				</port>
				<port id="2">
					<dim>1024</dim>
					<dim>1</dim>
					<dim>1</dim>
				</port>
				<port id="3">
					<dim>1024</dim>
					<dim>1</dim>
					<dim>1</dim>
				</port>
				<port id="4">
					<dim>1024</dim>
					<dim>1</dim>
					<dim>1</dim>
				</port>
			</input>
			<output>
				<port id="5" precision="FP32">
					<dim>1024</dim>
					<dim>512</dim>
					<dim>1</dim>
				</port>
			</output>
		</layer>
		<layer id="168" name="467/WithoutBiases" type="Convolution" version="opset1">
			<data dilations="1" output_padding="0" pads_begin="0" pads_end="0" strides="1"/>
			<input>
				<port id="0">
					<dim>1</dim>
					<dim>512</dim>
					<dim>16</dim>
				</port>
				<port id="1">
					<dim>1024</dim>
					<dim>512</dim>
					<dim>1</dim>
				</port>
			</input>
			<output>
				<port id="2" precision="FP32">
					<dim>1</dim>
					<dim>1024</dim>
					<dim>16</dim>
				</port>
			</output>
		</layer>
		<layer id="169" name="467/Dims3633/copy_const341_const" type="Const" version="opset1">
			<data element_type="f32" offset="5292896" shape="1,1024,1" size="4096"/>
			<output>
				<port id="1" precision="FP32">
					<dim>1</dim>
					<dim>1024</dim>
					<dim>1</dim>
				</port>
			</output>
		</layer>
		<layer id="170" name="467" type="Add" version="opset1">
			<input>
				<port id="0">
					<dim>1</dim>
					<dim>1024</dim>
					<dim>16</dim>
				</port>
				<port id="1">
					<dim>1</dim>
					<dim>1024</dim>
					<dim>1</dim>
				</port>
			</input>
			<output>
				<port id="2" precision="FP32">
					<dim>1</dim>
					<dim>1024</dim>
					<dim>16</dim>
				</port>
			</output>
		</layer>
		<layer id="171" name="468" type="ReLU" version="opset1">
			<input>
				<port id="0">
					<dim>1</dim>
					<dim>1024</dim>
					<dim>16</dim>
				</port>
			</input>
			<output>
				<port id="1" precision="FP32">
					<dim>1</dim>
					<dim>1024</dim>
					<dim>16</dim>
				</port>
			</output>
		</layer>
		<layer id="172" name="18251829_const" type="Const" version="opset1">
			<data element_type="f32" offset="2130536" shape="" size="4"/>
			<output>
				<port id="1" precision="FP32"/>
			</output>
		</layer>
		<layer id="173" name="18261830_const" type="Const" version="opset1">
			<data element_type="f32" offset="5296992" shape="" size="4"/>
			<output>
				<port id="1" precision="FP32"/>
			</output>
		</layer>
		<layer id="174" name="18271831_const" type="Const" version="opset1">
			<data element_type="f32" offset="2130536" shape="" size="4"/>
			<output>
				<port id="1" precision="FP32"/>
			</output>
		</layer>
		<layer id="175" name="18281832_const" type="Const" version="opset1">
			<data element_type="f32" offset="5296992" shape="" size="4"/>
			<output>
				<port id="1" precision="FP32"/>
			</output>
		</layer>
		<layer id="176" name="469/WithoutBiases/fq_input_0" type="FakeQuantize" version="opset1">
			<data levels="256"/>
			<input>
				<port id="0">
					<dim>1</dim>
					<dim>1024</dim>
					<dim>16</dim>
				</port>
				<port id="1"/>
				<port id="2"/>
				<port id="3"/>
				<port id="4"/>
			</input>
			<output>
				<port id="5" precision="FP32">
					<dim>1</dim>
					<dim>1024</dim>
					<dim>16</dim>
				</port>
			</output>
		</layer>
		<layer id="177" name="onnx_initializer_node_323/Output_0/Data__const344_const" type="Const" version="opset1">
			<data element_type="f32" offset="5296996" shape="512,1024,1" size="2097152"/>
			<output>
				<port id="1" precision="FP32">
					<dim>512</dim>
					<dim>1024</dim>
					<dim>1</dim>
				</port>
			</output>
		</layer>
		<layer id="178" name="18351839_const" type="Const" version="opset1">
			<data element_type="f32" offset="7394148" shape="512,1,1" size="2048"/>
			<output>
				<port id="1" precision="FP32">
					<dim>512</dim>
					<dim>1</dim>
					<dim>1</dim>
				</port>
			</output>
		</layer>
		<layer id="179" name="18361840_const" type="Const" version="opset1">
			<data element_type="f32" offset="7396196" shape="512,1,1" size="2048"/>
			<output>
				<port id="1" precision="FP32">
					<dim>512</dim>
					<dim>1</dim>
					<dim>1</dim>
				</port>
			</output>
		</layer>
		<layer id="180" name="18371841_const" type="Const" version="opset1">
			<data element_type="f32" offset="7394148" shape="512,1,1" size="2048"/>
			<output>
				<port id="1" precision="FP32">
					<dim>512</dim>
					<dim>1</dim>
					<dim>1</dim>
				</port>
			</output>
		</layer>
		<layer id="181" name="18381842_const" type="Const" version="opset1">
			<data element_type="f32" offset="7396196" shape="512,1,1" size="2048"/>
			<output>
				<port id="1" precision="FP32">
					<dim>512</dim>
					<dim>1</dim>
					<dim>1</dim>
				</port>
			</output>
		</layer>
		<layer id="182" name="469/WithoutBiases/fq_weights_1" type="FakeQuantize" version="opset1">
			<data levels="255"/>
			<input>
				<port id="0">
					<dim>512</dim>
					<dim>1024</dim>
					<dim>1</dim>
				</port>
				<port id="1">
					<dim>512</dim>
					<dim>1</dim>
					<dim>1</dim>
				</port>
				<port id="2">
					<dim>512</dim>
					<dim>1</dim>
					<dim>1</dim>
				</port>
				<port id="3">
					<dim>512</dim>
					<dim>1</dim>
					<dim>1</dim>
				</port>
				<port id="4">
					<dim>512</dim>
					<dim>1</dim>
					<dim>1</dim>
				</port>
			</input>
			<output>
				<port id="5" precision="FP32">
					<dim>512</dim>
					<dim>1024</dim>
					<dim>1</dim>
				</port>
			</output>
		</layer>
		<layer id="183" name="469/WithoutBiases" type="Convolution" version="opset1">
			<data dilations="1" output_padding="0" pads_begin="0" pads_end="0" strides="1"/>
			<input>
				<port id="0">
					<dim>1</dim>
					<dim>1024</dim>
					<dim>16</dim>
				</port>
				<port id="1">
					<dim>512</dim>
					<dim>1024</dim>
					<dim>1</dim>
				</port>
			</input>
			<output>
				<port id="2" precision="FP32">
					<dim>1</dim>
					<dim>512</dim>
					<dim>16</dim>
				</port>
			</output>
		</layer>
		<layer id="184" name="469/Dims3603/copy_const346_const" type="Const" version="opset1">
			<data element_type="f32" offset="7398244" shape="1,512,1" size="2048"/>
			<output>
				<port id="1" precision="FP32">
					<dim>1</dim>
					<dim>512</dim>
					<dim>1</dim>
				</port>
			</output>
		</layer>
		<layer id="185" name="469" type="Add" version="opset1">
			<input>
				<port id="0">
					<dim>1</dim>
					<dim>512</dim>
					<dim>16</dim>
				</port>
				<port id="1">
					<dim>1</dim>
					<dim>512</dim>
					<dim>1</dim>
				</port>
			</input>
			<output>
				<port id="2" precision="FP32">
					<dim>1</dim>
					<dim>512</dim>
					<dim>16</dim>
				</port>
			</output>
		</layer>
		<layer id="186" name="26412645_const" type="Const" version="opset1">
			<data element_type="f32" offset="7400292" shape="" size="4"/>
			<output>
				<port id="1" precision="FP32"/>
			</output>
		</layer>
		<layer id="187" name="26422646_const" type="Const" version="opset1">
			<data element_type="f32" offset="7400296" shape="" size="4"/>
			<output>
				<port id="1" precision="FP32"/>
			</output>
		</layer>
		<layer id="188" name="26432647_const" type="Const" version="opset1">
			<data element_type="f32" offset="7400292" shape="" size="4"/>
			<output>
				<port id="1" precision="FP32"/>
			</output>
		</layer>
		<layer id="189" name="26442648_const" type="Const" version="opset1">
			<data element_type="f32" offset="7400296" shape="" size="4"/>
			<output>
				<port id="1" precision="FP32"/>
			</output>
		</layer>
		<layer id="190" name="470/fq_input_0" type="FakeQuantize" version="opset1">
			<data levels="256"/>
			<input>
				<port id="0">
					<dim>1</dim>
					<dim>512</dim>
					<dim>16</dim>
				</port>
				<port id="1"/>
				<port id="2"/>
				<port id="3"/>
				<port id="4"/>
			</input>
			<output>
				<port id="5" precision="FP32">
					<dim>1</dim>
					<dim>512</dim>
					<dim>16</dim>
				</port>
			</output>
		</layer>
		<layer id="191" name="470/Cast_18925_const348_const" type="Const" version="opset1">
			<data element_type="i64" offset="2130488" shape="3" size="24"/>
			<output>
				<port id="1" precision="I64">
					<dim>3</dim>
				</port>
			</output>
		</layer>
		<layer id="192" name="470" type="Transpose" version="opset1">
			<input>
				<port id="0">
					<dim>1</dim>
					<dim>512</dim>
					<dim>16</dim>
				</port>
				<port id="1">
					<dim>3</dim>
				</port>
			</input>
			<output>
				<port id="2" precision="FP32">
					<dim>1</dim>
					<dim>16</dim>
					<dim>512</dim>
				</port>
			</output>
		</layer>
		<layer id="193" name="473" type="Add" version="opset1">
			<input>
				<port id="0">
					<dim>1</dim>
					<dim>16</dim>
					<dim>512</dim>
				</port>
				<port id="1">
					<dim>1</dim>
					<dim>16</dim>
					<dim>512</dim>
				</port>
			</input>
			<output>
				<port id="2" precision="FP32">
					<dim>1</dim>
					<dim>16</dim>
					<dim>512</dim>
				</port>
			</output>
		</layer>
		<layer id="194" name="26812685_const" type="Const" version="opset1">
			<data element_type="f32" offset="7400300" shape="" size="4"/>
			<output>
				<port id="1" precision="FP32"/>
			</output>
		</layer>
		<layer id="195" name="26822686_const" type="Const" version="opset1">
			<data element_type="f32" offset="7400304" shape="" size="4"/>
			<output>
				<port id="1" precision="FP32"/>
			</output>
		</layer>
		<layer id="196" name="26832687_const" type="Const" version="opset1">
			<data element_type="f32" offset="7400300" shape="" size="4"/>
			<output>
				<port id="1" precision="FP32"/>
			</output>
		</layer>
		<layer id="197" name="26842688_const" type="Const" version="opset1">
			<data element_type="f32" offset="7400304" shape="" size="4"/>
			<output>
				<port id="1" precision="FP32"/>
			</output>
		</layer>
		<layer id="198" name="487/3D_Tile_Unsqueeze/fq_input_0" type="FakeQuantize" version="opset1">
			<data levels="256"/>
			<input>
				<port id="0">
					<dim>1</dim>
					<dim>16</dim>
					<dim>512</dim>
				</port>
				<port id="1"/>
				<port id="2"/>
				<port id="3"/>
				<port id="4"/>
			</input>
			<output>
				<port id="5" precision="FP32">
					<dim>1</dim>
					<dim>16</dim>
					<dim>512</dim>
				</port>
			</output>
		</layer>
		<layer id="199" name="487/3D_Tile_Unsqueeze_dim6294_const351_const" type="Const" version="opset1">
			<data element_type="i64" offset="32776" shape="1" size="8"/>
			<output>
				<port id="1" precision="I64">
					<dim>1</dim>
				</port>
			</output>
		</layer>
		<layer id="200" name="487/3D_Tile_Unsqueeze" type="Unsqueeze" version="opset1">
			<input>
				<port id="0">
					<dim>1</dim>
					<dim>16</dim>
					<dim>512</dim>
				</port>
				<port id="1">
					<dim>1</dim>
				</port>
			</input>
			<output>
				<port id="2" precision="FP32">
					<dim>1</dim>
					<dim>16</dim>
					<dim>512</dim>
					<dim>1</dim>
				</port>
			</output>
		</layer>
		<layer id="201" name="62966298_const353_const" type="Const" version="opset1">
			<data element_type="i64" offset="32784" shape="4" size="32"/>
			<output>
				<port id="1" precision="I64">
					<dim>4</dim>
				</port>
			</output>
		</layer>
		<layer id="202" name="487" type="Tile" version="opset1">
			<input>
				<port id="0">
					<dim>1</dim>
					<dim>16</dim>
					<dim>512</dim>
					<dim>1</dim>
				</port>
				<port id="1">
					<dim>4</dim>
				</port>
			</input>
			<output>
				<port id="2" precision="FP32">
					<dim>8</dim>
					<dim>16</dim>
					<dim>512</dim>
					<dim>1</dim>
				</port>
			</output>
		</layer>
		<layer id="203" name="487/3D_Tile_Squeeze_dim6301_const355_const" type="Const" version="opset1">
			<data element_type="i64" offset="32776" shape="1" size="8"/>
			<output>
				<port id="1" precision="I64">
					<dim>1</dim>
				</port>
			</output>
		</layer>
		<layer id="204" name="487/3D_Tile_Squeeze" type="Squeeze" version="opset1">
			<input>
				<port id="0">
					<dim>8</dim>
					<dim>16</dim>
					<dim>512</dim>
					<dim>1</dim>
				</port>
				<port id="1">
					<dim>1</dim>
				</port>
			</input>
			<output>
				<port id="2" precision="FP32">
					<dim>8</dim>
					<dim>16</dim>
					<dim>512</dim>
				</port>
			</output>
		</layer>
		<layer id="205" name="494/Cast_18927_const357_const" type="Const" version="opset1">
			<data element_type="i64" offset="32816" shape="3" size="24"/>
			<output>
				<port id="1" precision="I64">
					<dim>3</dim>
				</port>
			</output>
		</layer>
		<layer id="206" name="494" type="Reshape" version="opset1">
			<data special_zero="True"/>
			<input>
				<port id="0">
					<dim>8</dim>
					<dim>16</dim>
					<dim>512</dim>
				</port>
				<port id="1">
					<dim>3</dim>
				</port>
			</input>
			<output>
				<port id="2" precision="FP32">
					<dim>8</dim>
					<dim>16</dim>
					<dim>512</dim>
				</port>
			</output>
		</layer>
		<layer id="207" name="onnx_initializer_node_327/Output_0/Data__const359_const" type="Const" version="opset1">
			<data element_type="f32" offset="7400308" shape="8,64,512" size="1048576"/>
			<output>
				<port id="1" precision="FP32">
					<dim>8</dim>
					<dim>64</dim>
					<dim>512</dim>
				</port>
			</output>
		</layer>
		<layer id="208" name="14451449_const" type="Const" version="opset1">
			<data element_type="f32" offset="8448884" shape="8,1,1" size="32"/>
			<output>
				<port id="1" precision="FP32">
					<dim>8</dim>
					<dim>1</dim>
					<dim>1</dim>
				</port>
			</output>
		</layer>
		<layer id="209" name="14461450_const" type="Const" version="opset1">
			<data element_type="f32" offset="8448916" shape="8,1,1" size="32"/>
			<output>
				<port id="1" precision="FP32">
					<dim>8</dim>
					<dim>1</dim>
					<dim>1</dim>
				</port>
			</output>
		</layer>
		<layer id="210" name="14471451_const" type="Const" version="opset1">
			<data element_type="f32" offset="8448884" shape="8,1,1" size="32"/>
			<output>
				<port id="1" precision="FP32">
					<dim>8</dim>
					<dim>1</dim>
					<dim>1</dim>
				</port>
			</output>
		</layer>
		<layer id="211" name="14481452_const" type="Const" version="opset1">
			<data element_type="f32" offset="8448916" shape="8,1,1" size="32"/>
			<output>
				<port id="1" precision="FP32">
					<dim>8</dim>
					<dim>1</dim>
					<dim>1</dim>
				</port>
			</output>
		</layer>
		<layer id="212" name="513/fq_weights_1" type="FakeQuantize" version="opset1">
			<data levels="255"/>
			<input>
				<port id="0">
					<dim>8</dim>
					<dim>64</dim>
					<dim>512</dim>
				</port>
				<port id="1">
					<dim>8</dim>
					<dim>1</dim>
					<dim>1</dim>
				</port>
				<port id="2">
					<dim>8</dim>
					<dim>1</dim>
					<dim>1</dim>
				</port>
				<port id="3">
					<dim>8</dim>
					<dim>1</dim>
					<dim>1</dim>
				</port>
				<port id="4">
					<dim>8</dim>
					<dim>1</dim>
					<dim>1</dim>
				</port>
			</input>
			<output>
				<port id="5" precision="FP32">
					<dim>8</dim>
					<dim>64</dim>
					<dim>512</dim>
				</port>
			</output>
		</layer>
		<layer id="213" name="513" type="MatMul" version="opset1">
			<data transpose_a="False" transpose_b="True"/>
			<input>
				<port id="0">
					<dim>8</dim>
					<dim>16</dim>
					<dim>512</dim>
				</port>
				<port id="1">
					<dim>8</dim>
					<dim>64</dim>
					<dim>512</dim>
				</port>
			</input>
			<output>
				<port id="2" precision="FP32">
					<dim>8</dim>
					<dim>16</dim>
					<dim>64</dim>
				</port>
			</output>
		</layer>
		<layer id="214" name="722724_const" type="Const" version="opset1">
			<data element_type="f32" offset="1081480" shape="1,16,1" size="64"/>
			<output>
				<port id="1" precision="FP32">
					<dim>1</dim>
					<dim>16</dim>
					<dim>1</dim>
				</port>
			</output>
		</layer>
		<layer id="215" name="513/add_" type="Add" version="opset1">
			<input>
				<port id="0">
					<dim>8</dim>
					<dim>16</dim>
					<dim>64</dim>
				</port>
				<port id="1">
					<dim>1</dim>
					<dim>16</dim>
					<dim>1</dim>
				</port>
			</input>
			<output>
				<port id="2" precision="FP32">
					<dim>8</dim>
					<dim>16</dim>
					<dim>64</dim>
				</port>
			</output>
		</layer>
		<layer id="216" name="27712775_const" type="Const" version="opset1">
			<data element_type="f32" offset="8448948" shape="" size="4"/>
			<output>
				<port id="1" precision="FP32"/>
			</output>
		</layer>
		<layer id="217" name="27722776_const" type="Const" version="opset1">
			<data element_type="f32" offset="8448952" shape="" size="4"/>
			<output>
				<port id="1" precision="FP32"/>
			</output>
		</layer>
		<layer id="218" name="27732777_const" type="Const" version="opset1">
			<data element_type="f32" offset="8448948" shape="" size="4"/>
			<output>
				<port id="1" precision="FP32"/>
			</output>
		</layer>
		<layer id="219" name="27742778_const" type="Const" version="opset1">
			<data element_type="f32" offset="8448952" shape="" size="4"/>
			<output>
				<port id="1" precision="FP32"/>
			</output>
		</layer>
		<layer id="220" name="520/fq_input_0" type="FakeQuantize" version="opset1">
			<data levels="256"/>
			<input>
				<port id="0">
					<dim>8</dim>
					<dim>16</dim>
					<dim>64</dim>
				</port>
				<port id="1"/>
				<port id="2"/>
				<port id="3"/>
				<port id="4"/>
			</input>
			<output>
				<port id="5" precision="FP32">
					<dim>8</dim>
					<dim>16</dim>
					<dim>64</dim>
				</port>
			</output>
		</layer>
		<layer id="221" name="520/Cast_18943_const361_const" type="Const" version="opset1">
			<data element_type="i64" offset="1081552" shape="3" size="24"/>
			<output>
				<port id="1" precision="I64">
					<dim>3</dim>
				</port>
			</output>
		</layer>
		<layer id="222" name="520" type="Reshape" version="opset1">
			<data special_zero="True"/>
			<input>
				<port id="0">
					<dim>8</dim>
					<dim>16</dim>
					<dim>64</dim>
				</port>
				<port id="1">
					<dim>3</dim>
				</port>
			</input>
			<output>
				<port id="2" precision="FP32">
					<dim>8</dim>
					<dim>16</dim>
					<dim>64</dim>
				</port>
			</output>
		</layer>
		<layer id="223" name="48524854/copy_const363_const" type="Const" version="opset1">
			<data element_type="f32" offset="1081576" shape="1,64,1" size="256"/>
			<output>
				<port id="1" precision="FP32">
					<dim>1</dim>
					<dim>64</dim>
					<dim>1</dim>
				</port>
			</output>
		</layer>
		<layer id="224" name="12351239_const" type="Const" version="opset1">
			<data element_type="f32" offset="1081832" shape="1,1,1" size="4"/>
			<output>
				<port id="1" precision="FP32">
					<dim>1</dim>
					<dim>1</dim>
					<dim>1</dim>
				</port>
			</output>
		</layer>
		<layer id="225" name="12361240_const" type="Const" version="opset1">
			<data element_type="f32" offset="1081836" shape="1,1,1" size="4"/>
			<output>
				<port id="1" precision="FP32">
					<dim>1</dim>
					<dim>1</dim>
					<dim>1</dim>
				</port>
			</output>
		</layer>
		<layer id="226" name="12371241_const" type="Const" version="opset1">
			<data element_type="f32" offset="1081832" shape="1,1,1" size="4"/>
			<output>
				<port id="1" precision="FP32">
					<dim>1</dim>
					<dim>1</dim>
					<dim>1</dim>
				</port>
			</output>
		</layer>
		<layer id="227" name="12381242_const" type="Const" version="opset1">
			<data element_type="f32" offset="1081836" shape="1,1,1" size="4"/>
			<output>
				<port id="1" precision="FP32">
					<dim>1</dim>
					<dim>1</dim>
					<dim>1</dim>
				</port>
			</output>
		</layer>
		<layer id="228" name="540/mul_4853/fq_input_0" type="FakeQuantize" version="opset1">
			<data levels="255"/>
			<input>
				<port id="0">
					<dim>1</dim>
					<dim>64</dim>
					<dim>1</dim>
				</port>
				<port id="1">
					<dim>1</dim>
					<dim>1</dim>
					<dim>1</dim>
				</port>
				<port id="2">
					<dim>1</dim>
					<dim>1</dim>
					<dim>1</dim>
				</port>
				<port id="3">
					<dim>1</dim>
					<dim>1</dim>
					<dim>1</dim>
				</port>
				<port id="4">
					<dim>1</dim>
					<dim>1</dim>
					<dim>1</dim>
				</port>
			</input>
			<output>
				<port id="5" precision="FP32">
					<dim>1</dim>
					<dim>64</dim>
					<dim>1</dim>
				</port>
			</output>
		</layer>
		<layer id="229" name="496/3D_Tile_Unsqueeze_dim6282_const364_const" type="Const" version="opset1">
			<data element_type="i64" offset="32776" shape="1" size="8"/>
			<output>
				<port id="1" precision="I64">
					<dim>1</dim>
				</port>
			</output>
		</layer>
		<layer id="230" name="496/3D_Tile_Unsqueeze" type="Unsqueeze" version="opset1">
			<input>
				<port id="0">
					<dim>1</dim>
					<dim>16</dim>
					<dim>512</dim>
				</port>
				<port id="1">
					<dim>1</dim>
				</port>
			</input>
			<output>
				<port id="2" precision="FP32">
					<dim>1</dim>
					<dim>16</dim>
					<dim>512</dim>
					<dim>1</dim>
				</port>
			</output>
		</layer>
		<layer id="231" name="62846286_const366_const" type="Const" version="opset1">
			<data element_type="i64" offset="32784" shape="4" size="32"/>
			<output>
				<port id="1" precision="I64">
					<dim>4</dim>
				</port>
			</output>
		</layer>
		<layer id="232" name="496" type="Tile" version="opset1">
			<input>
				<port id="0">
					<dim>1</dim>
					<dim>16</dim>
					<dim>512</dim>
					<dim>1</dim>
				</port>
				<port id="1">
					<dim>4</dim>
				</port>
			</input>
			<output>
				<port id="2" precision="FP32">
					<dim>8</dim>
					<dim>16</dim>
					<dim>512</dim>
					<dim>1</dim>
				</port>
			</output>
		</layer>
		<layer id="233" name="496/3D_Tile_Squeeze_dim6289_const368_const" type="Const" version="opset1">
			<data element_type="i64" offset="32776" shape="1" size="8"/>
			<output>
				<port id="1" precision="I64">
					<dim>1</dim>
				</port>
			</output>
		</layer>
		<layer id="234" name="496/3D_Tile_Squeeze" type="Squeeze" version="opset1">
			<input>
				<port id="0">
					<dim>8</dim>
					<dim>16</dim>
					<dim>512</dim>
					<dim>1</dim>
				</port>
				<port id="1">
					<dim>1</dim>
				</port>
			</input>
			<output>
				<port id="2" precision="FP32">
					<dim>8</dim>
					<dim>16</dim>
					<dim>512</dim>
				</port>
			</output>
		</layer>
		<layer id="235" name="503/Cast_18915_const370_const" type="Const" version="opset1">
			<data element_type="i64" offset="32816" shape="3" size="24"/>
			<output>
				<port id="1" precision="I64">
					<dim>3</dim>
				</port>
			</output>
		</layer>
		<layer id="236" name="503" type="Reshape" version="opset1">
			<data special_zero="True"/>
			<input>
				<port id="0">
					<dim>8</dim>
					<dim>16</dim>
					<dim>512</dim>
				</port>
				<port id="1">
					<dim>3</dim>
				</port>
			</input>
			<output>
				<port id="2" precision="FP32">
					<dim>8</dim>
					<dim>16</dim>
					<dim>512</dim>
				</port>
			</output>
		</layer>
		<layer id="237" name="onnx_initializer_node_328/Output_0/Data__const372_const" type="Const" version="opset1">
			<data element_type="f32" offset="8448956" shape="8,64,512" size="1048576"/>
			<output>
				<port id="1" precision="FP32">
					<dim>8</dim>
					<dim>64</dim>
					<dim>512</dim>
				</port>
			</output>
		</layer>
		<layer id="238" name="12051209_const" type="Const" version="opset1">
			<data element_type="f32" offset="9497532" shape="8,1,1" size="32"/>
			<output>
				<port id="1" precision="FP32">
					<dim>8</dim>
					<dim>1</dim>
					<dim>1</dim>
				</port>
			</output>
		</layer>
		<layer id="239" name="12061210_const" type="Const" version="opset1">
			<data element_type="f32" offset="9497564" shape="8,1,1" size="32"/>
			<output>
				<port id="1" precision="FP32">
					<dim>8</dim>
					<dim>1</dim>
					<dim>1</dim>
				</port>
			</output>
		</layer>
		<layer id="240" name="12071211_const" type="Const" version="opset1">
			<data element_type="f32" offset="9497532" shape="8,1,1" size="32"/>
			<output>
				<port id="1" precision="FP32">
					<dim>8</dim>
					<dim>1</dim>
					<dim>1</dim>
				</port>
			</output>
		</layer>
		<layer id="241" name="12081212_const" type="Const" version="opset1">
			<data element_type="f32" offset="9497564" shape="8,1,1" size="32"/>
			<output>
				<port id="1" precision="FP32">
					<dim>8</dim>
					<dim>1</dim>
					<dim>1</dim>
				</port>
			</output>
		</layer>
		<layer id="242" name="521/fq_weights_1" type="FakeQuantize" version="opset1">
			<data levels="255"/>
			<input>
				<port id="0">
					<dim>8</dim>
					<dim>64</dim>
					<dim>512</dim>
				</port>
				<port id="1">
					<dim>8</dim>
					<dim>1</dim>
					<dim>1</dim>
				</port>
				<port id="2">
					<dim>8</dim>
					<dim>1</dim>
					<dim>1</dim>
				</port>
				<port id="3">
					<dim>8</dim>
					<dim>1</dim>
					<dim>1</dim>
				</port>
				<port id="4">
					<dim>8</dim>
					<dim>1</dim>
					<dim>1</dim>
				</port>
			</input>
			<output>
				<port id="5" precision="FP32">
					<dim>8</dim>
					<dim>64</dim>
					<dim>512</dim>
				</port>
			</output>
		</layer>
		<layer id="243" name="521" type="MatMul" version="opset1">
			<data transpose_a="False" transpose_b="True"/>
			<input>
				<port id="0">
					<dim>8</dim>
					<dim>16</dim>
					<dim>512</dim>
				</port>
				<port id="1">
					<dim>8</dim>
					<dim>64</dim>
					<dim>512</dim>
				</port>
			</input>
			<output>
				<port id="2" precision="FP32">
					<dim>8</dim>
					<dim>16</dim>
					<dim>64</dim>
				</port>
			</output>
		</layer>
		<layer id="244" name="726728_const" type="Const" version="opset1">
			<data element_type="f32" offset="1081480" shape="1,16,1" size="64"/>
			<output>
				<port id="1" precision="FP32">
					<dim>1</dim>
					<dim>16</dim>
					<dim>1</dim>
				</port>
			</output>
		</layer>
		<layer id="245" name="521/add_" type="Add" version="opset1">
			<input>
				<port id="0">
					<dim>8</dim>
					<dim>16</dim>
					<dim>64</dim>
				</port>
				<port id="1">
					<dim>1</dim>
					<dim>16</dim>
					<dim>1</dim>
				</port>
			</input>
			<output>
				<port id="2" precision="FP32">
					<dim>8</dim>
					<dim>16</dim>
					<dim>64</dim>
				</port>
			</output>
		</layer>
		<layer id="246" name="27912795_const" type="Const" version="opset1">
			<data element_type="f32" offset="9497596" shape="" size="4"/>
			<output>
				<port id="1" precision="FP32"/>
			</output>
		</layer>
		<layer id="247" name="27922796_const" type="Const" version="opset1">
			<data element_type="f32" offset="9497600" shape="" size="4"/>
			<output>
				<port id="1" precision="FP32"/>
			</output>
		</layer>
		<layer id="248" name="27932797_const" type="Const" version="opset1">
			<data element_type="f32" offset="9497596" shape="" size="4"/>
			<output>
				<port id="1" precision="FP32"/>
			</output>
		</layer>
		<layer id="249" name="27942798_const" type="Const" version="opset1">
			<data element_type="f32" offset="9497600" shape="" size="4"/>
			<output>
				<port id="1" precision="FP32"/>
			</output>
		</layer>
		<layer id="250" name="528/fq_input_0" type="FakeQuantize" version="opset1">
			<data levels="256"/>
			<input>
				<port id="0">
					<dim>8</dim>
					<dim>16</dim>
					<dim>64</dim>
				</port>
				<port id="1"/>
				<port id="2"/>
				<port id="3"/>
				<port id="4"/>
			</input>
			<output>
				<port id="5" precision="FP32">
					<dim>8</dim>
					<dim>16</dim>
					<dim>64</dim>
				</port>
			</output>
		</layer>
		<layer id="251" name="528/Cast_18937_const374_const" type="Const" version="opset1">
			<data element_type="i64" offset="1081552" shape="3" size="24"/>
			<output>
				<port id="1" precision="I64">
					<dim>3</dim>
				</port>
			</output>
		</layer>
		<layer id="252" name="528" type="Reshape" version="opset1">
			<data special_zero="True"/>
			<input>
				<port id="0">
					<dim>8</dim>
					<dim>16</dim>
					<dim>64</dim>
				</port>
				<port id="1">
					<dim>3</dim>
				</port>
			</input>
			<output>
				<port id="2" precision="FP32">
					<dim>8</dim>
					<dim>16</dim>
					<dim>64</dim>
				</port>
			</output>
		</layer>
		<layer id="253" name="537/Cast_18967_const376_const" type="Const" version="opset1">
			<data element_type="i64" offset="2130488" shape="3" size="24"/>
			<output>
				<port id="1" precision="I64">
					<dim>3</dim>
				</port>
			</output>
		</layer>
		<layer id="254" name="537" type="Transpose" version="opset1">
			<input>
				<port id="0">
					<dim>8</dim>
					<dim>16</dim>
					<dim>64</dim>
				</port>
				<port id="1">
					<dim>3</dim>
				</port>
			</input>
			<output>
				<port id="2" precision="FP32">
					<dim>8</dim>
					<dim>64</dim>
					<dim>16</dim>
				</port>
			</output>
		</layer>
		<layer id="255" name="540/mul_4853" type="Multiply" version="opset1">
			<input>
				<port id="0">
					<dim>1</dim>
					<dim>64</dim>
					<dim>1</dim>
				</port>
				<port id="1">
					<dim>8</dim>
					<dim>64</dim>
					<dim>16</dim>
				</port>
			</input>
			<output>
				<port id="2" precision="FP32">
					<dim>8</dim>
					<dim>64</dim>
					<dim>16</dim>
				</port>
			</output>
		</layer>
		<layer id="256" name="13051309_const" type="Const" version="opset1">
			<data element_type="f32" offset="9497604" shape="" size="4"/>
			<output>
				<port id="1" precision="FP32"/>
			</output>
		</layer>
		<layer id="257" name="13061310_const" type="Const" version="opset1">
			<data element_type="f32" offset="9497608" shape="" size="4"/>
			<output>
				<port id="1" precision="FP32"/>
			</output>
		</layer>
		<layer id="258" name="13071311_const" type="Const" version="opset1">
			<data element_type="f32" offset="9497604" shape="" size="4"/>
			<output>
				<port id="1" precision="FP32"/>
			</output>
		</layer>
		<layer id="259" name="13081312_const" type="Const" version="opset1">
			<data element_type="f32" offset="9497608" shape="" size="4"/>
			<output>
				<port id="1" precision="FP32"/>
			</output>
		</layer>
		<layer id="260" name="538/fq_weights_1" type="FakeQuantize" version="opset1">
			<data levels="256"/>
			<input>
				<port id="0">
					<dim>8</dim>
					<dim>64</dim>
					<dim>16</dim>
				</port>
				<port id="1"/>
				<port id="2"/>
				<port id="3"/>
				<port id="4"/>
			</input>
			<output>
				<port id="5" precision="FP32">
					<dim>8</dim>
					<dim>64</dim>
					<dim>16</dim>
				</port>
			</output>
		</layer>
		<layer id="261" name="538" type="MatMul" version="opset1">
			<data transpose_a="False" transpose_b="False"/>
			<input>
				<port id="0">
					<dim>8</dim>
					<dim>16</dim>
					<dim>64</dim>
				</port>
				<port id="1">
					<dim>8</dim>
					<dim>64</dim>
					<dim>16</dim>
				</port>
			</input>
			<output>
				<port id="2" precision="FP32">
					<dim>8</dim>
					<dim>16</dim>
					<dim>16</dim>
				</port>
			</output>
		</layer>
		<layer id="262" name="732734_const" type="Const" version="opset1">
			<data element_type="f32" offset="1081480" shape="1,16,1" size="64"/>
			<output>
				<port id="1" precision="FP32">
					<dim>1</dim>
					<dim>16</dim>
					<dim>1</dim>
				</port>
			</output>
		</layer>
		<layer id="263" name="538/add_" type="Add" version="opset1">
			<input>
				<port id="0">
					<dim>8</dim>
					<dim>16</dim>
					<dim>16</dim>
				</port>
				<port id="1">
					<dim>1</dim>
					<dim>16</dim>
					<dim>1</dim>
				</port>
			</input>
			<output>
				<port id="2" precision="FP32">
					<dim>8</dim>
					<dim>16</dim>
					<dim>16</dim>
				</port>
			</output>
		</layer>
		<layer id="264" name="552/Cast_18985_const380_const" type="Const" version="opset1">
			<data element_type="i64" offset="2130520" shape="2" size="16"/>
			<output>
				<port id="1" precision="I64">
					<dim>2</dim>
				</port>
			</output>
		</layer>
		<layer id="265" name="552" type="Reshape" version="opset1">
			<data special_zero="True"/>
			<input>
				<port id="0">
					<dim>8</dim>
					<dim>16</dim>
					<dim>16</dim>
				</port>
				<port id="1">
					<dim>2</dim>
				</port>
			</input>
			<output>
				<port id="2" precision="FP32">
					<dim>128</dim>
					<dim>16</dim>
				</port>
			</output>
		</layer>
		<layer id="266" name="553" type="SoftMax" version="opset1">
			<data axis="1"/>
			<input>
				<port id="0">
					<dim>128</dim>
					<dim>16</dim>
				</port>
			</input>
			<output>
				<port id="1" precision="FP32">
					<dim>128</dim>
					<dim>16</dim>
				</port>
			</output>
		</layer>
		<layer id="267" name="28012805_const" type="Const" version="opset1">
			<data element_type="f32" offset="2130536" shape="" size="4"/>
			<output>
				<port id="1" precision="FP32"/>
			</output>
		</layer>
		<layer id="268" name="28022806_const" type="Const" version="opset1">
			<data element_type="f32" offset="9497612" shape="" size="4"/>
			<output>
				<port id="1" precision="FP32"/>
			</output>
		</layer>
		<layer id="269" name="28032807_const" type="Const" version="opset1">
			<data element_type="f32" offset="2130536" shape="" size="4"/>
			<output>
				<port id="1" precision="FP32"/>
			</output>
		</layer>
		<layer id="270" name="28042808_const" type="Const" version="opset1">
			<data element_type="f32" offset="9497612" shape="" size="4"/>
			<output>
				<port id="1" precision="FP32"/>
			</output>
		</layer>
		<layer id="271" name="559/fq_input_0" type="FakeQuantize" version="opset1">
			<data levels="256"/>
			<input>
				<port id="0">
					<dim>128</dim>
					<dim>16</dim>
				</port>
				<port id="1"/>
				<port id="2"/>
				<port id="3"/>
				<port id="4"/>
			</input>
			<output>
				<port id="5" precision="FP32">
					<dim>128</dim>
					<dim>16</dim>
				</port>
			</output>
		</layer>
		<layer id="272" name="559/Cast_18981_const383_const" type="Const" version="opset1">
			<data element_type="i64" offset="2130544" shape="3" size="24"/>
			<output>
				<port id="1" precision="I64">
					<dim>3</dim>
				</port>
			</output>
		</layer>
		<layer id="273" name="559" type="Reshape" version="opset1">
			<data special_zero="True"/>
			<input>
				<port id="0">
					<dim>128</dim>
					<dim>16</dim>
				</port>
				<port id="1">
					<dim>3</dim>
				</port>
			</input>
			<output>
				<port id="2" precision="FP32">
					<dim>8</dim>
					<dim>16</dim>
					<dim>16</dim>
				</port>
			</output>
		</layer>
		<layer id="274" name="505/3D_Tile_Unsqueeze_dim6330_const385_const" type="Const" version="opset1">
			<data element_type="i64" offset="32776" shape="1" size="8"/>
			<output>
				<port id="1" precision="I64">
					<dim>1</dim>
				</port>
			</output>
		</layer>
		<layer id="275" name="505/3D_Tile_Unsqueeze" type="Unsqueeze" version="opset1">
			<input>
				<port id="0">
					<dim>1</dim>
					<dim>16</dim>
					<dim>512</dim>
				</port>
				<port id="1">
					<dim>1</dim>
				</port>
			</input>
			<output>
				<port id="2" precision="FP32">
					<dim>1</dim>
					<dim>16</dim>
					<dim>512</dim>
					<dim>1</dim>
				</port>
			</output>
		</layer>
		<layer id="276" name="63326334_const387_const" type="Const" version="opset1">
			<data element_type="i64" offset="32784" shape="4" size="32"/>
			<output>
				<port id="1" precision="I64">
					<dim>4</dim>
				</port>
			</output>
		</layer>
		<layer id="277" name="505" type="Tile" version="opset1">
			<input>
				<port id="0">
					<dim>1</dim>
					<dim>16</dim>
					<dim>512</dim>
					<dim>1</dim>
				</port>
				<port id="1">
					<dim>4</dim>
				</port>
			</input>
			<output>
				<port id="2" precision="FP32">
					<dim>8</dim>
					<dim>16</dim>
					<dim>512</dim>
					<dim>1</dim>
				</port>
			</output>
		</layer>
		<layer id="278" name="505/3D_Tile_Squeeze_dim6337_const389_const" type="Const" version="opset1">
			<data element_type="i64" offset="32776" shape="1" size="8"/>
			<output>
				<port id="1" precision="I64">
					<dim>1</dim>
				</port>
			</output>
		</layer>
		<layer id="279" name="505/3D_Tile_Squeeze" type="Squeeze" version="opset1">
			<input>
				<port id="0">
					<dim>8</dim>
					<dim>16</dim>
					<dim>512</dim>
					<dim>1</dim>
				</port>
				<port id="1">
					<dim>1</dim>
				</port>
			</input>
			<output>
				<port id="2" precision="FP32">
					<dim>8</dim>
					<dim>16</dim>
					<dim>512</dim>
				</port>
			</output>
		</layer>
		<layer id="280" name="512/Cast_18909_const391_const" type="Const" version="opset1">
			<data element_type="i64" offset="32816" shape="3" size="24"/>
			<output>
				<port id="1" precision="I64">
					<dim>3</dim>
				</port>
			</output>
		</layer>
		<layer id="281" name="512" type="Reshape" version="opset1">
			<data special_zero="True"/>
			<input>
				<port id="0">
					<dim>8</dim>
					<dim>16</dim>
					<dim>512</dim>
				</port>
				<port id="1">
					<dim>3</dim>
				</port>
			</input>
			<output>
				<port id="2" precision="FP32">
					<dim>8</dim>
					<dim>16</dim>
					<dim>512</dim>
				</port>
			</output>
		</layer>
		<layer id="282" name="onnx_initializer_node_329/Output_0/Data__const393_const" type="Const" version="opset1">
			<data element_type="f32" offset="9497616" shape="8,64,512" size="1048576"/>
			<output>
				<port id="1" precision="FP32">
					<dim>8</dim>
					<dim>64</dim>
					<dim>512</dim>
				</port>
			</output>
		</layer>
		<layer id="283" name="16351639_const" type="Const" version="opset1">
			<data element_type="f32" offset="10546192" shape="8,1,1" size="32"/>
			<output>
				<port id="1" precision="FP32">
					<dim>8</dim>
					<dim>1</dim>
					<dim>1</dim>
				</port>
			</output>
		</layer>
		<layer id="284" name="16361640_const" type="Const" version="opset1">
			<data element_type="f32" offset="10546224" shape="8,1,1" size="32"/>
			<output>
				<port id="1" precision="FP32">
					<dim>8</dim>
					<dim>1</dim>
					<dim>1</dim>
				</port>
			</output>
		</layer>
		<layer id="285" name="16371641_const" type="Const" version="opset1">
			<data element_type="f32" offset="10546192" shape="8,1,1" size="32"/>
			<output>
				<port id="1" precision="FP32">
					<dim>8</dim>
					<dim>1</dim>
					<dim>1</dim>
				</port>
			</output>
		</layer>
		<layer id="286" name="16381642_const" type="Const" version="opset1">
			<data element_type="f32" offset="10546224" shape="8,1,1" size="32"/>
			<output>
				<port id="1" precision="FP32">
					<dim>8</dim>
					<dim>1</dim>
					<dim>1</dim>
				</port>
			</output>
		</layer>
		<layer id="287" name="529/fq_weights_1" type="FakeQuantize" version="opset1">
			<data levels="255"/>
			<input>
				<port id="0">
					<dim>8</dim>
					<dim>64</dim>
					<dim>512</dim>
				</port>
				<port id="1">
					<dim>8</dim>
					<dim>1</dim>
					<dim>1</dim>
				</port>
				<port id="2">
					<dim>8</dim>
					<dim>1</dim>
					<dim>1</dim>
				</port>
				<port id="3">
					<dim>8</dim>
					<dim>1</dim>
					<dim>1</dim>
				</port>
				<port id="4">
					<dim>8</dim>
					<dim>1</dim>
					<dim>1</dim>
				</port>
			</input>
			<output>
				<port id="5" precision="FP32">
					<dim>8</dim>
					<dim>64</dim>
					<dim>512</dim>
				</port>
			</output>
		</layer>
		<layer id="288" name="529" type="MatMul" version="opset1">
			<data transpose_a="False" transpose_b="True"/>
			<input>
				<port id="0">
					<dim>8</dim>
					<dim>16</dim>
					<dim>512</dim>
				</port>
				<port id="1">
					<dim>8</dim>
					<dim>64</dim>
					<dim>512</dim>
				</port>
			</input>
			<output>
				<port id="2" precision="FP32">
					<dim>8</dim>
					<dim>16</dim>
					<dim>64</dim>
				</port>
			</output>
		</layer>
		<layer id="289" name="736738_const" type="Const" version="opset1">
			<data element_type="f32" offset="1081480" shape="1,16,1" size="64"/>
			<output>
				<port id="1" precision="FP32">
					<dim>1</dim>
					<dim>16</dim>
					<dim>1</dim>
				</port>
			</output>
		</layer>
		<layer id="290" name="529/add_" type="Add" version="opset1">
			<input>
				<port id="0">
					<dim>8</dim>
					<dim>16</dim>
					<dim>64</dim>
				</port>
				<port id="1">
					<dim>1</dim>
					<dim>16</dim>
					<dim>1</dim>
				</port>
			</input>
			<output>
				<port id="2" precision="FP32">
					<dim>8</dim>
					<dim>16</dim>
					<dim>64</dim>
				</port>
			</output>
		</layer>
		<layer id="291" name="28112815_const" type="Const" version="opset1">
			<data element_type="f32" offset="10546256" shape="" size="4"/>
			<output>
				<port id="1" precision="FP32"/>
			</output>
		</layer>
		<layer id="292" name="28122816_const" type="Const" version="opset1">
			<data element_type="f32" offset="10546260" shape="" size="4"/>
			<output>
				<port id="1" precision="FP32"/>
			</output>
		</layer>
		<layer id="293" name="28132817_const" type="Const" version="opset1">
			<data element_type="f32" offset="10546256" shape="" size="4"/>
			<output>
				<port id="1" precision="FP32"/>
			</output>
		</layer>
		<layer id="294" name="28142818_const" type="Const" version="opset1">
			<data element_type="f32" offset="10546260" shape="" size="4"/>
			<output>
				<port id="1" precision="FP32"/>
			</output>
		</layer>
		<layer id="295" name="536/fq_input_0" type="FakeQuantize" version="opset1">
			<data levels="256"/>
			<input>
				<port id="0">
					<dim>8</dim>
					<dim>16</dim>
					<dim>64</dim>
				</port>
				<port id="1"/>
				<port id="2"/>
				<port id="3"/>
				<port id="4"/>
			</input>
			<output>
				<port id="5" precision="FP32">
					<dim>8</dim>
					<dim>16</dim>
					<dim>64</dim>
				</port>
			</output>
		</layer>
		<layer id="296" name="536/Cast_18919_const395_const" type="Const" version="opset1">
			<data element_type="i64" offset="1081552" shape="3" size="24"/>
			<output>
				<port id="1" precision="I64">
					<dim>3</dim>
				</port>
			</output>
		</layer>
		<layer id="297" name="536" type="Reshape" version="opset1">
			<data special_zero="True"/>
			<input>
				<port id="0">
					<dim>8</dim>
					<dim>16</dim>
					<dim>64</dim>
				</port>
				<port id="1">
					<dim>3</dim>
				</port>
			</input>
			<output>
				<port id="2" precision="FP32">
					<dim>8</dim>
					<dim>16</dim>
					<dim>64</dim>
				</port>
			</output>
		</layer>
		<layer id="298" name="562" type="MatMul" version="opset1">
			<data transpose_a="False" transpose_b="False"/>
			<input>
				<port id="0">
					<dim>8</dim>
					<dim>16</dim>
					<dim>16</dim>
				</port>
				<port id="1">
					<dim>8</dim>
					<dim>16</dim>
					<dim>64</dim>
				</port>
			</input>
			<output>
				<port id="2" precision="FP32">
					<dim>8</dim>
					<dim>16</dim>
					<dim>64</dim>
				</port>
			</output>
		</layer>
		<layer id="299" name="740742_const" type="Const" version="opset1">
			<data element_type="f32" offset="1081480" shape="1,16,1" size="64"/>
			<output>
				<port id="1" precision="FP32">
					<dim>1</dim>
					<dim>16</dim>
					<dim>1</dim>
				</port>
			</output>
		</layer>
		<layer id="300" name="562/add_" type="Add" version="opset1">
			<input>
				<port id="0">
					<dim>8</dim>
					<dim>16</dim>
					<dim>64</dim>
				</port>
				<port id="1">
					<dim>1</dim>
					<dim>16</dim>
					<dim>1</dim>
				</port>
			</input>
			<output>
				<port id="2" precision="FP32">
					<dim>8</dim>
					<dim>16</dim>
					<dim>64</dim>
				</port>
			</output>
		</layer>
		<layer id="301" name="563/VariadicSplit/value/Output_0/Data__const398_const" type="Const" version="opset1">
			<data element_type="i64" offset="3179216" shape="" size="8"/>
			<output>
				<port id="1" precision="I64"/>
			</output>
		</layer>
		<layer id="302" name="563/VariadicSplit/value1367/Output_0/Data__const399_const" type="Const" version="opset1">
			<data element_type="i64" offset="3179224" shape="8" size="64"/>
			<output>
				<port id="1" precision="I64">
					<dim>8</dim>
				</port>
			</output>
		</layer>
		<layer id="303" name="563/VariadicSplit" type="VariadicSplit" version="opset1">
			<input>
				<port id="0">
					<dim>8</dim>
					<dim>16</dim>
					<dim>64</dim>
				</port>
				<port id="1"/>
				<port id="2">
					<dim>8</dim>
				</port>
			</input>
			<output>
				<port id="3" precision="FP32">
					<dim>1</dim>
					<dim>16</dim>
					<dim>64</dim>
				</port>
				<port id="4" precision="FP32">
					<dim>1</dim>
					<dim>16</dim>
					<dim>64</dim>
				</port>
				<port id="5" precision="FP32">
					<dim>1</dim>
					<dim>16</dim>
					<dim>64</dim>
				</port>
				<port id="6" precision="FP32">
					<dim>1</dim>
					<dim>16</dim>
					<dim>64</dim>
				</port>
				<port id="7" precision="FP32">
					<dim>1</dim>
					<dim>16</dim>
					<dim>64</dim>
				</port>
				<port id="8" precision="FP32">
					<dim>1</dim>
					<dim>16</dim>
					<dim>64</dim>
				</port>
				<port id="9" precision="FP32">
					<dim>1</dim>
					<dim>16</dim>
					<dim>64</dim>
				</port>
				<port id="10" precision="FP32">
					<dim>1</dim>
					<dim>16</dim>
					<dim>64</dim>
				</port>
			</output>
		</layer>
		<layer id="304" name="28212825_const" type="Const" version="opset1">
			<data element_type="f32" offset="10546264" shape="" size="4"/>
			<output>
				<port id="1" precision="FP32"/>
			</output>
		</layer>
		<layer id="305" name="28222826_const" type="Const" version="opset1">
			<data element_type="f32" offset="10546268" shape="" size="4"/>
			<output>
				<port id="1" precision="FP32"/>
			</output>
		</layer>
		<layer id="306" name="28232827_const" type="Const" version="opset1">
			<data element_type="f32" offset="10546264" shape="" size="4"/>
			<output>
				<port id="1" precision="FP32"/>
			</output>
		</layer>
		<layer id="307" name="28242828_const" type="Const" version="opset1">
			<data element_type="f32" offset="10546268" shape="" size="4"/>
			<output>
				<port id="1" precision="FP32"/>
			</output>
		</layer>
		<layer id="308" name="571/fq_input_0" type="FakeQuantize" version="opset1">
			<data levels="256"/>
			<input>
				<port id="0">
					<dim>1</dim>
					<dim>16</dim>
					<dim>64</dim>
				</port>
				<port id="1"/>
				<port id="2"/>
				<port id="3"/>
				<port id="4"/>
			</input>
			<output>
				<port id="5" precision="FP32">
					<dim>1</dim>
					<dim>16</dim>
					<dim>64</dim>
				</port>
			</output>
		</layer>
		<layer id="309" name="28312835_const" type="Const" version="opset1">
			<data element_type="f32" offset="10546272" shape="" size="4"/>
			<output>
				<port id="1" precision="FP32"/>
			</output>
		</layer>
		<layer id="310" name="28322836_const" type="Const" version="opset1">
			<data element_type="f32" offset="10546276" shape="" size="4"/>
			<output>
				<port id="1" precision="FP32"/>
			</output>
		</layer>
		<layer id="311" name="28332837_const" type="Const" version="opset1">
			<data element_type="f32" offset="10546272" shape="" size="4"/>
			<output>
				<port id="1" precision="FP32"/>
			</output>
		</layer>
		<layer id="312" name="28342838_const" type="Const" version="opset1">
			<data element_type="f32" offset="10546276" shape="" size="4"/>
			<output>
				<port id="1" precision="FP32"/>
			</output>
		</layer>
		<layer id="313" name="571/fq_input_1" type="FakeQuantize" version="opset1">
			<data levels="256"/>
			<input>
				<port id="0">
					<dim>1</dim>
					<dim>16</dim>
					<dim>64</dim>
				</port>
				<port id="1"/>
				<port id="2"/>
				<port id="3"/>
				<port id="4"/>
			</input>
			<output>
				<port id="5" precision="FP32">
					<dim>1</dim>
					<dim>16</dim>
					<dim>64</dim>
				</port>
			</output>
		</layer>
		<layer id="314" name="28412845_const" type="Const" version="opset1">
			<data element_type="f32" offset="10546280" shape="" size="4"/>
			<output>
				<port id="1" precision="FP32"/>
			</output>
		</layer>
		<layer id="315" name="28422846_const" type="Const" version="opset1">
			<data element_type="f32" offset="10546284" shape="" size="4"/>
			<output>
				<port id="1" precision="FP32"/>
			</output>
		</layer>
		<layer id="316" name="28432847_const" type="Const" version="opset1">
			<data element_type="f32" offset="10546280" shape="" size="4"/>
			<output>
				<port id="1" precision="FP32"/>
			</output>
		</layer>
		<layer id="317" name="28442848_const" type="Const" version="opset1">
			<data element_type="f32" offset="10546284" shape="" size="4"/>
			<output>
				<port id="1" precision="FP32"/>
			</output>
		</layer>
		<layer id="318" name="571/fq_input_2" type="FakeQuantize" version="opset1">
			<data levels="256"/>
			<input>
				<port id="0">
					<dim>1</dim>
					<dim>16</dim>
					<dim>64</dim>
				</port>
				<port id="1"/>
				<port id="2"/>
				<port id="3"/>
				<port id="4"/>
			</input>
			<output>
				<port id="5" precision="FP32">
					<dim>1</dim>
					<dim>16</dim>
					<dim>64</dim>
				</port>
			</output>
		</layer>
		<layer id="319" name="28512855_const" type="Const" version="opset1">
			<data element_type="f32" offset="10546288" shape="" size="4"/>
			<output>
				<port id="1" precision="FP32"/>
			</output>
		</layer>
		<layer id="320" name="28522856_const" type="Const" version="opset1">
			<data element_type="f32" offset="10546292" shape="" size="4"/>
			<output>
				<port id="1" precision="FP32"/>
			</output>
		</layer>
		<layer id="321" name="28532857_const" type="Const" version="opset1">
			<data element_type="f32" offset="10546288" shape="" size="4"/>
			<output>
				<port id="1" precision="FP32"/>
			</output>
		</layer>
		<layer id="322" name="28542858_const" type="Const" version="opset1">
			<data element_type="f32" offset="10546292" shape="" size="4"/>
			<output>
				<port id="1" precision="FP32"/>
			</output>
		</layer>
		<layer id="323" name="571/fq_input_3" type="FakeQuantize" version="opset1">
			<data levels="256"/>
			<input>
				<port id="0">
					<dim>1</dim>
					<dim>16</dim>
					<dim>64</dim>
				</port>
				<port id="1"/>
				<port id="2"/>
				<port id="3"/>
				<port id="4"/>
			</input>
			<output>
				<port id="5" precision="FP32">
					<dim>1</dim>
					<dim>16</dim>
					<dim>64</dim>
				</port>
			</output>
		</layer>
		<layer id="324" name="28612865_const" type="Const" version="opset1">
			<data element_type="f32" offset="10546296" shape="" size="4"/>
			<output>
				<port id="1" precision="FP32"/>
			</output>
		</layer>
		<layer id="325" name="28622866_const" type="Const" version="opset1">
			<data element_type="f32" offset="10546300" shape="" size="4"/>
			<output>
				<port id="1" precision="FP32"/>
			</output>
		</layer>
		<layer id="326" name="28632867_const" type="Const" version="opset1">
			<data element_type="f32" offset="10546296" shape="" size="4"/>
			<output>
				<port id="1" precision="FP32"/>
			</output>
		</layer>
		<layer id="327" name="28642868_const" type="Const" version="opset1">
			<data element_type="f32" offset="10546300" shape="" size="4"/>
			<output>
				<port id="1" precision="FP32"/>
			</output>
		</layer>
		<layer id="328" name="571/fq_input_4" type="FakeQuantize" version="opset1">
			<data levels="256"/>
			<input>
				<port id="0">
					<dim>1</dim>
					<dim>16</dim>
					<dim>64</dim>
				</port>
				<port id="1"/>
				<port id="2"/>
				<port id="3"/>
				<port id="4"/>
			</input>
			<output>
				<port id="5" precision="FP32">
					<dim>1</dim>
					<dim>16</dim>
					<dim>64</dim>
				</port>
			</output>
		</layer>
		<layer id="329" name="28712875_const" type="Const" version="opset1">
			<data element_type="f32" offset="10546304" shape="" size="4"/>
			<output>
				<port id="1" precision="FP32"/>
			</output>
		</layer>
		<layer id="330" name="28722876_const" type="Const" version="opset1">
			<data element_type="f32" offset="10546308" shape="" size="4"/>
			<output>
				<port id="1" precision="FP32"/>
			</output>
		</layer>
		<layer id="331" name="28732877_const" type="Const" version="opset1">
			<data element_type="f32" offset="10546304" shape="" size="4"/>
			<output>
				<port id="1" precision="FP32"/>
			</output>
		</layer>
		<layer id="332" name="28742878_const" type="Const" version="opset1">
			<data element_type="f32" offset="10546308" shape="" size="4"/>
			<output>
				<port id="1" precision="FP32"/>
			</output>
		</layer>
		<layer id="333" name="571/fq_input_5" type="FakeQuantize" version="opset1">
			<data levels="256"/>
			<input>
				<port id="0">
					<dim>1</dim>
					<dim>16</dim>
					<dim>64</dim>
				</port>
				<port id="1"/>
				<port id="2"/>
				<port id="3"/>
				<port id="4"/>
			</input>
			<output>
				<port id="5" precision="FP32">
					<dim>1</dim>
					<dim>16</dim>
					<dim>64</dim>
				</port>
			</output>
		</layer>
		<layer id="334" name="28812885_const" type="Const" version="opset1">
			<data element_type="f32" offset="10546312" shape="" size="4"/>
			<output>
				<port id="1" precision="FP32"/>
			</output>
		</layer>
		<layer id="335" name="28822886_const" type="Const" version="opset1">
			<data element_type="f32" offset="10546316" shape="" size="4"/>
			<output>
				<port id="1" precision="FP32"/>
			</output>
		</layer>
		<layer id="336" name="28832887_const" type="Const" version="opset1">
			<data element_type="f32" offset="10546312" shape="" size="4"/>
			<output>
				<port id="1" precision="FP32"/>
			</output>
		</layer>
		<layer id="337" name="28842888_const" type="Const" version="opset1">
			<data element_type="f32" offset="10546316" shape="" size="4"/>
			<output>
				<port id="1" precision="FP32"/>
			</output>
		</layer>
		<layer id="338" name="571/fq_input_6" type="FakeQuantize" version="opset1">
			<data levels="256"/>
			<input>
				<port id="0">
					<dim>1</dim>
					<dim>16</dim>
					<dim>64</dim>
				</port>
				<port id="1"/>
				<port id="2"/>
				<port id="3"/>
				<port id="4"/>
			</input>
			<output>
				<port id="5" precision="FP32">
					<dim>1</dim>
					<dim>16</dim>
					<dim>64</dim>
				</port>
			</output>
		</layer>
		<layer id="339" name="28912895_const" type="Const" version="opset1">
			<data element_type="f32" offset="10546320" shape="" size="4"/>
			<output>
				<port id="1" precision="FP32"/>
			</output>
		</layer>
		<layer id="340" name="28922896_const" type="Const" version="opset1">
			<data element_type="f32" offset="10546324" shape="" size="4"/>
			<output>
				<port id="1" precision="FP32"/>
			</output>
		</layer>
		<layer id="341" name="28932897_const" type="Const" version="opset1">
			<data element_type="f32" offset="10546320" shape="" size="4"/>
			<output>
				<port id="1" precision="FP32"/>
			</output>
		</layer>
		<layer id="342" name="28942898_const" type="Const" version="opset1">
			<data element_type="f32" offset="10546324" shape="" size="4"/>
			<output>
				<port id="1" precision="FP32"/>
			</output>
		</layer>
		<layer id="343" name="571/fq_input_7" type="FakeQuantize" version="opset1">
			<data levels="256"/>
			<input>
				<port id="0">
					<dim>1</dim>
					<dim>16</dim>
					<dim>64</dim>
				</port>
				<port id="1"/>
				<port id="2"/>
				<port id="3"/>
				<port id="4"/>
			</input>
			<output>
				<port id="5" precision="FP32">
					<dim>1</dim>
					<dim>16</dim>
					<dim>64</dim>
				</port>
			</output>
		</layer>
		<layer id="344" name="571" type="Concat" version="opset1">
			<data axis="2"/>
			<input>
				<port id="0">
					<dim>1</dim>
					<dim>16</dim>
					<dim>64</dim>
				</port>
				<port id="1">
					<dim>1</dim>
					<dim>16</dim>
					<dim>64</dim>
				</port>
				<port id="2">
					<dim>1</dim>
					<dim>16</dim>
					<dim>64</dim>
				</port>
				<port id="3">
					<dim>1</dim>
					<dim>16</dim>
					<dim>64</dim>
				</port>
				<port id="4">
					<dim>1</dim>
					<dim>16</dim>
					<dim>64</dim>
				</port>
				<port id="5">
					<dim>1</dim>
					<dim>16</dim>
					<dim>64</dim>
				</port>
				<port id="6">
					<dim>1</dim>
					<dim>16</dim>
					<dim>64</dim>
				</port>
				<port id="7">
					<dim>1</dim>
					<dim>16</dim>
					<dim>64</dim>
				</port>
			</input>
			<output>
				<port id="8" precision="FP32">
					<dim>1</dim>
					<dim>16</dim>
					<dim>512</dim>
				</port>
			</output>
		</layer>
		<layer id="345" name="574" type="Add" version="opset1">
			<input>
				<port id="0">
					<dim>1</dim>
					<dim>16</dim>
					<dim>512</dim>
				</port>
				<port id="1">
					<dim>1</dim>
					<dim>16</dim>
					<dim>512</dim>
				</port>
			</input>
			<output>
				<port id="2" precision="FP32">
					<dim>1</dim>
					<dim>16</dim>
					<dim>512</dim>
				</port>
			</output>
		</layer>
		<layer id="346" name="29012905_const" type="Const" version="opset1">
			<data element_type="f32" offset="10546328" shape="" size="4"/>
			<output>
				<port id="1" precision="FP32"/>
			</output>
		</layer>
		<layer id="347" name="29022906_const" type="Const" version="opset1">
			<data element_type="f32" offset="10546332" shape="" size="4"/>
			<output>
				<port id="1" precision="FP32"/>
			</output>
		</layer>
		<layer id="348" name="29032907_const" type="Const" version="opset1">
			<data element_type="f32" offset="10546328" shape="" size="4"/>
			<output>
				<port id="1" precision="FP32"/>
			</output>
		</layer>
		<layer id="349" name="29042908_const" type="Const" version="opset1">
			<data element_type="f32" offset="10546332" shape="" size="4"/>
			<output>
				<port id="1" precision="FP32"/>
			</output>
		</layer>
		<layer id="350" name="575/fq_input_0" type="FakeQuantize" version="opset1">
			<data levels="256"/>
			<input>
				<port id="0">
					<dim>1</dim>
					<dim>16</dim>
					<dim>512</dim>
				</port>
				<port id="1"/>
				<port id="2"/>
				<port id="3"/>
				<port id="4"/>
			</input>
			<output>
				<port id="5" precision="FP32">
					<dim>1</dim>
					<dim>16</dim>
					<dim>512</dim>
				</port>
			</output>
		</layer>
		<layer id="351" name="575/Cast_18929_const410_const" type="Const" version="opset1">
			<data element_type="i64" offset="2130488" shape="3" size="24"/>
			<output>
				<port id="1" precision="I64">
					<dim>3</dim>
				</port>
			</output>
		</layer>
		<layer id="352" name="575" type="Transpose" version="opset1">
			<input>
				<port id="0">
					<dim>1</dim>
					<dim>16</dim>
					<dim>512</dim>
				</port>
				<port id="1">
					<dim>3</dim>
				</port>
			</input>
			<output>
				<port id="2" precision="FP32">
					<dim>1</dim>
					<dim>512</dim>
					<dim>16</dim>
				</port>
			</output>
		</layer>
		<layer id="353" name="onnx_initializer_node_332/Output_0/Data__const412_const" type="Const" version="opset1">
			<data element_type="f32" offset="10546336" shape="1024,512,1" size="2097152"/>
			<output>
				<port id="1" precision="FP32">
					<dim>1024</dim>
					<dim>512</dim>
					<dim>1</dim>
				</port>
			</output>
		</layer>
		<layer id="354" name="12851289_const" type="Const" version="opset1">
			<data element_type="f32" offset="12643488" shape="1024,1,1" size="4096"/>
			<output>
				<port id="1" precision="FP32">
					<dim>1024</dim>
					<dim>1</dim>
					<dim>1</dim>
				</port>
			</output>
		</layer>
		<layer id="355" name="12861290_const" type="Const" version="opset1">
			<data element_type="f32" offset="12647584" shape="1024,1,1" size="4096"/>
			<output>
				<port id="1" precision="FP32">
					<dim>1024</dim>
					<dim>1</dim>
					<dim>1</dim>
				</port>
			</output>
		</layer>
		<layer id="356" name="12871291_const" type="Const" version="opset1">
			<data element_type="f32" offset="12651680" shape="1024,1,1" size="4096"/>
			<output>
				<port id="1" precision="FP32">
					<dim>1024</dim>
					<dim>1</dim>
					<dim>1</dim>
				</port>
			</output>
		</layer>
		<layer id="357" name="12881292_const" type="Const" version="opset1">
			<data element_type="f32" offset="12655776" shape="1024,1,1" size="4096"/>
			<output>
				<port id="1" precision="FP32">
					<dim>1024</dim>
					<dim>1</dim>
					<dim>1</dim>
				</port>
			</output>
		</layer>
		<layer id="358" name="576/WithoutBiases/fq_weights_1" type="FakeQuantize" version="opset1">
			<data levels="255"/>
			<input>
				<port id="0">
					<dim>1024</dim>
					<dim>512</dim>
					<dim>1</dim>
				</port>
				<port id="1">
					<dim>1024</dim>
					<dim>1</dim>
					<dim>1</dim>
				</port>
				<port id="2">
					<dim>1024</dim>
					<dim>1</dim>
					<dim>1</dim>
				</port>
				<port id="3">
					<dim>1024</dim>
					<dim>1</dim>
					<dim>1</dim>
				</port>
				<port id="4">
					<dim>1024</dim>
					<dim>1</dim>
					<dim>1</dim>
				</port>
			</input>
			<output>
				<port id="5" precision="FP32">
					<dim>1024</dim>
					<dim>512</dim>
					<dim>1</dim>
				</port>
			</output>
		</layer>
		<layer id="359" name="576/WithoutBiases" type="Convolution" version="opset1">
			<data dilations="1" output_padding="0" pads_begin="0" pads_end="0" strides="1"/>
			<input>
				<port id="0">
					<dim>1</dim>
					<dim>512</dim>
					<dim>16</dim>
				</port>
				<port id="1">
					<dim>1024</dim>
					<dim>512</dim>
					<dim>1</dim>
				</port>
			</input>
			<output>
				<port id="2" precision="FP32">
					<dim>1</dim>
					<dim>1024</dim>
					<dim>16</dim>
				</port>
			</output>
		</layer>
		<layer id="360" name="576/Dims3615/copy_const414_const" type="Const" version="opset1">
			<data element_type="f32" offset="12659872" shape="1,1024,1" size="4096"/>
			<output>
				<port id="1" precision="FP32">
					<dim>1</dim>
					<dim>1024</dim>
					<dim>1</dim>
				</port>
			</output>
		</layer>
		<layer id="361" name="576" type="Add" version="opset1">
			<input>
				<port id="0">
					<dim>1</dim>
					<dim>1024</dim>
					<dim>16</dim>
				</port>
				<port id="1">
					<dim>1</dim>
					<dim>1024</dim>
					<dim>1</dim>
				</port>
			</input>
			<output>
				<port id="2" precision="FP32">
					<dim>1</dim>
					<dim>1024</dim>
					<dim>16</dim>
				</port>
			</output>
		</layer>
		<layer id="362" name="577" type="ReLU" version="opset1">
			<input>
				<port id="0">
					<dim>1</dim>
					<dim>1024</dim>
					<dim>16</dim>
				</port>
			</input>
			<output>
				<port id="1" precision="FP32">
					<dim>1</dim>
					<dim>1024</dim>
					<dim>16</dim>
				</port>
			</output>
		</layer>
		<layer id="363" name="15751579_const" type="Const" version="opset1">
			<data element_type="f32" offset="2130536" shape="" size="4"/>
			<output>
				<port id="1" precision="FP32"/>
			</output>
		</layer>
		<layer id="364" name="15761580_const" type="Const" version="opset1">
			<data element_type="f32" offset="12663968" shape="" size="4"/>
			<output>
				<port id="1" precision="FP32"/>
			</output>
		</layer>
		<layer id="365" name="15771581_const" type="Const" version="opset1">
			<data element_type="f32" offset="2130536" shape="" size="4"/>
			<output>
				<port id="1" precision="FP32"/>
			</output>
		</layer>
		<layer id="366" name="15781582_const" type="Const" version="opset1">
			<data element_type="f32" offset="12663968" shape="" size="4"/>
			<output>
				<port id="1" precision="FP32"/>
			</output>
		</layer>
		<layer id="367" name="578/WithoutBiases/fq_input_0" type="FakeQuantize" version="opset1">
			<data levels="256"/>
			<input>
				<port id="0">
					<dim>1</dim>
					<dim>1024</dim>
					<dim>16</dim>
				</port>
				<port id="1"/>
				<port id="2"/>
				<port id="3"/>
				<port id="4"/>
			</input>
			<output>
				<port id="5" precision="FP32">
					<dim>1</dim>
					<dim>1024</dim>
					<dim>16</dim>
				</port>
			</output>
		</layer>
		<layer id="368" name="onnx_initializer_node_334/Output_0/Data__const417_const" type="Const" version="opset1">
			<data element_type="f32" offset="12663972" shape="512,1024,1" size="2097152"/>
			<output>
				<port id="1" precision="FP32">
					<dim>512</dim>
					<dim>1024</dim>
					<dim>1</dim>
				</port>
			</output>
		</layer>
		<layer id="369" name="15851589_const" type="Const" version="opset1">
			<data element_type="f32" offset="14761124" shape="512,1,1" size="2048"/>
			<output>
				<port id="1" precision="FP32">
					<dim>512</dim>
					<dim>1</dim>
					<dim>1</dim>
				</port>
			</output>
		</layer>
		<layer id="370" name="15861590_const" type="Const" version="opset1">
			<data element_type="f32" offset="14763172" shape="512,1,1" size="2048"/>
			<output>
				<port id="1" precision="FP32">
					<dim>512</dim>
					<dim>1</dim>
					<dim>1</dim>
				</port>
			</output>
		</layer>
		<layer id="371" name="15871591_const" type="Const" version="opset1">
			<data element_type="f32" offset="14761124" shape="512,1,1" size="2048"/>
			<output>
				<port id="1" precision="FP32">
					<dim>512</dim>
					<dim>1</dim>
					<dim>1</dim>
				</port>
			</output>
		</layer>
		<layer id="372" name="15881592_const" type="Const" version="opset1">
			<data element_type="f32" offset="14763172" shape="512,1,1" size="2048"/>
			<output>
				<port id="1" precision="FP32">
					<dim>512</dim>
					<dim>1</dim>
					<dim>1</dim>
				</port>
			</output>
		</layer>
		<layer id="373" name="578/WithoutBiases/fq_weights_1" type="FakeQuantize" version="opset1">
			<data levels="255"/>
			<input>
				<port id="0">
					<dim>512</dim>
					<dim>1024</dim>
					<dim>1</dim>
				</port>
				<port id="1">
					<dim>512</dim>
					<dim>1</dim>
					<dim>1</dim>
				</port>
				<port id="2">
					<dim>512</dim>
					<dim>1</dim>
					<dim>1</dim>
				</port>
				<port id="3">
					<dim>512</dim>
					<dim>1</dim>
					<dim>1</dim>
				</port>
				<port id="4">
					<dim>512</dim>
					<dim>1</dim>
					<dim>1</dim>
				</port>
			</input>
			<output>
				<port id="5" precision="FP32">
					<dim>512</dim>
					<dim>1024</dim>
					<dim>1</dim>
				</port>
			</output>
		</layer>
		<layer id="374" name="578/WithoutBiases" type="Convolution" version="opset1">
			<data dilations="1" output_padding="0" pads_begin="0" pads_end="0" strides="1"/>
			<input>
				<port id="0">
					<dim>1</dim>
					<dim>1024</dim>
					<dim>16</dim>
				</port>
				<port id="1">
					<dim>512</dim>
					<dim>1024</dim>
					<dim>1</dim>
				</port>
			</input>
			<output>
				<port id="2" precision="FP32">
					<dim>1</dim>
					<dim>512</dim>
					<dim>16</dim>
				</port>
			</output>
		</layer>
		<layer id="375" name="578/Dims3627/copy_const419_const" type="Const" version="opset1">
			<data element_type="f32" offset="14765220" shape="1,512,1" size="2048"/>
			<output>
				<port id="1" precision="FP32">
					<dim>1</dim>
					<dim>512</dim>
					<dim>1</dim>
				</port>
			</output>
		</layer>
		<layer id="376" name="578" type="Add" version="opset1">
			<input>
				<port id="0">
					<dim>1</dim>
					<dim>512</dim>
					<dim>16</dim>
				</port>
				<port id="1">
					<dim>1</dim>
					<dim>512</dim>
					<dim>1</dim>
				</port>
			</input>
			<output>
				<port id="2" precision="FP32">
					<dim>1</dim>
					<dim>512</dim>
					<dim>16</dim>
				</port>
			</output>
		</layer>
		<layer id="377" name="29112915_const" type="Const" version="opset1">
			<data element_type="f32" offset="14767268" shape="" size="4"/>
			<output>
				<port id="1" precision="FP32"/>
			</output>
		</layer>
		<layer id="378" name="29122916_const" type="Const" version="opset1">
			<data element_type="f32" offset="14767272" shape="" size="4"/>
			<output>
				<port id="1" precision="FP32"/>
			</output>
		</layer>
		<layer id="379" name="29132917_const" type="Const" version="opset1">
			<data element_type="f32" offset="14767268" shape="" size="4"/>
			<output>
				<port id="1" precision="FP32"/>
			</output>
		</layer>
		<layer id="380" name="29142918_const" type="Const" version="opset1">
			<data element_type="f32" offset="14767272" shape="" size="4"/>
			<output>
				<port id="1" precision="FP32"/>
			</output>
		</layer>
		<layer id="381" name="579/fq_input_0" type="FakeQuantize" version="opset1">
			<data levels="256"/>
			<input>
				<port id="0">
					<dim>1</dim>
					<dim>512</dim>
					<dim>16</dim>
				</port>
				<port id="1"/>
				<port id="2"/>
				<port id="3"/>
				<port id="4"/>
			</input>
			<output>
				<port id="5" precision="FP32">
					<dim>1</dim>
					<dim>512</dim>
					<dim>16</dim>
				</port>
			</output>
		</layer>
		<layer id="382" name="579/Cast_18969_const421_const" type="Const" version="opset1">
			<data element_type="i64" offset="2130488" shape="3" size="24"/>
			<output>
				<port id="1" precision="I64">
					<dim>3</dim>
				</port>
			</output>
		</layer>
		<layer id="383" name="579" type="Transpose" version="opset1">
			<input>
				<port id="0">
					<dim>1</dim>
					<dim>512</dim>
					<dim>16</dim>
				</port>
				<port id="1">
					<dim>3</dim>
				</port>
			</input>
			<output>
				<port id="2" precision="FP32">
					<dim>1</dim>
					<dim>16</dim>
					<dim>512</dim>
				</port>
			</output>
		</layer>
		<layer id="384" name="582" type="Add" version="opset1">
			<input>
				<port id="0">
					<dim>1</dim>
					<dim>16</dim>
					<dim>512</dim>
				</port>
				<port id="1">
					<dim>1</dim>
					<dim>16</dim>
					<dim>512</dim>
				</port>
			</input>
			<output>
				<port id="2" precision="FP32">
					<dim>1</dim>
					<dim>16</dim>
					<dim>512</dim>
				</port>
			</output>
		</layer>
		<layer id="385" name="29512955_const" type="Const" version="opset1">
			<data element_type="f32" offset="14767276" shape="" size="4"/>
			<output>
				<port id="1" precision="FP32"/>
			</output>
		</layer>
		<layer id="386" name="29522956_const" type="Const" version="opset1">
			<data element_type="f32" offset="14767280" shape="" size="4"/>
			<output>
				<port id="1" precision="FP32"/>
			</output>
		</layer>
		<layer id="387" name="29532957_const" type="Const" version="opset1">
			<data element_type="f32" offset="14767276" shape="" size="4"/>
			<output>
				<port id="1" precision="FP32"/>
			</output>
		</layer>
		<layer id="388" name="29542958_const" type="Const" version="opset1">
			<data element_type="f32" offset="14767280" shape="" size="4"/>
			<output>
				<port id="1" precision="FP32"/>
			</output>
		</layer>
		<layer id="389" name="596/3D_Tile_Unsqueeze/fq_input_0" type="FakeQuantize" version="opset1">
			<data levels="256"/>
			<input>
				<port id="0">
					<dim>1</dim>
					<dim>16</dim>
					<dim>512</dim>
				</port>
				<port id="1"/>
				<port id="2"/>
				<port id="3"/>
				<port id="4"/>
			</input>
			<output>
				<port id="5" precision="FP32">
					<dim>1</dim>
					<dim>16</dim>
					<dim>512</dim>
				</port>
			</output>
		</layer>
		<layer id="390" name="596/3D_Tile_Unsqueeze_dim6378_const424_const" type="Const" version="opset1">
			<data element_type="i64" offset="32776" shape="1" size="8"/>
			<output>
				<port id="1" precision="I64">
					<dim>1</dim>
				</port>
			</output>
		</layer>
		<layer id="391" name="596/3D_Tile_Unsqueeze" type="Unsqueeze" version="opset1">
			<input>
				<port id="0">
					<dim>1</dim>
					<dim>16</dim>
					<dim>512</dim>
				</port>
				<port id="1">
					<dim>1</dim>
				</port>
			</input>
			<output>
				<port id="2" precision="FP32">
					<dim>1</dim>
					<dim>16</dim>
					<dim>512</dim>
					<dim>1</dim>
				</port>
			</output>
		</layer>
		<layer id="392" name="63806382_const426_const" type="Const" version="opset1">
			<data element_type="i64" offset="32784" shape="4" size="32"/>
			<output>
				<port id="1" precision="I64">
					<dim>4</dim>
				</port>
			</output>
		</layer>
		<layer id="393" name="596" type="Tile" version="opset1">
			<input>
				<port id="0">
					<dim>1</dim>
					<dim>16</dim>
					<dim>512</dim>
					<dim>1</dim>
				</port>
				<port id="1">
					<dim>4</dim>
				</port>
			</input>
			<output>
				<port id="2" precision="FP32">
					<dim>8</dim>
					<dim>16</dim>
					<dim>512</dim>
					<dim>1</dim>
				</port>
			</output>
		</layer>
		<layer id="394" name="596/3D_Tile_Squeeze_dim6385_const428_const" type="Const" version="opset1">
			<data element_type="i64" offset="32776" shape="1" size="8"/>
			<output>
				<port id="1" precision="I64">
					<dim>1</dim>
				</port>
			</output>
		</layer>
		<layer id="395" name="596/3D_Tile_Squeeze" type="Squeeze" version="opset1">
			<input>
				<port id="0">
					<dim>8</dim>
					<dim>16</dim>
					<dim>512</dim>
					<dim>1</dim>
				</port>
				<port id="1">
					<dim>1</dim>
				</port>
			</input>
			<output>
				<port id="2" precision="FP32">
					<dim>8</dim>
					<dim>16</dim>
					<dim>512</dim>
				</port>
			</output>
		</layer>
		<layer id="396" name="603/Cast_18931_const430_const" type="Const" version="opset1">
			<data element_type="i64" offset="32816" shape="3" size="24"/>
			<output>
				<port id="1" precision="I64">
					<dim>3</dim>
				</port>
			</output>
		</layer>
		<layer id="397" name="603" type="Reshape" version="opset1">
			<data special_zero="True"/>
			<input>
				<port id="0">
					<dim>8</dim>
					<dim>16</dim>
					<dim>512</dim>
				</port>
				<port id="1">
					<dim>3</dim>
				</port>
			</input>
			<output>
				<port id="2" precision="FP32">
					<dim>8</dim>
					<dim>16</dim>
					<dim>512</dim>
				</port>
			</output>
		</layer>
		<layer id="398" name="onnx_initializer_node_338/Output_0/Data__const432_const" type="Const" version="opset1">
			<data element_type="f32" offset="14767284" shape="8,64,512" size="1048576"/>
			<output>
				<port id="1" precision="FP32">
					<dim>8</dim>
					<dim>64</dim>
					<dim>512</dim>
				</port>
			</output>
		</layer>
		<layer id="399" name="13851389_const" type="Const" version="opset1">
			<data element_type="f32" offset="15815860" shape="8,1,1" size="32"/>
			<output>
				<port id="1" precision="FP32">
					<dim>8</dim>
					<dim>1</dim>
					<dim>1</dim>
				</port>
			</output>
		</layer>
		<layer id="400" name="13861390_const" type="Const" version="opset1">
			<data element_type="f32" offset="15815892" shape="8,1,1" size="32"/>
			<output>
				<port id="1" precision="FP32">
					<dim>8</dim>
					<dim>1</dim>
					<dim>1</dim>
				</port>
			</output>
		</layer>
		<layer id="401" name="13871391_const" type="Const" version="opset1">
			<data element_type="f32" offset="15815860" shape="8,1,1" size="32"/>
			<output>
				<port id="1" precision="FP32">
					<dim>8</dim>
					<dim>1</dim>
					<dim>1</dim>
				</port>
			</output>
		</layer>
		<layer id="402" name="13881392_const" type="Const" version="opset1">
			<data element_type="f32" offset="15815892" shape="8,1,1" size="32"/>
			<output>
				<port id="1" precision="FP32">
					<dim>8</dim>
					<dim>1</dim>
					<dim>1</dim>
				</port>
			</output>
		</layer>
		<layer id="403" name="622/fq_weights_1" type="FakeQuantize" version="opset1">
			<data levels="255"/>
			<input>
				<port id="0">
					<dim>8</dim>
					<dim>64</dim>
					<dim>512</dim>
				</port>
				<port id="1">
					<dim>8</dim>
					<dim>1</dim>
					<dim>1</dim>
				</port>
				<port id="2">
					<dim>8</dim>
					<dim>1</dim>
					<dim>1</dim>
				</port>
				<port id="3">
					<dim>8</dim>
					<dim>1</dim>
					<dim>1</dim>
				</port>
				<port id="4">
					<dim>8</dim>
					<dim>1</dim>
					<dim>1</dim>
				</port>
			</input>
			<output>
				<port id="5" precision="FP32">
					<dim>8</dim>
					<dim>64</dim>
					<dim>512</dim>
				</port>
			</output>
		</layer>
		<layer id="404" name="622" type="MatMul" version="opset1">
			<data transpose_a="False" transpose_b="True"/>
			<input>
				<port id="0">
					<dim>8</dim>
					<dim>16</dim>
					<dim>512</dim>
				</port>
				<port id="1">
					<dim>8</dim>
					<dim>64</dim>
					<dim>512</dim>
				</port>
			</input>
			<output>
				<port id="2" precision="FP32">
					<dim>8</dim>
					<dim>16</dim>
					<dim>64</dim>
				</port>
			</output>
		</layer>
		<layer id="405" name="744746_const" type="Const" version="opset1">
			<data element_type="f32" offset="1081480" shape="1,16,1" size="64"/>
			<output>
				<port id="1" precision="FP32">
					<dim>1</dim>
					<dim>16</dim>
					<dim>1</dim>
				</port>
			</output>
		</layer>
		<layer id="406" name="622/add_" type="Add" version="opset1">
			<input>
				<port id="0">
					<dim>8</dim>
					<dim>16</dim>
					<dim>64</dim>
				</port>
				<port id="1">
					<dim>1</dim>
					<dim>16</dim>
					<dim>1</dim>
				</port>
			</input>
			<output>
				<port id="2" precision="FP32">
					<dim>8</dim>
					<dim>16</dim>
					<dim>64</dim>
				</port>
			</output>
		</layer>
		<layer id="407" name="30413045_const" type="Const" version="opset1">
			<data element_type="f32" offset="15815924" shape="" size="4"/>
			<output>
				<port id="1" precision="FP32"/>
			</output>
		</layer>
		<layer id="408" name="30423046_const" type="Const" version="opset1">
			<data element_type="f32" offset="15815928" shape="" size="4"/>
			<output>
				<port id="1" precision="FP32"/>
			</output>
		</layer>
		<layer id="409" name="30433047_const" type="Const" version="opset1">
			<data element_type="f32" offset="15815924" shape="" size="4"/>
			<output>
				<port id="1" precision="FP32"/>
			</output>
		</layer>
		<layer id="410" name="30443048_const" type="Const" version="opset1">
			<data element_type="f32" offset="15815928" shape="" size="4"/>
			<output>
				<port id="1" precision="FP32"/>
			</output>
		</layer>
		<layer id="411" name="629/fq_input_0" type="FakeQuantize" version="opset1">
			<data levels="256"/>
			<input>
				<port id="0">
					<dim>8</dim>
					<dim>16</dim>
					<dim>64</dim>
				</port>
				<port id="1"/>
				<port id="2"/>
				<port id="3"/>
				<port id="4"/>
			</input>
			<output>
				<port id="5" precision="FP32">
					<dim>8</dim>
					<dim>16</dim>
					<dim>64</dim>
				</port>
			</output>
		</layer>
		<layer id="412" name="629/Cast_18951_const434_const" type="Const" version="opset1">
			<data element_type="i64" offset="1081552" shape="3" size="24"/>
			<output>
				<port id="1" precision="I64">
					<dim>3</dim>
				</port>
			</output>
		</layer>
		<layer id="413" name="629" type="Reshape" version="opset1">
			<data special_zero="True"/>
			<input>
				<port id="0">
					<dim>8</dim>
					<dim>16</dim>
					<dim>64</dim>
				</port>
				<port id="1">
					<dim>3</dim>
				</port>
			</input>
			<output>
				<port id="2" precision="FP32">
					<dim>8</dim>
					<dim>16</dim>
					<dim>64</dim>
				</port>
			</output>
		</layer>
		<layer id="414" name="48564858/copy_const436_const" type="Const" version="opset1">
			<data element_type="f32" offset="1081576" shape="1,64,1" size="256"/>
			<output>
				<port id="1" precision="FP32">
					<dim>1</dim>
					<dim>64</dim>
					<dim>1</dim>
				</port>
			</output>
		</layer>
		<layer id="415" name="14151419_const" type="Const" version="opset1">
			<data element_type="f32" offset="1081832" shape="1,1,1" size="4"/>
			<output>
				<port id="1" precision="FP32">
					<dim>1</dim>
					<dim>1</dim>
					<dim>1</dim>
				</port>
			</output>
		</layer>
		<layer id="416" name="14161420_const" type="Const" version="opset1">
			<data element_type="f32" offset="1081836" shape="1,1,1" size="4"/>
			<output>
				<port id="1" precision="FP32">
					<dim>1</dim>
					<dim>1</dim>
					<dim>1</dim>
				</port>
			</output>
		</layer>
		<layer id="417" name="14171421_const" type="Const" version="opset1">
			<data element_type="f32" offset="1081832" shape="1,1,1" size="4"/>
			<output>
				<port id="1" precision="FP32">
					<dim>1</dim>
					<dim>1</dim>
					<dim>1</dim>
				</port>
			</output>
		</layer>
		<layer id="418" name="14181422_const" type="Const" version="opset1">
			<data element_type="f32" offset="1081836" shape="1,1,1" size="4"/>
			<output>
				<port id="1" precision="FP32">
					<dim>1</dim>
					<dim>1</dim>
					<dim>1</dim>
				</port>
			</output>
		</layer>
		<layer id="419" name="649/mul_4857/fq_input_0" type="FakeQuantize" version="opset1">
			<data levels="255"/>
			<input>
				<port id="0">
					<dim>1</dim>
					<dim>64</dim>
					<dim>1</dim>
				</port>
				<port id="1">
					<dim>1</dim>
					<dim>1</dim>
					<dim>1</dim>
				</port>
				<port id="2">
					<dim>1</dim>
					<dim>1</dim>
					<dim>1</dim>
				</port>
				<port id="3">
					<dim>1</dim>
					<dim>1</dim>
					<dim>1</dim>
				</port>
				<port id="4">
					<dim>1</dim>
					<dim>1</dim>
					<dim>1</dim>
				</port>
			</input>
			<output>
				<port id="5" precision="FP32">
					<dim>1</dim>
					<dim>64</dim>
					<dim>1</dim>
				</port>
			</output>
		</layer>
		<layer id="420" name="605/3D_Tile_Unsqueeze_dim6390_const437_const" type="Const" version="opset1">
			<data element_type="i64" offset="32776" shape="1" size="8"/>
			<output>
				<port id="1" precision="I64">
					<dim>1</dim>
				</port>
			</output>
		</layer>
		<layer id="421" name="605/3D_Tile_Unsqueeze" type="Unsqueeze" version="opset1">
			<input>
				<port id="0">
					<dim>1</dim>
					<dim>16</dim>
					<dim>512</dim>
				</port>
				<port id="1">
					<dim>1</dim>
				</port>
			</input>
			<output>
				<port id="2" precision="FP32">
					<dim>1</dim>
					<dim>16</dim>
					<dim>512</dim>
					<dim>1</dim>
				</port>
			</output>
		</layer>
		<layer id="422" name="63926394_const439_const" type="Const" version="opset1">
			<data element_type="i64" offset="32784" shape="4" size="32"/>
			<output>
				<port id="1" precision="I64">
					<dim>4</dim>
				</port>
			</output>
		</layer>
		<layer id="423" name="605" type="Tile" version="opset1">
			<input>
				<port id="0">
					<dim>1</dim>
					<dim>16</dim>
					<dim>512</dim>
					<dim>1</dim>
				</port>
				<port id="1">
					<dim>4</dim>
				</port>
			</input>
			<output>
				<port id="2" precision="FP32">
					<dim>8</dim>
					<dim>16</dim>
					<dim>512</dim>
					<dim>1</dim>
				</port>
			</output>
		</layer>
		<layer id="424" name="605/3D_Tile_Squeeze_dim6397_const441_const" type="Const" version="opset1">
			<data element_type="i64" offset="32776" shape="1" size="8"/>
			<output>
				<port id="1" precision="I64">
					<dim>1</dim>
				</port>
			</output>
		</layer>
		<layer id="425" name="605/3D_Tile_Squeeze" type="Squeeze" version="opset1">
			<input>
				<port id="0">
					<dim>8</dim>
					<dim>16</dim>
					<dim>512</dim>
					<dim>1</dim>
				</port>
				<port id="1">
					<dim>1</dim>
				</port>
			</input>
			<output>
				<port id="2" precision="FP32">
					<dim>8</dim>
					<dim>16</dim>
					<dim>512</dim>
				</port>
			</output>
		</layer>
		<layer id="426" name="612/Cast_18961_const443_const" type="Const" version="opset1">
			<data element_type="i64" offset="32816" shape="3" size="24"/>
			<output>
				<port id="1" precision="I64">
					<dim>3</dim>
				</port>
			</output>
		</layer>
		<layer id="427" name="612" type="Reshape" version="opset1">
			<data special_zero="True"/>
			<input>
				<port id="0">
					<dim>8</dim>
					<dim>16</dim>
					<dim>512</dim>
				</port>
				<port id="1">
					<dim>3</dim>
				</port>
			</input>
			<output>
				<port id="2" precision="FP32">
					<dim>8</dim>
					<dim>16</dim>
					<dim>512</dim>
				</port>
			</output>
		</layer>
		<layer id="428" name="onnx_initializer_node_339/Output_0/Data__const445_const" type="Const" version="opset1">
			<data element_type="f32" offset="15815932" shape="8,64,512" size="1048576"/>
			<output>
				<port id="1" precision="FP32">
					<dim>8</dim>
					<dim>64</dim>
					<dim>512</dim>
				</port>
			</output>
		</layer>
		<layer id="429" name="16951699_const" type="Const" version="opset1">
			<data element_type="f32" offset="16864508" shape="8,1,1" size="32"/>
			<output>
				<port id="1" precision="FP32">
					<dim>8</dim>
					<dim>1</dim>
					<dim>1</dim>
				</port>
			</output>
		</layer>
		<layer id="430" name="16961700_const" type="Const" version="opset1">
			<data element_type="f32" offset="16864540" shape="8,1,1" size="32"/>
			<output>
				<port id="1" precision="FP32">
					<dim>8</dim>
					<dim>1</dim>
					<dim>1</dim>
				</port>
			</output>
		</layer>
		<layer id="431" name="16971701_const" type="Const" version="opset1">
			<data element_type="f32" offset="16864508" shape="8,1,1" size="32"/>
			<output>
				<port id="1" precision="FP32">
					<dim>8</dim>
					<dim>1</dim>
					<dim>1</dim>
				</port>
			</output>
		</layer>
		<layer id="432" name="16981702_const" type="Const" version="opset1">
			<data element_type="f32" offset="16864540" shape="8,1,1" size="32"/>
			<output>
				<port id="1" precision="FP32">
					<dim>8</dim>
					<dim>1</dim>
					<dim>1</dim>
				</port>
			</output>
		</layer>
		<layer id="433" name="630/fq_weights_1" type="FakeQuantize" version="opset1">
			<data levels="255"/>
			<input>
				<port id="0">
					<dim>8</dim>
					<dim>64</dim>
					<dim>512</dim>
				</port>
				<port id="1">
					<dim>8</dim>
					<dim>1</dim>
					<dim>1</dim>
				</port>
				<port id="2">
					<dim>8</dim>
					<dim>1</dim>
					<dim>1</dim>
				</port>
				<port id="3">
					<dim>8</dim>
					<dim>1</dim>
					<dim>1</dim>
				</port>
				<port id="4">
					<dim>8</dim>
					<dim>1</dim>
					<dim>1</dim>
				</port>
			</input>
			<output>
				<port id="5" precision="FP32">
					<dim>8</dim>
					<dim>64</dim>
					<dim>512</dim>
				</port>
			</output>
		</layer>
		<layer id="434" name="630" type="MatMul" version="opset1">
			<data transpose_a="False" transpose_b="True"/>
			<input>
				<port id="0">
					<dim>8</dim>
					<dim>16</dim>
					<dim>512</dim>
				</port>
				<port id="1">
					<dim>8</dim>
					<dim>64</dim>
					<dim>512</dim>
				</port>
			</input>
			<output>
				<port id="2" precision="FP32">
					<dim>8</dim>
					<dim>16</dim>
					<dim>64</dim>
				</port>
			</output>
		</layer>
		<layer id="435" name="748750_const" type="Const" version="opset1">
			<data element_type="f32" offset="1081480" shape="1,16,1" size="64"/>
			<output>
				<port id="1" precision="FP32">
					<dim>1</dim>
					<dim>16</dim>
					<dim>1</dim>
				</port>
			</output>
		</layer>
		<layer id="436" name="630/add_" type="Add" version="opset1">
			<input>
				<port id="0">
					<dim>8</dim>
					<dim>16</dim>
					<dim>64</dim>
				</port>
				<port id="1">
					<dim>1</dim>
					<dim>16</dim>
					<dim>1</dim>
				</port>
			</input>
			<output>
				<port id="2" precision="FP32">
					<dim>8</dim>
					<dim>16</dim>
					<dim>64</dim>
				</port>
			</output>
		</layer>
		<layer id="437" name="30613065_const" type="Const" version="opset1">
			<data element_type="f32" offset="16864572" shape="" size="4"/>
			<output>
				<port id="1" precision="FP32"/>
			</output>
		</layer>
		<layer id="438" name="30623066_const" type="Const" version="opset1">
			<data element_type="f32" offset="16864576" shape="" size="4"/>
			<output>
				<port id="1" precision="FP32"/>
			</output>
		</layer>
		<layer id="439" name="30633067_const" type="Const" version="opset1">
			<data element_type="f32" offset="16864572" shape="" size="4"/>
			<output>
				<port id="1" precision="FP32"/>
			</output>
		</layer>
		<layer id="440" name="30643068_const" type="Const" version="opset1">
			<data element_type="f32" offset="16864576" shape="" size="4"/>
			<output>
				<port id="1" precision="FP32"/>
			</output>
		</layer>
		<layer id="441" name="637/fq_input_0" type="FakeQuantize" version="opset1">
			<data levels="256"/>
			<input>
				<port id="0">
					<dim>8</dim>
					<dim>16</dim>
					<dim>64</dim>
				</port>
				<port id="1"/>
				<port id="2"/>
				<port id="3"/>
				<port id="4"/>
			</input>
			<output>
				<port id="5" precision="FP32">
					<dim>8</dim>
					<dim>16</dim>
					<dim>64</dim>
				</port>
			</output>
		</layer>
		<layer id="442" name="637/Cast_18983_const447_const" type="Const" version="opset1">
			<data element_type="i64" offset="1081552" shape="3" size="24"/>
			<output>
				<port id="1" precision="I64">
					<dim>3</dim>
				</port>
			</output>
		</layer>
		<layer id="443" name="637" type="Reshape" version="opset1">
			<data special_zero="True"/>
			<input>
				<port id="0">
					<dim>8</dim>
					<dim>16</dim>
					<dim>64</dim>
				</port>
				<port id="1">
					<dim>3</dim>
				</port>
			</input>
			<output>
				<port id="2" precision="FP32">
					<dim>8</dim>
					<dim>16</dim>
					<dim>64</dim>
				</port>
			</output>
		</layer>
		<layer id="444" name="646/Cast_18977_const449_const" type="Const" version="opset1">
			<data element_type="i64" offset="2130488" shape="3" size="24"/>
			<output>
				<port id="1" precision="I64">
					<dim>3</dim>
				</port>
			</output>
		</layer>
		<layer id="445" name="646" type="Transpose" version="opset1">
			<input>
				<port id="0">
					<dim>8</dim>
					<dim>16</dim>
					<dim>64</dim>
				</port>
				<port id="1">
					<dim>3</dim>
				</port>
			</input>
			<output>
				<port id="2" precision="FP32">
					<dim>8</dim>
					<dim>64</dim>
					<dim>16</dim>
				</port>
			</output>
		</layer>
		<layer id="446" name="649/mul_4857" type="Multiply" version="opset1">
			<input>
				<port id="0">
					<dim>1</dim>
					<dim>64</dim>
					<dim>1</dim>
				</port>
				<port id="1">
					<dim>8</dim>
					<dim>64</dim>
					<dim>16</dim>
				</port>
			</input>
			<output>
				<port id="2" precision="FP32">
					<dim>8</dim>
					<dim>64</dim>
					<dim>16</dim>
				</port>
			</output>
		</layer>
		<layer id="447" name="17351739_const" type="Const" version="opset1">
			<data element_type="f32" offset="16864580" shape="" size="4"/>
			<output>
				<port id="1" precision="FP32"/>
			</output>
		</layer>
		<layer id="448" name="17361740_const" type="Const" version="opset1">
			<data element_type="f32" offset="16864584" shape="" size="4"/>
			<output>
				<port id="1" precision="FP32"/>
			</output>
		</layer>
		<layer id="449" name="17371741_const" type="Const" version="opset1">
			<data element_type="f32" offset="16864580" shape="" size="4"/>
			<output>
				<port id="1" precision="FP32"/>
			</output>
		</layer>
		<layer id="450" name="17381742_const" type="Const" version="opset1">
			<data element_type="f32" offset="16864584" shape="" size="4"/>
			<output>
				<port id="1" precision="FP32"/>
			</output>
		</layer>
		<layer id="451" name="647/fq_weights_1" type="FakeQuantize" version="opset1">
			<data levels="256"/>
			<input>
				<port id="0">
					<dim>8</dim>
					<dim>64</dim>
					<dim>16</dim>
				</port>
				<port id="1"/>
				<port id="2"/>
				<port id="3"/>
				<port id="4"/>
			</input>
			<output>
				<port id="5" precision="FP32">
					<dim>8</dim>
					<dim>64</dim>
					<dim>16</dim>
				</port>
			</output>
		</layer>
		<layer id="452" name="647" type="MatMul" version="opset1">
			<data transpose_a="False" transpose_b="False"/>
			<input>
				<port id="0">
					<dim>8</dim>
					<dim>16</dim>
					<dim>64</dim>
				</port>
				<port id="1">
					<dim>8</dim>
					<dim>64</dim>
					<dim>16</dim>
				</port>
			</input>
			<output>
				<port id="2" precision="FP32">
					<dim>8</dim>
					<dim>16</dim>
					<dim>16</dim>
				</port>
			</output>
		</layer>
		<layer id="453" name="752754_const" type="Const" version="opset1">
			<data element_type="f32" offset="1081480" shape="1,16,1" size="64"/>
			<output>
				<port id="1" precision="FP32">
					<dim>1</dim>
					<dim>16</dim>
					<dim>1</dim>
				</port>
			</output>
		</layer>
		<layer id="454" name="647/add_" type="Add" version="opset1">
			<input>
				<port id="0">
					<dim>8</dim>
					<dim>16</dim>
					<dim>16</dim>
				</port>
				<port id="1">
					<dim>1</dim>
					<dim>16</dim>
					<dim>1</dim>
				</port>
			</input>
			<output>
				<port id="2" precision="FP32">
					<dim>8</dim>
					<dim>16</dim>
					<dim>16</dim>
				</port>
			</output>
		</layer>
		<layer id="455" name="661/Cast_18921_const453_const" type="Const" version="opset1">
			<data element_type="i64" offset="2130520" shape="2" size="16"/>
			<output>
				<port id="1" precision="I64">
					<dim>2</dim>
				</port>
			</output>
		</layer>
		<layer id="456" name="661" type="Reshape" version="opset1">
			<data special_zero="True"/>
			<input>
				<port id="0">
					<dim>8</dim>
					<dim>16</dim>
					<dim>16</dim>
				</port>
				<port id="1">
					<dim>2</dim>
				</port>
			</input>
			<output>
				<port id="2" precision="FP32">
					<dim>128</dim>
					<dim>16</dim>
				</port>
			</output>
		</layer>
		<layer id="457" name="662" type="SoftMax" version="opset1">
			<data axis="1"/>
			<input>
				<port id="0">
					<dim>128</dim>
					<dim>16</dim>
				</port>
			</input>
			<output>
				<port id="1" precision="FP32">
					<dim>128</dim>
					<dim>16</dim>
				</port>
			</output>
		</layer>
		<layer id="458" name="30713075_const" type="Const" version="opset1">
			<data element_type="f32" offset="2130536" shape="" size="4"/>
			<output>
				<port id="1" precision="FP32"/>
			</output>
		</layer>
		<layer id="459" name="30723076_const" type="Const" version="opset1">
			<data element_type="f32" offset="16864588" shape="" size="4"/>
			<output>
				<port id="1" precision="FP32"/>
			</output>
		</layer>
		<layer id="460" name="30733077_const" type="Const" version="opset1">
			<data element_type="f32" offset="2130536" shape="" size="4"/>
			<output>
				<port id="1" precision="FP32"/>
			</output>
		</layer>
		<layer id="461" name="30743078_const" type="Const" version="opset1">
			<data element_type="f32" offset="16864588" shape="" size="4"/>
			<output>
				<port id="1" precision="FP32"/>
			</output>
		</layer>
		<layer id="462" name="668/fq_input_0" type="FakeQuantize" version="opset1">
			<data levels="256"/>
			<input>
				<port id="0">
					<dim>128</dim>
					<dim>16</dim>
				</port>
				<port id="1"/>
				<port id="2"/>
				<port id="3"/>
				<port id="4"/>
			</input>
			<output>
				<port id="5" precision="FP32">
					<dim>128</dim>
					<dim>16</dim>
				</port>
			</output>
		</layer>
		<layer id="463" name="668/Cast_18933_const456_const" type="Const" version="opset1">
			<data element_type="i64" offset="2130544" shape="3" size="24"/>
			<output>
				<port id="1" precision="I64">
					<dim>3</dim>
				</port>
			</output>
		</layer>
		<layer id="464" name="668" type="Reshape" version="opset1">
			<data special_zero="True"/>
			<input>
				<port id="0">
					<dim>128</dim>
					<dim>16</dim>
				</port>
				<port id="1">
					<dim>3</dim>
				</port>
			</input>
			<output>
				<port id="2" precision="FP32">
					<dim>8</dim>
					<dim>16</dim>
					<dim>16</dim>
				</port>
			</output>
		</layer>
		<layer id="465" name="614/3D_Tile_Unsqueeze_dim6318_const458_const" type="Const" version="opset1">
			<data element_type="i64" offset="32776" shape="1" size="8"/>
			<output>
				<port id="1" precision="I64">
					<dim>1</dim>
				</port>
			</output>
		</layer>
		<layer id="466" name="614/3D_Tile_Unsqueeze" type="Unsqueeze" version="opset1">
			<input>
				<port id="0">
					<dim>1</dim>
					<dim>16</dim>
					<dim>512</dim>
				</port>
				<port id="1">
					<dim>1</dim>
				</port>
			</input>
			<output>
				<port id="2" precision="FP32">
					<dim>1</dim>
					<dim>16</dim>
					<dim>512</dim>
					<dim>1</dim>
				</port>
			</output>
		</layer>
		<layer id="467" name="63206322_const460_const" type="Const" version="opset1">
			<data element_type="i64" offset="32784" shape="4" size="32"/>
			<output>
				<port id="1" precision="I64">
					<dim>4</dim>
				</port>
			</output>
		</layer>
		<layer id="468" name="614" type="Tile" version="opset1">
			<input>
				<port id="0">
					<dim>1</dim>
					<dim>16</dim>
					<dim>512</dim>
					<dim>1</dim>
				</port>
				<port id="1">
					<dim>4</dim>
				</port>
			</input>
			<output>
				<port id="2" precision="FP32">
					<dim>8</dim>
					<dim>16</dim>
					<dim>512</dim>
					<dim>1</dim>
				</port>
			</output>
		</layer>
		<layer id="469" name="614/3D_Tile_Squeeze_dim6325_const462_const" type="Const" version="opset1">
			<data element_type="i64" offset="32776" shape="1" size="8"/>
			<output>
				<port id="1" precision="I64">
					<dim>1</dim>
				</port>
			</output>
		</layer>
		<layer id="470" name="614/3D_Tile_Squeeze" type="Squeeze" version="opset1">
			<input>
				<port id="0">
					<dim>8</dim>
					<dim>16</dim>
					<dim>512</dim>
					<dim>1</dim>
				</port>
				<port id="1">
					<dim>1</dim>
				</port>
			</input>
			<output>
				<port id="2" precision="FP32">
					<dim>8</dim>
					<dim>16</dim>
					<dim>512</dim>
				</port>
			</output>
		</layer>
		<layer id="471" name="621/Cast_18905_const464_const" type="Const" version="opset1">
			<data element_type="i64" offset="32816" shape="3" size="24"/>
			<output>
				<port id="1" precision="I64">
					<dim>3</dim>
				</port>
			</output>
		</layer>
		<layer id="472" name="621" type="Reshape" version="opset1">
			<data special_zero="True"/>
			<input>
				<port id="0">
					<dim>8</dim>
					<dim>16</dim>
					<dim>512</dim>
				</port>
				<port id="1">
					<dim>3</dim>
				</port>
			</input>
			<output>
				<port id="2" precision="FP32">
					<dim>8</dim>
					<dim>16</dim>
					<dim>512</dim>
				</port>
			</output>
		</layer>
		<layer id="473" name="onnx_initializer_node_340/Output_0/Data__const466_const" type="Const" version="opset1">
			<data element_type="f32" offset="16864592" shape="8,64,512" size="1048576"/>
			<output>
				<port id="1" precision="FP32">
					<dim>8</dim>
					<dim>64</dim>
					<dim>512</dim>
				</port>
			</output>
		</layer>
		<layer id="474" name="18951899_const" type="Const" version="opset1">
			<data element_type="f32" offset="17913168" shape="8,1,1" size="32"/>
			<output>
				<port id="1" precision="FP32">
					<dim>8</dim>
					<dim>1</dim>
					<dim>1</dim>
				</port>
			</output>
		</layer>
		<layer id="475" name="18961900_const" type="Const" version="opset1">
			<data element_type="f32" offset="17913200" shape="8,1,1" size="32"/>
			<output>
				<port id="1" precision="FP32">
					<dim>8</dim>
					<dim>1</dim>
					<dim>1</dim>
				</port>
			</output>
		</layer>
		<layer id="476" name="18971901_const" type="Const" version="opset1">
			<data element_type="f32" offset="17913168" shape="8,1,1" size="32"/>
			<output>
				<port id="1" precision="FP32">
					<dim>8</dim>
					<dim>1</dim>
					<dim>1</dim>
				</port>
			</output>
		</layer>
		<layer id="477" name="18981902_const" type="Const" version="opset1">
			<data element_type="f32" offset="17913200" shape="8,1,1" size="32"/>
			<output>
				<port id="1" precision="FP32">
					<dim>8</dim>
					<dim>1</dim>
					<dim>1</dim>
				</port>
			</output>
		</layer>
		<layer id="478" name="638/fq_weights_1" type="FakeQuantize" version="opset1">
			<data levels="255"/>
			<input>
				<port id="0">
					<dim>8</dim>
					<dim>64</dim>
					<dim>512</dim>
				</port>
				<port id="1">
					<dim>8</dim>
					<dim>1</dim>
					<dim>1</dim>
				</port>
				<port id="2">
					<dim>8</dim>
					<dim>1</dim>
					<dim>1</dim>
				</port>
				<port id="3">
					<dim>8</dim>
					<dim>1</dim>
					<dim>1</dim>
				</port>
				<port id="4">
					<dim>8</dim>
					<dim>1</dim>
					<dim>1</dim>
				</port>
			</input>
			<output>
				<port id="5" precision="FP32">
					<dim>8</dim>
					<dim>64</dim>
					<dim>512</dim>
				</port>
			</output>
		</layer>
		<layer id="479" name="638" type="MatMul" version="opset1">
			<data transpose_a="False" transpose_b="True"/>
			<input>
…
		<edge from-layer="132" from-port="5" to-layer="153" to-port="3"/>
		<edge from-layer="137" from-port="5" to-layer="153" to-port="4"/>
		<edge from-layer="142" from-port="5" to-layer="153" to-port="5"/>
		<edge from-layer="147" from-port="5" to-layer="153" to-port="6"/>
		<edge from-layer="152" from-port="5" to-layer="153" to-port="7"/>
		<edge from-layer="153" from-port="8" to-layer="154" to-port="0"/>
		<edge from-layer="7" from-port="5" to-layer="154" to-port="1"/>
		<edge from-layer="154" from-port="2" to-layer="159" to-port="0"/>
		<edge from-layer="155" from-port="1" to-layer="159" to-port="1"/>
		<edge from-layer="156" from-port="1" to-layer="159" to-port="2"/>
		<edge from-layer="157" from-port="1" to-layer="159" to-port="3"/>
		<edge from-layer="158" from-port="1" to-layer="159" to-port="4"/>
		<edge from-layer="159" from-port="5" to-layer="161" to-port="0"/>
		<edge from-layer="160" from-port="1" to-layer="161" to-port="1"/>
		<edge from-layer="162" from-port="1" to-layer="167" to-port="0"/>
		<edge from-layer="163" from-port="1" to-layer="167" to-port="1"/>
		<edge from-layer="164" from-port="1" to-layer="167" to-port="2"/>
		<edge from-layer="165" from-port="1" to-layer="167" to-port="3"/>
		<edge from-layer="166" from-port="1" to-layer="167" to-port="4"/>
		<edge from-layer="161" from-port="2" to-layer="168" to-port="0"/>
		<edge from-layer="167" from-port="5" to-layer="168" to-port="1"/>
		<edge from-layer="168" from-port="2" to-layer="170" to-port="0"/>
		<edge from-layer="169" from-port="1" to-layer="170" to-port="1"/>
		<edge from-layer="170" from-port="2" to-layer="171" to-port="0"/>
		<edge from-layer="171" from-port="1" to-layer="176" to-port="0"/>
		<edge from-layer="172" from-port="1" to-layer="176" to-port="1"/>
		<edge from-layer="173" from-port="1" to-layer="176" to-port="2"/>
		<edge from-layer="174" from-port="1" to-layer="176" to-port="3"/>
		<edge from-layer="175" from-port="1" to-layer="176" to-port="4"/>
		<edge from-layer="177" from-port="1" to-layer="182" to-port="0"/>
		<edge from-layer="178" from-port="1" to-layer="182" to-port="1"/>
		<edge from-layer="179" from-port="1" to-layer="182" to-port="2"/>
		<edge from-layer="180" from-port="1" to-layer="182" to-port="3"/>
		<edge from-layer="181" from-port="1" to-layer="182" to-port="4"/>
		<edge from-layer="176" from-port="5" to-layer="183" to-port="0"/>
		<edge from-layer="182" from-port="5" to-layer="183" to-port="1"/>
		<edge from-layer="183" from-port="2" to-layer="185" to-port="0"/>
		<edge from-layer="184" from-port="1" to-layer="185" to-port="1"/>
		<edge from-layer="185" from-port="2" to-layer="190" to-port="0"/>
		<edge from-layer="186" from-port="1" to-layer="190" to-port="1"/>
		<edge from-layer="187" from-port="1" to-layer="190" to-port="2"/>
		<edge from-layer="188" from-port="1" to-layer="190" to-port="3"/>
		<edge from-layer="189" from-port="1" to-layer="190" to-port="4"/>
		<edge from-layer="190" from-port="5" to-layer="192" to-port="0"/>
		<edge from-layer="191" from-port="1" to-layer="192" to-port="1"/>
		<edge from-layer="192" from-port="2" to-layer="193" to-port="0"/>
		<edge from-layer="159" from-port="5" to-layer="193" to-port="1"/>
		<edge from-layer="193" from-port="2" to-layer="198" to-port="0"/>
		<edge from-layer="194" from-port="1" to-layer="198" to-port="1"/>
		<edge from-layer="195" from-port="1" to-layer="198" to-port="2"/>
		<edge from-layer="196" from-port="1" to-layer="198" to-port="3"/>
		<edge from-layer="197" from-port="1" to-layer="198" to-port="4"/>
		<edge from-layer="198" from-port="5" to-layer="200" to-port="0"/>
		<edge from-layer="199" from-port="1" to-layer="200" to-port="1"/>
		<edge from-layer="200" from-port="2" to-layer="202" to-port="0"/>
		<edge from-layer="201" from-port="1" to-layer="202" to-port="1"/>
		<edge from-layer="202" from-port="2" to-layer="204" to-port="0"/>
		<edge from-layer="203" from-port="1" to-layer="204" to-port="1"/>
		<edge from-layer="204" from-port="2" to-layer="206" to-port="0"/>
		<edge from-layer="205" from-port="1" to-layer="206" to-port="1"/>
		<edge from-layer="207" from-port="1" to-layer="212" to-port="0"/>
		<edge from-layer="208" from-port="1" to-layer="212" to-port="1"/>
		<edge from-layer="209" from-port="1" to-layer="212" to-port="2"/>
		<edge from-layer="210" from-port="1" to-layer="212" to-port="3"/>
		<edge from-layer="211" from-port="1" to-layer="212" to-port="4"/>
		<edge from-layer="206" from-port="2" to-layer="213" to-port="0"/>
		<edge from-layer="212" from-port="5" to-layer="213" to-port="1"/>
		<edge from-layer="213" from-port="2" to-layer="215" to-port="0"/>
		<edge from-layer="214" from-port="1" to-layer="215" to-port="1"/>
		<edge from-layer="215" from-port="2" to-layer="220" to-port="0"/>
		<edge from-layer="216" from-port="1" to-layer="220" to-port="1"/>
		<edge from-layer="217" from-port="1" to-layer="220" to-port="2"/>
		<edge from-layer="218" from-port="1" to-layer="220" to-port="3"/>
		<edge from-layer="219" from-port="1" to-layer="220" to-port="4"/>
		<edge from-layer="220" from-port="5" to-layer="222" to-port="0"/>
		<edge from-layer="221" from-port="1" to-layer="222" to-port="1"/>
		<edge from-layer="223" from-port="1" to-layer="228" to-port="0"/>
		<edge from-layer="224" from-port="1" to-layer="228" to-port="1"/>
		<edge from-layer="225" from-port="1" to-layer="228" to-port="2"/>
		<edge from-layer="226" from-port="1" to-layer="228" to-port="3"/>
		<edge from-layer="227" from-port="1" to-layer="228" to-port="4"/>
		<edge from-layer="198" from-port="5" to-layer="230" to-port="0"/>
		<edge from-layer="229" from-port="1" to-layer="230" to-port="1"/>
		<edge from-layer="230" from-port="2" to-layer="232" to-port="0"/>
		<edge from-layer="231" from-port="1" to-layer="232" to-port="1"/>
		<edge from-layer="232" from-port="2" to-layer="234" to-port="0"/>
		<edge from-layer="233" from-port="1" to-layer="234" to-port="1"/>
		<edge from-layer="234" from-port="2" to-layer="236" to-port="0"/>
		<edge from-layer="235" from-port="1" to-layer="236" to-port="1"/>
		<edge from-layer="237" from-port="1" to-layer="242" to-port="0"/>
		<edge from-layer="238" from-port="1" to-layer="242" to-port="1"/>
		<edge from-layer="239" from-port="1" to-layer="242" to-port="2"/>
		<edge from-layer="240" from-port="1" to-layer="242" to-port="3"/>
		<edge from-layer="241" from-port="1" to-layer="242" to-port="4"/>
		<edge from-layer="236" from-port="2" to-layer="243" to-port="0"/>
		<edge from-layer="242" from-port="5" to-layer="243" to-port="1"/>
		<edge from-layer="243" from-port="2" to-layer="245" to-port="0"/>
		<edge from-layer="244" from-port="1" to-layer="245" to-port="1"/>
		<edge from-layer="245" from-port="2" to-layer="250" to-port="0"/>
		<edge from-layer="246" from-port="1" to-layer="250" to-port="1"/>
		<edge from-layer="247" from-port="1" to-layer="250" to-port="2"/>
		<edge from-layer="248" from-port="1" to-layer="250" to-port="3"/>
		<edge from-layer="249" from-port="1" to-layer="250" to-port="4"/>
		<edge from-layer="250" from-port="5" to-layer="252" to-port="0"/>
		<edge from-layer="251" from-port="1" to-layer="252" to-port="1"/>
		<edge from-layer="252" from-port="2" to-layer="254" to-port="0"/>
		<edge from-layer="253" from-port="1" to-layer="254" to-port="1"/>
		<edge from-layer="228" from-port="5" to-layer="255" to-port="0"/>
		<edge from-layer="254" from-port="2" to-layer="255" to-port="1"/>
		<edge from-layer="255" from-port="2" to-layer="260" to-port="0"/>
		<edge from-layer="256" from-port="1" to-layer="260" to-port="1"/>
		<edge from-layer="257" from-port="1" to-layer="260" to-port="2"/>
		<edge from-layer="258" from-port="1" to-layer="260" to-port="3"/>
		<edge from-layer="259" from-port="1" to-layer="260" to-port="4"/>
		<edge from-layer="222" from-port="2" to-layer="261" to-port="0"/>
		<edge from-layer="260" from-port="5" to-layer="261" to-port="1"/>
		<edge from-layer="261" from-port="2" to-layer="263" to-port="0"/>
		<edge from-layer="262" from-port="1" to-layer="263" to-port="1"/>
		<edge from-layer="263" from-port="2" to-layer="265" to-port="0"/>
		<edge from-layer="264" from-port="1" to-layer="265" to-port="1"/>
		<edge from-layer="265" from-port="2" to-layer="266" to-port="0"/>
		<edge from-layer="266" from-port="1" to-layer="271" to-port="0"/>
		<edge from-layer="267" from-port="1" to-layer="271" to-port="1"/>
		<edge from-layer="268" from-port="1" to-layer="271" to-port="2"/>
		<edge from-layer="269" from-port="1" to-layer="271" to-port="3"/>
		<edge from-layer="270" from-port="1" to-layer="271" to-port="4"/>
		<edge from-layer="271" from-port="5" to-layer="273" to-port="0"/>
		<edge from-layer="272" from-port="1" to-layer="273" to-port="1"/>
		<edge from-layer="198" from-port="5" to-layer="275" to-port="0"/>
		<edge from-layer="274" from-port="1" to-layer="275" to-port="1"/>
		<edge from-layer="275" from-port="2" to-layer="277" to-port="0"/>
		<edge from-layer="276" from-port="1" to-layer="277" to-port="1"/>
		<edge from-layer="277" from-port="2" to-layer="279" to-port="0"/>
		<edge from-layer="278" from-port="1" to-layer="279" to-port="1"/>
		<edge from-layer="279" from-port="2" to-layer="281" to-port="0"/>
		<edge from-layer="280" from-port="1" to-layer="281" to-port="1"/>
		<edge from-layer="282" from-port="1" to-layer="287" to-port="0"/>
		<edge from-layer="283" from-port="1" to-layer="287" to-port="1"/>
		<edge from-layer="284" from-port="1" to-layer="287" to-port="2"/>
		<edge from-layer="285" from-port="1" to-layer="287" to-port="3"/>
		<edge from-layer="286" from-port="1" to-layer="287" to-port="4"/>
		<edge from-layer="281" from-port="2" to-layer="288" to-port="0"/>
		<edge from-layer="287" from-port="5" to-layer="288" to-port="1"/>
		<edge from-layer="288" from-port="2" to-layer="290" to-port="0"/>
		<edge from-layer="289" from-port="1" to-layer="290" to-port="1"/>
		<edge from-layer="290" from-port="2" to-layer="295" to-port="0"/>
		<edge from-layer="291" from-port="1" to-layer="295" to-port="1"/>
		<edge from-layer="292" from-port="1" to-layer="295" to-port="2"/>
		<edge from-layer="293" from-port="1" to-layer="295" to-port="3"/>
		<edge from-layer="294" from-port="1" to-layer="295" to-port="4"/>
		<edge from-layer="295" from-port="5" to-layer="297" to-port="0"/>
		<edge from-layer="296" from-port="1" to-layer="297" to-port="1"/>
		<edge from-layer="273" from-port="2" to-layer="298" to-port="0"/>
		<edge from-layer="297" from-port="2" to-layer="298" to-port="1"/>
		<edge from-layer="298" from-port="2" to-layer="300" to-port="0"/>
		<edge from-layer="299" from-port="1" to-layer="300" to-port="1"/>
		<edge from-layer="300" from-port="2" to-layer="303" to-port="0"/>
		<edge from-layer="301" from-port="1" to-layer="303" to-port="1"/>
		<edge from-layer="302" from-port="1" to-layer="303" to-port="2"/>
		<edge from-layer="303" from-port="3" to-layer="308" to-port="0"/>
		<edge from-layer="304" from-port="1" to-layer="308" to-port="1"/>
		<edge from-layer="305" from-port="1" to-layer="308" to-port="2"/>
		<edge from-layer="306" from-port="1" to-layer="308" to-port="3"/>
		<edge from-layer="307" from-port="1" to-layer="308" to-port="4"/>
		<edge from-layer="303" from-port="4" to-layer="313" to-port="0"/>
		<edge from-layer="309" from-port="1" to-layer="313" to-port="1"/>
		<edge from-layer="310" from-port="1" to-layer="313" to-port="2"/>
		<edge from-layer="311" from-port="1" to-layer="313" to-port="3"/>
		<edge from-layer="312" from-port="1" to-layer="313" to-port="4"/>
		<edge from-layer="303" from-port="5" to-layer="318" to-port="0"/>
		<edge from-layer="314" from-port="1" to-layer="318" to-port="1"/>
		<edge from-layer="315" from-port="1" to-layer="318" to-port="2"/>
		<edge from-layer="316" from-port="1" to-layer="318" to-port="3"/>
		<edge from-layer="317" from-port="1" to-layer="318" to-port="4"/>
		<edge from-layer="303" from-port="6" to-layer="323" to-port="0"/>
		<edge from-layer="319" from-port="1" to-layer="323" to-port="1"/>
		<edge from-layer="320" from-port="1" to-layer="323" to-port="2"/>
		<edge from-layer="321" from-port="1" to-layer="323" to-port="3"/>
		<edge from-layer="322" from-port="1" to-layer="323" to-port="4"/>
		<edge from-layer="303" from-port="7" to-layer="328" to-port="0"/>
		<edge from-layer="324" from-port="1" to-layer="328" to-port="1"/>
		<edge from-layer="325" from-port="1" to-layer="328" to-port="2"/>
		<edge from-layer="326" from-port="1" to-layer="328" to-port="3"/>
		<edge from-layer="327" from-port="1" to-layer="328" to-port="4"/>
		<edge from-layer="303" from-port="8" to-layer="333" to-port="0"/>
		<edge from-layer="329" from-port="1" to-layer="333" to-port="1"/>
		<edge from-layer="330" from-port="1" to-layer="333" to-port="2"/>
		<edge from-layer="331" from-port="1" to-layer="333" to-port="3"/>
		<edge from-layer="332" from-port="1" to-layer="333" to-port="4"/>
		<edge from-layer="303" from-port="9" to-layer="338" to-port="0"/>
		<edge from-layer="334" from-port="1" to-layer="338" to-port="1"/>
		<edge from-layer="335" from-port="1" to-layer="338" to-port="2"/>
		<edge from-layer="336" from-port="1" to-layer="338" to-port="3"/>
		<edge from-layer="337" from-port="1" to-layer="338" to-port="4"/>
		<edge from-layer="303" from-port="10" to-layer="343" to-port="0"/>
		<edge from-layer="339" from-port="1" to-layer="343" to-port="1"/>
		<edge from-layer="340" from-port="1" to-layer="343" to-port="2"/>
		<edge from-layer="341" from-port="1" to-layer="343" to-port="3"/>
		<edge from-layer="342" from-port="1" to-layer="343" to-port="4"/>
		<edge from-layer="308" from-port="5" to-layer="344" to-port="0"/>
		<edge from-layer="313" from-port="5" to-layer="344" to-port="1"/>
		<edge from-layer="318" from-port="5" to-layer="344" to-port="2"/>
		<edge from-layer="323" from-port="5" to-layer="344" to-port="3"/>
		<edge from-layer="328" from-port="5" to-layer="344" to-port="4"/>
		<edge from-layer="333" from-port="5" to-layer="344" to-port="5"/>
		<edge from-layer="338" from-port="5" to-layer="344" to-port="6"/>
		<edge from-layer="343" from-port="5" to-layer="344" to-port="7"/>
		<edge from-layer="344" from-port="8" to-layer="345" to-port="0"/>
		<edge from-layer="198" from-port="5" to-layer="345" to-port="1"/>
		<edge from-layer="345" from-port="2" to-layer="350" to-port="0"/>
		<edge from-layer="346" from-port="1" to-layer="350" to-port="1"/>
		<edge from-layer="347" from-port="1" to-layer="350" to-port="2"/>
		<edge from-layer="348" from-port="1" to-layer="350" to-port="3"/>
		<edge from-layer="349" from-port="1" to-layer="350" to-port="4"/>
		<edge from-layer="350" from-port="5" to-layer="352" to-port="0"/>
		<edge from-layer="351" from-port="1" to-layer="352" to-port="1"/>
		<edge from-layer="353" from-port="1" to-layer="358" to-port="0"/>
		<edge from-layer="354" from-port="1" to-layer="358" to-port="1"/>
		<edge from-layer="355" from-port="1" to-layer="358" to-port="2"/>
		<edge from-layer="356" from-port="1" to-layer="358" to-port="3"/>
		<edge from-layer="357" from-port="1" to-layer="358" to-port="4"/>
		<edge from-layer="352" from-port="2" to-layer="359" to-port="0"/>
		<edge from-layer="358" from-port="5" to-layer="359" to-port="1"/>
		<edge from-layer="359" from-port="2" to-layer="361" to-port="0"/>
		<edge from-layer="360" from-port="1" to-layer="361" to-port="1"/>
		<edge from-layer="361" from-port="2" to-layer="362" to-port="0"/>
		<edge from-layer="362" from-port="1" to-layer="367" to-port="0"/>
		<edge from-layer="363" from-port="1" to-layer="367" to-port="1"/>
		<edge from-layer="364" from-port="1" to-layer="367" to-port="2"/>
		<edge from-layer="365" from-port="1" to-layer="367" to-port="3"/>
		<edge from-layer="366" from-port="1" to-layer="367" to-port="4"/>
		<edge from-layer="368" from-port="1" to-layer="373" to-port="0"/>
		<edge from-layer="369" from-port="1" to-layer="373" to-port="1"/>
		<edge from-layer="370" from-port="1" to-layer="373" to-port="2"/>
		<edge from-layer="371" from-port="1" to-layer="373" to-port="3"/>
		<edge from-layer="372" from-port="1" to-layer="373" to-port="4"/>
		<edge from-layer="367" from-port="5" to-layer="374" to-port="0"/>
		<edge from-layer="373" from-port="5" to-layer="374" to-port="1"/>
		<edge from-layer="374" from-port="2" to-layer="376" to-port="0"/>
		<edge from-layer="375" from-port="1" to-layer="376" to-port="1"/>
		<edge from-layer="376" from-port="2" to-layer="381" to-port="0"/>
		<edge from-layer="377" from-port="1" to-layer="381" to-port="1"/>
		<edge from-layer="378" from-port="1" to-layer="381" to-port="2"/>
		<edge from-layer="379" from-port="1" to-layer="381" to-port="3"/>
		<edge from-layer="380" from-port="1" to-layer="381" to-port="4"/>
		<edge from-layer="381" from-port="5" to-layer="383" to-port="0"/>
		<edge from-layer="382" from-port="1" to-layer="383" to-port="1"/>
		<edge from-layer="383" from-port="2" to-layer="384" to-port="0"/>
		<edge from-layer="350" from-port="5" to-layer="384" to-port="1"/>
		<edge from-layer="384" from-port="2" to-layer="389" to-port="0"/>
		<edge from-layer="385" from-port="1" to-layer="389" to-port="1"/>
		<edge from-layer="386" from-port="1" to-layer="389" to-port="2"/>
		<edge from-layer="387" from-port="1" to-layer="389" to-port="3"/>
		<edge from-layer="388" from-port="1" to-layer="389" to-port="4"/>
		<edge from-layer="389" from-port="5" to-layer="391" to-port="0"/>
		<edge from-layer="390" from-port="1" to-layer="391" to-port="1"/>
		<edge from-layer="391" from-port="2" to-layer="393" to-port="0"/>
		<edge from-layer="392" from-port="1" to-layer="393" to-port="1"/>
		<edge from-layer="393" from-port="2" to-layer="395" to-port="0"/>
		<edge from-layer="394" from-port="1" to-layer="395" to-port="1"/>
		<edge from-layer="395" from-port="2" to-layer="397" to-port="0"/>
		<edge from-layer="396" from-port="1" to-layer="397" to-port="1"/>
		<edge from-layer="398" from-port="1" to-layer="403" to-port="0"/>
		<edge from-layer="399" from-port="1" to-layer="403" to-port="1"/>
		<edge from-layer="400" from-port="1" to-layer="403" to-port="2"/>
		<edge from-layer="401" from-port="1" to-layer="403" to-port="3"/>
		<edge from-layer="402" from-port="1" to-layer="403" to-port="4"/>
		<edge from-layer="397" from-port="2" to-layer="404" to-port="0"/>
		<edge from-layer="403" from-port="5" to-layer="404" to-port="1"/>
		<edge from-layer="404" from-port="2" to-layer="406" to-port="0"/>
		<edge from-layer="405" from-port="1" to-layer="406" to-port="1"/>
		<edge from-layer="406" from-port="2" to-layer="411" to-port="0"/>
		<edge from-layer="407" from-port="1" to-layer="411" to-port="1"/>
		<edge from-layer="408" from-port="1" to-layer="411" to-port="2"/>
		<edge from-layer="409" from-port="1" to-layer="411" to-port="3"/>
		<edge from-layer="410" from-port="1" to-layer="411" to-port="4"/>
		<edge from-layer="411" from-port="5" to-layer="413" to-port="0"/>
		<edge from-layer="412" from-port="1" to-layer="413" to-port="1"/>
		<edge from-layer="414" from-port="1" to-layer="419" to-port="0"/>
		<edge from-layer="415" from-port="1" to-layer="419" to-port="1"/>
		<edge from-layer="416" from-port="1" to-layer="419" to-port="2"/>
		<edge from-layer="417" from-port="1" to-layer="419" to-port="3"/>
		<edge from-layer="418" from-port="1" to-layer="419" to-port="4"/>
		<edge from-layer="389" from-port="5" to-layer="421" to-port="0"/>
		<edge from-layer="420" from-port="1" to-layer="421" to-port="1"/>
		<edge from-layer="421" from-port="2" to-layer="423" to-port="0"/>
		<edge from-layer="422" from-port="1" to-layer="423" to-port="1"/>
		<edge from-layer="423" from-port="2" to-layer="425" to-port="0"/>
		<edge from-layer="424" from-port="1" to-layer="425" to-port="1"/>
		<edge from-layer="425" from-port="2" to-layer="427" to-port="0"/>
		<edge from-layer="426" from-port="1" to-layer="427" to-port="1"/>
		<edge from-layer="428" from-port="1" to-layer="433" to-port="0"/>
		<edge from-layer="429" from-port="1" to-layer="433" to-port="1"/>
		<edge from-layer="430" from-port="1" to-layer="433" to-port="2"/>
		<edge from-layer="431" from-port="1" to-layer="433" to-port="3"/>
		<edge from-layer="432" from-port="1" to-layer="433" to-port="4"/>
		<edge from-layer="427" from-port="2" to-layer="434" to-port="0"/>
		<edge from-layer="433" from-port="5" to-layer="434" to-port="1"/>
		<edge from-layer="434" from-port="2" to-layer="436" to-port="0"/>
		<edge from-layer="435" from-port="1" to-layer="436" to-port="1"/>
		<edge from-layer="436" from-port="2" to-layer="441" to-port="0"/>
		<edge from-layer="437" from-port="1" to-layer="441" to-port="1"/>
		<edge from-layer="438" from-port="1" to-layer="441" to-port="2"/>
		<edge from-layer="439" from-port="1" to-layer="441" to-port="3"/>
		<edge from-layer="440" from-port="1" to-layer="441" to-port="4"/>
		<edge from-layer="441" from-port="5" to-layer="443" to-port="0"/>
		<edge from-layer="442" from-port="1" to-layer="443" to-port="1"/>
		<edge from-layer="443" from-port="2" to-layer="445" to-port="0"/>
		<edge from-layer="444" from-port="1" to-layer="445" to-port="1"/>
		<edge from-layer="419" from-port="5" to-layer="446" to-port="0"/>
		<edge from-layer="445" from-port="2" to-layer="446" to-port="1"/>
		<edge from-layer="446" from-port="2" to-layer="451" to-port="0"/>
		<edge from-layer="447" from-port="1" to-layer="451" to-port="1"/>
		<edge from-layer="448" from-port="1" to-layer="451" to-port="2"/>
		<edge from-layer="449" from-port="1" to-layer="451" to-port="3"/>
		<edge from-layer="450" from-port="1" to-layer="451" to-port="4"/>
		<edge from-layer="413" from-port="2" to-layer="452" to-port="0"/>
		<edge from-layer="451" from-port="5" to-layer="452" to-port="1"/>
		<edge from-layer="452" from-port="2" to-layer="454" to-port="0"/>
		<edge from-layer="453" from-port="1" to-layer="454" to-port="1"/>
		<edge from-layer="454" from-port="2" to-layer="456" to-port="0"/>
		<edge from-layer="455" from-port="1" to-layer="456" to-port="1"/>
		<edge from-layer="456" from-port="2" to-layer="457" to-port="0"/>
		<edge from-layer="457" from-port="1" to-layer="462" to-port="0"/>
		<edge from-layer="458" from-port="1" to-layer="462" to-port="1"/>
		<edge from-layer="459" from-port="1" to-layer="462" to-port="2"/>
		<edge from-layer="460" from-port="1" to-layer="462" to-port="3"/>
		<edge from-layer="461" from-port="1" to-layer="462" to-port="4"/>
		<edge from-layer="462" from-port="5" to-layer="464" to-port="0"/>
		<edge from-layer="463" from-port="1" to-layer="464" to-port="1"/>
		<edge from-layer="389" from-port="5" to-layer="466" to-port="0"/>
		<edge from-layer="465" from-port="1" to-layer="466" to-port="1"/>
		<edge from-layer="466" from-port="2" to-layer="468" to-port="0"/>
		<edge from-layer="467" from-port="1" to-layer="468" to-port="1"/>
		<edge from-layer="468" from-port="2" to-layer="470" to-port="0"/>
		<edge from-layer="469" from-port="1" to-layer="470" to-port="1"/>
		<edge from-layer="470" from-port="2" to-layer="472" to-port="0"/>
		<edge from-layer="471" from-port="1" to-layer="472" to-port="1"/>
		<edge from-layer="473" from-port="1" to-layer="478" to-port="0"/>
		<edge from-layer="474" from-port="1" to-layer="478" to-port="1"/>
		<edge from-layer="475" from-port="1" to-layer="478" to-port="2"/>
		<edge from-layer="476" from-port="1" to-layer="478" to-port="3"/>
		<edge from-layer="477" from-port="1" to-layer="478" to-port="4"/>
		<edge from-layer="472" from-port="2" to-layer="479" to-port="0"/>
		<edge from-layer="478" from-port="5" to-layer="479" to-port="1"/>
		<edge from-layer="479" from-port="2" to-layer="481" to-port="0"/>
		<edge from-layer="480" from-port="1" to-layer="481" to-port="1"/>
		<edge from-layer="481" from-port="2" to-layer="486" to-port="0"/>
		<edge from-layer="482" from-port="1" to-layer="486" to-port="1"/>
		<edge from-layer="483" from-port="1" to-layer="486" to-port="2"/>
		<edge from-layer="484" from-port="1" to-layer="486" to-port="3"/>
		<edge from-layer="485" from-port="1" to-layer="486" to-port="4"/>
		<edge from-layer="486" from-port="5" to-layer="488" to-port="0"/>
		<edge from-layer="487" from-port="1" to-layer="488" to-port="1"/>
		<edge from-layer="464" from-port="2" to-layer="489" to-port="0"/>
		<edge from-layer="488" from-port="2" to-layer="489" to-port="1"/>
		<edge from-layer="489" from-port="2" to-layer="491" to-port="0"/>
		<edge from-layer="490" from-port="1" to-layer="491" to-port="1"/>
		<edge from-layer="491" from-port="2" to-layer="494" to-port="0"/>
		<edge from-layer="492" from-port="1" to-layer="494" to-port="1"/>
		<edge from-layer="493" from-port="1" to-layer="494" to-port="2"/>
		<edge from-layer="494" from-port="3" to-layer="499" to-port="0"/>
		<edge from-layer="495" from-port="1" to-layer="499" to-port="1"/>
		<edge from-layer="496" from-port="1" to-layer="499" to-port="2"/>
		<edge from-layer="497" from-port="1" to-layer="499" to-port="3"/>
		<edge from-layer="498" from-port="1" to-layer="499" to-port="4"/>
		<edge from-layer="494" from-port="4" to-layer="504" to-port="0"/>
		<edge from-layer="500" from-port="1" to-layer="504" to-port="1"/>
		<edge from-layer="501" from-port="1" to-layer="504" to-port="2"/>
		<edge from-layer="502" from-port="1" to-layer="504" to-port="3"/>
		<edge from-layer="503" from-port="1" to-layer="504" to-port="4"/>
		<edge from-layer="494" from-port="5" to-layer="509" to-port="0"/>
		<edge from-layer="505" from-port="1" to-layer="509" to-port="1"/>
		<edge from-layer="506" from-port="1" to-layer="509" to-port="2"/>
		<edge from-layer="507" from-port="1" to-layer="509" to-port="3"/>
		<edge from-layer="508" from-port="1" to-layer="509" to-port="4"/>
		<edge from-layer="494" from-port="6" to-layer="514" to-port="0"/>
		<edge from-layer="510" from-port="1" to-layer="514" to-port="1"/>
		<edge from-layer="511" from-port="1" to-layer="514" to-port="2"/>
		<edge from-layer="512" from-port="1" to-layer="514" to-port="3"/>
		<edge from-layer="513" from-port="1" to-layer="514" to-port="4"/>
		<edge from-layer="494" from-port="7" to-layer="519" to-port="0"/>
		<edge from-layer="515" from-port="1" to-layer="519" to-port="1"/>
		<edge from-layer="516" from-port="1" to-layer="519" to-port="2"/>
		<edge from-layer="517" from-port="1" to-layer="519" to-port="3"/>
		<edge from-layer="518" from-port="1" to-layer="519" to-port="4"/>
		<edge from-layer="494" from-port="8" to-layer="524" to-port="0"/>
		<edge from-layer="520" from-port="1" to-layer="524" to-port="1"/>
		<edge from-layer="521" from-port="1" to-layer="524" to-port="2"/>
		<edge from-layer="522" from-port="1" to-layer="524" to-port="3"/>
		<edge from-layer="523" from-port="1" to-layer="524" to-port="4"/>
		<edge from-layer="494" from-port="9" to-layer="529" to-port="0"/>
		<edge from-layer="525" from-port="1" to-layer="529" to-port="1"/>
		<edge from-layer="526" from-port="1" to-layer="529" to-port="2"/>
		<edge from-layer="527" from-port="1" to-layer="529" to-port="3"/>
		<edge from-layer="528" from-port="1" to-layer="529" to-port="4"/>
		<edge from-layer="494" from-port="10" to-layer="534" to-port="0"/>
		<edge from-layer="530" from-port="1" to-layer="534" to-port="1"/>
		<edge from-layer="531" from-port="1" to-layer="534" to-port="2"/>
		<edge from-layer="532" from-port="1" to-layer="534" to-port="3"/>
		<edge from-layer="533" from-port="1" to-layer="534" to-port="4"/>
		<edge from-layer="499" from-port="5" to-layer="535" to-port="0"/>
		<edge from-layer="504" from-port="5" to-layer="535" to-port="1"/>
		<edge from-layer="509" from-port="5" to-layer="535" to-port="2"/>
		<edge from-layer="514" from-port="5" to-layer="535" to-port="3"/>
		<edge from-layer="519" from-port="5" to-layer="535" to-port="4"/>
		<edge from-layer="524" from-port="5" to-layer="535" to-port="5"/>
		<edge from-layer="529" from-port="5" to-layer="535" to-port="6"/>
		<edge from-layer="534" from-port="5" to-layer="535" to-port="7"/>
		<edge from-layer="535" from-port="8" to-layer="536" to-port="0"/>
		<edge from-layer="389" from-port="5" to-layer="536" to-port="1"/>
		<edge from-layer="536" from-port="2" to-layer="541" to-port="0"/>
		<edge from-layer="537" from-port="1" to-layer="541" to-port="1"/>
		<edge from-layer="538" from-port="1" to-layer="541" to-port="2"/>
		<edge from-layer="539" from-port="1" to-layer="541" to-port="3"/>
		<edge from-layer="540" from-port="1" to-layer="541" to-port="4"/>
		<edge from-layer="541" from-port="5" to-layer="543" to-port="0"/>
		<edge from-layer="542" from-port="1" to-layer="543" to-port="1"/>
		<edge from-layer="544" from-port="1" to-layer="549" to-port="0"/>
		<edge from-layer="545" from-port="1" to-layer="549" to-port="1"/>
		<edge from-layer="546" from-port="1" to-layer="549" to-port="2"/>
		<edge from-layer="547" from-port="1" to-layer="549" to-port="3"/>
		<edge from-layer="548" from-port="1" to-layer="549" to-port="4"/>
		<edge from-layer="543" from-port="2" to-layer="550" to-port="0"/>
		<edge from-layer="549" from-port="5" to-layer="550" to-port="1"/>
		<edge from-layer="550" from-port="2" to-layer="552" to-port="0"/>
		<edge from-layer="551" from-port="1" to-layer="552" to-port="1"/>
		<edge from-layer="552" from-port="2" to-layer="553" to-port="0"/>
		<edge from-layer="553" from-port="1" to-layer="558" to-port="0"/>
		<edge from-layer="554" from-port="1" to-layer="558" to-port="1"/>
		<edge from-layer="555" from-port="1" to-layer="558" to-port="2"/>
		<edge from-layer="556" from-port="1" to-layer="558" to-port="3"/>
		<edge from-layer="557" from-port="1" to-layer="558" to-port="4"/>
		<edge from-layer="559" from-port="1" to-layer="564" to-port="0"/>
		<edge from-layer="560" from-port="1" to-layer="564" to-port="1"/>
		<edge from-layer="561" from-port="1" to-layer="564" to-port="2"/>
		<edge from-layer="562" from-port="1" to-layer="564" to-port="3"/>
		<edge from-layer="563" from-port="1" to-layer="564" to-port="4"/>
		<edge from-layer="558" from-port="5" to-layer="565" to-port="0"/>
		<edge from-layer="564" from-port="5" to-layer="565" to-port="1"/>
		<edge from-layer="565" from-port="2" to-layer="567" to-port="0"/>
		<edge from-layer="566" from-port="1" to-layer="567" to-port="1"/>
		<edge from-layer="567" from-port="2" to-layer="572" to-port="0"/>
		<edge from-layer="568" from-port="1" to-layer="572" to-port="1"/>
		<edge from-layer="569" from-port="1" to-layer="572" to-port="2"/>
		<edge from-layer="570" from-port="1" to-layer="572" to-port="3"/>
		<edge from-layer="571" from-port="1" to-layer="572" to-port="4"/>
		<edge from-layer="572" from-port="5" to-layer="574" to-port="0"/>
		<edge from-layer="573" from-port="1" to-layer="574" to-port="1"/>
		<edge from-layer="574" from-port="2" to-layer="575" to-port="0"/>
		<edge from-layer="541" from-port="5" to-layer="575" to-port="1"/>
		<edge from-layer="575" from-port="2" to-layer="580" to-port="0"/>
		<edge from-layer="576" from-port="1" to-layer="580" to-port="1"/>
		<edge from-layer="577" from-port="1" to-layer="580" to-port="2"/>
		<edge from-layer="578" from-port="1" to-layer="580" to-port="3"/>
		<edge from-layer="579" from-port="1" to-layer="580" to-port="4"/>
		<edge from-layer="580" from-port="5" to-layer="582" to-port="0"/>
		<edge from-layer="581" from-port="1" to-layer="582" to-port="1"/>
		<edge from-layer="582" from-port="2" to-layer="584" to-port="0"/>
		<edge from-layer="583" from-port="1" to-layer="584" to-port="1"/>
		<edge from-layer="584" from-port="2" to-layer="586" to-port="0"/>
		<edge from-layer="585" from-port="1" to-layer="586" to-port="1"/>
		<edge from-layer="586" from-port="2" to-layer="588" to-port="0"/>
		<edge from-layer="587" from-port="1" to-layer="588" to-port="1"/>
		<edge from-layer="589" from-port="1" to-layer="594" to-port="0"/>
		<edge from-layer="590" from-port="1" to-layer="594" to-port="1"/>
		<edge from-layer="591" from-port="1" to-layer="594" to-port="2"/>
		<edge from-layer="592" from-port="1" to-layer="594" to-port="3"/>
		<edge from-layer="593" from-port="1" to-layer="594" to-port="4"/>
		<edge from-layer="588" from-port="2" to-layer="595" to-port="0"/>
		<edge from-layer="594" from-port="5" to-layer="595" to-port="1"/>
		<edge from-layer="595" from-port="2" to-layer="597" to-port="0"/>
		<edge from-layer="596" from-port="1" to-layer="597" to-port="1"/>
		<edge from-layer="597" from-port="2" to-layer="602" to-port="0"/>
		<edge from-layer="598" from-port="1" to-layer="602" to-port="1"/>
		<edge from-layer="599" from-port="1" to-layer="602" to-port="2"/>
		<edge from-layer="600" from-port="1" to-layer="602" to-port="3"/>
		<edge from-layer="601" from-port="1" to-layer="602" to-port="4"/>
		<edge from-layer="602" from-port="5" to-layer="604" to-port="0"/>
		<edge from-layer="603" from-port="1" to-layer="604" to-port="1"/>
		<edge from-layer="605" from-port="1" to-layer="610" to-port="0"/>
		<edge from-layer="606" from-port="1" to-layer="610" to-port="1"/>
		<edge from-layer="607" from-port="1" to-layer="610" to-port="2"/>
		<edge from-layer="608" from-port="1" to-layer="610" to-port="3"/>
		<edge from-layer="609" from-port="1" to-layer="610" to-port="4"/>
		<edge from-layer="580" from-port="5" to-layer="612" to-port="0"/>
		<edge from-layer="611" from-port="1" to-layer="612" to-port="1"/>
		<edge from-layer="612" from-port="2" to-layer="614" to-port="0"/>
		<edge from-layer="613" from-port="1" to-layer="614" to-port="1"/>
		<edge from-layer="614" from-port="2" to-layer="616" to-port="0"/>
		<edge from-layer="615" from-port="1" to-layer="616" to-port="1"/>
		<edge from-layer="616" from-port="2" to-layer="618" to-port="0"/>
		<edge from-layer="617" from-port="1" to-layer="618" to-port="1"/>
		<edge from-layer="619" from-port="1" to-layer="624" to-port="0"/>
		<edge from-layer="620" from-port="1" to-layer="624" to-port="1"/>
		<edge from-layer="621" from-port="1" to-layer="624" to-port="2"/>
		<edge from-layer="622" from-port="1" to-layer="624" to-port="3"/>
		<edge from-layer="623" from-port="1" to-layer="624" to-port="4"/>
		<edge from-layer="618" from-port="2" to-layer="625" to-port="0"/>
		<edge from-layer="624" from-port="5" to-layer="625" to-port="1"/>
		<edge from-layer="625" from-port="2" to-layer="627" to-port="0"/>
		<edge from-layer="626" from-port="1" to-layer="627" to-port="1"/>
		<edge from-layer="627" from-port="2" to-layer="632" to-port="0"/>
		<edge from-layer="628" from-port="1" to-layer="632" to-port="1"/>
		<edge from-layer="629" from-port="1" to-layer="632" to-port="2"/>
		<edge from-layer="630" from-port="1" to-layer="632" to-port="3"/>
		<edge from-layer="631" from-port="1" to-layer="632" to-port="4"/>
		<edge from-layer="632" from-port="5" to-layer="634" to-port="0"/>
		<edge from-layer="633" from-port="1" to-layer="634" to-port="1"/>
		<edge from-layer="634" from-port="2" to-layer="636" to-port="0"/>
		<edge from-layer="635" from-port="1" to-layer="636" to-port="1"/>
		<edge from-layer="610" from-port="5" to-layer="637" to-port="0"/>
		<edge from-layer="636" from-port="2" to-layer="637" to-port="1"/>
		<edge from-layer="637" from-port="2" to-layer="642" to-port="0"/>
		<edge from-layer="638" from-port="1" to-layer="642" to-port="1"/>
		<edge from-layer="639" from-port="1" to-layer="642" to-port="2"/>
		<edge from-layer="640" from-port="1" to-layer="642" to-port="3"/>
		<edge from-layer="641" from-port="1" to-layer="642" to-port="4"/>
		<edge from-layer="604" from-port="2" to-layer="643" to-port="0"/>
		<edge from-layer="642" from-port="5" to-layer="643" to-port="1"/>
		<edge from-layer="643" from-port="2" to-layer="645" to-port="0"/>
		<edge from-layer="644" from-port="1" to-layer="645" to-port="1"/>
		<edge from-layer="645" from-port="2" to-layer="647" to-port="0"/>
		<edge from-layer="646" from-port="1" to-layer="647" to-port="1"/>
		<edge from-layer="647" from-port="2" to-layer="648" to-port="0"/>
		<edge from-layer="648" from-port="1" to-layer="653" to-port="0"/>
		<edge from-layer="649" from-port="1" to-layer="653" to-port="1"/>
		<edge from-layer="650" from-port="1" to-layer="653" to-port="2"/>
		<edge from-layer="651" from-port="1" to-layer="653" to-port="3"/>
		<edge from-layer="652" from-port="1" to-layer="653" to-port="4"/>
		<edge from-layer="653" from-port="5" to-layer="655" to-port="0"/>
		<edge from-layer="654" from-port="1" to-layer="655" to-port="1"/>
		<edge from-layer="580" from-port="5" to-layer="657" to-port="0"/>
		<edge from-layer="656" from-port="1" to-layer="657" to-port="1"/>
		<edge from-layer="657" from-port="2" to-layer="659" to-port="0"/>
		<edge from-layer="658" from-port="1" to-layer="659" to-port="1"/>
		<edge from-layer="659" from-port="2" to-layer="661" to-port="0"/>
		<edge from-layer="660" from-port="1" to-layer="661" to-port="1"/>
		<edge from-layer="661" from-port="2" to-layer="663" to-port="0"/>
		<edge from-layer="662" from-port="1" to-layer="663" to-port="1"/>
		<edge from-layer="664" from-port="1" to-layer="669" to-port="0"/>
		<edge from-layer="665" from-port="1" to-layer="669" to-port="1"/>
		<edge from-layer="666" from-port="1" to-layer="669" to-port="2"/>
		<edge from-layer="667" from-port="1" to-layer="669" to-port="3"/>
		<edge from-layer="668" from-port="1" to-layer="669" to-port="4"/>
		<edge from-layer="663" from-port="2" to-layer="670" to-port="0"/>
		<edge from-layer="669" from-port="5" to-layer="670" to-port="1"/>
		<edge from-layer="670" from-port="2" to-layer="672" to-port="0"/>
		<edge from-layer="671" from-port="1" to-layer="672" to-port="1"/>
		<edge from-layer="672" from-port="2" to-layer="677" to-port="0"/>
		<edge from-layer="673" from-port="1" to-layer="677" to-port="1"/>
		<edge from-layer="674" from-port="1" to-layer="677" to-port="2"/>
		<edge from-layer="675" from-port="1" to-layer="677" to-port="3"/>
		<edge from-layer="676" from-port="1" to-layer="677" to-port="4"/>
		<edge from-layer="677" from-port="5" to-layer="679" to-port="0"/>
		<edge from-layer="678" from-port="1" to-layer="679" to-port="1"/>
		<edge from-layer="655" from-port="2" to-layer="680" to-port="0"/>
		<edge from-layer="679" from-port="2" to-layer="680" to-port="1"/>
		<edge from-layer="680" from-port="2" to-layer="682" to-port="0"/>
		<edge from-layer="681" from-port="1" to-layer="682" to-port="1"/>
		<edge from-layer="682" from-port="2" to-layer="685" to-port="0"/>
		<edge from-layer="683" from-port="1" to-layer="685" to-port="1"/>
		<edge from-layer="684" from-port="1" to-layer="685" to-port="2"/>
		<edge from-layer="685" from-port="3" to-layer="690" to-port="0"/>
		<edge from-layer="686" from-port="1" to-layer="690" to-port="1"/>
		<edge from-layer="687" from-port="1" to-layer="690" to-port="2"/>
		<edge from-layer="688" from-port="1" to-layer="690" to-port="3"/>
		<edge from-layer="689" from-port="1" to-layer="690" to-port="4"/>
		<edge from-layer="685" from-port="4" to-layer="695" to-port="0"/>
		<edge from-layer="691" from-port="1" to-layer="695" to-port="1"/>
		<edge from-layer="692" from-port="1" to-layer="695" to-port="2"/>
		<edge from-layer="693" from-port="1" to-layer="695" to-port="3"/>
		<edge from-layer="694" from-port="1" to-layer="695" to-port="4"/>
		<edge from-layer="685" from-port="5" to-layer="700" to-port="0"/>
		<edge from-layer="696" from-port="1" to-layer="700" to-port="1"/>
		<edge from-layer="697" from-port="1" to-layer="700" to-port="2"/>
		<edge from-layer="698" from-port="1" to-layer="700" to-port="3"/>
		<edge from-layer="699" from-port="1" to-layer="700" to-port="4"/>
		<edge from-layer="685" from-port="6" to-layer="705" to-port="0"/>
		<edge from-layer="701" from-port="1" to-layer="705" to-port="1"/>
		<edge from-layer="702" from-port="1" to-layer="705" to-port="2"/>
		<edge from-layer="703" from-port="1" to-layer="705" to-port="3"/>
		<edge from-layer="704" from-port="1" to-layer="705" to-port="4"/>
		<edge from-layer="685" from-port="7" to-layer="710" to-port="0"/>
		<edge from-layer="706" from-port="1" to-layer="710" to-port="1"/>
		<edge from-layer="707" from-port="1" to-layer="710" to-port="2"/>
		<edge from-layer="708" from-port="1" to-layer="710" to-port="3"/>
		<edge from-layer="709" from-port="1" to-layer="710" to-port="4"/>
		<edge from-layer="685" from-port="8" to-layer="715" to-port="0"/>
		<edge from-layer="711" from-port="1" to-layer="715" to-port="1"/>
		<edge from-layer="712" from-port="1" to-layer="715" to-port="2"/>
		<edge from-layer="713" from-port="1" to-layer="715" to-port="3"/>
		<edge from-layer="714" from-port="1" to-layer="715" to-port="4"/>
		<edge from-layer="685" from-port="9" to-layer="720" to-port="0"/>
		<edge from-layer="716" from-port="1" to-layer="720" to-port="1"/>
		<edge from-layer="717" from-port="1" to-layer="720" to-port="2"/>
		<edge from-layer="718" from-port="1" to-layer="720" to-port="3"/>
		<edge from-layer="719" from-port="1" to-layer="720" to-port="4"/>
		<edge from-layer="685" from-port="10" to-layer="725" to-port="0"/>
		<edge from-layer="721" from-port="1" to-layer="725" to-port="1"/>
		<edge from-layer="722" from-port="1" to-layer="725" to-port="2"/>
		<edge from-layer="723" from-port="1" to-layer="725" to-port="3"/>
		<edge from-layer="724" from-port="1" to-layer="725" to-port="4"/>
		<edge from-layer="690" from-port="5" to-layer="726" to-port="0"/>
		<edge from-layer="695" from-port="5" to-layer="726" to-port="1"/>
		<edge from-layer="700" from-port="5" to-layer="726" to-port="2"/>
		<edge from-layer="705" from-port="5" to-layer="726" to-port="3"/>
		<edge from-layer="710" from-port="5" to-layer="726" to-port="4"/>
		<edge from-layer="715" from-port="5" to-layer="726" to-port="5"/>
		<edge from-layer="720" from-port="5" to-layer="726" to-port="6"/>
		<edge from-layer="725" from-port="5" to-layer="726" to-port="7"/>
		<edge from-layer="726" from-port="8" to-layer="727" to-port="0"/>
		<edge from-layer="580" from-port="5" to-layer="727" to-port="1"/>
		<edge from-layer="727" from-port="2" to-layer="732" to-port="0"/>
		<edge from-layer="728" from-port="1" to-layer="732" to-port="1"/>
		<edge from-layer="729" from-port="1" to-layer="732" to-port="2"/>
		<edge from-layer="730" from-port="1" to-layer="732" to-port="3"/>
		<edge from-layer="731" from-port="1" to-layer="732" to-port="4"/>
		<edge from-layer="732" from-port="5" to-layer="734" to-port="0"/>
		<edge from-layer="733" from-port="1" to-layer="734" to-port="1"/>
		<edge from-layer="735" from-port="1" to-layer="740" to-port="0"/>
		<edge from-layer="736" from-port="1" to-layer="740" to-port="1"/>
		<edge from-layer="737" from-port="1" to-layer="740" to-port="2"/>
		<edge from-layer="738" from-port="1" to-layer="740" to-port="3"/>
		<edge from-layer="739" from-port="1" to-layer="740" to-port="4"/>
		<edge from-layer="734" from-port="2" to-layer="741" to-port="0"/>
		<edge from-layer="740" from-port="5" to-layer="741" to-port="1"/>
		<edge from-layer="741" from-port="2" to-layer="743" to-port="0"/>
		<edge from-layer="742" from-port="1" to-layer="743" to-port="1"/>
		<edge from-layer="743" from-port="2" to-layer="744" to-port="0"/>
		<edge from-layer="744" from-port="1" to-layer="749" to-port="0"/>
		<edge from-layer="745" from-port="1" to-layer="749" to-port="1"/>
		<edge from-layer="746" from-port="1" to-layer="749" to-port="2"/>
		<edge from-layer="747" from-port="1" to-layer="749" to-port="3"/>
		<edge from-layer="748" from-port="1" to-layer="749" to-port="4"/>
		<edge from-layer="750" from-port="1" to-layer="755" to-port="0"/>
		<edge from-layer="751" from-port="1" to-layer="755" to-port="1"/>
		<edge from-layer="752" from-port="1" to-layer="755" to-port="2"/>
		<edge from-layer="753" from-port="1" to-layer="755" to-port="3"/>
		<edge from-layer="754" from-port="1" to-layer="755" to-port="4"/>
		<edge from-layer="749" from-port="5" to-layer="756" to-port="0"/>
		<edge from-layer="755" from-port="5" to-layer="756" to-port="1"/>
		<edge from-layer="756" from-port="2" to-layer="758" to-port="0"/>
		<edge from-layer="757" from-port="1" to-layer="758" to-port="1"/>
		<edge from-layer="758" from-port="2" to-layer="763" to-port="0"/>
		<edge from-layer="759" from-port="1" to-layer="763" to-port="1"/>
		<edge from-layer="760" from-port="1" to-layer="763" to-port="2"/>
		<edge from-layer="761" from-port="1" to-layer="763" to-port="3"/>
		<edge from-layer="762" from-port="1" to-layer="763" to-port="4"/>
		<edge from-layer="763" from-port="5" to-layer="765" to-port="0"/>
		<edge from-layer="764" from-port="1" to-layer="765" to-port="1"/>
		<edge from-layer="765" from-port="2" to-layer="766" to-port="0"/>
		<edge from-layer="732" from-port="5" to-layer="766" to-port="1"/>
		<edge from-layer="766" from-port="2" to-layer="771" to-port="0"/>
		<edge from-layer="767" from-port="1" to-layer="771" to-port="1"/>
		<edge from-layer="768" from-port="1" to-layer="771" to-port="2"/>
		<edge from-layer="769" from-port="1" to-layer="771" to-port="3"/>
		<edge from-layer="770" from-port="1" to-layer="771" to-port="4"/>
		<edge from-layer="772" from-port="1" to-layer="777" to-port="0"/>
		<edge from-layer="773" from-port="1" to-layer="777" to-port="1"/>
		<edge from-layer="774" from-port="1" to-layer="777" to-port="2"/>
		<edge from-layer="775" from-port="1" to-layer="777" to-port="3"/>
		<edge from-layer="776" from-port="1" to-layer="777" to-port="4"/>
		<edge from-layer="771" from-port="5" to-layer="778" to-port="0"/>
		<edge from-layer="777" from-port="5" to-layer="778" to-port="1"/>
		<edge from-layer="778" from-port="2" to-layer="780" to-port="0"/>
		<edge from-layer="779" from-port="1" to-layer="780" to-port="1"/>
		<edge from-layer="780" from-port="2" to-layer="785" to-port="0"/>
		<edge from-layer="781" from-port="1" to-layer="785" to-port="1"/>
		<edge from-layer="782" from-port="1" to-layer="785" to-port="2"/>
		<edge from-layer="783" from-port="1" to-layer="785" to-port="3"/>
		<edge from-layer="784" from-port="1" to-layer="785" to-port="4"/>
		<edge from-layer="785" from-port="5" to-layer="787" to-port="0"/>
		<edge from-layer="786" from-port="1" to-layer="787" to-port="1"/>
		<edge from-layer="787" from-port="2" to-layer="788" to-port="0"/>
	</edges>
	<meta_data>
		<MO_version value="unknown version"/>
		<cli_parameters>
			<blobs_as_inputs value="True"/>
			<caffe_parser_path value="DIR"/>
			<data_type value="FP32"/>
			<disable_nhwc_to_nchw value="False"/>
			<disable_omitting_optional value="False"/>
			<disable_resnet_optimization value="False"/>
			<enable_concat_optimization value="False"/>
			<enable_flattening_nested_params value="False"/>
			<enable_ssd_gluoncv value="False"/>
			<extensions value="DIR"/>
			<framework value="onnx"/>
			<freeze_placeholder_with_value value="{}"/>
			<generate_deprecated_IR_V2 value="False"/>
			<generate_deprecated_IR_V7 value="False"/>
			<generate_experimental_IR_V10 value="True"/>
			<input value="0"/>
			<input_model value="DIR/driver_action_recognition_adas_0002_decoder.onnx"/>
			<input_model_is_text value="False"/>
			<input_shape value="[1,16,512]"/>
			<k value="DIR/CustomLayersMapping.xml"/>
			<keep_quantize_ops_in_IR value="True"/>
			<keep_shape_ops value="False"/>
			<legacy_mxnet_model value="False"/>
			<log_level value="ERROR"/>
			<mean_scale_values value="{}"/>
			<mean_values value="()"/>
			<model_name value="driver_action_recognition_adas_0002_decoder"/>
			<move_to_preprocess value="False"/>
			<output value="['804']"/>
			<output_dir value="DIR"/>
			<placeholder_data_types value="{}"/>
			<placeholder_shapes value="{'0': array([  1,  16, 512])}"/>
			<progress value="False"/>
			<remove_memory value="False"/>
			<remove_output_softmax value="False"/>
			<reverse_input_channels value="False"/>
			<save_params_from_nd value="False"/>
			<scale_values value="()"/>
			<silent value="False"/>
			<stream_output value="False"/>
			<unset unset_cli_parameters="batch, counts, disable_fusing, disable_gfusing, finegrain_fusing, input_checkpoint, input_meta_graph, input_proto, input_symbol, mean_file, mean_file_offsets, nd_prefix_name, pretrained_model_name, saved_model_dir, saved_model_tags, scale, tensorboard_logdir, tensorflow_custom_layer_libraries, tensorflow_custom_operations_config_update, tensorflow_object_detection_api_pipeline_config, tensorflow_operation_patterns, tensorflow_subgraph_patterns, tensorflow_use_custom_operations_config, transformations_config"/>
		</cli_parameters>
	</meta_data>
	<quantization_parameters>
		<config>{
		'compression': {
			'target_device': 'CPU',
			'algorithms': [
				{
					'name': 'MinMaxQuantization',
					'params': {
						'stat_subset_size': 300,
						'preset': 'performance'
					}
				}
			]
		},
		'engine': {
			'evaluations': [
				{
					'name': 'driver-action-recognition-adas-0002-encoder',
					'module': 'custom_evaluators.sequential_action_recognition_evaluator.SequentialActionRecognitionEvaluator',
					'module_config': {
						'network_info': {
							'encoder': {},
							'decoder': {
								'num_processing_frames': 16,
								'adapter': 'classification'
							}
						},
						'launchers': [
							{
								'framework': 'dlsdk',
								'tags': [
									'FP32'
								]
							}
						],
						'datasets': [
							{
								'name': 'driver_action_recognition_dataset',
								'data_source': 'PATH',
								'annotation_conversion': {
									'converter': 'driver_action_recognition',
									'annotation_file': 'PATH',
									'data_dir': 'PATH'
								},
								'annotation': 'driver_action_recognition.pickle',
								'dataset_meta': 'driver_action_recognition.json',
								'preprocessing': [
									{
										'type': 'resize',
										'size': 224,
										'aspect_ratio_scale': 'fit_to_window'
									},
									{
										'type': 'crop',
										'size': 224
									}
								],
								'metrics': [
									{
										'type': 'clip_accuracy',
										'presenter': 'print_vector'
									}
								]
							}
						]
					}
				}
			],
			'models': [],
			'stat_requests_number': null,
			'eval_requests_number': null,
			'type': 'accuracy_checker'
		}
	}</config>
		<version value="1.0"/>
		<cli_params value="{'evaluate': True, 'output_dir': './results', 'direct_dump': False, 'log_level': 'INFO', 'pbar': False}"/>
	</quantization_parameters>
</net>
